MyZipTobeUploaded/helpdesk_Neighbour_embedding/EventPredictor_parameters_helpdesk_Binary_0.001_run0_GATTTT.pt (torch, 296183 bytes, 9 tensors)

layer1.bias f4 [9]
0	0x00000000	0.0
1	0x00000000	0.0
2	0x00000000	0.0
3	0x00000000	0.0
4	0x00000000	0.0
5	0x00000000	0.0
6	0x00000000	0.0
7	0x00000000	0.0
8	0x00000000	0.0

layer1.W f4 [4, 2]
0	0x3e0151df	0.12628888
1	0xbe034bab	-0.12821834
2	0xbed00945	-0.40632072
3	0x3f322758	0.69591284
4	0x3facd223	1.3501629
5	0xbea31f3f	-0.31859776
6	0x3fcbabd0	1.5911808
7	0xbf33e554	-0.702718

layer1.a f4 [4, 1]
0	0x3e8cdc96	0.27512044
1	0xbce4c185	-0.027924309
2	0x3e1b7366	0.1518074
3	0x3e6c8137	0.23096167

layer2.0.weight f4 [256, 18]
0	0xbe751a97	-0.23935924
1	0x3daa8fa9	0.08328182
2	0x3e2e51a5	0.17023332
3	0xbd1f78fa	-0.03893373
4	0xbe4eb184	-0.20184904
5	0xbe081fa4	-0.1329332
6	0x3e34f549	0.17671694
7	0x3e849cda	0.25900918
8	0xbe87a5ed	-0.2649378
9	0x3e0c2afa	0.1368827
10	0xbe85ad23	-0.26108655
11	0xbd16c38f	-0.036807593
12	0x3d8c4ff8	0.0685119
13	0x3e3fa792	0.18716267
14	0xbc757d18	-0.014983438
15	0x3e216fd0	0.1576531
16	0xbd80da4e	-0.06291638
17	0x3e4a1e05	0.19738014
18	0x3eac40b2	0.3364311
19	0xbe336423	-0.17518668
20	0xbda03a2a	-0.07823594
21	0xbe916b0d	-0.28401986
22	0xbd94e596	-0.072703525
23	0xbe87cc12	-0.2652288
24	0x3dc0594a	0.093920305
25	0xbef2d67f	-0.47429273
26	0xbd09779b	-0.03356133
27	0x3e1a3098	0.150576
28	0x3d599ab4	0.053126052
29	0xbf138196	-0.5761961
30	0x3cf22d2a	0.029562552
31	0xbe6a5620	-0.22884417
32	0x3dcb5c0d	0.09929667
33	0x3cff82ee	0.031190362
34	0x3e6cf0bb	0.23138706
35	0xbec76f4e	-0.38952106
36	0xbe07b915	-0.13254197
37	0x3de83ac6	0.11339335
38	0xbec83d37	-0.39109203
39	0x3e87e085	0.26538482
40	0xbdc9191d	-0.09819243
41	0xbed5e236	-0.41774148
42	0xbee539b6	-0.44770592
43	0x3eeb7292	0.45985848
44	0xbdab5118	-0.08365077
45	0x3ec67b28	0.38765836
46	0xbe10952f	-0.14119409
47	0x3ec87966	0.3915512
48	0xbbaf9e66	-0.0053594587
49	0x3e768394	0.2407363
50	0xbd17921a	-0.037004568
51	0x3dfb6323	0.12274768
52	0xbe67c93c	-0.22635359
53	0x3df296d0	0.118451715
54	0x3cf1d0ac	0.029518448
55	0xbead83ad	-0.33889523
56	0x3eac3090	0.336308
57	0xbe69183d	-0.22763152
58	0xbcd8b1ca	-0.026451964
59	0xbeaa15be	-0.33219713
60	0x3e6b0829	0.22952332
61	0xbf03ba8b	-0.51456517
62	0x3de37943	0.11107113
63	0xbdef561f	-0.11686348
64	0x3ea25d78	0.31711936
65	0xbe038d0c	-0.12846774
66	0x3e8c72ca	0.27431327
67	0xbec9dced	-0.39426365
68	0xbc916d08	-0.017752185
69	0xbe264065	-0.16235502
70	0x3ef05e48	0.4694693
71	0xbf06c938	-0.52650785
72	0x3def6cff	0.11690711
73	0x3ee5ef46	0.44909114
74	0xbe045ac7	-0.12925254
75	0x3e0f56f4	0.13998014
76	0x3e671d95	0.22569878
77	0x3e5d1dcc	0.21593398
78	0xbceab968	-0.028652862
79	0x3e0a3050	0.13494992
80	0x3eb46970	0.35236692
81	0xbd6099cf	-0.054834183
82	0x3a42f875	0.00074375357
83	0x3f0f112f	0.55885595
84	0xbe10ca92	-0.14139774
85	0x3dd17a2b	0.1022838
86	0xbea05a73	-0.31319007
87	0x3e6598aa	0.22421518
88	0xb997caf0	-0.00028952165
89	0x3e6cc376	0.23121437
90	0x3e8aaad2	0.2708345
91	0xbf1a689a	-0.6031586
92	0xbddc9d20	-0.10772157
93	0xbf5d4e3f	-0.8644752
94	0xbe80dd99	-0.25169066
95	0xbf2a9408	-0.6663213
96	0xbd41bc67	-0.047298815
97	0xbeffb1bd	-0.4994029
98	0x3bd95cfd	0.0066333995
99	0xbefbc410	-0.4917302
100	0xbdd454ec	-0.1036776
101	0xbec45e7c	-0.38353336
102	0xbde80997	-0.11329954
103	0xbefa6a87	-0.489094
104	0x3e61886a	0.22024694
105	0xbf060f9b	-0.5236756
106	0xbd68c3ca	-0.056827344
107	0xbf4576c9	-0.77134377
108	0xbccf81a0	-0.025330365
109	0xbde235e5	-0.11045436
110	0x3ec2231a	0.37917405
111	0xbefe460c	-0.49662817
112	0x3e1128cf	0.14175723
113	0xbeba47a0	-0.3638277
114	0x3e9cc7f0	0.3062129
115	0xbee13948	-0.43989015
116	0x3e630b4e	0.22172281
117	0xbf31159b	-0.6917359
118	0x3e78d3cd	0.24299546
119	0xbe8acf7f	-0.27111432
120	0x3eb49814	0.35272276
121	0xbef1e8e0	-0.47247982
122	0x3e8f9626	0.28044242
123	0xbee0f9d6	-0.4394061
124	0x3ebce1d8	0.36891055
125	0xbf0cba44	-0.5497172
126	0x3d336097	0.043793287
127	0x3eb80a9a	0.35945588
128	0xbe52d552	-0.20589188
129	0x3de00a98	0.109395206
130	0x3c60b3f6	0.013714781
131	0x3e257a63	0.16159968
132	0x3d8f3fa1	0.06994558
133	0x3e4499df	0.19199322
134	0x3d77b9de	0.06047999
135	0x3eebf073	0.46081886
136	0x3e54de78	0.2078799
137	0x3ef4d65a	0.47819787
138	0x3b41e379	0.0029585047
139	0x3eb98269	0.36232308
140	0xbebc1bf3	-0.36740074
141	0x3e5ebd84	0.21751982
142	0x3e4ab152	0.19794205
143	0x3e991349	0.29897526
144	0x3de321ef	0.11090457
145	0x3ef1398d	0.4711422
146	0xbe48d56b	-0.19612662
147	0xbd9063e1	-0.070503004
148	0x3e38c779	0.18044843
149	0xbc9c02f0	-0.01904437
150	0xbd53923b	-0.051653128
151	0x3e9399a0	0.28828144
152	0xbe534222	-0.20630696
153	0x3e9b90bf	0.3038387
154	0xbdf33033	-0.11874428
155	0x3ecb1f85	0.39672485
156	0xbce9e0f1	-0.028549643
157	0xbc09fe21	-0.008422405
158	0xbe2761f4	-0.1634596
159	0x3eaf710b	0.34265932
160	0xbe07de29	-0.13268341
161	0x3eaf7763	0.34270772
162	0x3e36eb83	0.17863278
163	0xbe1b22c4	-0.15149981
164	0x3e09192b	0.13388507
165	0x3e15477c	0.1457805
166	0xbe53af70	-0.20672393
167	0xbf02e4d3	-0.5113041
168	0x3dd9f8bf	0.10643148
169	0xbe5d149a	-0.2158989
170	0x3ad73ec1	0.00164219
171	0xbec90d7f	-0.3926811
172	0xbe56fd1f	-0.20994996
173	0xbea03076	-0.31286973
174	0xbd682e34	-0.056684688
175	0xbe0b3e0e	-0.1359789
176	0x3d86c0a2	0.065797105
177	0xbeea6306	-0.45778674
178	0xbea17e9e	-0.31541914
179	0xbdc5a5ba	-0.096507505
180	0xbd770792	-0.060309954
181	0xbc797ee6	-0.015228009
182	0x3e8b66c2	0.27226835
183	0xbe4db9ca	-0.20090404
184	0x3d372e3c	0.044721827
185	0xbe8431e7	-0.25819322
186	0x3da8b8df	0.08238386
187	0xbdb1bf22	-0.08679034
188	0xbe46a8d7	-0.19400345
189	0x3e568e6d	0.20952769
190	0x3e1e82b0	0.15479541
191	0x3dfe837d	0.12427423
192	0x3df81b44	0.121145755
193	0xbe003e40	-0.12523746
194	0x3eb2c005	0.34912124
195	0xbe88ee65	-0.2674438
196	0xbddf12ed	-0.10892282
197	0x3c47a281	0.01218474
198	0x3e536b95	0.20646508
199	0x3b71994e	0.0036865058
200	0x3da6acc0	0.08138418
201	0x3e1a726e	0.15082714
202	0x3e6f8d0a	0.23393646
203	0xbcadd4e3	-0.021219676
204	0xbda437d6	-0.08018462
205	0x3ea85a0f	0.3288121
206	0xbea6719f	-0.3250856
207	0x3e90f4b6	0.283117
208	0x3e764a75	0.2405184
209	0x3e9eca5a	0.31013757
210	0x3cb42bae	0.021993484
211	0xbd85f279	-0.065403886
212	0xbe381315	-0.17976029
213	0x3e9f2445	0.3108236
214	0x3e60f5ae	0.2196872
215	0x3d62cf85	0.055373687
216	0xbb123095	-0.002230679
217	0x3e81c4ad	0.25345364
218	0xbebb99f3	-0.3664089
219	0x3ecd40cc	0.400885
220	0x3e0e529a	0.13898697
221	0x3e9a0d54	0.30088294
222	0xbe32b195	-0.17450555
223	0x3efe72c4	0.49696934
224	0xbeb1b445	-0.34707847
225	0xbdc77c02	-0.097404495
226	0xbe03d871	-0.12875535
227	0x3f122786	0.5709156
228	0x3d5b7f26	0.053588055
229	0x3efefb5e	0.49801153
230	0xbdbad9a7	-0.09123545
231	0x3e882069	0.26587227
232	0xbdaf3626	-0.0855525
233	0x3ef1c896	0.47223347
234	0x3ca6b705	0.020350942
235	0x3f220060	0.6328182
236	0x3d757af5	0.059931714
237	0x3f0114a9	0.5042215
238	0xbdac2b6b	-0.08406719
239	0x3e431735	0.19051822
240	0xbdca61e5	-0.09881953
241	0x3f4869d1	0.78286463
242	0xbe8c0478	-0.2734716
243	0x3f330788	0.69933367
244	0xbea2968c	-0.31755483
245	0x3f15c625	0.5850547
246	0x3ce505e2	0.027956907
247	0x3f41c0a5	0.7568458
248	0xbde6984d	-0.11259518
249	0x3f1beb56	0.6090597
250	0xbd5745b5	-0.052556712
251	0x3f0e4ee1	0.5558911
252	0x3d1cd346	0.038287424
253	0x3d864763	0.06556585
254	0x3d3d7c5a	0.04626117
255	0x3e88acbf	0.26694295

layer2.0.bias f4 [256]
0	0xbe40862d	-0.18801184
1	0x3f1737a1	0.5906926
2	0x3e82202c	0.2541517
3	0x3e9f8845	0.31158653
4	0xbe580c93	-0.21098547
5	0x3edb92bc	0.42885387
6	0x3dd22bc2	0.102622524
7	0xbef59feb	-0.4797357
8	0x3b5ecdaa	0.0033997097
9	0x3eb3d1f9	0.35121134
10	0xbe86ba6e	-0.2631411
11	0xbf1ca58a	-0.6119009
12	0x3e8644d0	0.26224375
13	0xbeb16d22	-0.34653574
14	0x3e9f74fe	0.31143945
15	0x3ed56825	0.41681018
16	0x3f18ae51	0.59640986
17	0xbec229ba	-0.3792246
18	0xbf1ed4b6	-0.6204332
19	0xbf0801a1	-0.53127486
20	0xbe81554f	-0.25260398
21	0x3e97a673	0.29619178
22	0x3e8854e1	0.26627257
23	0x39e1867c	0.00043015543
24	0xbe9579fa	-0.29194623
25	0xbc891887	-0.016735328
26	0x3eb0d8eb	0.34540495
27	0x3c89d4b7	0.016825063
28	0x3f0a15e9	0.5393968
29	0xbe2133ff	-0.15742491
30	0xbe9d46f9	-0.3071821
31	0x3eda34e6	0.42618483
32	0x3e645d19	0.22301139
33	0xbdd3f7c3	-0.10349991
34	0xbe81f679	-0.25383356
35	0x3ef2771f	0.47356507
36	0xbebd73d1	-0.37002423
37	0xbdf283c5	-0.11841539
38	0xbdaff1f3	-0.0859107
39	0x3ed18249	0.40919712
40	0xbe427175	-0.18988593
41	0xbe2fe036	-0.17175373
42	0xbe08ff84	-0.13378721
43	0x3ea8c160	0.32960033
44	0xbecfa88e	-0.40558285
45	0xbf2480e3	-0.64259166
46	0xbe36265e	-0.17788073
47	0x3aa812f8	0.0012823036
48	0x3e49e842	0.19717506
49	0xbd55560a	-0.052084006
50	0xbddc8f86	-0.107695624
51	0x3d75a0e8	0.059967905
52	0xbdc9ac61	-0.09847332
53	0xbf694c02	-0.91131604
54	0xbeda57f9	-0.42645243
55	0xbcd2373f	-0.025661109
56	0x3c2e5ea0	0.010642678
57	0x3e023da6	0.1271883
58	0x3c8d188e	0.017223623
59	0xbeb126e4	-0.34599984
60	0x3e9da6e2	0.30791384
61	0xbe0b14ad	-0.13582106
62	0x3e909b85	0.28243652
63	0x3ea53d93	0.3227354
64	0xbcd059e2	-0.025433484
65	0xbf189e42	-0.5961648
66	0x3e03ec69	0.12883152
67	0xbf22f7bc	-0.6365926
68	0x3949d077	0.00019246513
69	0xbe999f3e	-0.30004305
70	0xbe1b0bf8	-0.15141284
71	0xbe0e4942	-0.13895133
72	0xbe00a2a5	-0.12562044
73	0xbe7e83a4	-0.24854904
74	0xbf436223	-0.7632162
75	0x3e112134	0.14172822
76	0xbf15ec2e	-0.58563507
77	0xbdc74a75	-0.097309984
78	0x3e8c7d53	0.27439365
79	0xbe0fe335	-0.14051516
80	0x3f126db5	0.5719865
81	0x3eb89f7a	0.3605917
82	0x3e84df1c	0.2595147
83	0xbdc0220b	-0.09381493
84	0x3ee651d6	0.4498431
85	0x3cbc34f6	0.022974472
86	0x3dd5ca0d	0.10438929
87	0x3d3a2ca3	0.045452725
88	0xbf3327a6	-0.69982374
89	0xbd595d19	-0.0530673
90	0xbf3c1f00	-0.734848
91	0xbdbb6e92	-0.09151949
92	0x3e9de761	0.3084059
93	0x3d9df971	0.07713593
94	0x3f0acdaa	0.5422007
95	0xbebba72e	-0.36650985
96	0x3f8f95b7	1.1217564
97	0x3ed3521e	0.41273588
98	0xbe43271e	-0.19057891
99	0x3e8a1347	0.26967832
100	0xbc6ea65c	-0.01456603
101	0x3c702688	0.014657624
102	0xbe4a9acd	-0.19785614
103	0xbe3a1d4d	-0.1817524
104	0xbf13b9aa	-0.57705176
105	0xbcc34935	-0.023838619
106	0x3e878221	0.26466468
107	0xbef19e20	-0.47190952
108	0x3ea3b734	0.3197571
109	0xbec6a098	-0.38794398
110	0x3e2ebb66	0.17063674
111	0xbdee1806	-0.11625676
112	0xbf440b0b	-0.7657935
113	0xbe4a67b4	-0.19766122
114	0xbf1ad75a	-0.6048485
115	0xbd2fd777	-0.042930093
116	0xbe25b0b2	-0.16180685
117	0x3cccaf46	0.02498592
118	0xbe92702f	-0.28601214
119	0xbe5d5124	-0.21612984
120	0xbe024e2d	-0.12725134
121	0xbe112f26	-0.14178142
122	0xbedd4cda	-0.43222696
123	0x3dba7996	0.09105222
124	0xbdb28bf6	-0.08718102
125	0x3e60d86a	0.21957555
126	0x3df950db	0.12173625
127	0xbe2d4448	-0.16920578
128	0xbf0677b3	-0.52526397
129	0x3dcfb6da	0.10142298
130	0xbf4e3435	-0.8054841
131	0x3e7348cc	0.23758239
132	0xbef25f2f	-0.47338244
133	0x3ed71d68	0.42014623
134	0xbed72f8b	-0.4202846
135	0x3f8c2ef2	1.0951827
136	0xbe84f60f	-0.25968978
137	0x3edaedcb	0.42759547
138	0x3f58c63e	0.84677494
139	0x3f4847b9	0.7823444
140	0x3d89f84a	0.067368105
141	0x3f237013	0.63842887
142	0xbed234b7	-0.41055843
143	0xbea63f11	-0.3246999
144	0xbe9f0269	-0.31056526
145	0x3e518931	0.2046249
146	0x3e966330	0.2937255
147	0xbec1be8b	-0.37840685
148	0x3f27c689	0.65537316
149	0x3d0e4ea0	0.03474295
150	0x3e9ef534	0.3104645
151	0xbefd0c60	-0.49423504
152	0xbe2ccd9f	-0.16875313
153	0x3eb07e1d	0.34471217
154	0xbe66bfcb	-0.225341
155	0x3e837af8	0.25679755
156	0xbddcd80c	-0.10783395
157	0x3c9bedbc	0.019034259
158	0x3d5f5c87	0.0545316
159	0x3e030e2d	0.12798376
160	0x3ca52cc5	0.02016295
161	0x3d8ff767	0.0702961
162	0x3e9d1ab3	0.30684432
163	0xbed5b725	-0.4174129
164	0xbd1d1aa4	-0.038355485
165	0x3ed0cda7	0.407819
166	0x3df23c33	0.11827888
167	0x3d7bb529	0.061452065
168	0xbf004476	-0.50104463
169	0xbd3a76e9	-0.045523558
170	0x3ee0f894	0.4393965
171	0xbf28dc8c	-0.6596153
172	0x3eb0cc01	0.34530643
173	0x3e8e07c3	0.27740297
174	0xbec5636d	-0.38552418
175	0x3db7c600	0.089733124
176	0xbe9f2a1b	-0.3108681
177	0xbf3d652f	-0.7398252
178	0x3cdf491c	0.027256541
179	0x3e83720f	0.25672957
180	0x3d0d065f	0.034429904
181	0x3f299c4e	0.6625413
182	0xbdc8fbac	-0.098136276
183	0x3f05b345	0.5222667
184	0x3f7619de	0.9613322
185	0x3e8b305a	0.27185327
186	0xbf2b8753	-0.67003363
187	0xbe84d67b	-0.25944886
188	0x3c448ce4	0.011996482
189	0x3dba16c5	0.09086374
190	0xbe278ae9	-0.16361584
191	0xbee7e0f0	-0.452888
192	0x3eb4096c	0.35163438
193	0xbd6979e2	-0.057001002
194	0xbe97c528	-0.29642606
195	0x3e30e446	0.1727458
196	0x3c8bd006	0.017066967
197	0xbdc30a20	-0.095234156
198	0xbee9a9bf	-0.45637318
199	0x3e467dc8	0.19383919
200	0xbec5cac2	-0.38631254
201	0xbe36fcf0	-0.17869925
202	0xbe259d1f	-0.16173218
203	0x3e5efa3e	0.21775147
204	0x3db76c83	0.08956244
205	0x3db5898c	0.088641256
206	0xbebe8d07	-0.3721697
207	0xbe65392a	-0.22385088
208	0xbdb873b5	-0.09006444
209	0x3e178779	0.14797772
210	0x3e4a4ad5	0.19755109
211	0x3edef684	0.43547451
212	0xbf286fd0	-0.6579561
213	0xbe239450	-0.15974545
214	0xbe45c74d	-0.19314308
215	0x3d6f6ea1	0.058455113
216	0x3ed97f09	0.42479733
217	0x3e6cf059	0.2313856
218	0x3e8d5c41	0.27609447
219	0xbec202b4	-0.37892687
220	0x3f033bf3	0.5126335
221	0x3dbcb954	0.09215036
222	0xbf0a1a49	-0.5394636
223	0xbdc86b7e	-0.097861275
224	0x3eb2f303	0.34951028
225	0xbef589f3	-0.4795681
226	0x3d3c4257	0.045961704
227	0xbd94aa38	-0.07259029
228	0xbe9bcec6	-0.30431193
229	0x3e84f8d9	0.25971106
230	0x3e29d03c	0.16583341
231	0xbf6f3255	-0.93436176
232	0xbe68c2ef	-0.22730611
233	0xbc903431	-0.017603012
234	0x3e8cf352	0.2752939
235	0xbeb20f8c	-0.34777486
236	0x3e912f05	0.28356186
237	0x3f401d32	0.7504455
238	0xbe545042	-0.20733741
239	0xbba2fe4c	-0.004974162
240	0xbf49ee62	-0.7887937
241	0x3d337677	0.04381415
242	0x3f3cf194	0.7380612
243	0x3db94851	0.090469964
244	0xbde34a26	-0.11098127
245	0xbdac4689	-0.08411891
246	0x3e936e36	0.28795022
247	0x3f11727c	0.56815314
248	0x3eab3e3d	0.33445922
249	0xbd9ba498	-0.07599753
250	0x3ed969bd	0.42463484
251	0x3f09d52b	0.53840894
252	0xbeb246bf	-0.348196
253	0x3deee33e	0.11664437
254	0x3ed11c3a	0.40841848
255	0x3f052d1c	0.52021956

layer2.2.weight f4 [256, 256]
0	0x3e47efde	0.19525096
1	0xbeecd7e0	-0.4625845
2	0xbe8037b7	-0.25042507
3	0x3ded128e	0.11575805
4	0xbeab3325	-0.33437458
5	0x3e755d2b	0.23961322
6	0x3e149788	0.1451093
7	0xba8cac71	-0.0010732544
8	0xbdc5d9c7	-0.09660678
9	0x3ecd4f42	0.4009953
10	0xbeac47c8	-0.33648515
11	0xbef0039b	-0.4687775
12	0xbed9fdd1	-0.4257646
13	0xbed6ef3d	-0.419794
14	0x3d1066f4	0.035254434
15	0xbd193750	-0.037406266
16	0xbe87cbe8	-0.26522756
17	0x3eaf263a	0.34208852
18	0x3c9687b1	0.01837525
19	0x3ef33fa5	0.47509494
20	0x3c8c8994	0.017155446
21	0x3eb0ce3a	0.34532338
22	0x3e08d593	0.13362722
23	0x3e0d4db4	0.13799173
24	0xbe4c519f	-0.19953011
25	0x3ecac284	0.3960153
26	0xbdef4175	-0.11682407
27	0x3e35c980	0.17752647
28	0xbf1bd629	-0.6087366
29	0xbcf196b5	-0.029490808
30	0xbeaa992a	-0.3331998
31	0xbe1281bc	-0.14307302
32	0x3f28fa32	0.6600677
33	0x3f1fb5fc	0.6238706
34	0xbf09f6cb	-0.538922
35	0xbee37df4	-0.44432032
36	0xbf090608	-0.5352483
37	0xbe6ae7c4	-0.22939974
38	0xbef8764f	-0.48527762
39	0xbf0c7790	-0.5486994
40	0xbe3307a1	-0.17483379
41	0xbf0b96a8	-0.5452676
42	0x3e9498b6	0.2902276
43	0x3e0c7447	0.13716231
44	0xbf67ffcd	-0.90624696
45	0x3f05b39b	0.5222718
46	0xbed08913	-0.4072958
47	0xbe7a3169	-0.24432911
48	0x3f5c6dba	0.8610493
49	0xbf140850	-0.57825184
50	0xbf3fa908	-0.74867296
51	0xbecde07f	-0.4021034
52	0xbd7845e8	-0.060613543
53	0x3e8ed1a1	0.2789431
54	0x3eae3e70	0.3403201
55	0x3e600636	0.2187737
56	0x3e49e314	0.1971553
57	0x3e54177d	0.20712085
58	0xbf24964c	-0.64291835
59	0xbe9f26ba	-0.31084234
60	0xbda516dd	-0.080610014
61	0xbf2c4b89	-0.6730276
62	0xbf17afa0	-0.5925236
63	0x3dcd4deb	0.10024627
64	0x3c5fb878	0.013654821
65	0x3edf8cc0	0.4366207
66	0x3ef1a551	0.4719644
67	0x3f189942	0.5960885
68	0x3e6a717c	0.22894853
69	0xbdbfb959	-0.09361524
70	0x3ecbea4c	0.39827192
71	0xbee862d7	-0.4538791
72	0xbdcc6e32	-0.099819556
73	0xbe4897ce	-0.19589159
74	0x3e03f44b	0.12886159
75	0x3df7fb62	0.12108494
76	0x3e895623	0.2682353
77	0x3eabecc3	0.33579072
78	0xbeb8105a	-0.35949975
79	0x3e5544b7	0.20826994
80	0xbd3fdbdc	-0.046840534
81	0x3f2e8680	0.6817398
82	0xbe24a297	-0.16077648
83	0xbd657340	-0.056018114
84	0xbe792d79	-0.24333753
85	0xbf326578	-0.6968608
86	0xbe0458f1	-0.12924553
87	0x3e95e7e9	0.29278496
88	0x3dec2a02	0.1153145
89	0xbe47dc39	-0.19517602
90	0x3e37cd31	0.17949368
91	0xbd1755dc	-0.036947116
92	0xbead29c8	-0.3382094
93	0xbea24f3f	-0.31701085
94	0x3ebef5b6	0.37296838
95	0xbe8fb408	-0.2806704
96	0x3d3b17c6	0.04567697
97	0xbf1955ff	-0.59896845
98	0x3d95b4ae	0.073098525
99	0xbf3a0b31	-0.72673327
100	0xbe4ca2a6	-0.1998392
101	0xbf016d9e	-0.5055789
102	0xba080d00	-0.00051899254
103	0xbf4029e2	-0.7506391
104	0xbd5f793e	-0.054558985
105	0x3f61cfa3	0.88207453
106	0xbec9864a	-0.39360267
107	0xbee989a4	-0.45612824
108	0x3ea08668	0.31352544
109	0xbea28462	-0.31741625
110	0xbe9fda8b	-0.31221423
111	0x3f2c16d2	0.6722232
112	0xbda1911f	-0.07889008
113	0xbe1f73c6	-0.15571508
114	0x3e780b04	0.24222952
115	0x3e13d80c	0.14437884
116	0xbda80b3a	-0.08205266
117	0xbcd8c5ff	-0.0264616
118	0x3f2b76a1	0.6697789
119	0x3ef2bb50	0.47408533
120	0xbeb9f570	-0.36320066
121	0xbee67f66	-0.45019072
122	0x3e8c97b6	0.27459496
123	0xbf253b54	-0.6454365
124	0x3f1a1e2b	0.6020228
125	0x3dec9c0b	0.115532
126	0xbf8051d3	-1.0024971
127	0x3ef611a5	0.48060337
128	0xbf540703	-0.828232
129	0x3f147f3a	0.5800663
130	0x3edcb642	0.43107802
131	0xbde69dd3	-0.11260571
132	0xbf0a1294	-0.539346
133	0xbf2bb33c	-0.67070365
134	0xbed1971e	-0.40935606
135	0x3ed855fe	0.42253107
136	0xbf133e72	-0.5751716
137	0x3e56f9ef	0.2099378
138	0x3e5b1c63	0.21397547
139	0x3ee0b644	0.43889058
140	0x3ed0d34d	0.4078621
141	0x3f0348f9	0.5128322
142	0x3d3b86e9	0.045782957
143	0xbf25db0a	-0.6478735
144	0xbd8bb63a	-0.06821866
145	0x3d18d864	0.03731574
146	0xbe4c7bd3	-0.1996911
147	0x3e19bbef	0.15013097
148	0xbf1ffb9f	-0.6249332
149	0xbd704dbe	-0.05866789
150	0x3e84736a	0.25869304
151	0xbe32783e	-0.17428681
152	0x3ef74355	0.48293558
153	0x3d5fafda	0.054611064
154	0xbec24cf0	-0.37949324
155	0x3f847603	1.0348514
156	0xbe8231ec	-0.25428712
157	0x3e5b6a9b	0.21427386
158	0xbec8957b	-0.39176545
159	0xbe509fa7	-0.20373403
160	0x3e501d88	0.20323765
161	0xbec19ad2	-0.3781343
162	0x3e2b05af	0.16701387
163	0xbe383dae	-0.17992279
164	0x3f485944	0.7826121
165	0xbe47de8d	-0.1951849
166	0x3cf22ac8	0.029561415
167	0xbf084284	-0.53226495
168	0x3ea68dd4	0.3253008
169	0xbe3dc2b9	-0.18531312
170	0x3f21056e	0.6289891
171	0x3ec80d88	0.39072824
172	0xbdee74b1	-0.11643351
173	0x3db5a73b	0.08869787
174	0xbeb5aadd	-0.3548192
175	0xbed53338	-0.4164064
176	0x3ec4e4fa	0.38455945
177	0x3e273574	0.16328984
178	0x3ec9f366	0.3944351
179	0x3c36fb56	0.011168322
180	0xbe4d3172	-0.20038393
181	0x3e12884e	0.14309809
182	0xbcad8900	-0.02118349
183	0x3eaa8394	0.3330351
184	0xbe3ebaa6	-0.18625888
185	0x3f125786	0.571648
186	0x3dd96148	0.10614258
187	0xbd9ec42d	-0.07752261
188	0x3ee6063d	0.44926634
189	0xbe7168e9	-0.23575176
190	0xbe54b2cf	-0.20771335
191	0xbd44f0ca	-0.048081197
192	0xbf23ff6e	-0.6406163
193	0x3f45af16	0.77220285
194	0x3f0e8ff1	0.5568839
195	0x3ec30012	0.3808599
196	0xbf11668e	-0.5679711
197	0x3f224739	0.6338993
198	0x3e3f786c	0.18698281
199	0x3f5e2956	0.86781824
200	0x3ea35705	0.31902328
201	0x3ec55af9	0.3854597
202	0x3eaccf08	0.33751702
203	0x3e3ff759	0.187467
204	0x3ee8a4e2	0.45438296
205	0x3d0ff5b8	0.035146445
206	0xbe053d5c	-0.13011688
207	0xbec0efdb	-0.37682995
208	0x3d32124e	0.043474488
209	0x3ee9a288	0.45631814
210	0x3ebfcefa	0.37462598
211	0xbedee27a	-0.43532163
212	0xbc44fff5	-0.012023916
213	0xbe8ea67d	-0.27861395
214	0x3f144eaf	0.5793256
215	0x3e1c6083	0.15271191
216	0x3e8603eb	0.26174864
217	0x3e92eb58	0.28695178
218	0x3e37e18a	0.1795713
219	0x3dd00493	0.101571225
220	0x3f461498	0.77375174
221	0xbeb464cb	-0.3523315
222	0xbcb2f8cb	-0.02184715
223	0x3e18efcf	0.1493523
224	0xbec883fc	-0.39163196
225	0x3efb05df	0.49027917
226	0xbeccaff7	-0.39978
227	0x3e96a797	0.29424736
228	0x3d56a850	0.05240661
229	0x3edd985c	0.43280303
230	0x3e4b008f	0.19824432
231	0xbe3c0b35	-0.1836365
232	0xbedd7b12	-0.43257958
233	0xbf68b00a	-0.90893614
234	0x3de645f3	0.112438105
235	0x3eb7c2d4	0.3589083
236	0x3d8662b6	0.06561796
237	0xbd2faaca	-0.042887487
238	0xbe23c227	-0.15992032
239	0x3ec063aa	0.37576038
240	0x3e0f3ee7	0.13988839
241	0xbee9942e	-0.45620865
242	0xbc8856cf	-0.016642956
243	0x3f191af7	0.5980677
244	0x3f17b01e	0.5925311
245	0xbee8d1d4	-0.45472586
246	0x3d9d6c87	0.076867156
247	0xbeabe29e	-0.33571333
248	0xbca7afb3	-0.020469522
249	0xbd5919e0	-0.053003192
250	0x3ec0710f	0.37586257
251	0xbdaca3f4	-0.08429709
252	0x3f33da38	0.7025485
253	0x3e1d4571	0.15358521
254	0x3e914f5c	0.2838086
255	0xbf1098f8	-0.5648341

layer2.2.bias f4 [256]
0	0xbf8ca525	-1.0987898
1	0x3e3747bc	0.17898458
2	0xbf185947	-0.59511226
3	0xbf33bafa	-0.7020718
4	0x3f970f46	1.1801536
5	0x3f8e763c	1.1129832
6	0xbe4cc53e	-0.19997117
7	0x3e90ad58	0.2825725
8	0xbe3efe71	-0.18651749
9	0x3edf6afc	0.4363631
10	0xbf8896e5	-1.0671049
11	0xbf2cd001	-0.6750489
12	0xbf96c6e3	-1.1779445
13	0x3f1b2ac9	0.6061216
14	0x3ea296a6	0.3175556
15	0x3d1a649c	0.037693605
16	0x3fbebf9d	1.4902226
17	0xbccfd865	-0.02537174
18	0x3f1d0827	0.61340564
19	0xbf26aae7	-0.65104526
20	0x3e6439ff	0.22287749
21	0xbd8356a6	-0.06413011
22	0x3f8801e6	1.0625579
23	0xbf5b7749	-0.8572889
24	0x3f161f9a	0.5864197
25	0xbd88ddfc	-0.06682965
26	0xbf124d41	-0.5714913
27	0xbf57827d	-0.84183484
28	0x3eef9855	0.46795908
29	0xbe45769f	-0.19283532
30	0xbf4a3107	-0.7898106
31	0x3e283006	0.1642457
32	0xbebd1dfb	-0.36936936
33	0x3f523698	0.82114553
34	0xbcfec1f6	-0.031098347
35	0x3dc46bc4	0.09590867
36	0xbf155225	-0.5832847
37	0xbf54e215	-0.83157474
38	0xbf0dbea1	-0.55369
39	0xbe4651f3	-0.19367199
40	0x3f504eca	0.8137022
41	0x3ec40a20	0.38288975
42	0xbed01b27	-0.40645716
43	0x3f0621ab	0.52395123
44	0x3f61c7dd	0.8819559
45	0x3e1e952b	0.1548659
46	0xbeb30c40	-0.34970284
47	0xbf7ce5b0	-0.98787975
48	0x3ef44738	0.47710586
49	0xbede62d8	-0.43434787
50	0xbd7fe3f6	-0.06247326
51	0xbee733fb	-0.45156845
52	0xbf0b2c77	-0.5436472
53	0x3f06b835	0.5262483
54	0xbee5abe6	-0.4485771
55	0x3ef5cee9	0.48009422
56	0xbe68affc	-0.22723383
57	0xbedad8f4	-0.42743647
58	0x3f59efc6	0.8513149
59	0x3f41ccb0	0.75702953
60	0xbf5a12b2	-0.85184777
61	0xbefdd6ec	-0.49578035
62	0x3f035408	0.51300097
63	0x3e6a5976	0.22885689
64	0xbcc41c7b	-0.023939362
65	0xbed7b6a9	-0.42131546
66	0x3ceea5d3	0.029131806
67	0xbef2701f	-0.47351167
68	0x3ef0777e	0.46966165
69	0x3da4a611	0.08039487
70	0x3f04e0f6	0.51905763
71	0xbeffd4a6	-0.49966925
72	0x3f0e8553	0.55672187
73	0xbee8fdc3	-0.45506105
74	0xbf43b4bd	-0.7644766
75	0x3f930f4c	1.1489043
76	0xbe140796	-0.14456019
77	0x3c5d45d4	0.013505418
78	0x3ed2e361	0.411891
79	0xbf25f9f5	-0.6483453
80	0xbd6b860d	-0.057500888
81	0xbe4906a5	-0.19631441
82	0x3d6a6a55	0.057230312
83	0xbf41945b	-0.75617
84	0x3ef2a368	0.47390294
85	0xbf581dc1	-0.844204
86	0xbf81ab21	-1.0130349
87	0xbf180818	-0.5938735
88	0xbf70cb89	-0.9406057
89	0xbb6cd35c	-0.0036136722
90	0x3d2e7fac	0.042602226
91	0x3eef22a2	0.4670611
92	0x3e874681	0.26420978
93	0xbe4aa3ef	-0.19789098
94	0xbeed8a8a	-0.4639476
95	0xbf3c4685	-0.73545104
96	0x3e4b30ae	0.19842789
97	0xbded77c7	-0.11595111
98	0x3f82c883	1.0217441
99	0xbe838e3f	-0.25694463
100	0xbe92a8b5	-0.28644338
101	0xbf8a3d3a	-1.0799935
102	0xbc5c70d9	-0.013454639
103	0x3f0e4ce2	0.55586064
104	0xbf4d2c14	-0.8014538
105	0x3f44101f	0.765871
106	0xbf00639e	-0.50152004
107	0xbedf5fde	-0.43627828
108	0xbefa2478	-0.48855948
109	0x3f819135	1.0122439
110	0x3e8d04eb	0.27542815
111	0x3e41671b	0.18886988
112	0x3f6cb2ad	0.9246014
113	0x3e81672d	0.2527403
114	0x3f5bf020	0.85913277
115	0x3dfe347d	0.12412355
116	0x3d354e3a	0.044264056
117	0x3ed52a23	0.4163371
118	0xbf4f53fb	-0.8098752
119	0xbf8aba33	-1.0838073
120	0xbe8628f0	-0.26203108
121	0xbf223be8	-0.6337266
122	0x3df49d24	0.11944035
123	0xbf3999ac	-0.7250011
124	0xbeff21c3	-0.49830446
125	0xbf6db409	-0.92852837
126	0x3f78e488	0.9722371
127	0x3d85ccbd	0.06533191
128	0x3f2a7d14	0.66597104
129	0x3e9b3aba	0.30318242
130	0x3e716e1e	0.23577163
131	0x3f235995	0.63808566
132	0x3ed7f34d	0.4217781
133	0xbcde0413	-0.027101552
134	0x3ecff406	0.40615863
135	0x3f07b764	0.53014207
136	0xbf86f642	-1.0543902
137	0x3d6ff85e	0.05858647
138	0x3f2ad96c	0.6673801
139	0xbe7053c9	-0.23469462
140	0xbe2203ea	-0.15821806
141	0x3ddc30e3	0.10751512
142	0xbf39ee6b	-0.7262942
143	0x3f6af64f	0.9178209
144	0x3e7e57ba	0.24838153
145	0x3f881321	1.0630838
146	0x3e806b4b	0.25081858
147	0x3f6ffa5a	0.9374138
148	0xbf362ad7	-0.7115912
149	0x3d0b61bf	0.034028765
150	0x3f0754c5	0.52863723
151	0xbed5d15f	-0.417613
152	0x3dffc007	0.12487798
153	0x3f2079bb	0.62685746
154	0x3e3f7a79	0.18699063
155	0x3efd0c88	0.49423623
156	0x3f3ef0c1	0.7458611
157	0x3f6e77f5	0.9315179
158	0xbee09558	-0.4386394
159	0x3f1f78cb	0.6229369
160	0x3f865c32	1.0496886
161	0x3f16b4e9	0.58869797
162	0xbd12c166	-0.03582897
163	0x3e8160ec	0.25269258
164	0x3dda8937	0.10670703
165	0x3ecafd17	0.39646217
166	0x3e9d004f	0.30664298
167	0xbee9110a	-0.45520812
168	0xbec0e35e	-0.37673467
169	0x3e429caa	0.19005075
170	0x3ee376dd	0.44426623
171	0xbf5ea2c9	-0.8696714
172	0x3f21d61b	0.63217324
173	0xbfb20346	-1.3907249
174	0x3fa4f983	1.2888645
175	0x3f8b3e0c	1.087831
176	0x3ca27484	0.01983095
177	0xbea2d374	-0.3180195
178	0x3d072f83	0.033004295
179	0xbe76d1c8	-0.24103463
180	0x3ff249b0	1.8928738
181	0x3d03b681	0.03215647
182	0xbe1ff84c	-0.15622061
183	0xbf1f6a49	-0.62271553
184	0xbf8210dc	-1.0161395
185	0x3f5e6a0f	0.8688058
186	0xbf494c21	-0.7863179
187	0xbf241ad7	-0.64103454
188	0xbf45bbd7	-0.77239746
189	0x3e7aacfa	0.24480048
190	0x3f4333f9	0.7625118
191	0xbe8c3231	-0.27382043
192	0xbe793702	-0.2433739
193	0xbeca0c87	-0.39462683
194	0x3c039aa4	0.008032475
195	0xbf088cc0	-0.5333977
196	0xbf91022e	-1.132879
197	0xbfd0fb35	-1.6326662
198	0x3eb5ea80	0.35530472
199	0xbe765291	-0.24054934
200	0x3f270d19	0.6525436
201	0xbe2df687	-0.16988574
202	0x3ef44a83	0.47713098
203	0xbf0cc4b0	-0.5498762
204	0x3d101b95	0.035182554
205	0x3f84ecca	1.0384762
206	0x3eb94ecd	0.36192933
207	0x3f81b707	1.013398
208	0xbec955b8	-0.3932321
209	0x3ed6da9d	0.41963664
210	0x3d19ffa3	0.03759731
211	0xbea50180	-0.32227707
212	0xbf64d541	-0.893879
213	0xbe7fc651	-0.24977995
214	0x3f31fe73	0.69528884
215	0x3e4eff92	0.2021468
216	0x3f390ba0	0.72283363
217	0x3f7552b7	0.9582934
218	0x3fadfa23	1.3591961
219	0x3db0bfdc	0.08630344
220	0x3e0f7baf	0.14012025
221	0x3eb71031	0.3575454
222	0x3e4a29db	0.19742529
223	0x3e79700a	0.24359146
224	0xbf3c9216	-0.7366041
225	0xbe681172	-0.22662905
226	0xbec51c7a	-0.38498288
227	0x3e975f12	0.2956472
228	0x3ecb7641	0.39738658
229	0xbf43ab42	-0.76433194
230	0xbfdc4f16	-1.7211635
231	0xbde748f0	-0.112932086
232	0xbf2caffa	-0.6745602
233	0x3ef4b557	0.477946
234	0x3ec4b620	0.384202
235	0x3f46816c	0.7754123
236	0xbeda73fd	-0.42666617
237	0x3f80a20b	1.0049452
238	0xbf8015b1	-1.000662
239	0x3f1adb28	0.60490656
240	0x3f3e62af	0.7436933
241	0xbf0fc4cc	-0.56159663
242	0x3eb67d4b	0.35642466
243	0xbef5c74a	-0.48003608
244	0x3e0b4e76	0.13604149
245	0xbe6effc1	-0.2333975
246	0x3f63eed5	0.89036304
247	0x3fe3d303	1.7798771
248	0xbe9077fd	-0.28216544
249	0xbdb4f148	-0.08835083
250	0xbeb2c5ca	-0.34916526
251	0xbee5d5f5	-0.448898
252	0x3e4469f7	0.19181047
253	0x3f561668	0.8362794
254	0x3e4d1742	0.20028403
255	0xbfa8ed82	-1.3197482

layer2.4.weight f4 [10, 256]
0	0xbe4ae1b3	-0.1981266
1	0x3db60f54	0.08889642
2	0xbcdabdb2	-0.026701782
3	0x3e960b71	0.29305604
4	0xbc54ad08	-0.012980707
5	0xbeae0ac5	-0.33992592
6	0xbdc391c1	-0.09549285
7	0xbdd73223	-0.1050761
8	0x3c70ad34	0.014689732
9	0x3e1c7e59	0.15282573
10	0xbe22a479	-0.15883054
11	0x3df8ba0a	0.12144859
12	0xbeb41cd1	-0.35178235
13	0xbe7a07a1	-0.24416973
14	0xbeff4751	-0.49859098
15	0xbe492778	-0.19643962
16	0xbed3569d	-0.41277018
17	0x3e21faa7	0.15818273
18	0x3d07ccd6	0.03315433
19	0xbd99105f	-0.07473826
20	0x3dd4d9ae	0.103930816
21	0xbdc45450	-0.09586394
22	0x3ebef175	0.37293592
23	0x3e1b95fb	0.15193932
24	0xbeb65048	-0.35608125
25	0xbec3fe7d	-0.38280097
26	0x3da344b7	0.07972091
27	0x3f262852	0.64905274
28	0xbd7b3e07	-0.06133845
29	0xbd5d86b6	-0.05408355
30	0x3eb01635	0.34391943
31	0xbedfb5f5	-0.4369351
32	0xbd15688a	-0.03647665
33	0xbdd2cd11	-0.102930196
34	0x3ddbb707	0.10728269
35	0xbd6cf692	-0.057852335
36	0x3ec0b2ed	0.3763651
37	0x3e2cf06d	0.1688859
38	0x39e86bf6	0.00044330925
39	0x3e0a37f2	0.13497904
40	0x3ef0d80b	0.47039828
41	0x3e5627c5	0.20913608
42	0xbab6f975	-0.0013959842
43	0x3daebae3	0.085317396
44	0x3e8fb7c5	0.28069893
45	0xbe449835	-0.19198687
46	0xbf6f9d20	-0.9359913
47	0x3d940d82	0.07229139
48	0x3e4c4fb9	0.19952287
49	0xbcb3838f	-0.021913318
50	0xbe0a8ae4	-0.13529545
51	0xbd9dc8ce	-0.07704316
52	0xbdd4b273	-0.10385599
53	0xbc4ad4a6	-0.012379801
54	0x3e51c4bf	0.20485209
55	0xbe3c561c	-0.18392223
56	0xbdc008e7	-0.09376698
57	0xbdd8a4ed	-0.10578332
58	0xbdea7693	-0.114483975
59	0xbdcf98e0	-0.101365805
60	0xbe0d5599	-0.13802184
61	0xbd9a09bb	-0.07521387
62	0x3cd4fd03	0.025999552
63	0x3db53d58	0.08849591
64	0x3d8676d0	0.065656304
65	0xbd7ffa15	-0.062494356
66	0x3db801bb	0.08984705
67	0xbdbd5dac	-0.09246382
68	0xbebbdf0a	-0.36693603
69	0xbe112abc	-0.14176458
70	0x3d9def24	0.07711628
71	0xbe308ff6	-0.17242417
72	0xbcec0b18	-0.028813884
73	0xbecd8dfe	-0.40147394
74	0x3e82883d	0.25494567
75	0xbdafd8ba	-0.08586259
76	0xbd8b39a0	-0.067981005
77	0xbe150bb1	-0.14555241
78	0x3e8c62fa	0.27419263
79	0x3d15c9c0	0.036569357
80	0x3e449bf3	0.19200115
81	0xbe13f180	-0.14447594
82	0xbe32cf01	-0.17461778
83	0x3c9adbaf	0.018903581
84	0x3e8d603f	0.27612492
85	0xbe820a70	-0.25398588
86	0xbdcfaa3f	-0.10139894
87	0xbf9d0b9f	-1.2269171
88	0xbe63dffe	-0.22253415
89	0xbd67f641	-0.05663133
90	0xbdd9620f	-0.10614406
91	0x3e4af7cb	0.19821088
92	0xbcb58040	-0.02215588
93	0xbc92c2c2	-0.017915133
94	0x3d9eede0	0.07760215
95	0xbeacbac9	-0.33736256
96	0xbce3aaa2	-0.027791325
97	0x3e422d95	0.189627
98	0x3d65185f	0.055931445
99	0xbe47366d	-0.19454356
100	0x3e2ca84c	0.16861075
101	0x3dc2b9f8	0.09508127
102	0xbc34b535	-0.011029531
103	0xbee6c35d	-0.45070925
104	0x3d8342ca	0.064092234
105	0xbdda7a76	-0.10667889
106	0x3d400f99	0.046889875
107	0x3e824238	0.25441146
108	0x3be7414a	0.0070573436
109	0x3e93240d	0.28738442
110	0xbcc2c68e	-0.023776319
111	0xbed24d8b	-0.41074786
112	0x3d1df901	0.038567547
113	0x3d6e8678	0.05823371
114	0x3d6ddcdd	0.05807196
115	0xbe293441	-0.1652384
116	0x3e0ac427	0.13551389
117	0xbcc85530	-0.024454683
118	0x3cf3461f	0.029696522
119	0x3cee85da	0.02911656
120	0xbde8d4ab	-0.11368688
121	0x3e8ed12d	0.27893963
122	0x3d6f667f	0.058447357
123	0x3ddf6956	0.10908763
124	0xbe063a21	-0.13108112
125	0x3f80a5d6	1.0050609
126	0x3e49c10f	0.19702552
127	0xbdb47414	-0.08811203
128	0xbf0e3601	-0.55551153
129	0xbd8f57cd	-0.069991685
130	0xbe9ebde0	-0.31004238
131	0x3d6bfcce	0.05761414
132	0x3ee6d3a0	0.45083332
133	0x3d1dbe6d	0.038511682
134	0xbeb471a6	-0.35242957
135	0xbe06e5e1	-0.1317363
136	0x3e806cdb	0.2508305
137	0x3db96e02	0.090541855
138	0x3da9f88d	0.082993604
139	0x3e7cfb12	0.2470515
140	0xbdaee360	-0.08539462
141	0x3da94888	0.08265787
142	0x3e0cf685	0.13765915
143	0x3e125433	0.14289932
144	0xbda6defa	-0.08147998
145	0xbd9d3e29	-0.07677872
146	0x3db7c445	0.08972982
147	0x3e1b4efe	0.15166852
148	0xbe1644bc	-0.14674658
149	0x3d642c9e	0.055706613
150	0xbda33780	-0.0796957
151	0x3e4fabcb	0.20280378
152	0xbde68c8b	-0.11257275
153	0x3d31cb17	0.043406572
154	0xbde78b0f	-0.1130582
155	0x3e16e017	0.14733921
156	0x3d3791d8	0.04481682
157	0xbee4f64f	-0.4471917
158	0x3c01e4ce	0.007928086
159	0x3e6a64cf	0.22890018
160	0xbede3a18	-0.43403697
161	0x3c904551	0.017611178
162	0xbcc76e75	-0.024344662
163	0x3d32712d	0.043564964
164	0x3dc26572	0.094920054
165	0x3e18a20a	0.14905563
166	0x3e204a42	0.15653327
167	0x3e192e5f	0.14959095
168	0xbe7ef45a	-0.248979
169	0xbb28c303	-0.0025751002
170	0x3c8c9cdc	0.01716464
171	0x3e594dff	0.2122116
172	0xbe75738a	-0.23969856
173	0x3ece5a58	0.40303302
174	0xbe9f35f3	-0.31095847
175	0xbf0be2ed	-0.54643136
176	0xbeb0fab6	-0.34566277
177	0xbdaa678a	-0.0832053
178	0xbe8a4c1c	-0.27011192
179	0x3dc9cdfb	0.09853741
180	0x3d205ff4	0.039154008
181	0x3e0e2232	0.13880232
182	0xbd850e87	-0.064969115
183	0x3f175dc2	0.5912744
184	0xbe9afbee	-0.30270332
185	0x3ec03f9a	0.37548524
186	0x3e1aa09f	0.15100335
187	0xbe0da6d5	-0.13833173
188	0xbce82712	-0.028338943
189	0xbd3126b3	-0.043249797
190	0xbe18a7c0	-0.14907742
191	0x3c713013	0.014720934
192	0xbe053a56	-0.13010535
193	0x3e2dbd89	0.16966833
194	0xbe3164ff	-0.17323683
195	0xbdb2b9ed	-0.08726869
196	0x3e8b6274	0.2722355
197	0xbd316ce7	-0.043316748
198	0x3d638d99	0.05555496
199	0xbe1a2e86	-0.1505681
200	0xbe029748	-0.12753022
201	0xbe93d3ca	-0.2887252
202	0x3e0d2975	0.13785346
203	0xbd54711a	-0.051865675
204	0x3d02aca7	0.031902935
205	0xbe484277	-0.19556604
206	0x3d80508c	0.06265363
207	0x3e8d0896	0.27545613
208	0x3f292cbc	0.66083884
209	0x3e5ee442	0.21766761
210	0x3eabbeb1	0.33543923
211	0xbe785eba	-0.24254885
212	0x3f09fba0	0.53899574
213	0x3e3879af	0.18015169
214	0x3c438011	0.011932389
215	0x3d953930	0.07286298
216	0xbe17c26d	-0.14820261
217	0x3d1563d2	0.03647215
218	0x3e677ef3	0.22607021
219	0x3d9eae5c	0.077481
220	0xbd1a8ae3	-0.03773011
221	0x3e7a7b3c	0.24461073
222	0x3dd23554	0.10264078
223	0xbcfa913a	-0.030586828
224	0x3e1e213f	0.1544237
225	0xbc160e55	-0.00915869
226	0x3da85758	0.082197845
227	0x3e5e2948	0.21695435
228	0xbd0a8a87	-0.033823516
229	0xbb6bdc2a	-0.0035989382
230	0xbab87cfa	-0.0014075332
231	0x3e06d3ff	0.13166808
232	0x3e00d23a	0.12580195
233	0x3c0ebf00	0.00871253
234	0xbc0a860b	-0.00845481
235	0xbe540a45	-0.20707043
236	0x3e07841f	0.13233994
237	0xbd4c3ad5	-0.049860794
238	0xbd9aba99	-0.07555122
239	0xbc728943	-0.014803234
240	0x3ebc588a	0.367863
241	0xbd87b09e	-0.06625484
242	0xbe20eb59	-0.15714778
243	0xbe998f52	-0.29992157
244	0xbb32b26b	-0.002726699
245	0xbe900d4e	-0.2813515
246	0xbf0dd015	-0.55395633
247	0x3d2bc996	0.041940294
248	0xbda7ba5c	-0.08189842
249	0xbe6a12c0	-0.22858715
250	0x3e54c53b	0.20778362
251	0x3d14fafd	0.036372174
252	0x3dc4c301	0.096075065
253	0xbdb05e1d	-0.08611701
254	0xbe81f7b0	-0.25384283
255	0xbc3b0675	-0.011415114

layer2.4.bias f4 [10]
0	0xbd53ce15	-0.051710207
1	0xbf997942	-1.199013
2	0xc082dec0	-4.089691
3	0xbfec0b14	-1.8440881
4	0xbfca60ee	-1.581083
5	0x3e908f68	0.2823441
6	0xc0052fd3	-2.081044
7	0x3e9bfb91	0.30465367
8	0xbec436bb	-0.38323006
9	0xbe6b0f47	-0.22955047
