MyZipTobeUploaded/helpdesk_Neighbour_embedding/EventPredictor_parameters_helpdesk_laplacianOnBinary_0.001_run1.pt (torch, 296183 bytes, 9 tensors)

layer1.bias f4 [9]
000000 00 00 00 00 00 00 00 00 00 00 00 00 00 00 00 00
       0.0 0.0 0.0 0.0
000010 00 00 00 00 00 00 00 00 00 00 00 00 00 00 00 00
       0.0 0.0 0.0 0.0
000020 00 00 00 00
       0.0

layer1.W f4 [4, 2]
000000 3a 5d 26 3f 1d 55 6e 3f b1 1b 9a be f3 2e 38 be
       0.64986 0.9309862 -0.30099252 -0.1798666
000010 81 24 71 3d 6d b1 07 3f 30 79 29 be b8 58 36 be
       0.058872703 0.53005105 -0.16550136 -0.17807281

layer1.a f4 [4, 1]
000000 8b 3c a9 3d 8b 16 80 3d 8b 3c a9 3d 8b 16 80 3d
       0.08263501 0.062543 0.08263501 0.062543

layer2.0.weight f4 [256, 18]
000000 07 b1 d5 bd 0d 69 d1 3d 1d ec 00 be 18 88 2f 3c
       -0.10434156 0.10225115 -0.1259007 0.0107136
000010 be a2 25 be b0 c3 47 3e 79 a7 20 3e 24 78 d0 bd
       -0.16175362 0.19508243 0.15688886 -0.10179165
000020 38 3e cf 3d e6 44 70 bd 69 52 7a bd d2 90 b9 3d
       0.10119289 -0.058659457 -0.06111375 0.090608254
000030 7b 75 50 3e d2 c3 f8 3d 0f 61 21 be 2b ff 74 3d
       0.20357315 0.12146725 -0.15759681 0.05981366
000040 42 7f 31 3e f0 b2 76 3e 97 b3 63 be 10 9d 21 bd
       0.17333701 0.24091697 -0.22236477 -0.039456427
000050 04 65 60 be 93 3b e2 bd 5e 87 34 3e 93 06 42 be
       -0.21913534 -0.11046519 0.17629763 -0.1894782
000060 ff 30 2b 3d 4e 1b e8 bc f7 8c 70 3d 75 12 48 be
       0.041794773 -0.028333332 0.058728185 -0.19538291
000070 c8 00 f6 bb b3 85 15 be f9 d4 43 bd cc 83 26 3e
       -0.0075074174 -0.14601783 -0.04781053 0.16261214
000080 db 55 54 3e 9c 5a 29 bc 2e 57 f2 bd 13 5f 80 be
       0.20735876 -0.010336544 -0.118330345 -0.25072536
000090 66 57 49 3e 1a ed 57 3e 0d 83 0c be a7 d7 1f be
       0.19662246 0.21086541 -0.13721867 -0.15609609
0000a0 59 5e 13 be cd a6 30 3e e0 f3 97 3d eb 52 0a be
       -0.1439146 0.1725113 0.07419562 -0.13508193
0000b0 35 0b 10 3d 2e 0f 88 3d c8 27 e1 bd 06 12 1d bd
       0.035166938 0.0664352 -0.10993916 -0.038347267
0000c0 61 7d 07 3e b1 53 98 3d a8 17 3d 3d 3e 9a ff 3d
       0.13231422 0.07437838 0.04616514 0.12480591
0000d0 63 e9 f1 bd e7 53 3d be 32 8c 4e bd b3 5a 2e 3e
       -0.11812093 -0.18489037 -0.05042667 0.17026787
0000e0 39 95 5f be c3 6f 50 bd ef 58 68 3d 5f e8 de bd
       -0.21834268 -0.050887834 0.05672544 -0.10884165
0000f0 a7 d3 8d 3d ff b5 15 3e f0 f5 09 be d5 e0 9f bb
       0.06925135 0.14620207 -0.13472724 -0.004879097
000100 40 7e dc 3d 70 89 66 3e 5f 12 29 3e cb 7d 2f be
       0.10766268 0.22513366 0.16510914 -0.1713783
000110 d5 e1 d2 bd 14 ae b6 bd c2 eb 45 3e 02 d5 f7 bd
       -0.1029698 -0.089199215 0.19328216 -0.12101175
000120 66 5f ee bc c4 37 ec bd 86 27 06 3c 84 36 a0 3d
       -0.029098224 -0.11534074 0.008188134 0.07822898
000130 95 77 01 be 47 e3 04 be b3 85 31 3e 2d 66 20 3c
       -0.12643273 -0.12977324 0.17336158 0.009789986
000140 ba af ef bc d9 c2 30 bd 68 1b 36 bd 5d 9f 34 be
       -0.029258598 -0.04315457 -0.04445973 -0.17638917
000150 f8 cb 60 be 24 d2 fb bc cc fb af 3c 53 52 6b bd
       -0.21952808 -0.030739851 0.02148237 -0.057451557
000160 4d 1d 1b 3e ba 9f 7b be 4c 91 8c 3e f7 02 9b bd
       0.15147896 -0.2457265 0.27454603 -0.07568925
000170 ef 1b a7 bb 9a da 81 3e bf 6c 64 3e 67 45 9c 3d
       -0.0050997655 0.25362092 0.22307108 0.07630425
000180 db e8 f3 bb 3d 30 57 3e b6 f1 85 bd da 90 03 bd
       -0.00744353 0.21014495 -0.06540243 -0.032120563
000190 61 51 e1 bd fc 5e 1b be f8 a7 4a 3e 27 8a 48 3e
       -0.1100185 -0.15172952 0.19790637 0.19583951
0001a0 e8 85 94 3e dd 50 23 be 2b 01 be bd a0 71 08 be
       0.29008412 -0.15948816 -0.092775665 -0.13324594
0001b0 55 e3 4a 3e c5 98 1e be ec 38 35 be 0b 8e 84 bd
       0.19813283 -0.15487964 -0.17697495 -0.06472405
0001c0 57 a4 6a bc 8b 8f b8 3d ed fe 8b bd 5b 6a 84 3c
       -0.014321408 0.09011754 -0.068357326 0.016163995
0001d0 87 71 61 be 61 51 25 3e b1 42 63 3d 00 06 cc bb
       -0.22015963 0.16144325 0.055483524 -0.006226301
0001e0 56 93 84 3d c3 59 50 3e 17 23 2f be 90 e9 25 be
       0.064734146 0.20346741 -0.1710323 -0.16202378
0001f0 b8 9e 03 be 8b 66 2f 3d 0e a0 57 3d a4 a0 16 3e
       -0.12853515 0.042822402 0.052642874 0.14709717
000200 31 38 2e be ea 04 53 bd 2d 40 87 3c ff 56 76 3d
       -0.17013623 -0.05151836 0.016510094 0.06014156
000210 30 6d cd ba 68 f7 0d 3e 46 22 e0 3d 33 80 2c be
       -0.0015672799 0.13863909 0.10944037 -0.16845779
000220 ff 20 a5 3d 98 f9 3d 3e 1a e0 d9 3d 48 80 07 3e
       0.08062934 0.18552244 0.10638447 0.13232529
000230 8c b2 0b be ef 89 74 3c d6 8e cc bd 32 1e a2 3d
       -0.13642329 0.014925464 -0.09988181 0.079159155
000240 61 c3 82 3d 9b 34 be 3d c6 47 d1 3d 38 19 f3 bd
       0.06384922 0.092873774 0.10218768 -0.118700445
000250 49 70 ad ba 4f 73 04 3e 96 8f 61 be 57 11 4c be
       -0.0013232316 0.12934612 -0.2202743 -0.1992849
000260 90 08 46 be b7 b7 76 be 92 ea 04 be 97 88 7a 3d
       -0.19339204 -0.24093519 -0.12980106 0.06116542
000270 90 87 92 be 01 30 44 bd f0 ac 8e bd 0b 8e 6d bc
       -0.2861905 -0.047897343 -0.06966579 -0.014499198
000280 86 5c b8 bd 58 5c 5c be 59 28 90 3d 1b b5 72 be
       -0.090020224 -0.21519601 0.07038946 -0.23701899
000290 5f 53 18 3e c1 21 27 be 19 8a ac bd 96 7c b7 3d
       0.14875554 -0.1632147 -0.084247775 0.0895931
0002a0 a1 99 8d be 3f 1e ff 3d ee e9 b9 bd 67 59 f9 3c
       -0.27656272 0.12456941 -0.09077822 0.030438138
0002b0 f5 cb 21 3e ed a9 67 be 13 a7 18 3e 76 af 0d be
       0.1580046 -0.22623415 0.14907484 -0.13836464
0002c0 c6 80 0e be e6 66 bd 3d 67 3e ab 3d 12 64 f5 3c
       -0.1391631 0.09248142 0.08361512 0.029954944
0002d0 6f 45 23 3d bd 99 4f be 32 7f 69 be f7 84 c8 3d
       0.03986114 -0.2027349 -0.22802427 0.09790986
0002e0 d6 36 c9 3c 8f 0b c5 bd 0c 8f f2 bd ae 0e de bd
       0.02456228 -0.09621345 -0.1184369 -0.10842644
0002f0 2a a1 b0 3c c0 1d 1b 3d 8b 55 dd 3c 51 98 78 be
       0.021561224 0.03787017 0.02701833 -0.24276854
000300 1a 6f e0 3c 22 7a 2d 3d 98 c2 20 3d 7f c2 41 bb
       0.027396727 0.042352803 0.03924808 -0.0029565392
000310 f9 e8 2c 3e 7e 2e 09 bd 4a c5 8a 3e a9 63 92 3e
       0.16885747 -0.033491604 0.27103645 0.2859166
000320 30 6b bd 3d c3 9b a1 bd f8 b0 f0 3d 73 b6 84 3e
       0.0924896 -0.07891037 0.11752504 0.25920448
000330 02 76 8a bc e0 34 94 3d 4f 2c 0e 39 c5 9c f1 bd
       -0.016901974 0.072366476 0.00013558682 -0.117974795
000340 17 16 3c 3e a7 5d 17 be 76 d8 00 bd 2e fb 06 bd
       0.18367802 -0.1478182 -0.031456433 -0.032954387
000350 64 c2 06 3e f1 0f fe bd a2 cc 4b be bb 1a 19 3e
       0.13160092 -0.12405384 -0.1990228 0.14951603
000360 c5 ea 83 be 05 07 01 be 8e be 62 3e 15 fd e2 3d
       -0.25765052 -0.12600334 0.22143003 0.11083428
000370 69 5c 35 bd af d0 a2 3d 7b 33 b1 bd 1b 54 2c be
       -0.044277582 0.079499595 -0.08652397 -0.16828959
000380 a7 21 e7 bd c7 43 1f be 20 3d 6f be ea 5c 0f 3e
       -0.112857156 -0.15553199 -0.23363161 0.14000288
000390 a3 4c a5 3d 12 ac f4 3d 38 17 05 be d2 2b e6 3d
       0.08071258 0.11946882 -0.12997139 0.11238827
0003a0 ca 4c 4f bd da 04 a8 bd f0 75 6c be b8 49 20 be
       -0.05061034 -0.0820405 -0.23091865 -0.15653121
0003b0 76 b8 12 be 6a c3 8a be 13 2a 25 bd 14 87 59 be
       -0.14328179 -0.27102214 -0.04032333 -0.21242934
0003c0 8b 21 1b 3d 96 b7 c2 3d b2 dd 7d be 2f fd 7c be
       0.037873786 0.095076725 -0.24791601 -0.24705957
0003d0 5f 5c 7b 3d db c0 08 be 62 44 83 be bd c4 e1 3b
       0.06136739 -0.13354819 -0.2563811 0.006889908
0003e0 80 41 49 3c e0 fd e1 bc c4 48 fd bd 79 a1 64 be
       0.012283683 -0.027586877 -0.123673946 -0.22327222
0003f0 03 59 b4 3d 3c 7f 83 bc 02 4f 19 3e b5 0f 33 be
       0.0880604 -0.016051881 0.14971545 -0.1748646

layer2.0.bias f4 [256]
000000 42 e9 6a be a0 da 8b be b9 62 29 be 8e 98 43 be
       -0.22940543 -0.27315235 -0.16541566 -0.19101164
000010 b9 ec 42 3e 1e 4f a5 3d 3b 83 54 bd ad 7a 0c bd
       0.19035615 0.08071731 -0.051882964 -0.03429668
000020 28 e3 c4 3c cb 30 d2 3d 6d c9 2c be 5b 45 45 bd
       0.024034098 0.10263213 -0.16873713 -0.048161846
000030 e6 c6 3c be 63 32 9d be 1e 7f 09 be 40 41 87 bd
       -0.18435249 -0.30702505 -0.13427398 -0.06604242
000040 df 88 3d 3e 17 ed 63 bd 89 04 51 be b2 ba b7 bd
       0.18509243 -0.05564603 -0.20411886 -0.08971156
000050 03 02 db bd cd 2d 96 be f2 4b 37 3d 04 14 c3 3d
       -0.10693743 -0.29331818 0.04475016 0.09525302
000060 50 e7 d9 bd 84 c8 68 be 54 d9 5f be 0c 1a 73 be
       -0.106398225 -0.2273274 -0.21860248 -0.23740405
000070 52 51 a7 bd 66 e4 7e 3d 27 39 ca bb 47 83 0c be
       -0.081698075 0.062229536 -0.006171364 -0.13721953
000080 15 98 6a 3d 82 3e 24 be 2c e9 5a 3e 51 0f 30 be
       0.057273943 -0.1603947 0.2137801 -0.17193343
000090 17 77 65 bd e2 8c da bd 8d 26 0d be 12 fa 27 3e
       -0.056021776 -0.106714025 -0.13784237 0.16403988
0000a0 01 5a 34 3e b1 8f fc 3b cf 4c 1f be 83 92 fc bd
       0.17612459 0.007707559 -0.15556644 -0.123326324
0000b0 aa 76 1d 3e 91 09 7c 3e 9a 55 fa 3d b7 4e e7 3d
       0.15377298 0.24613024 0.122233585 0.112943105
0000c0 95 98 3a 3e fe 07 5b 3e 15 c4 c1 bd 5e 13 0e 3d
       0.18222268 0.21389768 -0.09461228 0.03468644
0000d0 74 eb 1a 3c 52 92 ed bc cb 6e 93 bd 09 e6 da bd
       0.00945555 -0.029000435 -0.071988665 -0.10688407
0000e0 ed c4 a4 bd 26 3a ce 3d 7d 6c 8a 3d c0 2b 10 be
       -0.08045373 0.10069685 0.06758974 -0.1407919
0000f0 ac d8 58 3e bd 35 9c 3e b0 f5 20 bc bf 29 a1 bd
       0.21176404 0.3050975 -0.009824201 -0.078692906
000100 fe 79 75 3e e4 bd 8b 3e d1 b0 80 bc 7e f3 de bd
       0.23972318 0.27293313 -0.015709313 -0.10886286
000110 de b7 c2 3c 8f 2c 58 bd 2a 57 18 be cb 53 9c bd
       0.023769315 -0.05277687 -0.14877 -0.0763317
000120 a6 4f 96 3e 94 59 10 3b 50 1f 2c 3e bc 05 80 3c
       0.29357642 0.002202605 0.1680882 0.015627734
000130 0b 81 cb 3c 43 93 0b bd 31 27 63 be bc 2c a8 bd
       0.024841806 -0.034075987 -0.22182919 -0.082116574
000140 d4 51 12 3e 59 e2 54 be 29 87 92 be ce e1 9a 3d
       0.14289027 -0.2078947 -0.28618744 0.075626
000150 56 3c 3b 3d f1 03 4c be cc 6a fc bd b4 91 50 be
       0.045711838 -0.19923379 -0.123250574 -0.20368081
000160 d6 03 7d be c1 38 36 3c 37 db 2c be 9c c1 2e 3e
       -0.24708495 0.01112193 -0.16880499 0.17066044
000170 6c dd 3f 3e 72 e0 cc bc 97 ee 8f 3d a8 1e 0a be
       0.1873681 -0.025009368 0.07027929 -0.13488257
000180 68 7b b4 3d 0f 2b c2 3d 33 12 09 3e d2 b1 96 3e
       0.088126004 0.09480869 0.13385849 0.2943254
000190 ff 05 a9 be 57 13 f3 bd aa 13 41 be f1 e5 e9 3d
       -0.33012387 -0.11868923 -0.18855157 0.11420811
0001a0 6a ec 4d 3c dc 06 ab bd 81 bd 3e 3e de 4d 26 3d
       0.012568573 -0.08350918 0.18626978 0.040601604
0001b0 8e 6b 14 3d 76 b6 4e 3e f5 38 2e be 7a 22 1b 3d
       0.036235385 0.20186791 -0.17013915 0.037874676
0001c0 7d 28 4b 3e a3 42 b7 3d 2f fe 81 3d de c0 9b be
       0.19839664 0.08948257 0.0634731 -0.30420583
0001d0 eb 57 54 be 69 02 1e 3e 0f 40 ab be 1a 2c 2b be
       -0.20736663 0.15430607 -0.3344731 -0.16716042
0001e0 09 a6 42 3e 7a 6d 2d be e2 61 23 3e d2 50 84 bd
       0.1900865 -0.16936293 0.15955308 -0.06460728
0001f0 b5 a7 29 bd 20 f0 f0 3d 84 c9 8b bd 21 95 a7 3d
       -0.041419704 0.1176455 -0.068255454 0.08182741
000200 03 99 54 3e 66 3a 82 3d 67 a2 8d 3d 6e 5d d2 3d
       0.20761494 0.06358795 0.069157414 0.102717265
000210 c8 b8 aa 3d e9 47 f0 3d 2f a8 2a be 86 82 23 be
       0.083360255 0.11732466 -0.1666572 -0.1596776
000220 d0 9c 91 bd 11 23 0e bd 71 e7 49 bd 6d c2 5d 3d
       -0.07109988 -0.03470141 -0.049292985 0.054140497
000230 7b 5d 3c 3e 70 21 c3 bd e4 19 fe 3d 7c 81 bc bd
       0.18395035 -0.09527862 0.12407282 -0.09204385
000240 d1 41 28 3e 6b fc 80 3e 3d 71 99 3d c8 cb 3e be
       0.16431357 0.2519258 0.074923016 -0.18632424
000250 8d 1c 4b be 2c 6b d8 3c 66 e2 b3 3d c1 6c 1f 3d
       -0.1983511 0.026418291 0.087834165 0.038922075
000260 7b 38 f8 bd b9 9f 4e 3c 5b 00 6e bd 92 4c 8a be
       -0.12120148 0.012611323 -0.058105808 -0.27011544
000270 ea 91 e8 bd 80 58 52 be ef 0f 16 3e 76 2c 46 be
       -0.11355956 -0.20541573 0.14654516 -0.19352898
000280 bc c5 17 3e a2 a3 54 3e 49 d7 5a 3e da 6d 48 be
       0.14821523 0.20765546 0.21371187 -0.19573155
000290 5f a1 11 3e 13 17 3b be 84 02 e6 ba 53 af 1e 3e
       0.14221714 -0.18270521 -0.0017548357 0.15496568
0002a0 92 e4 85 be 1b c9 84 be 15 b2 69 3e f8 1b f3 bd
       -0.26150948 -0.2593468 0.22821839 -0.11870569
0002b0 b7 35 0e 3e bd c2 88 3d 14 19 d2 bd dd e6 0e 3e
       0.13887678 0.066777684 -0.102586895 0.13955255
0002c0 02 8a 44 be a0 f8 c0 3d c4 93 85 be 76 0c 01 3d
       -0.19193271 0.094224215 -0.260893 0.031506024
0002d0 af 26 ab 3d 67 65 c1 3d d3 cc 67 3d dc 24 81 be
       0.08356988 0.09443169 0.05659182 -0.25223434
0002e0 ad 56 62 be 75 29 c8 bc e6 04 2a be 58 d0 1d 3e
       -0.22103377 -0.02443383 -0.16603431 0.15411508
0002f0 46 8a 14 bd 03 c6 00 be 16 3a 7c be e9 6e 18 3e
       -0.03626468 -0.12575535 -0.24631533 0.14886059
000300 63 f1 3e 3e d8 16 53 bd 0f 0e e3 bd 3a f9 f5 3d
       0.18646769 -0.051535457 -0.11086666 0.12010427
000310 a2 cd 02 3d de c0 ee bd b0 29 82 be 3b e1 f3 bd
       0.031934388 -0.1165788 -0.2542243 -0.11908194
000320 d5 c7 06 3e c3 64 39 be d0 f0 9e bb 53 95 67 3e
       0.13162167 -0.18104844 -0.0048504844 0.22615556
000330 61 2c 0c bd aa 2b 93 be d5 e1 53 be 8a 8e 39 3e
       -0.03422201 -0.2874425 -0.20691617 0.1812078
000340 2b 8b 40 be 42 a9 8e be 10 cd 0b be 94 3c ae bd
       -0.18803088 -0.27863508 -0.13652444 -0.08507648
000350 69 dd 0f be 52 fc 53 3e d8 c9 38 be 68 34 30 3d
       -0.14049305 0.20701721 -0.18045747 0.04301873
000360 6d 62 75 be 1c f4 e1 bd a6 88 47 3d 6f 00 b3 bc
       -0.23963328 -0.11032888 0.048714302 -0.021850793
000370 c2 cf 21 bd cf 1e b2 bb bb ca a4 be 8d ae d8 3d
       -0.039504774 -0.0054358016 -0.3218592 0.10580168
000380 2a f6 31 bd 5c 14 a9 bd d7 c1 92 3d 96 70 07 be
       -0.04344765 -0.08255836 0.07165878 -0.13226542
000390 8a 4b 0e 3e 1e a2 1f 3d 50 ff f7 3d 6a b0 24 be
       0.13896003 0.038972966 0.12109244 -0.16082922
0003a0 97 31 0c 3e 45 ca ab bc 8a 6c 2e 3e 94 3f f2 3c
       0.13690792 -0.020970473 0.17033592 0.029571332
0003b0 a6 13 46 be cc 02 99 be 5a e5 de 3d bd 39 9c 3e
       -0.19343433 -0.29884946 0.10883589 0.305128
0003c0 77 dc ac 3d 05 e5 73 be 9c 07 8e bd aa d3 8c be
       0.08440488 -0.23817833 -0.06935045 -0.27505237
0003d0 3d 1d 8b 3d df ac ba bd c7 9f 54 be da 0f 69 bd
       0.06792686 -0.09115004 -0.20764075 -0.056899883
0003e0 ba 42 88 bd 5e ba a1 be 27 97 0d 3d 8b a8 ce 3d
       -0.06653352 -0.315875 0.03456798 0.10090741
0003f0 7d fd 5f bc b6 10 da bd 3d d0 51 bd ab cd 50 bd
       -0.013671276 -0.106477186 -0.051223982 -0.05097739

layer2.2.weight f4 [256, 256]
000000 b7 e0 d5 bd 92 2c 70 bc c7 e8 d1 bd 7b fe ca bc
       -0.104432516 -0.014659064 -0.10249477 -0.024779549
000010 b6 d4 4f bd d3 6a d4 bd 10 2b 8e bd 57 4b e9 bd
       -0.050739966 -0.103719376 -0.06941807 -0.11391323
000020 55 c3 16 bd 14 4b d4 3c 3f fb 48 bd 12 a8 16 bd
       -0.036807377 0.025914706 -0.049067732 -0.036781378
000030 99 2a 28 bc a7 e3 16 3d 9f e5 c9 bd 33 4d d8 bb
       -0.010264062 0.0368382 -0.0985825 -0.0066009997
000040 a8 b6 8a bd 07 83 60 3c 13 74 db bc 57 af 29 bd
       -0.0677312 0.013703114 -0.026788747 -0.041426983
000050 48 e3 4f bd ab ec b8 bc a9 41 d0 bd d9 81 12 bb
       -0.05075386 -0.02257379 -0.10168774 -0.0022355227
000060 30 13 05 be 71 b1 a2 bd 5f e5 32 ba fc 16 60 3d
       -0.129956 -0.079440005 -0.000682434 0.05470942
000070 66 92 5b bd 29 45 f4 bc 09 11 b6 bd 96 77 4e bd
       -0.053606413 -0.029818134 -0.08889968 -0.050407015
000080 23 af 6e bd 09 88 b6 bc 33 89 97 bd b2 a7 b5 bd
       -0.058272492 -0.022281663 -0.073992155 -0.08869876
000090 9d 0a ad bd 2f 5b 2a bd 65 5a 64 bb 66 18 cd bd
       -0.0844929 -0.041590866 -0.0034843918 -0.10014419
0000a0 21 95 ee 3c bc 35 44 bd e4 67 c7 bd bb 1c cc bd
       0.029123845 -0.047902808 -0.097366124 -0.099664174
0000b0 62 66 10 bd fe de 09 be 37 90 cc bc b2 5a 7d 3c
       -0.03525389 -0.13463971 -0.02497111 0.015463518
0000c0 99 8e 95 bd 71 1e ad bd bb 1b fe bd 27 4b c3 3c
       -0.07302589 -0.08453072 -0.12407633 0.023839546
0000d0 1a 8e 14 bd 1a 93 fc bc b2 ea a9 bd 73 dc 30 bc
       -0.03626833 -0.030831862 -0.08296718 -0.010794747
0000e0 c8 9f 72 bd 0a 90 e2 bd 4b fa 0b bd a1 63 c4 bc
       -0.05923441 -0.110626295 -0.034174245 -0.023973288
0000f0 35 c9 0b bc 2a 31 4e bd c1 3d 50 bd f7 b4 21 be
       -0.008531858 -0.050339855 -0.050840143 -0.15791689
000100 a1 e5 53 bc dc 2b 3b bd b5 c5 9c 3b 0b 57 71 bd
       -0.012933166 -0.045696124 0.0047843107 -0.0589209
000110 fa a8 a2 bd 38 7e b8 bc 6b 23 2d 3c f9 20 47 3c
       -0.07942386 -0.022521123 0.010567526 0.012153857
000120 5e 1b 83 bd b3 59 03 3d 9b 02 a4 bd 06 8d 1a bc
       -0.06401704 0.032067966 -0.080083095 -0.009433037
000130 4c e9 73 bd d8 fc a3 3c dd 07 90 bc 9b 5b 39 bd
       -0.05954866 0.020018026 -0.017581875 -0.045253377
000140 e4 06 85 bd c7 27 13 bd 8a a1 42 bd f4 33 29 bc
       -0.06495455 -0.035926607 -0.047517337 -0.010327328
000150 ad 6e 91 bd f3 95 44 bd 45 69 fe 3b 7f b8 73 bd
       -0.07101188 -0.047994565 0.007764014 -0.05950212
000160 c9 d7 a7 bd 37 29 13 bd b6 ba 9c bb c6 c0 9a bd
       -0.081954546 -0.035927977 -0.004783 -0.075563
000170 9e f3 15 bd a9 c8 cf 3c 77 81 b8 bd 12 7b ac bd
       -0.036609285 0.025364237 -0.090090685 -0.08421911
000180 f9 34 08 bd ee d2 85 bd 7c 43 9f bd 75 61 26 3c
       -0.033253644 -0.06534372 -0.077765435 0.0101550715
000190 d3 b7 3f bc c1 0b cc bc a9 18 d1 bd d1 32 aa bd
       -0.011701542 -0.024907948 -0.10209782 -0.08310474
0001a0 1c 2d 21 bd c1 ea ad bd 8c 44 10 bb 76 6a a5 bd
       -0.03934966 -0.084920414 -0.0022013513 -0.080769464
0001b0 a0 37 de 3a 1e 1a 8c bd 0f 4b 99 bc 3f fa 8b bc
       0.0016953833 -0.06840919 -0.018712549 -0.0170871
0001c0 09 d8 74 bd f0 1c 66 bd 71 47 b1 bd a6 df 8e bd
       -0.05977634 -0.05617994 -0.086562045 -0.06976251
0001d0 de d4 8a bd 2a 19 42 bd 9c d2 3d bd af 2c 9d bd
       -0.067788824 -0.04738728 -0.04634343 -0.07674538
0001e0 22 19 99 bd 03 b3 9e bd 0e 17 89 bd 0e 3a f9 3c
       -0.07475497 -0.077489875 -0.066938505 0.03042319
0001f0 ec 6e f7 bd fa 4e 00 3c d4 b4 eb 3c f1 c1 23 bd
       -0.120817035 0.0078313295 0.028772749 -0.03997988
000200 9c 36 fa bc c2 1e 8a bd 3d ba f7 bd 5f 06 90 bb
       -0.030543618 -0.06744148 -0.12096069 -0.0043952907
000210 01 04 9a bd cd 9a a7 bd 0d de c6 bc dd f7 8a 3a
       -0.07520295 -0.08183823 -0.024275804 0.0010602433
000220 d8 0b eb bd 37 4b 09 be 52 d4 94 bd fe 61 7e bd
       -0.114768684 -0.13407598 -0.072670594 -0.06210517
000230 8b 22 43 bd 32 b9 3f bd 07 e2 90 bd b1 7f be bd
       -0.047640365 -0.046807475 -0.07074361 -0.09301699
000240 92 22 ee bc 7f 43 19 bd 77 89 37 bc 29 55 3b 3c
       -0.029069219 -0.037417885 -0.011202208 0.011433878
000250 d2 a9 3f 3d 91 aa a8 bd 49 75 a1 bd de 6d 07 bc
       0.046792813 -0.08235658 -0.078836985 -0.0082659405
000260 5f 54 3a 3c 2a 8f ca bd 82 a2 f5 bc 72 dd 83 bd
       0.011372655 -0.09890588 -0.029984716 -0.06438722
000270 d4 0a da bd 2e f9 85 bd fd 07 95 bd c6 01 7f bd
       -0.106465966 -0.06541668 -0.07276914 -0.06225755
000280 6e fa d2 bc b6 ab ce bc 99 3d 0a bd 3e d9 52 b9
       -0.02575418 -0.025228363 -0.03375015 -0.0002010809
000290 fe 30 ac 3b 7b 97 ff bc c2 c1 65 bd 80 a3 1c bd
       0.0052548638 -0.031200161 -0.056092985 -0.038241863
0002a0 2a ce b8 bc 45 c8 3b bd 6b 21 d7 bc 8a be 85 bc
       -0.022559244 -0.04584529 -0.026261052 -0.016326208
0002b0 39 5d bb bd 39 7f 17 bd 70 80 10 be 9f 7c 6c bd
       -0.0914864 -0.036986563 -0.14111495 -0.057736035
0002c0 92 88 a0 bd ca 42 76 bd 47 96 25 bc 2e 5b 1d 3c
       -0.07838549 -0.06012229 -0.01010663 0.009604258
0002d0 37 da 3b bd 8c 3b 00 be 83 44 9b bd 98 07 27 bc
       -0.045862403 -0.12522715 -0.07581427 -0.010194682
0002e0 05 be 6c bc c6 25 d4 bd 2b ae f8 bc 16 cf 97 bc
       -0.014449601 -0.10358767 -0.030356487 -0.018531363
0002f0 d2 e9 4f bd d6 17 69 bd fb 04 32 bd d5 39 0f bc
       -0.050760098 -0.056907497 -0.04346178 -0.008741816
000300 af 50 ea bd b8 15 4b be be 34 ff bc 55 15 8b bc
       -0.114411704 -0.19832504 -0.03115308 -0.016977945
000310 b9 d8 ff 3c 79 75 a7 bd bd 10 5b bc 84 2f 92 bd
       0.031231271 -0.08176703 -0.01337069 -0.07137969
000320 30 e2 c1 bd a0 29 7a 3d 8c 03 90 bd 27 a4 91 bd
       -0.0946697 0.061074853 -0.070319265 -0.07111388
000330 9c 72 21 bd 5a 24 99 bd 8d c6 84 bc c0 2b 37 bd
       -0.03941594 -0.07477637 -0.016207958 -0.044719458
000340 e5 f1 ac bc a3 17 10 bd 08 f7 5e bd 93 86 62 bd
       -0.021111438 -0.03517879 -0.054434806 -0.05530412
000350 05 7f b1 bd 53 ba b8 bd ab 06 8c 3c 63 5b bb bd
       -0.08666805 -0.090199135 0.017093023 -0.0914829
000360 bc b8 38 3c 8f c7 70 bd 2e 22 1d 3d 42 7b 80 bd
       0.011274513 -0.058784064 0.038362674 -0.062735096
000370 8f 76 74 bd 7c 3b d5 bd 76 62 78 bd 96 a3 f9 bd
       -0.05968338 -0.10411736 -0.060640775 -0.12189405
000380 bc 3e 0e 3d 28 ab 8c bd c9 b5 13 bd 98 79 4b 3d
       0.034727797 -0.06868583 -0.036062036 0.049676508
000390 53 2a c3 bc 16 2c b2 bd b9 a6 72 bd 03 58 aa bd
       -0.023823893 -0.08699815 -0.05924103 -0.08317568
0003a0 c9 1a 39 bd c1 ab 8b bd ae e9 c7 bd 57 09 b5 bb
       -0.04519156 -0.06819869 -0.09761368 -0.005524795
0003b0 22 b3 0c bc 19 4e fe 3c a3 45 7b bd 91 af 6f bd
       -0.00858763 0.0310431 -0.061345708 -0.058517043
0003c0 8d 28 4d 3d f5 92 60 bc 0e 15 3d bb 5c 40 8c bd
       0.0500875 -0.013706912 -0.002885166 -0.06848213
0003d0 ac 2b 84 bd 1b a4 07 be 2b 5e 41 bc b7 7b f0 bc
       -0.06453642 -0.13246195 -0.011802237 -0.029355867
0003e0 40 83 49 bc d9 e5 15 b8 ce 6e 88 bd 86 ea 79 3c
       -0.012299359 -3.573843e-05 -0.06661759 0.015253669
0003f0 e4 25 99 bd a8 89 1f bd b7 bd 95 bd 34 5c 64 bd
       -0.0747793 -0.03894964 -0.07311576 -0.055751994

layer2.2.bias f4 [256]
000000 2d 0b 44 bd de cf 96 bd 8c 31 1e 3d 6e ee 70 bc
       -0.04786222 -0.07363866 0.03862147 -0.014705284
000010 1c 45 d9 bc 42 79 40 bd 8c 09 a4 bd 88 b7 07 be
       -0.026522212 -0.04699064 -0.080096334 -0.13253605
000020 7c 1c bb 3d 92 8e 8d bc 5d c6 a7 bd 48 61 32 3b
       0.09136292 -0.017279897 -0.08192132 0.0027218629
000030 5b dd f4 bd 6c 49 95 bd b1 54 b3 bd 49 9c 75 bd
       -0.11956283 -0.07289395 -0.08756388 -0.0599635
000040 82 36 41 bd 51 07 88 3c d0 ab 88 3d b0 7a 6a bd
       -0.047171123 0.016605051 0.06673396 -0.05724591
000050 39 9e a4 bd 94 bb b4 bd 0a 90 da bd 28 94 be 3b
       -0.08037991 -0.0882484 -0.106720045 0.0058160014
000060 da c9 ab bc 02 f5 2d bc ba a5 75 bd 06 7b 2b bd
       -0.020970274 -0.010617496 -0.059972502 -0.04186537
000070 5e 9a c9 bd e1 5c 8c bd b8 4d 57 3d 9f bc c8 bc
       -0.09843896 -0.06853653 0.052564353 -0.024504004
000080 0d b4 73 3c 00 4b cb bb 2e c8 f4 bd 71 90 c1 bd
       0.01487447 -0.006204009 -0.11952244 -0.09451378
000090 71 1e bd bd c4 81 3a bd 39 a1 be bd 3c ba 9c 3c
       -0.09234322 -0.04553391 -0.093080945 0.019131772
0000a0 2c 09 9a bd 0f 3a 11 be b5 2b 30 3c 0e 3e bd bc
       -0.07521281 -0.14182304 0.010752608 -0.023100879
0000b0 07 b0 5c 3c c6 8a c9 bc ba 9c c6 bd b1 00 15 be
       0.013469703 -0.024602305 -0.09697862 -0.14551045
0000c0 e1 d4 5f bc 94 b4 e2 bc 15 34 87 3c e6 53 86 3b
       -0.013661594 -0.027673997 0.016504327 0.004099357
0000d0 85 c2 0f bd a2 01 29 3d 55 48 77 bd b1 a6 9e bd
       -0.035097618 0.041261323 -0.060371716 -0.077466376
0000e0 a5 a4 4a 3d 18 f3 0e 3d 17 44 ea bd e1 09 31 bd
       0.049473424 0.0348998 -0.11438768 -0.043222312
0000f0 a4 da ab bd 1e 58 ed bd f0 f1 47 bd 44 5a 01 bd
       -0.08391312 -0.11589073 -0.048814714 -0.031580225
000100 76 3a b1 bd c7 82 b7 bd 4a 36 ad bd cd 35 10 3c
       -0.08653729 -0.08960491 -0.084576204 0.00880189
000110 c8 ee b4 bd 4f ff b3 3d c1 92 ed bc fc fc ae bd
       -0.088346064 0.087889306 -0.029000642 -0.08544347
000120 d8 ca be 3c 4a 24 e8 bd e4 76 a0 3b ff 30 04 be
       0.023290083 -0.113350466 0.0048969854 -0.12909316
000130 34 c0 3d bc 24 a7 0b 3c 5b 79 ef 3a dc 0d e8 bc
       -0.011581469 0.008523736 0.001827042 -0.028326921
000140 f4 1e 7f 3d 0a 0c 8d bd ce d1 42 bd 42 c7 e2 bc
       0.06228538 -0.06887062 -0.047563367 -0.027682904
000150 43 86 83 bb dc ae e7 ba fe 0a c6 3c 5f ff 21 3d
       -0.004013808 -0.0017676014 0.024175163 0.03955018
000160 3b f4 b6 bd 23 db 85 bd f9 f9 50 bd e3 2d 36 3d
       -0.08933302 -0.06535938 -0.051019643 0.044477355
000170 26 0d 20 bd e2 b9 b1 bd 3e 19 09 bd 33 da 0a bd
       -0.03907504 -0.086780325 -0.03347134 -0.033899497
000180 98 9c fd bd a8 89 4c bc dd 29 89 bc ed 3d 44 bd
       -0.123833835 -0.012483992 -0.016743595 -0.04791062
000190 3e c9 2e bd fc b4 00 bb 1a 88 01 3d b9 00 9c bc
       -0.04267239 -0.0019639125 0.031623937 -0.019043313
0001a0 14 d4 b6 3c 2f d0 09 bd bd 35 93 bc b3 ec 0a be
       0.022317924 -0.033645805 -0.01796996 -0.13566856
0001b0 8c e2 cc 3c bc d1 bb bc 01 c6 a8 bd 9b 6e 02 bc
       0.02501037 -0.022927158 -0.08240891 -0.007960941
0001c0 1f b7 e6 bc 99 0b b6 bd 50 e6 86 3d 7d 80 43 3b
       -0.02816349 -0.08888931 0.065868974 0.0029831224
0001d0 0e 12 07 bc 1a 61 42 bd ec ab c6 bc 7a df 81 3d
       -0.008244051 -0.047455885 -0.0242519 0.06341453
0001e0 5a 6a 83 bd 0b 52 31 bd c1 ce 27 bd 9b 24 a6 bc
       -0.06416769 -0.043291133 -0.04096866 -0.020281127
0001f0 02 b8 07 bd 81 ac cd bd 47 27 dc bc 25 fe b0 bd
       -0.033134468 -0.10042668 -0.026874198 -0.08642224
000200 38 21 fe bd 2c d6 72 bb 91 08 b2 bd 73 2f 51 bc
       -0.1240868 -0.0037053926 -0.0869304 -0.01276766
000210 c0 80 f9 bd 20 be 42 bb 4b 46 90 bd b1 e5 d9 bd
       -0.1218276 -0.0029715374 -0.07044657 -0.10639513
000220 0a e3 6a bd ab 73 74 bd 78 4e 80 bd 7d ee 9c bd
       -0.057345428 -0.059680622 -0.06264967 -0.076626755
000230 3d a1 ec bc 9c 9d 0e bd 84 5b 60 bd a3 88 52 3d
       -0.028885478 -0.034818277 -0.054774776 0.05139984
000240 b2 1c 11 be 14 21 99 bd f3 8c 91 bc 74 41 87 bc
       -0.14171103 -0.07477012 -0.017767405 -0.016510703
000250 98 1b 6c bc 8b d6 ea bd df 9b 98 3d 0b e5 16 3d
       -0.014410876 -0.11466702 0.07451605 0.036839526
000260 38 cf fa bc 4d 21 0b 3d dc 46 03 bd 87 11 0c be
       -0.030616388 0.033967305 -0.03205 -0.13678561
000270 4e 22 05 bc e3 a1 ed bd 17 98 22 bd d0 a4 cf bc
       -0.008125855 -0.11603143 -0.039695825 -0.025347143
000280 79 d7 99 3c fe 2f f5 ba 8a 7a 47 3d 9b 31 15 bd
       0.018779503 -0.0018706319 0.048700847 -0.03642426
000290 74 38 f9 bd dc 8d 88 3c 42 38 5f bd a9 33 e1 bd
       -0.12168971 0.016669206 -0.05449701 -0.109961815
0002a0 2f 7f 55 bd e3 54 89 bd f7 37 35 3d 9b 0a a6 3a
       -0.052123245 -0.06705644 0.044242825 0.0012667956
0002b0 2a 92 b9 bd fa 2b 80 bd 98 35 dc bd 40 b2 a0 bd
       -0.09061082 -0.06258388 -0.1075241 -0.078464985
0002c0 03 67 b8 bd e3 08 b9 bb d8 d7 a8 bd 65 e8 90 bd
       -0.09004023 -0.0056468113 -0.08244294 -0.07075576
0002d0 c5 a3 d4 bd 46 dd 89 bd 8a c0 8b bb 00 3c a2 bd
       -0.10382799 -0.06731658 -0.004264896 -0.079216
0002e0 af 7b 69 bd 0f 38 7c bd 9d 1f 8d 3c 43 9f 62 bd
       -0.05700272 -0.0615769 0.017226988 -0.055327665
0002f0 74 04 f4 bd b3 5c ce bc ca 10 fe bb de 39 81 bd
       -0.11914912 -0.025190687 -0.0077534663 -0.063098654
000300 b2 06 93 bc 2a 4b c3 bc 36 e2 cd bc 50 aa cf bd
       -0.017947529 -0.023839552 -0.02513228 -0.101399064
000310 93 5e 9f bd 70 53 3e bd 41 ea 1a ba e5 9b 71 bd
       -0.077817105 -0.04646629 -0.00059095403 -0.058986563
000320 a9 0e fe bd 8a 89 a6 bd 5b 2e 9b bc 37 14 26 bd
       -0.1240514 -0.08131702 -0.018943002 -0.040546622
000330 5f e8 24 bd cc a9 e0 bd 43 4a 5a bd 19 67 8c 3b
       -0.04026067 -0.10969886 -0.053293478 0.004284751
000340 aa 8d 2f 3c a3 26 01 3d f8 46 1c 3d 07 69 4a bd
       0.010714928 0.031530987 0.03815362 -0.049416568
000350 71 d9 20 3d 33 95 c0 bd 85 b0 85 bc 5b df cd bd
       0.03926987 -0.094034575 -0.016319523 -0.10052367
000360 64 87 dc ba 3c d4 94 bd d0 82 40 bd 36 55 ae 3c
       -0.0016825018 -0.07267043 -0.046999753 0.021280866
000370 87 06 6e bd 9c 34 91 bd f2 d1 a8 bd 41 36 96 bd
       -0.058111694 -0.070901126 -0.08243169 -0.07334567
000380 39 bd ea bc 1e e5 9b bc 01 85 e7 bd 53 cd ba bd
       -0.028654682 -0.01903015 -0.11304665 -0.09121194
000390 d0 02 e0 3b c3 5f 03 be 71 d6 d6 ba 2a 6f d9 bd
       0.006836273 -0.12829499 -0.0016390813 -0.10616906
0003a0 8e 63 41 bd e3 90 1a bd 18 4f c2 3c c9 b3 5d bd
       -0.047214083 -0.03773583 0.023719355 -0.054126535
0003b0 a0 f6 fc bd 10 57 ba bd 72 23 5a bc 77 7d 39 bd
       -0.123517275 -0.09098637 -0.013314115 -0.04528567
0003c0 4a 7c b5 3b 5e ff 08 be da 87 bd bd 5f 46 6d bd
       0.005538498 -0.13378665 -0.09254427 -0.05792844
0003d0 e8 a8 92 bd 0a c7 19 bd 73 23 0b bd f0 dd 30 bd
       -0.071611226 -0.037543334 -0.033969354 -0.043180406
0003e0 e7 0a d5 3c 37 dc d3 bd 77 82 ea bd b4 4a 46 bd
       0.026006175 -0.10344737 -0.114506654 -0.048411086
0003f0 36 ae a0 bd 3b 68 53 bd 1d 38 9a bd 6a d6 ca bc
       -0.07845728 -0.051613074 -0.07530234 -0.024760444

layer2.4.weight f4 [10, 256]
000000 95 bd 6c bd 01 ab 44 bd 21 4c 05 be 94 4f 1b bd
       -0.057797987 -0.048014645 -0.13017322 -0.03791769
000010 9f 1e 34 3d 74 7d cc ba 8d e9 49 3d b2 a2 d3 3c
       0.043974515 -0.0015601353 0.049294997 0.025834415
000020 95 7f 71 be ec 09 f9 3b 25 46 82 3d 01 97 19 be
       -0.23583825 0.0076000597 0.06361035 -0.1499901
000030 1a d6 35 bd b9 6a 07 be 02 c4 13 bc e0 b4 c0 be
       -0.044393636 -0.13224305 -0.0090189 -0.37637997
000040 84 ce de bd 04 87 39 3d eb 69 5c 3b bc ce 08 3c
       -0.108792335 0.045294777 0.0033632468 0.008350071
000050 89 b7 58 bd 9e 91 24 be e9 05 b4 bd 00 4c 84 be
       -0.052909408 -0.16071174 -0.0879019 -0.25839233
000060 19 07 75 bd 69 c8 9f bb 7f 94 93 3d 60 3d 01 be
       -0.059821222 -0.0048761857 0.07206058 -0.12621069
000070 4e e2 46 bd 1f f1 5b 3b 65 f1 a2 bd 3f c7 87 3e
       -0.048555665 0.0033560467 -0.079561986 0.265192
000080 bf 6e 2d 3e 82 c3 fb bd f2 49 32 3d ba 0a 88 be
       0.16936778 -0.122931495 0.04352755 -0.26570684
000090 37 ec 49 3c 48 1e 83 bd cf 5a a8 bb 47 62 4f bd
       0.012324384 -0.0640226 -0.0051377784 -0.050630834
0000a0 81 03 8c 3c d7 52 80 3c de 42 be bd 15 27 a7 bd
       0.017091515 0.015664501 -0.09290098 -0.08161751
0000b0 7a 4d 0c be 1d 0d 5c be f3 76 3a 3d ea 31 11 bc
       -0.1370143 -0.21489377 0.045523595 -0.008861998
0000c0 6a 8f 64 be 00 da 0c 3d 02 28 5f be f9 14 23 3b
       -0.22320333 0.03438759 -0.21792606 0.0024884327
0000d0 6d da 1a 3d c9 1f 91 bd 24 7f 76 3e 09 e4 9d bc
       0.037805963 -0.07086141 0.24071938 -0.019273775
0000e0 2a ab 9c bd 00 15 59 be ed b6 1a bd 78 7c 2d 3d
       -0.076498345 -0.21199417 -0.037772108 0.04235503
0000f0 97 e2 50 bd 3e ed 5b 3d 61 37 71 3d fe b7 66 bd
       -0.050997343 0.05369305 0.058890704 -0.056327812
000100 ce 6e 2a bd a8 8a 0c bd eb ba ad bd a3 5d 6a bd
       -0.041609578 -0.03431192 -0.084829174 -0.057218205
000110 f6 7d 99 bd 8d 3a fc bc d9 b8 c0 3d 9d e7 80 bc
       -0.07494728 -0.030789638 0.09410257 -0.015735442
000120 b2 d6 9d bd c1 0f 1b bd 47 19 a7 be f6 eb c5 3c
       -0.077069655 -0.03785682 -0.32636473 0.024160367
000130 0b b8 9b 3d 9a 7c 64 3e 2a 63 89 bd 61 bd 48 be
       0.07603463 0.22313157 -0.06708367 -0.19603492
000140 c9 5b d2 bd 0e 11 8c bd 20 ec bf bd b3 79 33 3e
       -0.10271413 -0.068391904 -0.09371209 0.17526893
000150 e4 a8 ea bd 8b 0b 9a be 94 2e 29 be 38 1c 69 bd
       -0.114579946 -0.30086932 -0.16521674 -0.056911677
000160 cc f5 09 3d a3 26 8d bd d3 e8 30 be a9 e1 07 be
       0.033681676 -0.06892135 -0.17276315 -0.13269676
000170 28 4e a2 3d d4 62 91 3c cd c7 5d bd 9a ad b3 bd
       0.07925063 0.01774732 -0.054145623 -0.08773346
000180 4c 77 3e 3c f2 d1 43 be 90 33 82 bc a5 3c ee 3c
       0.011625122 -0.19123057 -0.015893728 0.029081652
000190 e8 15 46 3e 99 73 fe bd 81 c2 82 bd 74 81 a9 3c
       0.19344294 -0.12424392 -0.06384755 0.02069161
0001a0 dc 92 66 bd d9 78 93 3d 73 47 c1 bc 8d 29 9f bd
       -0.0562924 0.07200784 -0.02359364 -0.07771597
0001b0 99 f5 ca bd 89 b2 24 be c8 84 54 3d 41 17 2d be
       -0.09910125 -0.16083731 0.051884443 -0.16903402
0001c0 87 81 57 bd 42 6f 8a bd 50 6f 2a bd a3 37 c7 bd
       -0.05261376 -0.06759502 -0.041610062 -0.09727409
0001d0 10 45 af 3c 99 f3 f3 bc 90 49 11 bd 76 c4 fc bd
       0.021395236 -0.029779242 -0.035470545 -0.123421595
0001e0 d7 b0 04 be 6b 6a 47 be ae 4d ac bc 86 fb 71 3e
       -0.12958084 -0.19474189 -0.021033134 0.23631105
0001f0 00 2e 04 be ec 76 a2 bd 5d 9b 86 bd 23 d4 70 bc
       -0.12908173 -0.07932839 -0.06572602 -0.014699015
000200 80 b6 f4 3a 94 a1 6c 3d 7d cd d5 bd ac af cf bd
       0.0018670112 0.05777128 -0.104395844 -0.101409286
000210 fe 6f 4d bd 16 aa 8b bd b9 69 06 be b5 dd 5c bd
       -0.050155632 -0.06819551 -0.13126267 -0.053922374
000220 ba 9f 76 be 93 f6 86 be 5f ce e4 bd 91 1d 0c 3c
       -0.24084368 -0.26359996 -0.11172175 0.008551971
000230 d8 6c f4 bd c7 b4 93 3e 52 c6 be 3c 98 cf 85 bd
       -0.11934823 0.2884886 0.023287926 -0.06533736
000240 b3 be 52 bc 5b 35 74 3d 95 35 33 be 25 db 9c 3d
       -0.012862849 0.059621196 -0.17500909 0.07658986
000250 52 1f 8a be 23 a1 a6 3b fd 97 d3 bd cf d0 a3 be
       -0.2697702 0.005085127 -0.10331724 -0.31995246
000260 fd d2 60 3d de 28 d9 3c dd b0 4b 3c 19 95 75 bd
       0.054888714 0.026508745 0.012432304 -0.059956644
000270 6f 91 8c 3d e9 b0 76 3d 0c f6 65 3c 12 6c be 3c
       0.06863677 0.06022731 0.014035713 0.023244891
000280 75 c8 ff bd b5 d4 1c be 46 04 63 be 95 16 65 be
       -0.12489406 -0.15315516 -0.22169599 -0.22371896
000290 c5 09 e8 3d 34 eb 2f bd 25 d2 43 bd 05 b9 6c 3d
       0.113299884 -0.042948917 -0.04780783 0.057793636
0002a0 68 93 0f bd 71 dd 65 3c c3 a8 5f be 5f 96 b8 bc
       -0.035052687 0.0140298465 -0.21841721 -0.02253264
0002b0 d7 55 0f bd 84 d1 82 be 7a fa c5 bd 60 65 20 3d
       -0.034993973 -0.25550473 -0.09666915 0.03915918
0002c0 7d 64 8d 3c 13 f4 b1 3c 9a 44 66 3d d0 bc 88 3e
       0.01725983 0.021722829 0.056217767 0.26706553
0002d0 1c ec 28 be 76 86 6b 3e 1d 4a 61 3e b4 a5 88 bd
       -0.16496319 0.23000512 0.22000928 -0.0667223
0002e0 c2 ad 41 3d 81 d7 1b bd 59 34 b7 bd e4 81 f8 bd
       0.04728485 -0.038047317 -0.089455314 -0.1213415
0002f0 e4 45 80 bc f1 0d a7 3d 49 48 35 be e2 43 13 be
       -0.015658326 0.08156956 -0.17703356 -0.14381364
000300 23 88 a0 3d b3 dd 67 3e 2b 0a 2c 3d e2 aa 5e 3d
       0.07838466 0.22643165 0.042001884 0.054362185
000310 79 78 a1 bd aa 57 b3 ba 20 6d 93 bd d2 6c a4 3c
       -0.078843065 -0.0013682742 -0.07198548 0.02007142
000320 76 91 80 3d a0 8c 7e 3d 63 a1 ec 3c a4 eb 00 bb
       0.062777445 0.06214583 0.028885549 -0.0019671703
000330 4f 28 36 be f9 f4 d8 3c 9e 2a 46 be 54 02 23 3e
       -0.17788814 0.026484 -0.19352195 0.15918857
000340 29 c9 0c be 20 ce d1 bb ff 47 14 be d1 7b 9b 3d
       -0.13748612 -0.006402746 -0.1448059 0.075919755
000350 0d 5f 8e 3e cf aa 75 3d 70 e3 29 3b 8e 74 3d be
       0.27806893 0.05997735 0.0025922917 -0.18501493
000360 41 06 f4 bd ad 49 ce 3d 46 87 96 bc d2 7e e1 bd
       -0.11915255 0.10072646 -0.01837505 -0.11010517
000370 d9 4d 8f 3d f6 c6 50 bd a8 0c 6c 3e af d6 44 3c
       0.0699727 -0.050970994 0.23051703 0.012014075
000380 b4 9f 86 bc 49 98 d9 3c e8 fe b9 3c bf 8f 44 be
       -0.016433574 0.026561873 0.022704557 -0.1919546
000390 27 90 09 be 79 3b 3e bc 36 34 1b 3d 92 97 9e 3d
       -0.13433896 -0.011610859 0.03789159 0.077437535
0003a0 d2 e8 23 be 0d c0 29 bd 56 18 c5 bd dc e6 a2 3c
       -0.16006783 -0.04144292 -0.09623782 0.019885473
0003b0 32 e2 a3 3d 4c 5b 08 3c 78 e3 96 bd 47 57 4d bd
       0.08002128 0.008322548 -0.07367605 -0.050132062
0003c0 e8 df 48 3e dc b3 a1 3c 78 bf 85 bd c5 3f 7a bd
       0.19616663 0.019739084 -0.065306604 -0.06109597
0003d0 1f c9 dc bd 61 1d a6 3c d2 2e 07 be 97 f9 2d be
       -0.10780548 0.02027768 -0.13201454 -0.16989742
0003e0 fa 20 a9 be 60 ad d7 bc 9c b9 d2 3d 11 b6 ed 3c
       -0.33032972 -0.026327789 0.102893084 0.02901748
0003f0 8f fc af 3d 16 8f b1 bd 2b f5 3b 3d 90 50 90 3d
       0.085930936 -0.086698696 0.045888107 0.07046616

layer2.4.bias f4 [10]
000000 19 cf 45 bd dd a3 32 be 26 aa e9 be a3 10 1b be
       -0.048293207 -0.17445321 -0.45637625 -0.15143065
000010 48 37 2f be 4e 4f 23 3d e7 86 39 be dc 5d 48 bc
       -0.17110932 0.039870553 -0.18117867 -0.012229409
000020 1c 9f 03 bd e3 d8 63 3d
       -0.03213416 0.05562676
