MyZipTobeUploaded/helpdesk_Neighbour_embedding/EventPredictor_parameters_helpdesk_laplacianOnWeighted_0.001_run0_GATTTT.pt (torch, 296183 bytes, 9 tensors)

layer1.bias f4 [9]
0	0x00000000	0.0
1	0x00000000	0.0
2	0x00000000	0.0
3	0x00000000	0.0
4	0x00000000	0.0
5	0x00000000	0.0
6	0x00000000	0.0
7	0x00000000	0.0
8	0x00000000	0.0

layer1.W f4 [4, 2]
0	0x3b2032a7	0.0024444254
1	0xbdecf7a9	-0.11570675
2	0xbf7d48ca	-0.9893919
3	0x3f3640bc	0.71192527
4	0xbebea89e	-0.3723802
5	0x3f1f9a42	0.62344754
6	0xbe591b17	-0.2120174
7	0x3f38b342	0.72148526

layer1.a f4 [4, 1]
0	0x3d500110	0.050782263
1	0xc071785b	-3.772971
2	0x3d500110	0.050782263
3	0xc071785b	-3.772971

layer2.0.weight f4 [256, 18]
0	0xbed95ad2	-0.42452103
1	0x3e95f76c	0.2929033
2	0xbe8afe69	-0.27147225
3	0x3eefd637	0.4684312
4	0xbe41f3a0	-0.18940592
5	0x3de06762	0.10957219
6	0xbd9591f9	-0.07303233
7	0x3e3b6bc1	0.18302824
8	0xbeb270a8	-0.34851575
9	0x3e165a38	0.14682853
10	0xbec9604e	-0.39331287
11	0x3e25ab85	0.16178711
12	0xbeb5453e	-0.3540439
13	0x3ec97f5d	0.39354983
14	0x3daab361	0.08334995
15	0x3f158331	0.5840331
16	0xbee3d6ec	-0.4449991
17	0x3f188f4f	0.5959367
18	0xbdf1ce87	-0.1180697
19	0xb9ec79f5	-0.00045104293
20	0xbe0b7e66	-0.13622436
21	0xbe5ca723	-0.21548133
22	0xbe11dc5f	-0.14244221
23	0xbd9b920e	-0.07596217
24	0xbdbfeed6	-0.09371726
25	0xbe610716	-0.2197536
26	0x3d2451d8	0.040117115
27	0xbe170575	-0.14748175
28	0x3e691c87	0.22764789
29	0xbcd79791	-0.02631739
30	0x3e259a9c	0.1617226
31	0xbea4b9f1	-0.32173112
32	0xbdd08bee	-0.101829395
33	0x3dec9141	0.115511425
34	0xbe117f7a	-0.14208785
35	0xbe85c2c6	-0.26125163
36	0xbce6a045	-0.028152594
37	0xbd8745b8	-0.06605095
38	0xbe8f2d97	-0.2796447
39	0x3e87758a	0.26456863
40	0xbeeda302	-0.46413428
41	0x3e96b082	0.2943154
42	0xbe709f79	-0.23498334
43	0x3e20fbe8	0.15721095
44	0xbec3382d	-0.38128796
45	0xbda70a9d	-0.08156321
46	0xbdc8f464	-0.09812239
47	0xbdab5579	-0.08365912
48	0xbe6db2bd	-0.23212714
49	0x3e06ae71	0.13152482
50	0xbef09c04	-0.4699403
51	0x3db52f15	0.08846871
52	0xbea4330d	-0.320702
53	0xbddc6687	-0.10761743
54	0xbe8a7563	-0.27042684
55	0x3d658ec5	0.05604436
56	0xbe8c7741	-0.27434734
57	0x3be523c2	0.006992788
58	0x3dd71eca	0.105039194
59	0x3ec6b9a7	0.38813516
60	0x3dadb8a8	0.08482486
61	0xbda9aac8	-0.08284527
62	0xbcded823	-0.027202671
63	0xbd7fa28e	-0.062410884
64	0xbe51c2a4	-0.20484406
65	0xbda1aa72	-0.07893838
66	0xbc208595	-0.009797473
67	0x3d8d3a2c	0.06895861
68	0xbe1fd4a6	-0.15608463
69	0x3d2d0b0d	0.042246867
70	0xbe94aa30	-0.29036093
71	0x3e38d771	0.18050934
72	0x3e687839	0.22702111
73	0x3dcdf17f	0.10055827
74	0x3d4df47e	0.050281994
75	0xbe56e79a	-0.20986786
76	0x3e985756	0.29754132
77	0xbdf6a80b	-0.120437704
78	0xbde3cadc	-0.11122677
79	0xbe17ef45	-0.14837368
80	0xbd226870	-0.03965038
81	0x3d972076	0.07379238
82	0xbd4ac8f1	-0.04950804
83	0x3cd01997	0.025402827
84	0xbda22a44	-0.07918218
85	0xbdd3676e	-0.10322462
86	0x3e1cb30e	0.15302679
87	0xbe2a2682	-0.16616252
88	0x3d58597d	0.052819718
89	0x3b3ef28c	0.0029136268
90	0x3e362713	0.17788343
91	0x3eb369c9	0.35041645
92	0x3e51cb02	0.20487598
93	0x3e89a90e	0.2688679
94	0x3eb7855d	0.35843936
95	0x3e12ba72	0.14328936
96	0x3e1cde46	0.15319166
97	0x3e34f212	0.17670467
98	0x3d456e8d	0.048201133
99	0x3ea8b68c	0.32951772
100	0xbb9ffe74	-0.004882628
101	0x3f04f253	0.5193226
102	0x3e132690	0.14370179
103	0x3eee9884	0.46600735
104	0x3e74724d	0.23871727
105	0x3ec3f166	0.3827011
106	0x3eba09b5	0.3633553
107	0x3db4a805	0.0882111
108	0xbedf550c	-0.43619573
109	0x3ea40ef2	0.32042652
110	0xbef3b70d	-0.47600594
111	0x3e09c848	0.13455307
112	0xbe4d319e	-0.20038459
113	0x3ea927a1	0.33038047
114	0xbd873192	-0.06601252
115	0x3d2a30d3	0.04155047
116	0xbd877e26	-0.06615858
117	0x3e955098	0.2916305
118	0xbea8da73	-0.32979164
119	0x3ea55aea	0.32295924
120	0xbdfa4964	-0.122210294
121	0x3e59b779	0.21261396
122	0xbeabbc33	-0.33542022
123	0x3ebe6e90	0.37193727
124	0xbe899d72	-0.26877934
125	0x3e816fab	0.25280508
126	0x3e90f095	0.2830855
127	0xbea08ebc	-0.31358898
128	0x3e295563	0.16536479
129	0xbe76c37c	-0.24098009
130	0x3f011f65	0.5043853
131	0x3e4548df	0.1926608
132	0x3d49675a	0.04917083
133	0x3cabcc6b	0.020971498
134	0x3cb1ea9c	0.021718316
135	0xbdc721ea	-0.097232655
136	0x3e4c6b81	0.19962884
137	0xbe327938	-0.17429054
138	0x3ecfae9a	0.40562898
139	0xbd664e71	-0.05622715
140	0x3eaebd7c	0.3412894
141	0xbe83e72f	-0.25762317
142	0x3ebcf0c3	0.36902437
143	0xbdff316c	-0.12460598
144	0x3e9e11bb	0.30872902
145	0x3dca2c80	0.09871769
146	0x3e1147b7	0.14187513
147	0x3e996be4	0.29965127
148	0xbcf68162	-0.030090991
149	0x3e9b96bf	0.30388448
150	0xbe1bd7d9	-0.15219058
151	0xbdb2cfb2	-0.08731021
152	0x3e4deadc	0.20109123
153	0xbd2c6f8f	-0.042098578
154	0x3e79e06a	0.24402013
155	0x3e72c71e	0.2370877
156	0x3e82e995	0.25568834
157	0x3e93f86f	0.28900477
158	0x3ca466f6	0.020068627
159	0x3e9f8f3a	0.3116396
160	0xbe394a0b	-0.18094651
161	0x3ddf1720	0.108930826
162	0x3eb3c718	0.35112834
163	0xbdc66e1c	-0.096889704
164	0x3d0991c7	0.03358629
165	0x3cd052fe	0.025430199
166	0x3e5cc7b4	0.21560556
167	0xbd5e5a39	-0.05428526
168	0x3e8dfff7	0.27734348
169	0xbd64a016	-0.055816732
170	0x3eb03dbf	0.3442211
171	0xbe1889f3	-0.14896373
172	0x3dff253e	0.12458275
173	0x3e168825	0.14700373
174	0x3cdbac30	0.026815504
175	0x3cc6682a	0.024219591
176	0x3ecd2fb1	0.40075448
177	0xbe2b6d19	-0.16740836
178	0x3ef38125	0.47559467
179	0xbc9ebf03	-0.01937819
180	0xbda2edbb	-0.079555
181	0x3e9d3b96	0.30709523
182	0xbd05aefc	-0.03263758
183	0xbea4fdb4	-0.3222481
184	0xbebf5e4d	-0.37376633
185	0xbe8a0901	-0.26959994
186	0xbe0e43cc	-0.1389305
187	0xbd986083	-0.07440283
188	0xbe7c0f68	-0.24615252
189	0xbe59cc7c	-0.21269411
190	0x3e24307c	0.1603412
191	0xbe9bc6d2	-0.30425125
192	0x3dd6764d	0.10471783
193	0xbddfb311	-0.10922826
194	0xbed682b3	-0.4189659
195	0xbe20c756	-0.1570104
196	0xbb9b61c8	-0.004741881
197	0xbe6edf9b	-0.23327486
198	0xbd8af3e2	-0.06784798
199	0xbe7ec5e9	-0.24880184
200	0xbdcab505	-0.09897808
201	0x3e8da45b	0.27664456
202	0x3ec66afd	0.387535
203	0x3eb155a4	0.3463565
204	0x3e3208e9	0.17386211
205	0x3eb33468	0.3500092
206	0x3e3a30b7	0.18182646
207	0x3ea7e803	0.32794198
208	0x3e7889a4	0.24271256
209	0x3e10159e	0.14070746
210	0xbde7716d	-0.11300931
211	0x3e996fc3	0.2996808
212	0x3e59cb67	0.21268998
213	0x3e6468be	0.22305581
214	0x3da96979	0.082720704
215	0xbd2bf575	-0.041982133
216	0xbe9be688	-0.3044932
217	0x3e191817	0.14950596
218	0x3daefd5a	0.08544417
219	0x3ebaa796	0.36455983
220	0x3d894b0d	0.06703768
221	0x3ecc545a	0.39908105
222	0xbbc08121	-0.0058747684
223	0x3e84ef6e	0.2596392
224	0xbdc4a4fc	-0.09601781
225	0x3f098816	0.53723276
226	0xbd4e7282	-0.050402172
227	0x3e8b4011	0.27197316
228	0xbcc03bd5	-0.02346603
229	0x3e70d85d	0.23520036
230	0xbef6ce16	-0.48204106
231	0x3efa223e	0.4885425
232	0x3cde0f21	0.027106823
233	0x3e8990e2	0.2686835
234	0x3df2f6e1	0.11863495
235	0xbd9f50d3	-0.07779088
236	0xbeab2717	-0.3342826
237	0x3e12219d	0.14270635
238	0xbe293069	-0.16522373
239	0x3d623603	0.05522729
240	0xbdf74437	-0.12073558
241	0x3e3cd7e0	0.18441725
242	0xbea3df56	-0.3200633
243	0x3c97c487	0.018526329
244	0xbe8c55f6	-0.27409333
245	0x3e2f0ed0	0.17095494
246	0xbea76df5	-0.32701078
247	0x3e8edb98	0.27901912
248	0x3d4087ad	0.04700439
249	0xbbbf1a62	-0.0058320025
250	0xbeb330ce	-0.34998173
251	0x3de329e4	0.110919744
252	0x3dad46ab	0.084607445
253	0xbdff4fbb	-0.12466379
254	0x3f25baee	0.6473836
255	0xbecf182a	-0.40448123

layer2.0.bias f4 [256]
0	0x3f93666d	1.1515633
1	0x3ea0b376	0.31386918
2	0xbe122bb5	-0.14274485
3	0xbd8b23e9	-0.06793959
4	0xbe529673	-0.20565204
5	0x3ec862d9	0.39137915
6	0x3ccc3310	0.024926692
7	0x3bb6e6c5	0.005581709
8	0x3eee72e7	0.4657204
9	0xbe319304	-0.17341238
10	0xbf8a927a	-1.0825951
11	0x3fd1bc9c	1.6385684
12	0x3f6b3fdb	0.9189431
13	0x3e7b4d5b	0.24541228
14	0xbf3f7ed9	-0.7480293
15	0x3eddee68	0.43345952
16	0xbedfe2b0	-0.43727636
17	0xbd7bcd43	-0.06147505
18	0x3dc78f05	0.09744076
19	0xbfa5506d	-1.2915169
20	0xbeae5470	-0.34048796
21	0x3c30ec40	0.010798514
22	0x3e4500fc	0.19238657
23	0x3dea241a	0.11432667
24	0xbd694483	-0.056950103
25	0xbede5b89	-0.4342921
26	0x3efbbd89	0.4916804
27	0xbe93f848	-0.2890036
28	0xbf4819b1	-0.781642
29	0xbeae9202	-0.3409577
30	0x3d6a4d1e	0.05720245
31	0xbfe3f9bd	-1.7810589
32	0x3f35282b	0.70764416
33	0xbf562517	-0.83650345
34	0x3d545ceb	0.051846426
35	0x3f0ef348	0.5583997
36	0x3e523022	0.20526174
37	0x3f1ce501	0.6128693
38	0xbec0da50	-0.3766656
39	0xbf607556	-0.8767904
40	0xbee838d3	-0.45355853
41	0xbe332577	-0.1749476
42	0xbe641683	-0.22274213
43	0xbe56a443	-0.20961098
44	0x3b98b30b	0.0046600155
45	0x3eb075db	0.34464917
46	0xbef036ce	-0.46916813
47	0xbd90bda0	-0.07067418
48	0xbe89dc9e	-0.2692613
49	0x3e4bb07d	0.19891544
50	0xbeda3e40	-0.42625618
51	0x3f411285	0.75418884
52	0x3f32f933	0.699115
53	0xbe6b11b0	-0.22955966
54	0x3efb0e1c	0.49034202
55	0x3e1f49e2	0.15555528
56	0xbf365462	-0.7122251
57	0x3eb8cf03	0.36095437
58	0x3e78e580	0.24306297
59	0xbbaab1a2	-0.0052091638
60	0x3fa8cfdc	1.3188434
61	0x3f0009b2	0.50014794
62	0xbd8ecdc2	-0.06972839
63	0xbdc7d98d	-0.097582914
64	0x3e1b0c97	0.15141521
65	0x3f3466bc	0.7046926
66	0x3d16a538	0.03677866
67	0xbef4baa5	-0.47798648
68	0x3f4b37e2	0.79382145
69	0xbe3000fb	-0.17187874
70	0xbf3cac46	-0.7370037
71	0xbea5a1b8	-0.32349944
72	0xbfb70964	-1.4299741
73	0xbc43adce	-0.011943294
74	0xbf12c3b8	-0.57329893
75	0x3d7c87e9	0.06165305
76	0xbdbb7505	-0.09153179
77	0xbde22c1d	-0.1104357
78	0xbdfa2e8b	-0.122159086
79	0x3f9c17b2	1.2194731
80	0xbecc356c	-0.39884508
81	0x3f0910ff	0.5354156
82	0x3ea498e7	0.32147905
83	0x3f2b1fd7	0.6684546
84	0x3e4d508e	0.2005026
85	0xbceef454	-0.02916924
86	0xbd3c129f	-0.045916196
87	0xbde3324c	-0.11093578
88	0x3e7691a4	0.24078995
89	0xbe2c7b11	-0.16843821
90	0x3ddf353f	0.10898828
91	0xbe906cde	-0.2820806
92	0xbe62c47a	-0.22145262
93	0xbca8e9d9	-0.02061932
94	0x3f1ceb64	0.6129668
95	0xbd8d17db	-0.06889316
96	0x3d52fe90	0.0515123
97	0x3f19e482	0.601143
98	0x3de1929d	0.110142924
99	0xbef42bc8	-0.47689652
100	0x3ee5d7bd	0.44891158
101	0x3e50b20b	0.20380418
102	0xbf5c5c50	-0.8607836
103	0xbe7e8d3b	-0.24858563
104	0x3f2caaad	0.6744793
105	0x3e9564f6	0.2917859
106	0xbe81de60	-0.2536497
107	0x3de5eee2	0.11227204
108	0x3d7675ab	0.06017081
109	0x3eaee4d0	0.34158945
110	0x3ef250d5	0.47327295
111	0x3c28d0d9	0.010303699
112	0xbdde9f55	-0.10870234
113	0x3d5c97b7	0.053855624
114	0xbeb58c80	-0.35458755
115	0x3dd6f4af	0.104958884
116	0xbeb5ac8b	-0.35483202
117	0x3ee1ad70	0.44077635
118	0x3fae3332	1.3609374
119	0xbf159304	-0.58427453
120	0xbec88a9e	-0.39168257
121	0xbd6f4064	-0.058411017
122	0x3f848f8b	1.0356306
123	0xbce4488a	-0.02786662
124	0x3dccd26f	0.100010745
125	0x3fabfe59	1.3436996
126	0xbddf9f00	-0.10918999
127	0xbe3fdbf5	-0.1873625
128	0xbe36bf80	-0.17846489
129	0x3c514b9a	0.0127743725
130	0xbdc34334	-0.09534302
131	0x3f64875a	0.8926903
132	0xbf3c3ab5	-0.7352708
133	0xbc85f103	-0.016350275
134	0x3f31b808	0.69421434
135	0xbcca3869	-0.024685102
136	0xbfa71e07	-1.3056039
137	0x3f0192a0	0.50614357
138	0xbeb380a3	-0.3505908
139	0xbea8efd0	-0.32995462
140	0x3e563a3b	0.2092065
141	0xbf74278a	-0.9537283
142	0x3c4a017f	0.012329458
143	0xbed2127c	-0.41029727
144	0xbdd3a215	-0.10333649
145	0xbf3e8711	-0.74424845
146	0xbe6d23f3	-0.23158245
147	0x3e9928c4	0.29913914
148	0x3e827576	0.2548024
149	0xbd63f05b	-0.055649143
150	0x3f9142ab	1.134847
151	0x3f983720	1.1891823
152	0x3eab83b3	0.33498916
153	0x3e6d2ae8	0.23160899
154	0x3e43f1e2	0.1913524
155	0x3f43f38f	0.76543516
156	0x3dda95cf	0.10673105
157	0x3eab31b6	0.33436364
158	0x3f13e199	0.5776611
159	0x3d5813a9	0.052753124
160	0x3ed7874d	0.42095414
161	0x3e1a7b95	0.15086205
162	0xbf084ce8	-0.5324235
163	0x3f2b4694	0.6690457
164	0x3f280df9	0.6564632
165	0xbe5ea050	-0.21740842
166	0xbe9fa383	-0.31179437
167	0x3fa0ff71	1.2577955
168	0xbe8d768c	-0.27629507
169	0xbf38d311	-0.7219706
170	0x3f33a9f5	0.7018121
171	0xbe8e5fc1	-0.2780743
172	0x3bf566e9	0.0074890745
173	0x3ea1cab5	0.31599966
174	0x3dc8e3a1	0.09809042
175	0x3ebd07cb	0.36920008
176	0x3ef3d43d	0.47622862
177	0x3e29ab7c	0.16569322
178	0x3ec8740d	0.3915104
179	0xbddd50d5	-0.10806433
180	0x3dbd33b3	0.092383765
181	0xbdc6884f	-0.096939676
182	0xbd1aae24	-0.03776373
183	0xbe98ce89	-0.29845074
184	0xbddd4c03	-0.10805514
185	0x3d4571e0	0.048204303
186	0x3ec5ecb4	0.38657153
187	0x3efa8b38	0.4893434
188	0xbea47216	-0.3211829
189	0x3f36cdcd	0.7140778
190	0xbf431138	-0.7619815
191	0x3e926424	0.28592026
192	0xbf14f88b	-0.58191746
193	0xbe1be061	-0.15222313
194	0xbdeb98eb	-0.11503776
195	0x3e9433f2	0.2894588
196	0xbe9bb96e	-0.3041491
197	0xbf4b0eb8	-0.79319334
198	0x3e9128fc	0.2835158
199	0xbdc59c24	-0.09648922
200	0x3f1b37d5	0.6063207
201	0xbebad157	-0.3648784
202	0xbcafaf9a	-0.021446038
203	0x3b4de40a	0.003141644
204	0xbe15c756	-0.14626822
205	0xbef0d017	-0.4703376
206	0xbea40dab	-0.32041678
207	0xbf208fc8	-0.6271939
208	0x3eed1cc9	0.46311024
209	0xbf2146d9	-0.6299873
210	0xbed18aa3	-0.40926084
211	0xbf485229	-0.78250366
212	0xbe1fc330	-0.15601802
213	0xbf1c55ec	-0.61068606
214	0x3f1f35e8	0.6219163
215	0xbde9f660	-0.114239454
216	0xbe7140ee	-0.23559925
217	0xbd2b3a5d	-0.041803706
218	0x3e6f4c7a	0.23369017
219	0x3db7881d	0.089615084
220	0x3c1d2886	0.009592181
221	0xbe222d10	-0.15837502
222	0x3e59f04a	0.21283069
223	0x3d833144	0.06405881
224	0xbeab7c5f	-0.33493325
225	0xbf0b5cab	-0.54438275
226	0x3db3428c	0.08752927
227	0x3e3704ab	0.17872874
228	0x3dbabcd2	0.09118046
229	0xbf782fe6	-0.9694809
230	0x3ead72f4	0.33876765
231	0x3f98ed54	1.1947427
232	0x3ed0fa98	0.40816188
233	0xbc9b94a5	-0.018991778
234	0xbe55a77e	-0.20864674
235	0xbdd7ecf8	-0.10543245
236	0x3f1c5d22	0.6107961
237	0x3e16129a	0.14655533
238	0xbe7e6bbf	-0.2484579
239	0xbc636026	-0.013877904
240	0x3e0eaab0	0.139323
241	0xbe768c42	-0.24076942
242	0x3e4b0a95	0.19828255
243	0x3eca752b	0.39542517
244	0x3f021227	0.5080895
245	0xbf77e09d	-0.9682711
246	0xbf24cf1b	-0.6437852
247	0xbdc333c7	-0.0953136
248	0xbf481391	-0.78154856
249	0xbed164db	-0.4089726
250	0xbda7bb5c	-0.08190033
251	0xbe42f5cd	-0.19039078
252	0xbd926278	-0.07147688
253	0xbf64fe18	-0.89450216
254	0x3f1ac3bc	0.60454917
255	0xbcc1ae83	-0.023642784

layer2.2.weight f4 [256, 256]
0	0xbd58adb1	-0.05290002
1	0x3da3e262	0.080021635
2	0xbe9adb36	-0.3024537
3	0x3e30eabe	0.17277047
4	0x3dd97c4a	0.106194094
5	0xbdf94c73	-0.12172785
6	0x3df23442	0.11826374
7	0x3e520728	0.20510542
8	0xbd485335	-0.048907477
9	0xbe6615a6	-0.22469196
10	0x3d177f22	0.036986478
11	0x3c30f638	0.010800891
12	0xbe62b09d	-0.22137685
13	0x3e02643c	0.12733549
14	0x3e59987b	0.21249573
15	0xbdd44708	-0.10365111
16	0x3e8028a6	0.25031012
17	0x3d84eba5	0.06490258
18	0x3e1b8275	0.15186484
19	0x3c87f23d	0.016595
20	0x3e0246e7	0.1272236
21	0x3cdbd2eb	0.026833972
22	0xbe19d1dd	-0.15021463
23	0x3e637253	0.2221158
24	0xbe1fc05b	-0.15600722
25	0x3e8c4ac9	0.27400807
26	0x3e397b21	0.18113376
27	0xbe1062be	-0.14100167
28	0x3e572077	0.21008478
29	0x3ed31908	0.41230035
30	0xbd39fea4	-0.04540886
31	0x3d8a92e2	0.06766297
32	0xbed4fbff	-0.41598508
33	0x3f1cd64a	0.6126448
34	0xbd9570a8	-0.07296878
35	0xbd95da8d	-0.07317076
36	0xbd3224ed	-0.043492246
37	0xbe8433de	-0.25820822
38	0x3dcab882	0.09898473
39	0x3dad63f8	0.08466333
40	0x3e696d4c	0.227956
41	0xbd7d4cf3	-0.061840963
42	0xbd49f273	-0.049303483
43	0xbe59de0d	-0.21276112
44	0x3e259170	0.16168761
45	0xbcdd1ec5	-0.026992211
46	0x3e968db8	0.29404998
47	0xbc8bf2de	-0.017083582
48	0x3c88f3e1	0.016717853
49	0x3a0cd4a8	0.00053722644
50	0x3e7ad79c	0.24496311
51	0x3e60786c	0.21920937
52	0xbd07a391	-0.033114973
53	0x3ed98790	0.42486238
54	0xbdea1dfc	-0.114315
55	0x3dea175e	0.11430238
56	0x3e5a99e9	0.21347775
57	0xbe85db02	-0.26143652
58	0xbe1de976	-0.1542109
59	0x3e390913	0.18069868
60	0x3e39cefb	0.18145363
61	0x3d416935	0.047219474
62	0xbe344405	-0.17604072
63	0x3e91ce5a	0.28477746
64	0x3e5d9eb1	0.21642567
65	0x3d24f82d	0.04027574
66	0x3d8ec94b	0.06971987
67	0x3e0f57fa	0.13998404
68	0xbe3b79af	-0.18308137
69	0xbef368ae	-0.47540802
70	0x3dc4f3d8	0.09616822
71	0x3eba20a0	0.36353016
72	0xbe69c0b7	-0.22827421
73	0xbcd5803b	-0.026062122
74	0x3db8dd82	0.09026624
75	0x3df4a76c	0.11945996
76	0x3e42e2c4	0.19031817
77	0xbe8017bb	-0.25018105
78	0xbdfd2f84	-0.123625785
79	0x3da29fba	0.07940622
80	0xbe15f372	-0.14643648
81	0xbc179282	-0.009251239
82	0xbdc19dd2	-0.0945393
83	0xbebef4ee	-0.37296242
84	0xbe11f6fc	-0.14254373
85	0x3d8e6ed1	0.0695473
86	0xbd7ece69	-0.062208567
87	0x3e303c9a	0.17210618
88	0x3d8dab2c	0.06917414
89	0x3e52bb23	0.205792
90	0x3e85be32	0.2612167
91	0xbe20118f	-0.15631698
92	0xbd5fbf27	-0.054625656
93	0xbcafbe1b	-0.021452954
94	0x3e07ad2c	0.13249654
95	0xbddbf3e0	-0.10739875
96	0xbe377070	-0.17913985
97	0xbe003d73	-0.12523441
98	0x3df20f6e	0.11819349
99	0x3db1b2de	0.08676694
100	0x3c116818	0.008874916
101	0x3d932a76	0.07185833
102	0x3e6a3b61	0.22874214
103	0x3e50a0c4	0.20373827
104	0xbe76b3ff	-0.240921
105	0x3d086d27	0.03330722
106	0xbd543629	-0.051809464
107	0xbe51b4d9	-0.20479144
108	0x3e742a26	0.23844203
109	0xbeb947e4	-0.3618766
110	0xbd9f04cd	-0.077645876
111	0x3badc4a0	0.0053029805
112	0xbe36b474	-0.17842275
113	0xbbfdfc74	-0.007751042
114	0x3e4de4be	0.2010679
115	0xbed4094e	-0.4141335
116	0xbe087db6	-0.13329205
117	0xbead520c	-0.3385166
118	0xbf23c18a	-0.6396719
119	0x3e4648a5	0.19363649
120	0xbe03a0a6	-0.12854251
121	0xbdc444a2	-0.09583403
122	0xbd1c3029	-0.038131867
123	0x3e9618a6	0.2931568
124	0x3e0560f0	0.1302526
125	0x3e81d500	0.2535782
126	0xbefa31af	-0.4886603
127	0x3c8933d2	0.016748343
128	0xbc9e4f36	-0.01932488
129	0xbdd002d0	-0.101567864
130	0x3d3f87c5	0.04676034
131	0xbe3d710b	-0.18500154
132	0x3dc93c42	0.098259464
133	0xbe03e1ac	-0.12879056
134	0xbebe1e27	-0.3713238
135	0x3d9a8bd4	0.07546201
136	0x3eca936a	0.39565593
137	0xbc7aaa52	-0.015299397
138	0x3e23580b	0.15951554
139	0xbd81ba59	-0.06334371
140	0xbd2874b7	-0.041126933
141	0x3e3f810e	0.18701574
142	0x3d83b9f3	0.064319514
143	0xbddc311a	-0.10751553
144	0x3d22027d	0.039553154
145	0x3e7647ac	0.24050778
146	0xbdb5a070	-0.08868492
147	0xbd7d895b	-0.06189857
148	0xbd9fc034	-0.07800332
149	0x3dfa23ae	0.122138366
150	0x3e8a9ff5	0.27075163
151	0xbeac2652	-0.33622986
152	0xbce891c0	-0.028389812
153	0xbe74a9e3	-0.23892932
154	0x3d669aa5	0.056299824
155	0xbe863ec2	-0.26219755
156	0xbea57e32	-0.32322842
157	0x3e8d9a8c	0.27656972
158	0xbdfe241a	-0.124092296
159	0x3c8b6e16	0.017020267
160	0x3c7196e5	0.014745449
161	0xbdf1c5a0	-0.11805272
162	0xbdbf57c4	-0.09342912
163	0x3e67fb1b	0.22654383
164	0xbe5e106a	-0.21685949
165	0xbc80073c	-0.01562845
166	0x3ee9cf7a	0.45666105
167	0xbb6e833b	-0.0036394137
168	0x3de2304e	0.1104437
169	0xbd682751	-0.05667812
170	0xbceea982	-0.029133562
171	0x3d6f7de1	0.058469657
172	0xbe56bda3	-0.20970778
173	0xbda8938a	-0.08231266
174	0x3d9e7e3a	0.077389196
175	0xbe812583	-0.25223932
176	0x3ddfe37a	0.109320596
177	0x3ddef416	0.108863994
178	0x3d2da69f	0.04239523
179	0x3ddbaf9a	0.10726853
180	0xbe9794ff	-0.29605862
181	0xbdb190c0	-0.08670187
182	0x3e2195d9	0.15779819
183	0x3e1ee3a5	0.15516527
184	0xbe776672	-0.24160174
185	0x3d7ec9b6	0.062204085
186	0x3e4f1c37	0.20225607
187	0xbef9bf1e	-0.48778623
188	0x3e6eb16f	0.23309873
189	0xbd9192ac	-0.071080536
190	0xbe2a63c8	-0.16639626
191	0xbe953b4c	-0.29146802
192	0x3e9b7e44	0.3036977
193	0xbd7f470f	-0.062323626
194	0xbb539964	-0.0032287473
195	0xbe084dac	-0.1331088
196	0x3e36657b	0.17812149
197	0x3eb939a4	0.3617679
198	0x3e7cf038	0.24701011
199	0xbd7e5e3d	-0.06210159
200	0xbe094f03	-0.13409047
201	0x3dcc6a7e	0.09981249
202	0xbe6ab4e7	-0.22920571
203	0x3e15059c	0.14552921
204	0x3e7f5da7	0.2493807
205	0x3e73ea5e	0.23819873
206	0x3dca9618	0.09891909
207	0x3e03b5b6	0.12862286
208	0xbe2c85fa	-0.16847983
209	0xbd452219	-0.04812822
210	0x3e53e761	0.20693733
211	0x3e580583	0.21095853
212	0x3d290c17	0.041271295
213	0x3e0dfac3	0.13865189
214	0x3d1d30b3	0.03837652
215	0xbe822826	-0.25421256
216	0xbd5295ab	-0.051412266
217	0x3dea9ec4	0.114560634
218	0xbe41deec	-0.18932694
219	0xbe3de6d2	-0.18545082
220	0x3d49ab20	0.049235463
221	0x3e428a71	0.18998124
222	0xbdd2768e	-0.10276519
223	0x3e4600f9	0.19336309
224	0x3e03bfae	0.12866089
225	0x3eada3dc	0.33914077
226	0x3caeab49	0.02132191
227	0x3eadae1a	0.3392189
228	0x3e6f3619	0.2336048
229	0xbd8689bc	-0.065692395
230	0xbe2a91d9	-0.16657199
231	0xbe27850b	-0.16359346
232	0xbe28fbf7	-0.16502367
233	0xbea7bc06	-0.32760638
234	0x3d9fb864	0.077988416
235	0x3cdd370e	0.027003791
236	0xbe46b4eb	-0.19404952
237	0x3e64e2e7	0.22352181
238	0x3d3938b1	0.04522008
239	0x3d8b2940	0.06794977
240	0xbd3f78d7	-0.0467461
241	0x3e99a3d8	0.30007815
242	0x3e5e62cb	0.21717374
243	0xbd11f46e	-0.035633497
244	0xbdd620e4	-0.10455492
245	0xbd8b737a	-0.06809135
246	0x3dd0309f	0.10165524
247	0x3d412d08	0.047162086
248	0x3e94feda	0.29100686
249	0x3e84a97d	0.2591056
250	0x3e366bd9	0.17814578
251	0x3d033837	0.032036033
252	0x3e9a6382	0.30154043
253	0x3e5491b8	0.20758712
254	0xbe8b6f74	-0.2723347
255	0x3dea89b4	0.11452046

layer2.2.bias f4 [256]
0	0xbeeceb1c	-0.46273124
1	0xbe93d6e0	-0.28874874
2	0xbd8cfd90	-0.06884301
3	0x3e53220e	0.2061846
4	0xbe6a9985	-0.22910126
5	0xbf0d6723	-0.552355
6	0x3ebbe2a1	0.36696342
7	0xbebfc8f3	-0.37458
8	0xbdfe98c0	-0.124314785
9	0xbe9683ed	-0.29397526
10	0x3e1d3d9c	0.15355533
11	0x3dbcc94e	0.09218083
12	0xbeaeb35f	-0.34121224
13	0xbd7b04e5	-0.061283965
14	0x3da4d822	0.080490366
15	0x3d3e4f09	0.046462093
16	0x3d817b57	0.06322353
17	0x3df26fdf	0.11837744
18	0x3e6cae03	0.23113255
19	0x3c8d7bfc	0.017271034
20	0x3d84ec18	0.06490344
21	0x3e185b65	0.14878614
22	0x3e0879f0	0.13327765
23	0x3e111649	0.14168657
24	0xbc6c68dc	-0.014429297
25	0xbd87c2da	-0.06628962
26	0x3e107314	0.14106399
27	0xbeabb1b2	-0.33534008
28	0x3e0a4725	0.13503702
29	0x3f1706de	0.58994853
30	0x3e89fda3	0.26951322
31	0x3e47487f	0.19461249
32	0x3d205e76	0.039152585
33	0x3edce4e7	0.4314339
34	0x3da45821	0.08024622
35	0xbed25901	-0.4108353
36	0x3e2fafc3	0.17156892
37	0x3ce37cab	0.027769407
38	0xbec4c98a	-0.38435012
39	0xbd97c5b2	-0.07410754
40	0xbe50f39b	-0.20405428
41	0x3e8f4e2e	0.27989334
42	0x3af674cb	0.0018803118
43	0x3f057e01	0.5214539
44	0x3e04571b	0.12923853
45	0xbe69fffb	-0.22851555
46	0x3e73226f	0.23743604
47	0x3eb22e58	0.34800982
48	0x3e6da595	0.23207696
49	0xbf0449ab	-0.5167491
50	0xbd9c7789	-0.07639987
51	0x3e592d66	0.21208724
52	0xbe5d2fde	-0.21600291
53	0xbe554726	-0.20827922
54	0x3d808b1b	0.06276532
55	0x3db0d0f2	0.08633603
56	0x3e634dfd	0.22197719
57	0x3e262518	0.16225088
58	0xbd88518c	-0.06656179
59	0xbc6cd306	-0.014454609
60	0x3e263b9d	0.16233678
61	0x3d0d5c44	0.03451182
62	0xbdd7e240	-0.10541201
63	0x3e2b65c1	0.16738035
64	0x3eb99ad9	0.36250952
65	0xbe511fa9	-0.20422234
66	0xbedb1810	-0.42791796
67	0x3e86434e	0.26223224
68	0x3eb8e666	0.3611328
69	0xbcb75dae	-0.022383537
70	0xbdea4f8d	-0.11440954
71	0x3cafdfaf	0.021468965
72	0x3f0050e3	0.50123423
73	0xbe3146f7	-0.17312227
74	0xbf0566b1	-0.5210982
75	0x3dde7be0	0.10863471
76	0xbd1838ed	-0.037163664
77	0x3e7b84c9	0.24562372
78	0xbe6abba4	-0.22923142
79	0xbe47c880	-0.19510078
80	0x3d3f2a30	0.046671093
81	0xbda06fce	-0.07833825
82	0x3d46577d	0.04842328
83	0xbf160d96	-0.5861448
84	0xbe20f50b	-0.15718476
85	0x3e891518	0.26773906
86	0x3dbedc79	0.093193956
87	0x3d9c1b6f	0.0762242
88	0x3ddc7885	0.10765175
89	0x3e4f4ad8	0.20243394
90	0xbdc4aaca	-0.09602888
91	0xbf0bc84e	-0.54602516
92	0x3e48a9f9	0.1959609
93	0x3ed079c5	0.40717903
94	0x3e35a4f2	0.17738703
95	0x3e972d70	0.29526854
96	0x3e4f0878	0.20218074
97	0xbe19f743	-0.15035729
98	0xbd13305a	-0.035934784
99	0x3e13cec4	0.14434344
100	0x3e0a9dab	0.13536708
101	0x3ea0f152	0.31434113
102	0x3cfec91b	0.031101754
103	0xbeac043d	-0.33596984
104	0xbef044a4	-0.4692737
105	0x3c109fe3	0.008827182
106	0x3b834ba5	0.0040068203
107	0x3efb6357	0.49099228
108	0x3de3213e	0.11090325
109	0x3e4c19ef	0.19931768
110	0xbeceb222	-0.4037028
111	0xbdcd54b0	-0.100259185
112	0x3e7608a6	0.24026737
113	0xbe8df205	-0.2772371
114	0xbe800a4e	-0.25007862
115	0x3e1d3095	0.15350564
116	0x3e0c8238	0.1372155
117	0x3dbdbbb6	0.09264319
118	0x3f081ec2	0.5317193
119	0xbe6e1a97	-0.2325233
120	0xbe41cd4a	-0.18925968
121	0x3ef6834f	0.48147056
122	0x3e984a8b	0.29744372
123	0xbde9f4e3	-0.114236616
124	0x3e8a566e	0.27019066
125	0xbdbceced	-0.092248775
126	0x3dbf83f2	0.093513384
127	0x3e6f9859	0.2339796
128	0xbd44b5cd	-0.04802494
129	0x3cf319b5	0.029675344
130	0x3eac16dd	0.33611193
131	0x3b5a80e9	0.0033340997
132	0xbde90a5f	-0.11378931
133	0xbdf9c88b	-0.12196454
134	0xbe441425	-0.1914831
135	0x3ddcf040	0.107880116
136	0x3e43cc57	0.19120918
137	0x3e2f1f33	0.17101745
138	0x3e6c889b	0.23098986
139	0xbe13481e	-0.1438298
140	0xbeab6511	-0.33475545
141	0xbe088041	-0.13330175
142	0x3d9a35b8	0.07529777
143	0x3f125ff6	0.57177675
144	0x3eb74be2	0.35800081
145	0xbe8bd821	-0.2731333
146	0x3db30121	0.0874045
147	0xbeb048f6	-0.34430665
148	0x3c9c47a5	0.019077132
149	0x3e8ef8b7	0.2792413
150	0x3ee56cb7	0.44809505
151	0xbd836394	-0.064154774
152	0xbe29efa0	-0.16595316
153	0x3dca917a	0.09891029
154	0x3eed3ee5	0.46337047
155	0xbdd4c45e	-0.103890166
156	0x3d119618	0.03554353
157	0x3ceb2814	0.028705634
158	0x3ee67cd4	0.4501711
159	0xbdc0a994	-0.094073445
160	0x3ddef928	0.108873665
161	0x3df00da8	0.11721355
162	0x3c44a8b7	0.012003115
163	0xbe026690	-0.12734437
164	0xbaff08c3	-0.0019457567
165	0x3da1314c	0.07870731
166	0xbecc41a5	-0.39893833
167	0xbf05690e	-0.52113426
168	0x3e2b8be5	0.16752584
169	0x3d0d5a0a	0.034509696
170	0xbdc9203a	-0.098206
171	0xbd79846f	-0.060917314
172	0x3ed46ae3	0.41487798
173	0xbe2dbb15	-0.16965897
174	0x3efe8ad3	0.4971529
175	0x3e089f3b	0.13341992
176	0x3e20ec65	0.15715177
177	0x3e8abecd	0.27098694
178	0xbde6e1d6	-0.112735435
179	0x3eb1bc13	0.34713802
180	0xbc3b9a05	-0.011450295
181	0x3ec0dcae	0.37668365
182	0x3e9387fb	0.28814682
183	0xbe075e5e	-0.13219592
184	0x3ea42dae	0.320661
185	0x3e6dd3d8	0.23225343
186	0x3e47dc4a	0.19517627
187	0x3db54de3	0.08852746
188	0x3c893277	0.016747696
189	0xbb8c71c9	-0.004286025
190	0x3d56fae6	0.05248537
191	0x3ee786bf	0.4521999
192	0xbe966920	-0.2937708
193	0x3e919d58	0.28440356
194	0xbb9901df	-0.0046694125
195	0x3df9fe7d	0.12206743
196	0x3dc23d38	0.09484333
197	0x3f0d9643	0.55307406
198	0x3e634d02	0.22197345
199	0xbe7efc01	-0.2490082
200	0xbe12fb8d	-0.14353772
201	0xbd2cd728	-0.042197376
202	0x3f02c8de	0.5108775
203	0xbe7bc821	-0.24588062
204	0x3e4e38b6	0.20138821
205	0x3e97ffc0	0.2968731
206	0xbe7f80ce	-0.24951479
207	0xbef25e3e	-0.47337526
208	0xbe7c6b93	-0.24650411
209	0xbe7d45ad	-0.2473361
210	0xbe9dee6b	-0.3084596
211	0xbce15d49	-0.027510302
212	0xbd9907a0	-0.074721575
213	0x3d9ad7ac	0.075606674
214	0xbe732fe6	-0.2374874
215	0xbe5b6039	-0.21423425
216	0x3ef4c8e2	0.4780951
217	0xbe9909b9	-0.2989023
218	0x3c73089d	0.014833597
219	0xbe5f3746	-0.21798429
220	0x3d8edf29	0.06976158
221	0xbe014474	-0.12623769
222	0xbe0865f3	-0.1332014
223	0x3f2668fb	0.6500394
224	0x3e01a4c3	0.12660508
225	0x3e0066fb	0.12539284
226	0xbe850e6f	-0.25987574
227	0x3e2f2f34	0.1710785
228	0xbe68a3b3	-0.22718696
229	0xbf9e3319	-1.2359344
230	0x3dd7d467	0.105385594
231	0x3d20d496	0.039265238
232	0x3e088877	0.13333307
233	0xbeadd881	-0.33954242
234	0xbddab2b3	-0.106786154
235	0xba84f4b1	-0.0010143725
236	0x3ea46e69	0.32115486
237	0xbee3020e	-0.44337505
238	0x3ded367e	0.11582659
239	0x3d8a417e	0.06750773
240	0xbd268bcf	-0.040660676
241	0x3de5da4c	0.112232774
242	0xbf21631c	-0.63041854
243	0x3ed8013b	0.4218844
244	0x3ce27274	0.027642466
245	0xbea437a6	-0.32073706
246	0x3ebef6e5	0.3729774
247	0xbee8a367	-0.45437166
248	0xbef3862c	-0.47563303
249	0x3e885876	0.2662999
250	0xbf1124cd	-0.5669678
251	0x3d3aa675	0.045568902
252	0x3e2d7158	0.16937768
253	0x3e21a778	0.1578654
254	0xbe3fccbe	-0.18730447
255	0x3d80c934	0.062883765

layer2.4.weight f4 [10, 256]
0	0x3dbc4336	0.09192507
1	0x3f62b473	0.88556594
2	0xbeab639f	-0.33474442
3	0xbe6ce36d	-0.23133631
4	0x3db78964	0.08961752
5	0xbd6ca685	-0.057775993
6	0xbe144038	-0.14477623
7	0x3d002837	0.031288352
8	0x3e1f3f13	0.15551405
9	0xbd21f4fd	-0.03954028
10	0xbd84f8e1	-0.064927824
11	0x3e01d378	0.12678325
12	0x3e896947	0.26838133
13	0xbe11fcc7	-0.14256583
14	0x3e025095	0.12726052
15	0xbda1e230	-0.0790447
16	0xbea51292	-0.3224073
17	0xbbcc623c	-0.0062372964
18	0x3c64ddb7	0.013968877
19	0x3e33bb5a	0.17551938
20	0x3c200834	0.009767581
21	0xbe460fa0	-0.19341898
22	0xbc85d5be	-0.016337272
23	0x3ddb8b0c	0.107198805
24	0xbf1a10f3	-0.6018211
25	0xbc8a273f	-0.016864417
26	0x3d6177a5	0.055045743
27	0x3da8a4ba	0.08234544
28	0xbddf3430	-0.10898626
29	0xbcbda441	-0.023149611
30	0x3cfcdc2b	0.030866703
31	0xbd3b7637	-0.045767035
32	0xbd717fcc	-0.058959767
33	0x3e305491	0.1721976
34	0xbf8d2374	-1.1026444
35	0x3dae4782	0.08509733
36	0xbdc54199	-0.096316524
37	0xbc4eb3ff	-0.012616157
38	0x3de68ad4	0.11256948
39	0x3c6301cb	0.013855408
40	0x3bf6539d	0.0075172917
41	0xbd1571ad	-0.036485363
42	0x3d5ec1e9	0.054384146
43	0xbda26560	-0.07929492
44	0xbc59a8e0	-0.013284892
45	0xbe4c557b	-0.19954483
46	0xbeccf9ad	-0.40034238
47	0xbd476491	-0.048679892
48	0x3cf8a1ae	0.030350532
49	0x3e124bff	0.14286803
50	0xbd4bba9d	-0.049738515
51	0xbdba5d81	-0.09099866
52	0x3d902a56	0.07039325
53	0xbd393dcf	-0.04522496
54	0xbe47ade3	-0.19499926
55	0x3c7daa5b	0.01548251
56	0xbd88e755	-0.06684748
57	0xbec321e8	-0.38111806
58	0xbdae5926	-0.085130975
59	0x3dd42bea	0.103599384
60	0xbdd0b460	-0.10190654
61	0xbd39d9b8	-0.04537365
62	0x3d0cf8f2	0.0344171
63	0xbca3f3b1	-0.020013662
64	0xbf5bec5d	-0.85907537
65	0x3dd76972	0.10518159
66	0x3e01e8f0	0.12686515
67	0xbda8454e	-0.08216344
68	0x3d0074ea	0.031361498
69	0xbd14a934	-0.036294177
70	0x3de9a6dc	0.11408779
71	0x3ea1814d	0.3154396
72	0xbe106beb	-0.14103667
73	0xbd581683	-0.052755844
74	0x3dbd7936	0.09251635
75	0x3d0fff53	0.035155606
76	0x3ca4a963	0.020100301
77	0x3d0020fc	0.031281456
78	0xbce521ef	-0.027970282
79	0x3cd4219b	0.02589493
80	0xbd67ecef	-0.05662244
81	0x3d2de0ab	0.04245059
82	0x3bd02f12	0.0063532675
83	0x3e419693	0.18905096
84	0x3e86bc45	0.26315513
85	0x3cd874cf	0.026422886
86	0xbe85ac4f	-0.26108024
87	0x3d67d2ed	0.05659764
88	0xbc8d2525	-0.017229626
89	0x374a1f14	1.2047374e-05
90	0x3c713229	0.014721432
91	0x3dc0c078	0.094117105
92	0xbd57a3f7	-0.052646603
93	0xc021ed78	-2.530119
94	0xbdc0cb2c	-0.09413752
95	0xbf134c00	-0.5753784
96	0x3c83ff4f	0.016112952
97	0x3e779aa1	0.2418008
98	0x3d0516fe	0.03249263
99	0xbdd56520	-0.10419679
100	0x3d22afeb	0.03971855
101	0x3df4d48a	0.11954601
102	0x3c99e8b3	0.018787717
103	0xbc2d5e6f	-0.010581597
104	0x3ecb4c99	0.39706877
105	0x3e01cbcb	0.12675397
106	0x3e05a157	0.13049828
107	0x3cd7826f	0.026307313
108	0x3d89fc98	0.067376316
109	0x3edd8c2b	0.43271002
110	0x3d692716	0.05692204
111	0x3dd8cf50	0.10586417
112	0xba57bb8c	-0.0008229546
113	0x3de56314	0.11200538
114	0xbd00c473	-0.03143735
115	0xbd0490f6	-0.032364808
116	0x3ea20d89	0.31650952
117	0xbc2c1b57	-0.010504565
118	0xbe11c0d1	-0.1423371
119	0xbc3c0453	-0.01147564
120	0x3d21646f	0.03940242
121	0xbd936954	-0.07197824
122	0x3d0440ae	0.032288246
123	0x3e0a3c8d	0.13499661
124	0xbedf2c7b	-0.43588623
125	0x3d7bc349	0.061465535
126	0x3da18910	0.07887471
127	0xbcb38e3f	-0.021918414
128	0xbefd41e0	-0.4946432
129	0xbe0f925f	-0.1402068
130	0xbe9a5d73	-0.3014942
131	0x3db9f6f2	0.09080304
132	0x3ff6cbb4	1.9280915
133	0xbccba1d7	-0.024857445
134	0x3c2c98c1	0.010534466
135	0xbd4a27cb	-0.049354356
136	0xbe374ea9	-0.179011
137	0xbe1728ba	-0.1476163
138	0xbc85698d	-0.016285682
139	0x393fdbd9	0.00018297079
140	0x3e97878c	0.29595602
141	0xbb23afd7	-0.0024976635
142	0x3e318c62	0.17338708
143	0xbe30fb71	-0.17283417
144	0xbd92228a	-0.07135494
145	0x3f48db8a	0.7845999
146	0x3d9b763b	0.0759091
147	0x3d5171db	0.05113397
148	0x3e024091	0.12719943
149	0xbd0d3d93	-0.03448255
150	0xbcf862ec	-0.030320607
151	0x3e4a104a	0.19732776
152	0xbf84e326	-1.038182
153	0xbf280155	-0.6562703
154	0xbc9385bf	-0.018008111
155	0x3cdb35d9	0.026759075
156	0xbe07863d	-0.13234802
157	0xbbe6a35d	-0.0070385174
158	0xbd1e178f	-0.038596686
159	0x3ca48bf3	0.020086264
160	0xbd9906bd	-0.07471988
161	0xbda1bd1a	-0.078973964
162	0xbd3f4b29	-0.046702538
163	0x3b636677	0.0034698525
164	0x3ec4f32d	0.38466778
165	0x3ca3f666	0.020014953
166	0x3d81d4b2	0.063393965
167	0x3d92db06	0.07170682
168	0xbd7eef0e	-0.0622397
169	0xbc8fd78f	-0.017558841
170	0x3c687d5b	0.014190043
171	0x3d546263	0.05185164
172	0xbd7d7b53	-0.06188519
173	0xbd9594e1	-0.07303787
174	0xbd5b5d7d	-0.053555954
175	0xbcfd041b	-0.030885747
176	0xbe705297	-0.23469006
177	0xbd46b325	-0.04851069
178	0xbb83c495	-0.004021237
179	0xb973c1da	-0.00023246501
180	0xbe2eba8d	-0.17063351
181	0xbd4e8982	-0.050424106
182	0xbc9fbea5	-0.019500086
183	0x3e3f249f	0.18666314
184	0xbe09bbae	-0.134505
185	0xbcdacede	-0.02670997
186	0x3da7ccee	0.08193384
187	0xbe0cdadf	-0.13755368
188	0x3d9d195c	0.076708525
189	0xbdf33e94	-0.1187717
190	0xbb9d167f	-0.0047939415
191	0xbdc8a652	-0.09797348
192	0x3d0b4224	0.033998623
193	0x3e62234b	0.22083776
194	0xbe3e0861	-0.18557884
195	0x3f6a4099	0.9150482
196	0xbd6e9bfd	-0.05825423
197	0xbe0612ec	-0.13093156
198	0xbdc9d992	-0.09855951
199	0x3d2439a4	0.040094033
200	0xbc06b89b	-0.008222724
201	0x3dab1242	0.08353092
202	0xbd547762	-0.051871665
203	0xbce4d635	-0.027934173
204	0xbd457e6d	-0.048216272
205	0xbe3b498f	-0.18289779
206	0x3a893bac	0.0010470054
207	0x3deccd40	0.11562586
208	0x3d456181	0.04818869
209	0xbdc800f6	-0.09765808
210	0x3dabf28a	0.0839587
211	0xbd4a5057	-0.049393024
212	0xbdc719f4	-0.09721747
213	0x3da16ba2	0.078818575
214	0xbe0e25f3	-0.13881664
215	0x3c44a1ed	0.012001497
216	0xbce8b6ad	-0.02840742
217	0xbe388b4d	-0.18021889
218	0x3d83a491	0.06427873
219	0xbcae5321	-0.021279873
220	0xbc54615d	-0.012962666
221	0x3d0bdccb	0.03414611
222	0x3db5a59a	0.088694766
223	0xbf135203	-0.57547015
224	0xbda70bfa	-0.08156581
225	0xbec90c1d	-0.39267054
226	0x3d986a17	0.0744211
227	0x3e74d235	0.23908313
228	0xbdb71e96	-0.08941381
229	0x3fd41c46	1.6571128
230	0x3bc1fc26	0.005919951
231	0xbd9d44e0	-0.076791525
232	0x3d7a5dd4	0.061124638
233	0xbc30fbb9	-0.010802203
234	0xbcc47baf	-0.023984758
235	0xbcaaf77b	-0.020869961
236	0xbba2a372	-0.004963332
237	0x3e245ebe	0.16051766
238	0x3e05611a	0.13025323
239	0x3d882a15	0.066486515
240	0xbd856331	-0.0651306
241	0xbe156527	-0.14589368
242	0x3e31b3d3	0.17353754
243	0xbdede488	-0.116158545
244	0x3e404d21	0.18779422
245	0x3bc22b09	0.0059255403
246	0xbd5bdf51	-0.053679768
247	0x3e290697	0.1650642
248	0x3d8a9172	0.06766023
249	0x3e0fd59f	0.14046334
250	0x3dc092ec	0.09403023
251	0x3e8a36fa	0.2699507
252	0x3b3110da	0.00270181
253	0xbdcb9f89	-0.09942538
254	0xbbec6f2e	-0.007215402
255	0xbdfd599a	-0.12370606

layer2.4.bias f4 [10]
0	0xbde6498a	-0.11244495
1	0xbe5821a4	-0.21106583
2	0xbf3e0382	-0.742241
3	0xbeb181c8	-0.34669328
4	0xbea7e007	-0.32788107
5	0x3d711cb8	0.05886528
6	0xbebc1b5f	-0.36739632
7	0xbd78cdeb	-0.060743254
8	0xbdac8539	-0.08423848
9	0x3ca6e803	0.020374304
