MyZipTobeUploaded/helpdesk_Neighbour_embedding/EventPredictor_parameters_helpdesk_laplacianOnBinary_0.001_run0_GCNNNNNNNNN.pt (torch, 286703 bytes, 8 tensors)

layer1.weight f4 [4, 1]
00000000: a229 8d3e 5dd1 9d3f a3c0 e73c d6f4 7a3f
0.27570826 1.2329518 0.028290099 0.9802984

layer1.bias f4 [9]
00000000: ee9e b6be 0e93 a23e 49bb 36bb 5a3f 833e
00000010: 7a00 90bb a3c1 71bd 618c ba3e e933 dfbe
00000020: 01af 613e
-0.3566813 0.3175282 -0.0027882627 0.2563427 -0.004394588 -0.059022557 0.36435226 -0.43594292
0.22039415

layer2.1.weight f4 [256, 9]
00000000: b880 123f ba71 333f 538a 3abf 9728 b33e
00000010: 43cd 373e fe44 52be ab6a e93c ce46 013f
00000020: df32 c93d c942 2abf 3b08 e63e f1a5 e6be
00000030: 233c 3f3f 32c8 0b3f ed77 57be 2fd6 823f
00000040: 9d76 1e3e 0be7 c43e 0a15 eb3d 50c4 98bc
00000050: a1ff 62be e5a7 d1bd 66c0 3bbe c4ce 90be
00000060: b01f 90be 8362 84be 7bce a03c 94e1 ba3e
00000070: c851 8fbf 75c0 8cbd 789a 9ebf cffc 16bf
00000080: 342e 9e3f 4de2 babf a69b 0b3f f6b8 89bf
00000090: 1f0a cebd e428 66bf 139a a03c ae91 703d
000000a0: 1be3 f93e 3964 8c3e ad49 ec3d 5620 2dbe
000000b0: b97a d4be f1f9 d9bf 626c 36bf d47a f83e
000000c0: 03c6 c6be cab8 e53e bc8b d0bb 4f77 07be
000000d0: a42d 19bf 899b 00bf 0254 8b3f f3eb c53e
000000e0: 842b 37bf 0ca2 6d3e 8a68 96be 9401 d7be
000000f0: 7d69 b4be 50bd 783f 443f acbd 2838 863e
00000100: 7385 e6bd c189 9d3e 244e 6cbe e7a6 5dbf
00000110: cf76 e23d 025e 5bbe a17c f8bd 9fb6 e6be
00000120: c0eb babe 704f 0a40 5ba1 adbe e444 1f40
00000130: 7cb3 983f 8637 e8bf a587 a63f 9b14 a4bf
00000140: e819 2140 764f 533f 4e2d 4fbe fde0 d7be
00000150: d70a 2ebe a7ad fc3c c1bf 8d3c e31b 0dbe
00000160: 6a9b d5bc 48a4 ab3e 4e59 72bf 7d79 de3f
00000170: 54b5 38bd ddf8 cd3f a1e5 be3e ded1 01c0
00000180: bc29 843f 36ca fabd 766d ca3f 634d 89bd
00000190: 8f25 d8bf 3eeb 7e3e 71d2 8fbe 82fe 18be
000001a0: eb09 cfbc cf29 e8be d5ed b63e f983 f3be
000001b0: 9149 60be 7512 943f ec4c 52be 8c43 b8be
000001c0: 0e36 03bf 248b ebbe 2270 393e e5f6 43bf
000001d0: eda1 173f 2573 383e 8f61 393d cdd7 35bc
000001e0: 68b5 2d3e daeb 19bf c481 01be f08b 513d
000001f0: c268 65be 2c9d 2abe f7d9 4cbf aa85 d63e
00000200: 79d3 5bbe 3a91 2f3e 7bc4 8a3f c959 c73e
00000210: f1f6 fd3e 179f 323e 2099 893e 051f 02be
00000220: 8d37 f5bd d563 a03e 1cc3 d9be c68e bb3e
00000230: b70f 613e 04c0 03bf 6626 873b fde7 463f
00000240: ed91 1b3d 8aaa 9ebd b477 60be 18b9 5e3f
00000250: 38ec 8cbe 2cee 993e 0cec 113f b9ac 11bc
00000260: 4b46 753e 9ce4 953e ed5d 053e f3a0 b73e
00000270: 6d34 b43e d62f dabc a4b0 37be d983 d53d
00000280: b303 043f 303c d9bd 1ca1 52bf 0068 bfbe
00000290: 5228 d43e 3894 453e 830b 913d b2e7 a03c
000002a0: 1d7c 3ebf 18a3 f1be 1fbc a3be c74e 513f
000002b0: f8e1 bf3e 52c3 2cbf 99f0 ddbc da7f b6be
000002c0: 10a3 ca3e 428b 753e dfb0 7e3f 0ef1 0c3f
000002d0: 951e 1b3e a7dc 7a3f 417e 83bd bd6c 873f
000002e0: 684a 593e 6345 1abf 5919 103f 485d 0b3f
000002f0: d5b9 8b3f c9a3 1d3f 90a3 e43e 7306 0abf
00000300: 2d5c 083f e24e 823e 33d0 003e f3ac 473d
00000310: 3521 e6be 3c85 203f 7789 513f 3955 e6be
00000320: cea3 a8be 70cd 38bf daf2 31be bd20 98bd
00000330: 954f e6be 1e27 393f 450b d2be 51c7 1fbf
00000340: c2ef 94bf e877 033f 6207 18bf db9a 483e
00000350: b747 903e fae5 83be 95ea 553e 12c5 2cbf
00000360: 012d d43d 1655 ec3d d46f 473e bb4b db3e
00000370: 4104 89be 4a7e 73bd 236e b13e d852 6cbd
00000380: d250 0a3f da93 02be 5c3b 84be 89eb 383f
00000390: 43ca 27bf 484c 3bbe 2d6e 0c3f 25fb d7bc
000003a0: 9474 833c 8b24 b3be de12 2cbc bdd7 213e
000003b0: 97ec 45bf 257c cabe 7e98 173e e7b0 90be
000003c0: ca3f 3abe 8b7a e83d 4bef e8be b1fc d63d
000003d0: 3930 493f 95ae 88be cc07 2740 9b23 a2be
000003e0: ed21 9dbf 1f42 8b3f 6ef4 d8be 12d9 fb3f
000003f0: 5e21 5bbe 84d5 19be c90c 95be 7fd7 0a3f
0.5722766 0.7009541 -0.72867316 0.34991905 0.17949395 -0.20534131 0.028493246 0.50498664
0.09824156 -0.66508156 0.44928154 -0.45048478 0.74701136 0.5460235 -0.21041842 1.0221614
0.15474935 0.38457522 0.11478622 -0.018648297 -0.22167827 -0.102371015 -0.18335113 -0.2828275
-0.28149176 -0.25856408 0.019629708 0.36500227 -1.1196833 -0.06872646 -1.239089 -0.58979505
1.235785 -1.4600312 0.54534376 -1.0759571 -0.10060524 -0.89906144 0.019604718 0.05873268
0.4880608 0.27420214 0.1153749 -0.16906866 -0.4149988 -1.7029401 -0.7125913 0.4853121
-0.38822946 0.44867545 -0.006364314 -0.13229106 -0.5983527 -0.5023733 1.0885012 0.38656577
-0.71550775 0.23206347 -0.29376632 -0.41993392 -0.3523673 0.9716387 -0.084105045 0.2621472
-0.11255922 0.3076916 -0.23076683 -0.865828 0.11057817 -0.2142258 -0.12133146 -0.45061204
-0.36507988 2.1610985 -0.33912167 2.4885798 1.1929774 -1.8141944 1.3010145 -1.2818788
2.5172062 0.8254312 -0.20232126 -0.4216384 -0.16996323 0.030844523 0.01730335 -0.13780169
-0.026075084 0.33523774 -0.9466752 1.7380825 -0.045094803 1.6091572 0.37284568 -2.0284343
1.0325236 -0.122456 1.5814655 -0.067042135 -1.6886462 0.24894425 -0.28090242 -0.14940837
-0.025273284 -0.45344397 0.35728326 -0.47561625 -0.21903063 1.1568133 -0.20537156 -0.35989034
-0.51254356 -0.46004593 0.18109182 -0.76548606 0.59231454 0.18012674 0.045259055 -0.011098814
0.16963732 -0.60125506 -0.12647158 0.051158845 -0.22403243 -0.16661519 -0.8002009 0.41898853
-0.21467389 0.17145243 1.0841211 0.38935688 0.49602464 0.174435 0.26874638 -0.12707146
-0.11973486 0.31326166 -0.4253167 0.36632365 0.21978651 -0.5146487 0.0041244505 0.77697736
0.037980963 -0.077473715 -0.21920663 0.8700118 -0.2752397 0.30064523 0.57000804 -0.008891278
0.23952596 0.29275978 0.13024111 0.35864982 0.35196248 -0.026634138 -0.17938477 0.104255386
0.51568145 -0.10607183 -0.82277083 -0.37384033 0.41437012 0.19294822 0.07082274 0.019641731
-0.7440813 -0.47194743 -0.31979463 0.8176083 0.37477088 -0.67485535 -0.027092265 -0.35644418
0.39577532 0.23978904 0.99488634 0.5505532 0.15148385 0.9799294 -0.064205654 1.0580059
0.2121979 -0.60262126 0.5628868 0.5443921 1.0916086 0.6157804 0.44656038 -0.5391609
0.5326565 0.25450808 0.12579422 0.04874892 -0.4494721 0.627033 0.8185038 -0.44986895
-0.32937473 -0.7218847 -0.17377797 -0.07428119 -0.4498259 0.72325313 -0.41024223 -0.6241351
-1.1635668 0.5135484 -0.59386265 0.19590323 0.28179714 -0.25761396 0.20890267 -0.67488205
0.10360146 0.11539666 0.19476253 0.42831215 -0.26761058 -0.05944661 0.3465434 -0.057696193
0.5402957 -0.12751713 -0.25826538 0.722344 -0.65543 -0.18290818 0.54855615 -0.026364872
0.0160468 -0.34988818 -0.010502545 0.15804954 -0.7731413 -0.3954784 0.14804265 -0.28259966
-0.18188396 0.11351498 -0.45495066 0.10497416 0.78589207 -0.26695696 2.609851 -0.3166779
-1.2275978 1.0879554 -0.42373985 1.967562 -0.21399447 -0.15022856 -0.29111317 0.5423507

layer2.1.bias f4 [256]
00000000: 5bd7 18bf 410a a83f ca09 8e3e 40b0 0cbf
00000010: 7b56 6a3c a3e7 b6be a7e8 acbe 39d6 a4bf
00000020: d690 353e 6703 e3be 23a7 a6be c8d7 eabe
00000030: e4f4 6e3e dd6d 86bf 6874 583e 6944 933e
00000040: 5232 2f3f 2c82 52bf 770f 953d 98da e33e
00000050: 9d83 8d3f 3be7 fc3e 2ca6 b6be f88f 83bf
00000060: f118 36be 44f6 21bf e76d d03e 03f7 ba3e
00000070: 28b3 963e 7eb3 a9be 9774 903d f819 103f
00000080: 7781 25bf 4fe1 9f3e abb8 043e 406e b13c
00000090: d57b 663f c6f4 683f 1bfd 4c3f 6cdc 1e3e
000000a0: 1c1d 2f3f a1c9 5f3f 5f22 413d fedb 353e
000000b0: 2647 80be 1770 163f ac44 b53e 6a48 78bf
000000c0: f382 bc3e e91b f6bc 39b4 c23f 7ccf c8bd
000000d0: 0ded a53e 89aa 01be fc02 c5bd 297c 873d
000000e0: 4525 a43e 9758 c93e d5c3 cb3e 7944 b33e
000000f0: 6720 1140 2cee 343f 8e4e 02be 419c bdbe
00000100: 7ed2 323f 2f4b 833d b7fc 3f3e 8195 053d
00000110: da29 af3d f134 f13c 6d3f 2f3f 0fa3 9c3d
00000120: ddac 843f 748c 28be 4d2b e83d 7353 28bf
00000130: 53ac 853e 9604 8f3c c7ea 6bbf 1eb2 f83b
00000140: 4805 50bf 4d22 b43e 9022 b43f b037 65be
00000150: d768 b0be ef84 dabe 7b00 35be 1284 e8bc
00000160: b887 26bf ee84 593f 6bcd 083d cad3 43bf
00000170: 31ea b63f 161f 113f 2982 c0be d591 29be
00000180: 4d8e eb3e f78e 65b9 0c1f f03e 2814 ccbf
00000190: 11d8 9cbf 5eb3 583e 7246 a6bf f15f 72bf
000001a0: 1114 443f 1c17 343e c1e4 b13e 874f 533f
000001b0: 3ac6 5b3f 82a4 21be 5528 8cbe 1053 c73e
000001c0: 996a c2be 34f4 d6be 704b 3cbe 14a2 b33e
000001d0: c78a 53bf 6f1f cdbf 62b0 bebe 5c54 28bf
000001e0: 9cdb 253e 9383 09bf 84f1 97bf 7981 f43e
000001f0: 966a e6bc bd01 8c3e a7fb 2ebf 43e4 73be
00000200: d3d7 21bf e625 35bf 7aa9 aabe ff42 88bf
00000210: 2973 2cbf fcb3 43be a305 533f e18d ae3f
00000220: 262e ddbd 3804 243f 2b41 c43d 07e2 123f
00000230: 87f3 ac3e 855a 543e faf4 e5be 32b3 4d3f
00000240: 8ef1 d2be d89c c2bf ec22 803f a10c 2e3f
00000250: a8e4 71be 3606 583f b702 bd3e ebde 6e3f
00000260: dc35 c2be a9db c23e cb80 383f 1e11 563f
00000270: 6d5f 023e 82d7 31bf 8391 48bf 9979 c63e
00000280: 80dc 3c3e 410a c83f ecbb 3d3e 9de8 3abf
00000290: 770e ff3f dbb0 6bbe f45f 5dbd 1e35 2cbf
000002a0: 3f11 dabe b258 833e 915d d0be 58cf d73f
000002b0: 136e ec3d c528 c2be 704d d13d a2a7 30be
000002c0: 94e7 c8be bdcd 543f b830 f43e 8e43 b7bf
000002d0: 1311 073f e574 37bf da89 4a3f 932b bc3f
000002e0: 1923 043f 2c6d a13e a84b 773f 2476 cebe
000002f0: 239f 9dbe 3282 36bf a8e1 293f 0d65 4c3e
00000300: 4524 3c3f 0891 debe a71f 693f 9393 803e
00000310: dcee 97bf 7c69 cc3d 8c30 10bd 6fef 7f3f
00000320: 5a2f 003f 3d04 bc3e 6c1a 4cbf 280c a53f
00000330: e201 8fbe 1fa8 103f 0b6f 423f 75d8 4e3f
00000340: 0174 85bf f973 a1be 0837 813e c27e 11bf
00000350: fd8d 28be 27b9 b23f 4fb4 9bbe 5913 44bf
00000360: bc83 1b3f fa5f 97bf f1b6 07bf de05 95be
00000370: 5441 e53c 5746 e8be 2a4d bb3e 6f4d 883f
00000380: cab7 fd3d ac0d a73e c715 83bf 22a2 d6be
00000390: 76a2 d1bf 47ad 373f 7bb6 b33f c53b a8bc
000003a0: 274a b53d faca 50bf 246c 9cbe 162b 32bf
000003b0: b27f 9fbf b91a 9c3d 927f 623e 5169 913b
000003c0: 070c 0f3f 0579 25bf b368 b1be 11c8 723d
000003d0: 9aec ac3e caf6 fdbf d6b9 44bf edf2 583f
000003e0: 28d4 57bf 5bb9 343e c0a9 4b3f ec7b 103e
000003f0: 4314 0cbf 58e4 a43e 03d2 17be bf1e 16c0
-0.59703606 1.3128129 0.27741843 -0.54956436 0.014302845 -0.357236 -0.3377125 -1.2877876
0.17731032 -0.44338533 -0.3254939 -0.45867753 0.23335606 -1.0502278 0.21138155 0.2876313
0.6843616 -0.82229877 0.0727834 0.4450271 1.105579 0.49395165 -0.35673654 -1.0278311
-0.17782952 -0.63266397 0.4070885 0.3651658 0.2943356 -0.33144754 0.07053488 0.56289625
-0.6465067 0.31226584 0.1296107 0.021659017 0.900327 0.90998495 0.8007371 0.15513772
0.6840379 0.87417036 0.04715192 0.17759702 -0.25054282 0.58764786 0.35403955 -0.96985495
0.36818656 -0.030042605 1.521125 -0.098051995 0.32407418 -0.1266271 -0.0961971 0.066154785
0.32059684 0.393254 0.39797845 0.35013178 2.2676027 0.7067592 -0.12725279 -0.37033275
0.69852436 0.064108245 0.18748747 0.03261328 0.085529044 0.02944419 0.68456155 0.076482885
1.0365254 -0.16459829 0.11336384 -0.65752333 0.26108035 0.017458241 -0.92155117 0.0075895926
-0.8125806 0.3518242 1.4073048 -0.22384524 -0.34454986 -0.42679545 -0.17675965 -0.028383289
-0.6505084 0.8496846 0.033399027 -0.7649504 1.429022 0.5668806 -0.37599304 -0.16559537
0.46007004 -0.000218924 0.46898687 -1.5943651 -1.2253438 0.21162173 -1.2990248 -0.94677645
0.7659312 0.1758694 0.34744838 0.82543224 0.85849345 -0.15785411 -0.2737452 0.3893056
-0.37971953 -0.41983187 -0.18388152 0.35084593 -0.8263363 -1.6025218 -0.37243944 -0.6575372
0.16197056 -0.5371639 -1.187058 0.4775503 -0.028126996 0.27345076 -0.6835274 -0.23817544
-0.63219947 -0.70760953 -0.33332425 -1.0645446 -0.6736322 -0.19111627 0.82430476 1.3637048
-0.10799818 0.6406894 0.09582742 0.5737614 0.33779547 0.20737655 -0.44913465 0.80351555
-0.41199917 -1.5204115 1.0010657 0.6798802 -0.23622382 0.8438448 0.36916134 0.93308896
-0.37931716 0.38058212 0.7207152 0.8361987 0.12731715 -0.69469464 -0.78347033 0.38764647
0.18443489 1.5628129 0.18528718 -0.7301119 1.9926289 -0.23016684 -0.054046586 -0.6726855
-0.42591283 0.25653607 -0.40696386 1.6860151 0.115444325 -0.3792173 0.10219848 -0.17251447
-0.3923918 0.8312643 0.4769342 -1.4317491 0.5276043 -0.7166274 0.79116595 1.4700798
0.51616055 0.31528604 0.9659982 -0.4032451 -0.30785474 -0.7129241 0.6635995 0.19960423
0.7349284 -0.43470025 0.9106392 0.2511259 -1.1869769 0.09981057 -0.035202548 0.9997472
0.5007225 0.36721984 -0.79727817 1.2894335 -0.27931124 0.5650653 0.7595069 0.8079904
-1.0426027 -0.31533793 0.25237298 -0.5683404 -0.16460414 1.3962754 -0.30411002 -0.7659202
0.60747886 -1.1826165 -0.5301352 -0.2910604 0.027985252 -0.45366165 0.3658231 1.0648631
0.123885706 0.32627618 -1.0241021 -0.41920573 -1.6377704 0.71748775 1.4040064 -0.020536313
0.08852034 -0.8155972 -0.30551255 -0.69596994 -1.2460845 0.076222844 0.22118977 0.0044376035
0.5587773 -0.64637786 -0.34650192 0.05927283 0.33774263 -1.9840939 -0.76846063 0.84745675
-0.843081 0.17648832 0.7955589 0.14109772 -0.54718417 0.32205462 -0.14826207 -2.3456266

layer2.3.weight f4 [256, 256]
00000000: 525b 273f 97d0 0c3f 0096 96bd 659d 6cbe
00000010: a195 893e afb2 f13e 70ad 1abe 69f1 b6be
00000020: c642 983f 36ca a8be 8af3 b93e 4dfd bdba
00000030: 5820 a73e 508f 9cbe b2b1 2f3f b6f9 a73e
00000040: 8b0d 883d 6ec6 803e 43e1 25bd 264b ee3d
00000050: 8093 9cbe a3f8 f3bb b557 8f3d 0878 29bf
00000060: 123a 0abf b6fe a13e 2a09 0f3e f898 e83e
00000070: a839 183e 422f 6dbf 2361 a3bc 1e48 e63f
00000080: 4a24 0c3e 9211 28be dba6 c8bf ea2b 2abd
00000090: cf24 cc3f 868a b13e a124 5fbd bf17 eabd
000000a0: 9a1b 073f edf6 433f fe5b 553f 0b8b a1be
000000b0: 914c e63d ca0b 63bf 3270 943e 7f41 63bf
000000c0: 48a4 6cbe 6ed0 cb3e 2a3c 553f c1a7 813e
000000d0: 6154 80bf 7f27 c33e 6bb7 b5be db9e 343e
000000e0: 110e 9f3f d043 df3e e0b2 26bf 65f6 333e
000000f0: 4ded f63e 61b4 863d 3ffc 1bbc 5b6b af3e
00000100: 0294 97bf 7699 97bd 6c91 5a3f 3fa8 ecbc
00000110: e387 b23e 0aa6 08bf 172a 5bbe 335c a93f
00000120: 769f bcbe 96a6 40bf 3895 683f 3544 65bd
00000130: 6001 943f 7f23 c6be 1f7a 2ebd 5c26 4f3f
00000140: b410 503d 3fd7 4ebd d87f 9a3e a9e3 bcbe
00000150: 87d3 acbe 6456 7b3e 9872 1ebe 7269 34bf
00000160: 939b 79bf 35ab 57be 02e3 9cbe 9610 44bf
00000170: f8d9 103f 2664 2b3f 1946 93bf 4a7f 11be
00000180: 6998 983d 8330 da3e d39b 9c3f dfa7 a3bf
00000190: d184 1a3e 6388 0d3f ea77 423f 1c1d f0be
000001a0: bcf0 8b3e d196 6e3e de25 4cbd 8678 dbbd
000001b0: c4c4 1a3e eaf4 743f 4ffc 123e 6f7c c43e
000001c0: 2132 a2be bab1 27be 4b31 19bf 84af 9f3f
000001d0: 2f33 a2bf 7926 d2be c763 463e df2e 23bf
000001e0: 9bff a73e bb1a 31be c636 20bd 3b7f 673f
000001f0: 11df 23be 0c52 84bf 4e01 1bbe 9522 5bbf
00000200: 64ad 6cbd 72e4 703e 022f bebe 0069 1dbf
00000210: 702e 003e 8ca7 17be cfc0 153e a637 9c3e
00000220: 6c09 0dbf 5098 b83e 53be c23e 5b65 8dbe
00000230: 4ee5 adbe f68e d6be b502 c5bb b9fd 973e
00000240: f049 cbbe 34bc 75be b560 253f a0af c5be
00000250: 7d31 1abe 92c1 863f f7f9 c9bd 39dc bb3e
00000260: f759 f03e 81d9 b3bc 80c8 223f ece4 dbbe
00000270: 0480 1dbe e771 22bf 1ce7 103f 20c1 2ebf
00000280: 3453 af3e 9895 33be babd 22be 7ead 4abf
00000290: fb30 833f 98ad 58bf 596b 6cbf 5314 af3f
000002a0: f0df b7bf 80ff 3b3f 14ab 7abe 8abe 003f
000002b0: 90bb b73c e602 903f 3102 083c cbf0 2c3e
000002c0: dc3b 45bf 0133 55bf d2f9 1f3f 6f9c 2a3f
000002d0: f860 463e 007d 5abe 625a 0cbf 2562 e73e
000002e0: a054 143e c9c7 81bc 34fe cd3e 831c 66bf
000002f0: 7a15 5cbd d755 60be f30a 0e3e 1497 2bbf
00000300: 4a4f 4a3e 2b72 1d3f a83e bfbe 8181 953e
00000310: 056d 28bf 53de ffbe 6bf7 22be bd4c 813f
00000320: e4d8 e7be 0ed5 f5bd f72a 33bf c594 af3e
00000330: c971 4a3f 7043 a1bf 0c56 06bf bd58 4cbe
00000340: c4c4 b6be e26a 083f e650 283f 8a40 97be
00000350: 41dd 07bf 8358 ec3e 0f58 a83e e148 12be
00000360: fa8e 643f 2c00 68bf 02d0 803f c2e7 dbbe
00000370: 1c4a 633e c61e 0c3f 762d be3f 6f23 843e
00000380: e05a 9dbe de08 aebf 1921 13be 512f 2e3f
00000390: de91 4f3d cf02 603f 5575 efbd ae83 a33e
000003a0: a33c fd3d 1180 4d3f 3c81 193f a5e3 24bf
000003b0: 1813 42bf 0611 7abe b65a 963e 70da 1e3f
000003c0: 0a91 073f 3b40 14bf bc04 14bf da13 b4bc
000003d0: 17db 29be edf6 013f 1351 063e 81e3 513e
000003e0: 7676 0dbe c8c5 a9be fe00 94bd 2a52 7bbf
000003f0: 8814 1f3d 9bd3 4ebd aae2 ee3e eda3 203d
0.6537372 0.5500578 -0.07352829 -0.23106916 0.2687197 0.47206637 -0.15105224 -0.35731056
1.1895378 -0.32966775 0.36318618 -0.0014495045 0.32641864 -0.3057809 0.68630517 0.32807702
0.06643208 0.2515139 -0.04049803 0.11635427 -0.30581284 -0.0074454113 0.06999151 -0.6619878
-0.5399486 0.31639642 0.1396834 0.45429206 0.14865744 -0.92650235 -0.01994378 1.7990758
0.13685718 -0.16412953 -1.567592 -0.041545786 1.5948733 0.34675997 -0.05447829 -0.114303105
0.5277649 0.76548654 0.83343494 -0.31551394 0.11245073 -0.88689864 0.28991848 -0.88771814
-0.23109543 0.39807457 0.8329493 0.253233 -1.002575 0.3811607 -0.354915 0.17638724
1.2426168 0.43606424 -0.6511669 0.17574461 0.4822792 0.06577373 -0.009520589 0.34261593
-1.1842043 -0.07402317 0.85378146 -0.02888882 0.34869298 -0.53378356 -0.21402775 1.3231262
-0.3684041 -0.7525419 0.9085269 -0.05597325 1.156292 -0.38698956 -0.042596933 0.80917907
0.05079718 -0.050498243 0.30175662 -0.3689244 -0.33755133 0.24544674 -0.15473402 -0.70473397
-0.9750301 -0.21061404 -0.30641943 -0.7658781 0.56582594 0.6694969 -1.1505767 -0.14208713
0.07450945 0.42615137 1.2235054 -1.2785605 0.15089728 0.55286235 0.75964224 -0.4689721
0.27332103 0.2329972 -0.0498408 -0.107163474 0.15114123 0.9568621 0.1435406 0.38376185
-0.3167887 -0.16376391 -0.5984084 1.2475438 -1.267187 -0.41044977 0.19374 -0.63743395
0.328122 -0.17295353 -0.039114736 0.90428513 -0.16003062 -1.0337539 -0.15137216 -0.85599643
-0.057782546 0.23524645 -0.3714524 -0.6148834 0.12517715 -0.14810008 0.14624332 0.30511206
-0.550925 0.36053705 0.3803583 -0.2761639 -0.33964008 -0.41905946 -0.0060122856 0.29685763
-0.39704847 -0.23997575 0.6460069 -0.38610554 -0.15057941 1.0527823 -0.0986213 0.36691454
0.46943638 -0.0219543 0.6358719 -0.4294809 -0.15380865 -0.6345505 0.56602645 -0.68263435
0.34243166 -0.17537534 -0.15892687 -0.7917098 1.0249323 -0.84639883 -0.923513 1.3678077
-1.4365215 0.7343674 -0.24479324 0.5029074 0.022428304 1.1250885 0.008301304 0.1688873
-0.77044463 -0.8328095 0.6249057 0.6664495 0.19372928 -0.21336746 -0.54825413 0.45192066
0.14485407 -0.015842335 0.40233004 -0.89887255 -0.05373142 -0.21907745 0.13871364 -0.670274
0.19756809 0.6150233 -0.3735249 0.29200366 -0.6579135 -0.49974307 -0.15914695 1.0101544
-0.45282662 -0.120035276 -0.69987434 0.3429319 0.7907987 -1.2598705 -0.5247505 -0.19955726
-0.35696995 0.5328809 0.6574844 -0.29541427 -0.5307198 0.4616128 0.32879683 -0.14285614
0.89280665 -0.9062526 1.0063479 -0.42950255 0.22196239 0.54734457 1.4857624 0.25808284
-0.30733395 -1.3596456 -0.14368095 0.6804095 0.05067622 0.87504286 -0.11692301 0.319364
0.12365081 0.8027354 0.5996282 -0.6440986 -0.75810385 -0.24420556 0.29366082 0.6205206
0.5295569 -0.5791051 -0.57819724 -0.021982122 -0.16587482 0.50767404 0.13116865 0.20496942
-0.1381472 -0.33158708 -0.07226752 -0.9817225 0.03883794 -0.05049477 0.46657306 0.03921883

layer2.3.bias f4 [256]
00000000: 3262 9b3f 13e0 1640 b27d ba3e 12dd 063f
00000010: 4647 133f 9447 b53e 51d2 d33d a7d1 ef3f
00000020: 03ed db3e 27dd 29be 044b 2640 b6b6 2fc0
00000030: 3f6e 143f 1200 a23f bd5c dbbf e100 d43d
00000040: ffef 92be 6366 913e 798f 26be b957 d7be
00000050: b3ac 8abe c5bd 503f 4f0f 6bbd 3eae 7dbf
00000060: 3cdc 1d3e 32ae e43f 78a2 0e3f a9ed 91bf
00000070: 9fd3 1e3f 3306 5abd f4ad 243d 642c 24be
00000080: 5060 85bf e6e7 783f b9f0 8d3f e761 15bf
00000090: edf7 193e af06 19c0 d7fd 26bf 4717 c53f
000000a0: 2baf 123f 7121 653f 5b13 c6bf 470b 3ebf
000000b0: 4707 0d3d 1be5 0a40 f6c5 733f 1d92 e0bf
000000c0: bf7e f7be a33e cb3d 3c47 cd3f 4540 623e
000000d0: 9c19 a8bf fa56 893f 9f9c 1a3f 3658 0640
000000e0: a618 e73e e4f5 94bf 6f73 c6be 0c8c a73f
000000f0: 715f 043e f9c7 953e 45c6 a7bf 73d7 823f
00000100: 3255 10bf c3ac 15bd 4aa0 35bf 2e79 54bf
00000110: 2b0a d23e abd0 433f 3e4b e03d 85e9 84bd
00000120: 6d3d c93e 88fd 83be 4306 743f fd1c 983e
00000130: 9c1e 35c0 f709 673e e369 89bf 7a56 4e3f
00000140: 0ebd 0d3f a168 6840 d2ce 94bf a683 6abf
00000150: 441d 303f 9286 11c0 416b 32bf f505 773d
00000160: 7896 0ec0 f665 84be ae72 ec3f 5389 5cbe
00000170: 7800 16bf f15a 7a3f 9cf2 cbbe b8b4 3fbf
00000180: 2bf3 d8bf c025 b53f 2178 423e 6d81 773f
00000190: 0191 823f 8c86 92be e4bd 923f 978f 463f
000001a0: 8c6d 41bf cdaa 2c3e 45aa c83f f52e f6bd
000001b0: 91b5 1f40 ac8f afbe dc93 ae3f 9f5c 77bf
000001c0: eecf 61bf 15b4 703f b102 0640 4d19 2d3f
000001d0: ee2e ba3f 890d c3bf 351e c83f 4ab9 e73f
000001e0: ee5a 16bf eb9c 503f bf05 9b3f f64f 263d
000001f0: 76a6 4ebe 3c09 623d 1d0d dc3f 5672 873f
00000200: eb75 b23f 3b8a 9dbe 326e d1be 9511 363f
00000210: fd4a 783e fa08 213e 486f d53f 1546 893f
00000220: 5309 403f 499c dfbf 9a57 3140 0c89 adbf
00000230: f2cf 15c0 db25 f3be 013c bc3f 78fa 89be
00000240: 9f73 2d3f e2ed 8abf 34e4 8f3e 1231 b1bf
00000250: e770 e13d cc3c 563f f7e6 0a3e e012 873f
00000260: 1437 dc3f 5b9b 9e3f f697 8c3f 3bca 8d3f
00000270: 7b57 0b3d 72b9 b03f bd5e 52be 2904 913e
00000280: eb16 aabe 25c6 35c0 58c1 0dc0 c10e c43f
00000290: 0fd7 cc3f b1f5 3540 5559 bc3e 3f3a 963e
000002a0: 013d 99be b06e b43f e201 b2bf 7179 b73d
000002b0: 3e16 11bf e0a7 693f 0fb3 07be 7c89 15bf
000002c0: e3a5 2d3d 5da5 a2be 6684 9f40 4e52 123f
000002d0: eed7 7abf f79a e1bf 1cc3 883f 77ed 6ebf
000002e0: 9529 afbf 7685 693e a209 54be d4b6 c63e
000002f0: 645b 213f 4fed 913f ad34 babf d05f 6c3f
00000300: 4e20 09c0 d030 11bf 6811 ba3f 0dbc 0540
00000310: 0cb5 bcbf ac26 bb3f a121 6a3f 72a3 d9be
00000320: 4f05 c1be f746 2e3f 7af1 acbd f4fc 0f3f
00000330: 4239 2abe e1e2 c2bf 8ec5 463f 6943 0640
00000340: 1375 47c0 b616 293d a46d 9f3e 4a16 82bf
00000350: d3a1 39bf 478e a53e 0a9b 3abf da88 a33e
00000360: 7ec3 613f 95fb 07bf 8030 4e3e 39be 753f
00000370: 9044 c83f 3f74 323f d97f 0f3e c1bf 3abf
00000380: bd40 7a3f 9d80 59c0 63ee e5bd e997 f7bd
00000390: 513b 8c3f c427 d63d 3790 48be 1b34 2bbf
000003a0: 6380 a3bf 6a06 bf3f 3d6c 5bbf 80db d6be
000003b0: dd49 933e 6aca 053f d6a7 a7bd b4ae 3b3f
000003c0: 70e9 41ba 6e9e a53e 4c58 a33d 3008 efbd
000003d0: 5687 94be 240e bbbf c1a0 923e 4114 f3bf
000003e0: a18d 0f3f 1e61 25bf 3fe8 36bd 3c80 64bf
000003f0: 916d 48bf 4548 3ebe 0547 e4bf 7bd1 8a3d
1.2139342 2.3574264 0.36424023 0.52681077 0.5753063 0.35406172 0.10342849 1.8735856
0.42954263 -0.16588269 2.5983286 -2.7455268 0.5798072 1.2656271 -1.7137676 0.1035173
-0.28698727 0.28398427 -0.16265668 -0.42059115 -0.27084884 0.81539565 -0.057387646 -0.99094
0.15416044 1.786566 0.5571666 -1.1400653 0.6204166 -0.05322857 0.040204957 -0.16032559
-1.0420017 0.9722885 1.1089088 -0.5835251 0.15035982 -2.391033 -0.6523108 1.5397729
0.57298535 0.8950415 -1.5474657 -0.7423596 0.03443077 2.1702335 0.9522394 -1.754459
-0.48338887 0.099240564 1.6037364 0.2209483 -1.3132815 1.0729668 0.60395235 2.099134
0.45135993 -1.163754 -0.38759944 1.3089614 0.12927033 0.2925413 -1.3107382 1.0222
-0.5638 -0.03654171 -0.70947707 -0.82997406 0.41023383 0.7649028 0.10951851 -0.06489853
0.39304677 -0.25779366 0.95322055 0.29709616 -2.8299932 0.22562395 -1.0735439 0.806007
0.553666 3.631386 -1.1625617 -0.9160713 0.68794656 -2.2738385 -0.69694906 0.060308415
-2.227934 -0.2585904 1.8472497 -0.2153676 -0.58594465 0.97795016 -0.39833534 -0.7488513
-1.6949209 1.4152145 0.18991138 0.96681863 1.0200502 -0.28618276 1.14642 0.7756285
-0.7555778 0.1686203 1.5676962 -0.12020675 2.495457 -0.342893 1.3638873 -0.96625704
-0.882079 0.94024783 2.0939143 0.6761673 1.4545572 -1.5238506 1.5634218 1.8103421
-0.587325 0.8148944 1.2111129 0.0406036 -0.20180687 0.055184588 1.7191502 1.0581768
1.3942236 -0.30769524 -0.40904385 0.7112058 0.24247356 0.1572608 1.6674585 1.0724512
0.7501423 -1.746957 2.7709718 -1.3557448 -2.340817 -0.4748982 1.4705812 -0.26948905
0.6775455 -1.0853846 0.28103793 -1.38431 0.110078625 0.8368652 0.13564669 1.0552635
1.7204309 1.2391161 1.0983875 1.1077341 0.034018975 1.3806593 -0.20543952 0.28323486
-0.3322061 -2.8402188 -2.2149258 1.5317003 1.6003131 2.8431208 0.36786905 0.29341313
-0.29929355 1.4096279 -1.3906825 0.0895871 -0.56674564 0.9127178 -0.13251899 -0.5841291
0.04239453 -0.31766787 4.984912 0.57156837 -0.9798573 -1.7625417 1.0684543 -0.9333109
-1.3684565 0.22804818 -0.207068 0.38811362 0.63030076 1.1400546 -1.4547325 0.923337
-2.1425967 -0.56715107 1.4536562 2.0896027 -1.4742751 1.4621177 0.91457564 -0.4250751
-0.37699363 0.68077034 -0.084444955 0.5624535 -0.16623405 -1.5225488 0.77645195 2.0978644
-3.1165206 0.041281424 0.31138337 -1.0163052 -0.7251255 0.32335111 -0.7289282 0.31940347
0.8818892 -0.5311826 0.20135689 0.9599338 1.5645924 0.6970863 0.14013614 -0.72948843
0.9775503 -3.398475 -0.11227109 -0.120895214 1.0955602 0.104568034 -0.19586264 -0.6687638
-1.2773556 1.4923832 -0.85712034 -0.4196434 0.2876729 0.52261984 -0.08186309 0.7331345
-0.00073971506 0.32347435 0.07975826 -0.116714835 -0.29009503 -1.461369 0.2863827 -1.8990556
0.56075484 -0.64601314 -0.04465508 -0.8925817 -0.78292185 -0.18582256 -1.7834173 0.067782365

layer2.6.weight f4 [10, 256]
00000000: 7a8c 423d cd36 43be a508 3a3e d930 26be
00000010: 6796 39be afd9 f03d c295 24be 1970 9abe
00000020: 4e6b 4dbe 3a26 ffbd 7867 7dbd 7e0a c23e
00000030: ddbd 9fbd f531 8bbe 0bae 7cbd 6b6f 77bd
00000040: 57f3 4bbc 7a09 323e fc15 81bc 5cdc fd3d
00000050: e340 623d 03b5 c03d f8b5 1f3d 1ee9 9e3d
00000060: ddbf 00bd f9d1 acbe c66f b4bd 2167 873e
00000070: 1567 e8bd bcef 2a3b 510c 0dbe 33ca 8b3e
00000080: 7b0a 763e 122a 553e 5678 673d a4b4 373e
00000090: bf64 90bd 2a78 4c3d 74b1 c33d 8754 e23d
000000a0: c68d 35be aacd 4a3d bd5d 3d3c 36a9 353e
000000b0: 85a1 a0bd 4086 a2bd 99e6 a9bd ef11 60be
000000c0: 587e 03be a4b9 f33d 0fbe 343d 79e9 4dbe
000000d0: 2bca 3e3e a5f6 85be 5044 2a3e c4e3 b8be
000000e0: 6cf9 cbbc c4e3 13bd 3f9c 933e 9aaf 73bc
000000f0: 5696 07be 109e 18be 5b03 5a3d 5bdb eabd
00000100: 57af d33d 8048 983d 1fe0 56bd d92a 96bd
00000110: e496 af3b 64a3 453e f468 193e 7049 72bc
00000120: 5c3f fb3d 5af7 4d3b 01d1 33be 89ee 3dbe
00000130: 2808 673e 20ab e3bd 05f6 033e 8f04 40be
00000140: 49ec 42be 37c3 903e db29 623e 0600 56bd
00000150: 5911 a23d db6f 8f3e d12c b2bc 12dd 5c3e
00000160: 08fc b83e 4fd3 86bd 6d03 8ebe da46 3fbd
00000170: ca9d aa3d 56cf b6be 4349 103e f6f1 2dbe
00000180: 3bd0 8abd 39da b2be e72f 143e 556b 943e
00000190: b5ab 43bd 5dea 893d 9485 d2bb 03e2 94be
000001a0: fd7b 42bd b840 f3bd 2a20 5abe 6c1c cf3d
000001b0: 4ffe f9bd caf8 663e b999 69be 46a6 183e
000001c0: 2646 483e 3dac 8cbe 2d00 8cbe 0f03 01be
000001d0: 8b9c 01be 5318 0e3b 488b 80be 133a 6abe
000001e0: dd70 053e 28c2 923d b486 9abe 128e 39be
000001f0: b5f6 263e d302 0b3e aeff a2bd 7cff 5a3e
00000200: 0f24 193e f58b 3a3c a1ac 353e e8bc 3abd
00000210: 5201 9c3e a362 7f3e 7dba 933e 64be e9bd
00000220: 3486 223d 4355 633e 4a90 dcbd 5679 0e3d
00000230: ead4 473e 775f 51be 8c3f 763d 385d 493e
00000240: 0f8d 94bc 747c 4f3d 827e 19be 61b3 54be
00000250: 132d 5bbe 8024 86bd b9fb 49bb 6100 a4be
00000260: 1f89 a4bd ce6a 84bd 8514 fe3d 4ad5 3d3e
00000270: 56e1 6f3d 8d84 833d c662 68be a87b 93bc
00000280: bb16 9abd 0066 74bc 24af 75be 70cb fcbc
00000290: a6c6 3cbe e8ee 873c 3d9b 5cbd 4c93 173e
000002a0: 829d 203d 7c0b e7bd e4e9 233e 8860 adbd
000002b0: 0734 043e 571c 2abe 6d1f 6bbd 99a1 02bd
000002c0: ccf1 823e e859 ce37 4861 d4be 4865 94be
000002d0: 8a9c 3fbd 02fe 793d da3e 16be cf81 6f3e
000002e0: 214b 333e 7385 a8bb d8b3 323e 4f32 b4bd
000002f0: c7ba 58be 00e5 9a3d cafb 16be fd81 723e
00000300: 5ac3 0e3d 2767 c73d d25b 62be aae7 6dbd
00000310: 9294 803d 5e56 24be 60a5 b0bd 3e66 10be
00000320: 1dbb a03d 4f23 343d 57d1 ec3d 8cb7 5abd
00000330: 74e9 20be 7269 5f3e 2de3 65be d78d 8dbd
00000340: bd9e 643e 1084 17be 09b3 793e 3961 d93d
00000350: fe61 5fbd bd21 e73c 384f 8a3e 2d84 a7be
00000360: 6120 98be 110c 7a3d 4436 d1bd 41b7 9b3e
00000370: 225e d8bd 74c3 1e3e 959a 0dbd 9248 6c3d
00000380: 5416 9fbd 1f1c 70be 745c 4c3d b43e 33be
00000390: 18d1 a7be de19 24be 6a01 943e 09c6 043e
000003a0: 2460 a73d 882e 80bd 6614 7c3c ee2b 2fbe
000003b0: c811 e7bd c710 81be 038f 2dbe 9a59 873d
000003c0: 2b19 60be 328e 013e c87d 283e 57c9 9bbd
000003d0: 8af2 043e 5eb8 8d3e fd65 693e 0d80 ab3d
000003e0: b431 89be 2dd3 cebd b6a9 043e 8fc7 97be
000003f0: 6af0 2b3e 55a9 2c3d a84b edbd 5c44 bd3c
0.04749725 -0.19063874 0.1816736 -0.16229571 -0.1812378 0.1176027 -0.16072753 -0.3016365
-0.20060465 -0.12458463 -0.061866254 0.3789863 -0.077998854 -0.27186552 -0.061689418 -0.06040899
-0.012448153 0.17386428 -0.015757553 0.12395546 0.055237662 0.09409525 0.0389919 0.07759307
-0.031432975 -0.33753946 -0.088103816 0.2644587 -0.11347786 0.0026082834 -0.1377423 0.27302703
0.24027435 0.2081683 0.056511246 0.17940003 -0.07050466 0.049919285 0.09555331 0.110512786
-0.17729864 0.049512543 0.0115579935 0.1774033 -0.078433074 -0.079357624 -0.08295936 -0.21881841
-0.12841165 0.119006425 0.044126566 -0.20108594 0.18631808 -0.26164737 0.16627622 -0.3611127
-0.024899207 -0.036105886 0.28830144 -0.01487341 -0.13240942 -0.14904046 0.053225856 -0.1146762
0.10336178 0.07435703 -0.052459832 -0.07332391 0.0053585637 0.1930061 0.14981443 -0.014788017
0.12267944 0.003142795 -0.17560197 -0.18548025 0.22561705 -0.11116624 0.12886818 -0.18751739
-0.19035448 0.28273937 0.22086279 -0.052246116 0.07913465 0.28015026 -0.021749886 0.21568707
0.36129785 -0.06583273 -0.2773699 -0.04669843 0.08330877 -0.3570506 0.14090447 -0.16986832
-0.06777998 -0.34932116 0.14471398 0.28988138 -0.047771174 0.067341544 -0.006424615 -0.29078683
-0.047481526 -0.118775785 -0.21301332 0.10112843 -0.12206709 0.22555843 -0.22812547 0.14907178
0.1955801 -0.27475157 -0.27343884 -0.12598823 -0.12657373 0.0021681979 -0.25106263 -0.22873716
0.13031335 0.071659386 -0.30180895 -0.18120602 0.16305049 0.13575296 -0.07958923 0.21386522
0.14955162 0.011385907 0.17741634 -0.04559031 0.30469757 0.2493997 0.28853217 -0.11413267
0.039678767 0.22200494 -0.107697085 0.034783684 0.19514814 -0.20446573 0.060119197 0.19664466
-0.018133668 0.050655797 -0.14989665 -0.20771553 -0.21403913 -0.065499306 -0.0030820204 -0.3203154
-0.08033966 -0.06465684 0.124062575 0.18538395 0.058564506 0.064217664 -0.22693929 -0.0180033
-0.07523867 -0.014916897 -0.23992592 -0.030858725 -0.18435153 0.016593412 -0.053858984 0.14802283
0.03921271 -0.11281487 0.16007191 -0.084656775 0.12910472 -0.16612373 -0.057403017 -0.031892393
0.255751 2.459898e-05 -0.4148047 -0.2898352 -0.046780147 0.061033256 -0.14672413 0.23389362
0.17509128 -0.0051428615 0.17451417 -0.08798658 -0.21165 0.075632095 -0.14744487 0.23682399
0.03485427 0.097364716 -0.22105339 -0.05808226 0.062783375 -0.16048571 -0.08625293 -0.14101502
0.07848189 0.043978985 0.11563366 -0.0533977 -0.15714055 0.21817568 -0.22449942 -0.069118194
0.22326179 -0.14796472 0.24384703 0.10614247 -0.054536812 0.02821433 0.27013564 -0.3271803
-0.29712203 0.061046664 -0.102154285 0.3041325 -0.105648294 0.15504247 -0.03457125 0.057686396
-0.077679306 -0.23448227 0.049892858 -0.17504388 -0.32776713 -0.16025493 0.2890733 0.1296617
0.08172634 -0.06258875 0.015385723 -0.17106602 -0.112826884 -0.25208113 -0.16949086 0.06608887
-0.21884601 0.126519 0.16454232 -0.07606762 0.12983146 0.27679724 0.22792812 0.08374033
-0.26795733 -0.10098872 0.12955365 -0.2964444 0.1679093 0.042153675 -0.11586696 0.023103885

layer2.6.bias f4 [10]
00000000: 8a71 c0bf 85ce 8ec0 0db8 a5c1 a753 d6c0
00000010: e433 fdc0 4f01 8f3f b3bd fbc0 e135 603f
00000020: 1681 2bbf a4ef c1be
-1.5034649 -4.46271 -20.714869 -6.6977115 -7.9125843 1.1172274 -7.8669066 0.8758221
-0.66993845 -0.37878144
