MyZipTobeUploaded/helpdesk_Neighbour_embedding/EventPredictor_parameters_helpdesk_laplacianOnWeighted_0.0001_run0_GATTTT.pt (torch, 296183 bytes, 9 tensors)

layer1.bias f4 [9]
00000000: 0000 0000 0000 0000 0000 0000 0000 0000
00000010: 0000 0000 0000 0000 0000 0000 0000 0000
00000020: 0000 0000
0.0 0.0 0.0 0.0 0.0 0.0 0.0 0.0
0.0

layer1.W f4 [4, 2]
00000000: 31dd e23c 4aae 283f d8d4 11bf df8f f63d
00000010: a868 d6be afd9 753f 2444 a5bf 1266 05be
0.027693363 0.65890944 -0.569654 0.1203916 -0.4187672 0.96035284 -1.291142 -0.13027218

layer1.a f4 [4, 1]
00000000: 76a2 71be dc9a 753e 76a2 71be dc9a 753e
-0.2359713 0.23984855 -0.2359713 0.23984855

layer2.0.weight f4 [256, 18]
00000000: 9ff4 c0bd c0de 20be 997f 403d a669 99bd
00000010: 02c7 d63c f958 1fbe 09be d63d 9308 5bbc
00000020: 1f7b 0dbd f476 303e 6f4a 44bd c4a6 75be
00000030: 593b 793e 2ac5 3dbe 9359 e5bd 6b6b 193e
00000040: 48c6 34be 3822 503e c73c 44be 0395 34bd
00000050: 735f a63c 8434 343e 020e d9bd af7c 5dbe
00000060: dbb3 a2bc 0c4a 26be 769f 743e a3da 5c3c
00000070: a371 2abd 2f36 42be 42d5 6e3c abc2 3dbd
00000080: ac64 543e da3e 16be 70e0 923d 9db6 733d
00000090: 42eb dcbc 3b84 223d 3e1f 233e 156d 21be
000000a0: c1d6 0dbd e071 a0bd b829 843e 42bc 613d
000000b0: 78a6 2fbe 10e5 81be 0db6 323e af36 063e
000000c0: 28a0 4abe 7cb5 67be 51f0 08be e597 273d
000000d0: c1a8 063e 5a88 acbd 701e 543e 8eaa 0dbe
000000e0: fa17 83be 6cd7 b63c dbb2 9e3b 888f 683e
000000f0: 36c3 c53d a398 123d 63f2 753c 9303 133e
00000100: 93ff aa3d e28c 9539 4829 463c dbb5 5bbd
00000110: 0e7f 78be 5c9d a8bd 1577 573e 55ba b7bd
00000120: a8c5 6bbd 509b abbd 5b95 9cbd ab20 893d
00000130: 5b48 df3a 1799 d03d 2580 d13b 8131 f9bd
00000140: b59c 1f3e 6a4b 5f3e c04a 3fbe 669b 1b3e
00000150: 953c 2a3e adc6 35bd 0c3a 23be a11e bbbd
00000160: 287a 5c3d 5af9 27be 8559 25be 40bf a53d
00000170: 0cd8 6bbd ffbc 99bd 7e10 2b3e 9514 12be
00000180: c2e2 1fbe fb1c b4bd 9193 53bd 47c0 86be
00000190: 38a5 fbbd e805 fc3c a90b b33d 7f45 0dbe
000001a0: 8d38 eb3d 8c6b 803d 6fb9 f9bc 2074 2a3e
000001b0: f57a 113e 8093 23be 183b 003e 6f5a 473e
000001c0: bc34 a33d f0ef 1f3e 5920 643d 2714 473e
000001d0: 4b68 02bd c0d2 eabd 207d 8d3d a7a4 0fbe
000001e0: 10ea 63be d2ad 933e e4d8 77be 40c6 e9bd
000001f0: d8bd 7f3d e9b5 02be a020 eebd 83c0 233e
00000200: a62c cabe ec2a 8fbd 9d8c 34be df90 c23e
00000210: 7db0 d9bd 4f68 0e3d d517 36be 2d81 133e
00000220: 4e3c 34be eb92 9a3e 0674 debd c404 bd3d
00000230: c605 db3d fea5 873e a755 10be eea0 b73d
00000240: 3572 143e 2e4e d8bd 152f ad3d e8b8 803e
00000250: e1c5 483c 4df8 833e 2961 8abd 5d43 e23c
00000260: fe93 45be f66f f6bd 87a4 4bbe 99d4 b8bd
00000270: 31f3 033e bc4e 463d 1233 8d3d 04f7 f1bd
00000280: 78f7 60be b711 423d 53c0 a83d dd12 1dbe
00000290: ed5b 62be f80b 803d 2e33 0abe dc76 8c3d
000002a0: cb02 8dbe 1a2b f73d 5aed 84be f19d 803e
000002b0: 60af 2ebd c542 843e cf69 debd 4009 e2bd
000002c0: 9dc0 10be 3941 71bd 7f41 26be 4592 0ebd
000002d0: 7a2d 323e 9b30 f7bd 4dbb fd3b 8e92 32be
000002e0: 4121 013e b02b 1b3e 9bef 1b3e f5a7 92be
000002f0: 901a cbbd 02bd 83bd 8368 8a3d b1bc 6ebe
00000300: 6ee2 dfbd 02d1 703b 224c ce3b 2510 7a3d
00000310: 3049 f1bd e938 053e 0778 9c3e c3e4 ce3d
00000320: 0d22 723e 87a2 803d 61ca 0cbe ebe5 4fbe
00000330: be63 813e 714b 0dbd ed29 ddba 49c3 9abe
00000340: a869 22bd 2a2e 003e f71c 2dbd 9e44 33be
00000350: ae5a bcbd 0dd3 0a3e ee56 e9bd df1f 93be
00000360: 8fb4 f33d fbe0 c13d 78fb 213e c561 553e
00000370: 70f6 35be 4da7 443e 1031 06be 700d de3d
00000380: 4279 793d f189 1a3e 53b7 283e 3318 d8bc
00000390: fa85 9cbd 27fd 713d 028c dbbc 63a7 3a3c
000003a0: 383c 2c3e 4c6b a1bd 710e 8d3d 1fdf 90bd
000003b0: 2873 8a3c b39e c43d a5d8 e83d b5aa 753e
000003c0: e06d 10be 779c 8f3e b3d3 2c3e a805 7e3e
000003d0: 9f69 57be 29cd 093e 6c21 803d f56b 19be
000003e0: 5fa2 623c e10a 70bd 84fa 08be 113e babd
000003f0: 0071 55bc 5b60 27bd 2265 febd 2721 823e
-0.09421658 -0.15709972 0.046996687 -0.07490854 0.026217941 -0.15561284 0.10485465 -0.0133687435
-0.034541246 0.17232877 -0.047922548 -0.23989397 0.24339046 -0.18532243 -0.111987256 0.14982383
-0.17653763 0.20325553 -0.1916381 -0.04408742 0.020309186 0.17598158 -0.10598375 -0.21629594
-0.019861152 -0.16239184 0.23888955 0.013479861 -0.04161228 -0.18965982 0.014577212 -0.046328228
0.20741528 -0.14672413 0.07171714 0.059500325 -0.026967648 0.039676886 0.15929887 -0.15764268
-0.034628633 -0.0783422 0.2581308 0.055111177 -0.17153347 -0.25370073 0.1745226 0.13106798
-0.19787657 -0.22627825 -0.13372923 0.040916342 0.13150312 -0.084244445 0.20714736 -0.13834593
-0.2560423 0.022319518 0.0048430986 0.22711003 0.09656374 0.035790097 0.015011403 0.14356832
0.08349528 0.0002852446 0.012094803 -0.053640228 -0.24267218 -0.08233139 0.2104152 -0.08971087
-0.057561547 -0.08379233 -0.07645675 0.06695684 0.0017035113 0.101854496 0.00639345 -0.12167645
0.15587123 0.21806112 -0.18680859 0.15195999 0.16624673 -0.044378925 -0.15940112 -0.091367014
0.053827435 -0.16403714 -0.1614743 0.08093119 -0.057579085 -0.07506751 0.1670551 -0.14265664
-0.15613845 -0.0879459 -0.051654402 -0.2631857 -0.12287372 0.030764535 0.087424584 -0.13796042
0.114853956 0.06270513 -0.03048393 0.1664586 0.1420706 -0.15974236 0.12522542 0.19468091
0.07969043 0.15618873 0.05569491 0.19441281 -0.031837743 -0.114659786 0.06908631 -0.14027654
-0.22257257 0.28843552 -0.24203831 -0.11414766 0.06243691 -0.12764706 -0.116273165 0.15991406
-0.3948719 -0.069906086 -0.17631765 0.38001153 -0.106293656 0.034767445 -0.17782529 0.14404745
-0.1760113 0.30190215 -0.108619735 0.092294246 0.106944606 0.2649383 -0.14095174 0.08966242
0.14496692 -0.105617866 0.08456246 0.25141072 0.012254209 0.25775376 -0.06756813 0.027620012
-0.19294736 -0.120330736 -0.19886981 -0.09024925 0.12885739 0.04841493 0.068945065 -0.118146926
-0.21969402 0.047380175 0.08239808 -0.15339227 -0.2210538 0.06252283 -0.13496086 0.06858608
-0.27541193 0.12068768 -0.25962335 0.251205 -0.04264772 0.2583219 -0.10860025 -0.110369205
-0.14135976 -0.05890009 -0.16235922 -0.034807462 0.1740016 -0.12069818 0.0077432753 -0.17438719
0.12610342 0.15153384 0.15228121 -0.28643766 -0.09917176 -0.06432535 0.06758215 -0.23314168
-0.1093186 0.0036745672 0.006295697 0.061050553 -0.117815375 0.13009991 0.30560324 0.101022266
0.23645802 0.06281 -0.13749076 -0.2030255 0.2527141 -0.034495775 -0.0016873457 -0.30227116
-0.039651543 0.1251761 -0.04226395 -0.17506644 -0.09196983 0.13557072 -0.11393534 -0.28735253
0.11899673 0.0946674 0.15818584 0.20838077 -0.1776979 0.19204445 -0.13104653 0.10842407
0.060906656 0.15091683 0.16476183 -0.026378727 -0.076427415 0.059079316 -0.02680016 0.011392447
0.16819847 -0.078817934 0.0688752 -0.07073807 0.016900614 0.09600582 0.11369447 0.23990901
-0.14104414 0.2804906 0.16877632 0.24806845 -0.21036385 0.13457169 0.06256375 -0.14982589
0.013832658 -0.058604125 -0.13376814 -0.090938695 -0.01302743 -0.040863376 -0.12421633 0.25415918

layer2.0.bias f4 [256]
00000000: 3c29 b0bb c989 41be 0c03 b4bc 4290 a13e
00000010: 58b3 993e ab9b 193e 28c5 6c3e ee72 ad3e
00000020: 7b8f 963e 95ee 563e ac76 6fbe ed67 a23b
00000030: c110 63be 18df a5be b97d 7c3e b842 a8bd
00000040: c9c9 033e 06c5 81be 4f77 02be 3b16 1a3e
00000050: 1c62 bcbe 8ec6 06bf d858 a2bd 9e7e 8a3e
00000060: a632 d0be 5c7f 4bbe 3fc7 42bd f344 2b3d
00000070: 7284 16be e73b d3bd d79a f0bd 699e 75bd
00000080: a97f 59be 674f 30be 8bdf f23c 3d9b bdbd
00000090: 0fbb c13e 0294 efbd d7e7 7c3a 492d bfbc
000000a0: 1cc8 303e 02ef 8e3e 8e3e a8bd c515 d33c
000000b0: eaa4 d4be 9221 f83d 4ee5 32be a431 af3e
000000c0: 0637 753e 2c0d 263e 66b1 9e3d 2453 bdbd
000000d0: 005a 593c 4577 3dbe c27f 983d f74d a13d
000000e0: 0d8c 1c3e 915b d53e cc6e aabc 3f0d f5bd
000000f0: cc27 e0be 8924 32bd f3e4 833d 46cf 513d
00000100: 26a1 1abe 8cc0 1c3b ea11 8fbe f758 50be
00000110: 4f5e c93c c840 b6be 9c4b 993e cb8c 043d
00000120: 6023 803e 50ca ff3d 1e53 e8bd 0aa7 96be
00000130: 4077 3bbe 7d5e a13e 9f1e 1ebe 293a e5bd
00000140: e271 c3be 8461 813d 3d7a 02be 5c4e 853d
00000150: 6bb4 44be 8b5d 663d c2ec e83d 669f 97bd
00000160: acb1 5f3c 6d41 fa3a c52b a23e fd5c a6be
00000170: fd3d 45be 3f89 a33b 72a5 0bbe 4c5d 83be
00000180: da01 22bd 9d57 af3e adcc adbd 8e97 503e
00000190: 6e81 4abe ee30 873c a375 9c3e ef98 f83d
000001a0: 7d62 e13d 9023 86be a521 48be d742 bd3c
000001b0: de8e 7abe 5041 62be 3b19 f1bd 2b43 3bbd
000001c0: 774c 493e 22dc 86bd 4016 fb3d aeaf 85be
000001d0: 394e 103e d1d8 3dbe 33c6 93bd 203b a03d
000001e0: aa7a e63c 8732 9b3d 438a 7b3d 4574 7e3e
000001f0: 1011 dcbd f654 073d b4c7 3c3e c73f d13e
00000200: 2646 553e cfda 84be f94d 82be 1a67 993c
00000210: e78e 36bd b0c3 aabc 8f4a 393e 1ba2 8abd
00000220: 066a bebe 5f3d f63d 5f02 01be df3d 62be
00000230: 2425 523d 0ea1 58be 099a 6bbe d804 443e
00000240: 5b59 a23e efcf abbd 146e ebbd 6dc5 96bd
00000250: b4b9 83be 833c f03d 0204 46be f533 9b3e
00000260: e687 49be 0dc3 483e 4b0e 04be b20b 033d
00000270: 534b 763e b03c 483e 4594 fb3d 9e18 febd
00000280: 030c 8cbe ed1a 94bd 4696 01bf 92cf 133e
00000290: 3b0d 67be fe22 313f d0ea f13e fd13 93be
000002a0: 5868 8a3e acbb 373e 4595 673d a41f 423f
000002b0: 2d0d bdbd ed8d 4a3e 5f43 723e e0ea d3bd
000002c0: 3a08 5a3e eff0 9fbe 3cfb 153e e03a 4cbe
000002d0: 06b4 2ebe 91c4 ec3e b649 b93e a5f2 973e
000002e0: 6e3b c8bb 994f 273e e956 72be febe debe
000002f0: 56d1 ee3d 29ae 9dbd 3ab1 853d 36f5 e3bd
00000300: 1df7 aa3e 9f07 76be 91c4 38bd bb57 6bbe
00000310: 2828 d03d bf96 423d bb74 233e f4e7 af3a
00000320: f355 82bc 355e 183e e50e b9bd 13ca 413e
00000330: 0c8a 563e 5436 3d3e 0863 18bf 430c c6be
00000340: 2e59 bf3d 1586 063e 7d8c c2be 3556 10bc
00000350: a73a bbbd eb59 96be 8e45 e13d a3e0 343e
00000360: d9b1 db3e 3f93 01be 6d7f b53e c74d 473d
00000370: 6f79 623d 6d54 f73d ea49 993e 4946 d0bd
00000380: 0629 eb3d aaee 98be a158 373e b884 96bd
00000390: 0585 4d3e c738 263e f73f 9d3e 69ed d9be
000003a0: 4751 cbbe 59ff 293e 3fc1 13be b39d 503d
000003b0: a034 1f3e 466e 503e c718 8d3d f192 45be
000003c0: f54c 7f3d 1273 db3e 308f 74be 6886 d7bc
000003d0: f4fc 363e 4bb7 d83e 52e2 5f3e 2322 dbbe
000003e0: 2a91 983e 5897 0fbe 8c70 57be 751c cdbe
000003f0: b116 cbbc 1ce7 d03e f6fe 053d 43bb 0d3d
-0.0053760093 -0.18900217 -0.02197411 0.31555372 0.3001964 0.15000789 0.23122084 0.33876747
0.29406342 0.2098945 -0.23385113 0.0049562366 -0.2217436 -0.3239677 0.24657334 -0.082158506
0.12869944 -0.2534563 -0.12740825 0.15047543 -0.36793602 -0.5264672 -0.07927102 0.27049726
-0.40663642 -0.19872802 -0.047553297 0.041813802 -0.14698961 -0.1031416 -0.11748283 -0.059965525
-0.21240105 -0.1721779 0.02964761 -0.09258125 0.37838027 -0.11698152 0.0009647584 -0.023337023
0.17263836 0.27916723 -0.08215056 0.025767216 -0.4153207 0.12115778 -0.17470285 0.3421756
0.23946771 0.16215962 0.0774868 -0.092443734 0.013266087 -0.18502529 0.07446243 0.07876199
0.152878 0.41671422 -0.020804785 -0.11965417 -0.43780363 -0.043491874 0.06440153 0.051223062
-0.15100536 0.0023918478 -0.27943355 -0.20346437 0.024581103 -0.355963 0.29940498 0.032360833
0.2502699 0.1248976 -0.11343978 -0.29424316 -0.18307209 0.315174 -0.15441369 -0.11192734
-0.38172823 0.06317428 -0.12741943 0.065090865 -0.19209449 0.056241553 0.11373283 -0.0740345
0.0136532 0.0019092985 0.31674019 -0.3249282 -0.19261928 0.0049907262 -0.13637331 -0.25657117
-0.039552547 0.3424653 -0.084863044 0.20370314 -0.19775936 0.016502824 0.305585 0.12138545
0.11005113 -0.26199007 -0.19544084 0.02310316 -0.24468562 -0.22095227 -0.117723905 -0.045718353
0.19658075 -0.06584956 0.12260103 -0.26110595 0.1409234 -0.1853974 -0.07215538 0.07823777
0.028134663 0.07577997 0.061411154 0.24849041 -0.10745442 0.03304001 0.18435556 0.4086897
0.20827541 -0.25948188 -0.25450113 0.01872592 -0.044569876 -0.020845264 0.18094848 -0.067692004
-0.37190264 0.12023424 -0.12598561 -0.22093914 0.05130495 -0.21155187 -0.23007978 0.19142473
0.31708798 -0.083892696 -0.11495605 -0.07361875 -0.25727618 0.11730292 -0.19337466 0.30313078
-0.19680747 0.19605656 -0.12896077 0.031993575 0.24052171 0.195544 0.122841395 -0.12407039
-0.27352914 -0.07231698 -0.50619924 0.1443465 -0.22563641 0.6919402 0.4724946 -0.28726187
0.27032733 0.17942685 0.05653884 0.7582953 -0.09231029 0.19780703 0.23658513 -0.10347533
0.212922 -0.31238505 0.1464662 -0.19944334 -0.17060861 0.46243718 0.3618905 0.2967731
-0.0061106 0.16338958 -0.23665966 -0.4350509 0.116610214 -0.07699234 0.06527944 -0.11130755
0.33391657 -0.24026345 -0.045109335 -0.22982685 0.10163909 0.047507044 0.15962498 0.0013420568
-0.015910124 0.14879687 -0.09036044 0.18924741 0.20951098 0.18477756 -0.5952611 -0.3868123
0.093431816 0.13137086 -0.3799781 -0.008809616 -0.091420464 -0.29365477 0.10999595 0.17663817
0.42909124 -0.12653826 0.3544878 0.04865816 0.05529159 0.1207665 0.29939204 -0.10169656
0.11482434 -0.29869586 0.17904903 -0.07349533 0.20070274 0.16232596 0.30712864 -0.42563942
-0.39710447 0.16601314 -0.14429186 0.050931644 0.15547419 0.20354566 0.068894915 -0.19294335
0.06232925 0.4286123 -0.23882747 -0.026309207 0.17869931 0.4232734 0.21863678 -0.42799482
0.2979825 -0.14022577 -0.21039027 -0.40060773 -0.024791094 0.40801322 0.032713853 0.034602415

layer2.2.weight f4 [256, 256]
00000000: 2957 33bd e244 393d c7d1 2cbd 7a82 18be
00000010: d2f3 933c 0a51 02bb d050 a5bd 707e 6b3c
00000020: 90b6 553d 260f 57bd 4c48 853d 06ce be3c
00000030: 6b2b f9bd 27c2 7f3d d132 2d3d 5b91 1c3d
00000040: 0517 263d c083 6b3d 22a4 d13c a470 cfbd
00000050: 933b 02bd f14a 7bbd 3698 fa3c 9428 bcbd
00000060: b02d 703c 5b31 cfbd fe30 5abd 66b1 81bc
00000070: ed07 b4bd 6677 b5bd f54c debc 00b5 eb3c
00000080: 2571 333e c790 78bd 5781 b63c 9402 5fbd
00000090: 27ac a9bc f457 9e3d f226 87bc 9dde 08bd
000000a0: 9055 81bd 7348 ecbd 00d3 40bd 76bf 00bc
000000b0: 4ab4 c73d 2bbf d53d 7603 3f3e 1762 c7be
000000c0: f44c 463c b1e3 fd3c 9f10 6bbd bdbc e13c
000000d0: 6325 92bb 08ed 2abd c7d4 2cbd 8458 01be
000000e0: 5230 9bbd 3b60 9fbd 3336 153e a8c2 a73d
000000f0: 01cf 5cbd c45b 0e3e 3f11 24bd 91ba d73d
00000100: 76e9 21be f03e 8a3d 73f3 ec3d 69ab fd3d
00000110: ef01 003e 3e11 433d e258 9c3d fdac 6a3d
00000120: 36f0 8ebd 5432 abbc 716a 493e 9bce e23c
00000130: ef8d 933d dd48 02be 29d5 823d 7d86 bc3c
00000140: 91a5 f7ba 7c24 b03d 6c82 e3bd 914f 343d
00000150: 2295 88bc 3ce0 793e 24b6 9dbc 256e 153d
00000160: bc6e 273e 6079 d73d 40be 0c3d c130 323d
00000170: c014 13bc 65ed a63d 4667 2e3e 23a1 423d
00000180: 7caa 1e3c 0da4 863c 0a08 93bb 119c 15bd
00000190: 449b 393d 2cc1 863c 0ba8 d0bd 5079 fe3c
000001a0: ced7 073e b70e 1d3d 7d2c e33d 6198 8d3d
000001b0: 6866 dabd 6524 55bd 2117 bc3d 587b 63bd
000001c0: a96b d03c 23c1 16be a466 24bd 013e bf3c
000001d0: b5f9 0cbd d94b dbbd 5b1e c53d 4416 b13d
000001e0: 0eab 7f3c 15f9 babd 1023 31bc 22cc d43d
000001f0: 1bb9 1ebb a8f9 72bc a2b2 ce3a 922c 23bd
00000200: 5579 ecbc 270e 653c 6754 be3c c005 a03d
00000210: b57e 0b3e 5d9a 723d 1a4a 943c 9c05 013d
00000220: 9962 413d 81e3 69bd d54d a2bd 77b4 613d
00000230: 631b 26bc a214 b6bc 0e83 1dbc 9441 b13d
00000240: fa26 b8bc 3f7d 973d 63a7 223d 8a07 88bc
00000250: 7e51 043d eab7 00bd a19b 04be df88 023b
00000260: 1ea7 24be 1eff 7f3d 3228 b1bc d456 1abd
00000270: 5dc7 ddba cd29 683c 9f2a 05bd f4ef 2e3d
00000280: 4957 a2bd 78b8 363d bc4d f5bd 8038 07be
00000290: abae 9e3d 5e59 043d ceb3 42bd d603 953d
000002a0: 825b b93d fa48 b73d d519 8cbb 26c1 a4bd
000002b0: f837 863d be08 493c 5acb 8fbd 3722 91bd
000002c0: e4f0 62bd f66b 6f3d 9153 81be 6a3e a63d
000002d0: b432 5bbd c326 a5bc f6a7 003d da59 873d
000002e0: a079 ba36 0f9b 393c 53aa d03d ed71 773b
000002f0: 25bf 9ebd d9c7 cc3d dd12 183d 3170 053e
00000300: 8d1f 89bd 1bee 6e3d 5977 adbb d334 a43d
00000310: aa77 793d 3101 9c3d a611 d53b 2027 64bd
00000320: 7ec7 f8bd 2e26 65be 3bc7 10bd a3c8 eabc
00000330: 8865 eb3d d594 c73b 1c55 4a3e 7df3 f2bc
00000340: b076 a63d 9695 d33d 0f19 203d 3fde b83b
00000350: 94a8 06be 017c 033d ec01 473e 949b 053e
00000360: 6d3a 39bd e9c5 fc3d f7f6 b53c 2fd8 413d
00000370: ae79 14be d992 2cbd a48d 793e d6ba dcbb
00000380: a767 92b9 b864 30ba 960b aabd d29f cfbc
00000390: 4d6a 833b a0ce 80bd 2c88 673d 0c1e 7c3d
000003a0: 2a78 443c efd8 183e d480 c0bd 351b 0abc
000003b0: e0d5 fe3c 0963 90be afa6 ea3d 8a7e 453d
000003c0: 19a1 693d deeb 143d f096 23be c46e 283d
000003d0: 6556 59bc f106 c1bc 9d22 52be 4253 05be
000003e0: 8b02 b8bd 987d c3bc a2b6 b73d 5944 6cbd
000003f0: 9bef 3fbd 367f ca3d 477a 02bd db14 b13b
-0.043784294 0.045231707 -0.042192247 -0.14893523 0.018060599 -0.0019884729 -0.080720544 0.014373407
0.05217606 -0.05250468 0.0650793 0.023291599 -0.121664844 0.062441017 0.04228479 0.03822456
0.040549297 0.057498693 0.02559096 -0.10128906 -0.031795096 -0.061350767 0.030590158 -0.09187427
0.01465933 -0.10116836 -0.05326938 -0.01583166 -0.08790574 -0.08860664 -0.027136305 0.028772831
0.1752363 -0.060684945 0.02227847 -0.054445818 -0.020711971 0.077316195 -0.016498063 -0.033415426
-0.06315148 -0.11537256 -0.047076225 -0.007858148 0.09751184 0.10436853 0.18653664 -0.38942024
0.012103308 0.03099236 -0.057388898 0.027555818 -0.0044600233 -0.041729957 -0.042195108 -0.12631422
-0.07577576 -0.077820264 0.14571457 0.081914246 -0.05390835 0.13902193 -0.04005551 0.105336316
-0.15811715 0.067502856 0.11569872 0.123862095 0.12500738 0.047623865 0.076341406 0.05729388
-0.0697941 -0.020898022 0.1966951 0.027686408 0.07204806 -0.12723108 0.06388313 0.023013348
-0.0018893947 0.08600709 -0.111088604 0.044021193 -0.016672675 0.24401945 -0.01925189 0.036481995
0.16350836 0.10521197 0.034361124 0.043503527 -0.008977115 0.08150748 0.17031583 0.047516953
0.009684201 0.016435647 -0.0044870423 -0.03652579 0.04531409 0.016449533 -0.10188302 0.031063706
0.13265917 0.03834411 0.1109247 0.069138296 -0.10664064 -0.05203666 0.09184099 -0.05553755
0.025441961 -0.14722113 -0.04013695 0.023344995 -0.034417827 -0.10707826 0.096249305 0.08646825
0.015604747 -0.0912954 -0.010811582 0.10390498 -0.0024219218 -0.0148300305 0.001576979 -0.039837427
-0.02886645 0.013980425 0.023233606 0.07813597 0.13622554 0.059229244 0.01810174 0.03149949
0.04721317 -0.05710173 -0.079250015 0.055103745 -0.010138365 -0.022226635 -0.009613765 0.08655086
-0.022479523 0.07396936 0.039710414 -0.016605157 0.03230428 -0.031425394 -0.12949993 0.0019918007
-0.16079375 0.062499158 -0.021625612 -0.037680462 -0.0016920377 0.014170122 -0.03251135 0.042709306
-0.079268046 0.044609517 -0.11977717 -0.13205147 0.07748159 0.03231179 -0.047534756 0.07276122
0.09050657 0.08949466 -0.0042755404 -0.08044653 0.06553644 0.012270151 -0.07021208 -0.07086604
-0.055405512 0.05845257 -0.2525907 0.08117373 -0.05351515 -0.020160085 0.03141018 0.06608935
5.557391e-06 0.011328473 0.10188737 0.0037757114 -0.07751302 0.099990554 0.037127364 0.13031079
-0.06695471 0.058332544 -0.0052937684 0.08017888 0.060905136 0.07617415 0.006502348 -0.055701375
-0.12147425 -0.22377846 -0.03534625 -0.028660124 0.11493975 0.00609074 0.19759029 -0.02965712
0.081281066 0.10331266 0.039086398 0.005641728 -0.13150245 0.03210068 0.19434327 0.1304763
-0.045221735 0.12342436 0.022212489 0.04732531 -0.14499542 -0.042132232 0.24370438 -0.0067361398
-0.00027924517 -0.00067288755 -0.08302991 -0.025344763 0.004010475 -0.062894106 0.056526348 0.061552092
0.01199154 0.14926504 -0.09399572 -0.008429338 0.031107843 -0.28200558 0.114575736 0.04821638
0.0570384 0.036357753 -0.15975547 0.04112126 -0.013265227 -0.02356288 -0.20521016 -0.13020042
-0.0898486 -0.023863599 0.08970381 -0.05768237 -0.046859365 0.09887545 -0.031854894 0.0054040975

layer2.2.bias f4 [256]
00000000: d864 a4bd 530a 163d e3ad 4b3e c11a 003e
00000010: 98cb 90be e9ae b2bd 3862 ad3d 8e84 91bd
00000020: 161f 6a3e 1c9f 363d 05f7 b83d 1494 dd3c
00000030: e1f8 4a3e a31d 0fbe edcc 91bd b783 67be
00000040: 3d0f 453e a455 8ebc 5456 9ebd 2aee 66be
00000050: b830 4b3d 7cf1 d13d 9f6d 8d3d 6aed f13c
00000060: ff2e 04bd 0c8b 99ba 07af 7bbd d160 bbbb
00000070: f9c7 c33d 7f2e d6bd 45a3 1fbe 1d27 f13a
00000080: 6273 153d 9cf6 12be 00ce 253e 961b 55bd
00000090: 5acd e2bc 2d4b c4bc d69a de3d e14b 9e3d
000000a0: da5a 8ebe 64a7 0bbd 71cb 863e fdc3 adbe
000000b0: 8332 d8bd f35b 6cbe 6ad0 a4be 1b05 2a3c
000000c0: f581 3fbc 507d 083d 25ff d8bd d9e5 74bd
000000d0: 3319 debc ba1a 493d 2181 85bd fd3b 313e
000000e0: 3f31 ff3c 7c1d c33b 6040 83be 6237 96be
000000f0: 057f 84bd b7dc 85be 78bb 053e 94a1 88bd
00000100: d60b 073e 1d14 4dbd 4fa0 723d 4a3c 433d
00000110: e2e7 06bd 25d4 d63b 9085 683e ac8d 883d
00000120: 1229 93bd 1b62 513d ab8a 803e 5f29 a0bd
00000130: 553d 233e 7aa1 5bbe dca6 eebd 1d5e 653e
00000140: 2d59 eabd 4af4 9d3d f5ad 863b 6b9e 67be
00000150: 127e 9fbd fcdc e3bd 710d c2bc 67b2 643e
00000160: 214b 8a3e 7fbb 22be ea3a 353d 08f3 1abd
00000170: d80e a23d f698 b63c a8d8 6e3e ac88 dbbd
00000180: 7a0d 923d f296 61be ee99 dabc 9b21 0f3e
00000190: 961d 2a3e dc65 54bc 03a5 a53e 53f0 283d
000001a0: 3bc9 aa3e 0a12 2a3d 8c8b fd3d 253f 1f3c
000001b0: f4cb a8bd 0f2f 353e d641 98bb c4bf 50bd
000001c0: 766e 023d 00e0 9d3d 10ba 83bd 5b8e acb9
000001d0: 96a8 c1bd c69b 803e b028 b0bc fdb1 7f3e
000001e0: 31fa ad3e f63b 4ebc 69f3 493d 9f12 23be
000001f0: df3c f0bc 84cd 243e 4529 b83d a037 bdbd
00000200: afa2 88be 6104 583d 7609 783d 4e4d dfbd
00000210: da68 223e b99b 2cbe 9f77 92bd 3f0b 903d
00000220: 5590 e3bc 9d29 90bd 78b4 c1bd 9cd8 77bc
00000230: b7d8 cbbd 418a 783c 2601 27bc f9ba 01be
00000240: 71e3 13bd 8bf0 093e b6cb 2f3d 8b8e 01bd
00000250: 2ce0 903d b923 d9bd 55c9 95be 702b a5be
00000260: d666 113e 82ff c5bd 13d5 72be 959a c4bd
00000270: 5f88 ad3d 48d8 3abd 0a5a ac3e 797b debd
00000280: 7df5 6ebd b1e1 073d 5327 213d b415 3f3d
00000290: 4d33 cb3d f5c9 91bc 9eca 8b3e 4b60 da3c
000002a0: fa7c 203e 355b b1bd fe5c 54be 99bd 84bd
000002b0: 550b 83bd 12f9 b63e e03f 8abd 89e4 acbd
000002c0: bd57 15be 7839 45bc 4d64 b6bd 281e 593c
000002d0: a5b9 61bc fc35 b43c f073 bcbd 5677 77be
000002e0: 69eb 81be 5735 babe 2f33 bebd af1d 1abd
000002f0: e5c0 4f3d bbc8 313d 4e1b c23d 7db1 5d3d
00000300: 93d4 153c d9c0 d93c b795 2a3d 41b1 a23e
00000310: 6485 1a3e 7710 a13d a802 afbc dff6 9abe
00000320: 4277 f53d d5d8 7d3d 64a4 513c 3197 7ebd
00000330: 4817 ffbc 6c5f a9bc 2d68 563d 26fd 2cbd
00000340: 60d4 cf3d 4dfb 5e3c 98e8 183b cd80 293c
00000350: c15b 683e 3187 29bd be1b f03c 2d22 67bd
00000360: ff21 ee3c 58e3 e63d 783e 4fbe 4888 6f3d
00000370: fee7 45bb 2d81 f2bb a759 033d 32b0 9bbd
00000380: 5424 bd3e 0389 58bc f53b f5bc b14f bbbd
00000390: 92c6 093d ce38 3f3e ce5c adbd 6db1 8ebd
000003a0: 0091 4b3c 668c d0bd e77d e7bc c956 043e
000003b0: 4f55 bebd 9721 233d c5fa ba3c a519 ca3d
000003c0: 5b91 b93d a4bf e83d bdcb 203d f440 b0bd
000003d0: ddac d53d e9e7 123d 272f 853c 5edc 633e
000003e0: a90e 3f3c bd53 b2bd 5155 713d 1e5d 2ebd
000003f0: 1fee 093c 5dfe 0bbe 9d34 5cbe 2364 85bd
-0.08027047 0.03663094 0.19890551 0.12510206 -0.2828033 -0.08724768 0.08465999 -0.07105361
0.22863421 0.044585332 0.0903149 0.027048148 0.19821502 -0.1397615 -0.071191646 -0.22608839
0.19244094 -0.017374821 -0.077313095 -0.2255179 0.04960701 0.102511376 0.06905674 0.029532153
-0.03227138 -0.0011714413 -0.061446216 -0.0057183285 0.09559626 -0.10458087 -0.15589626 0.0018398497
0.03648699 -0.14351887 0.16191864 -0.05202826 -0.02768581 -0.023961628 0.10869376 0.077293165
-0.2780369 -0.034095183 0.26327088 -0.3393859 -0.10556509 -0.23081951 -0.32190257 0.010377194
-0.011688699 0.033322632 -0.1059554 -0.059789512 -0.027111625 0.049097754 -0.0651877 0.1730804
0.031151412 0.0059544425 -0.25635052 -0.2933913 -0.064695396 -0.26144955 0.13059795 -0.066714436
0.13188109 -0.05006801 0.059234913 0.047664918 -0.032935984 0.0065560513 0.227072 0.06667647
-0.07185568 0.05111895 0.25105795 -0.07820391 0.15941365 -0.21448317 -0.1165292 0.22399183
-0.1144279 0.0771261 0.0041100928 -0.22619025 -0.07787718 -0.11126134 -0.02368805 0.2233368
0.27010444 -0.15891837 0.044245638 -0.03782943 0.079129875 0.022289734 0.23324835 -0.107194275
0.07131477 -0.22030237 -0.026684728 0.13977663 0.16612849 -0.012963738 0.32352456 0.041244816
0.33356652 0.04152111 0.12380132 0.009719645 -0.08242026 0.17693733 -0.00464652 -0.050964132
0.031843625 0.0770874 -0.06431973 -0.0003291246 -0.09455983 0.25118846 -0.021503776 0.24970241
0.33979943 -0.012587538 0.0493044 -0.15925072 -0.0293259 0.16094023 0.089922465 -0.09239125
-0.26686618 0.05273855 0.060555898 -0.109034166 0.1586031 -0.16856278 -0.07151722 0.07033395
-0.027778784 -0.07039187 -0.0945825 -0.015127327 -0.099534445 0.015169681 -0.010193145 -0.1266898
-0.036105577 0.13470666 0.042918883 -0.03163008 0.070740074 -0.10602517 -0.29255167 -0.32259703
0.14199385 -0.09667875 -0.23714094 -0.09599797 0.08473276 -0.045616418 0.33662444 -0.10863394
-0.058339585 0.03317422 0.039344143 0.046651557 0.09921894 -0.017796496 0.27303022 0.026657244
0.15672675 -0.086599745 -0.20738599 -0.064814754 -0.06398646 0.357369 -0.067504644 -0.08442027
-0.14584251 -0.012037627 -0.089058496 0.013251819 -0.013777171 0.021998398 -0.09201801 -0.24166617
-0.25374916 -0.3636882 -0.09287106 -0.037625965 0.050721068 0.043404322 0.09477864 0.054124344
0.00914492 0.026581215 0.041646685 0.3177586 0.15089947 0.078644685 -0.021363571 -0.30266473
0.11985637 0.061974365 0.012795541 -0.062155906 -0.031139031 -0.020675384 0.052345444 -0.04223361
0.10147929 0.013609719 0.0023331996 0.01034565 0.22691251 -0.041388694 0.029310104 -0.056429077
0.029068945 0.11273831 -0.20238674 0.058479577 -0.0030198093 -0.007400653 0.03206792 -0.07601966
0.3694178 -0.01321626 -0.029935816 -0.09146059 0.033636637 0.18674013 -0.08464967 -0.06967435
0.012424707 -0.10183029 -0.028258277 0.12923731 -0.09293615 0.039826956 0.022824654 0.098681726
0.090609275 0.113646775 0.0392568 -0.08606139 0.10433362 0.035865698 0.016257836 0.22252032
0.01166121 -0.08707378 0.058919255 -0.042569272 0.008418589 -0.1367125 -0.21504445 -0.0651324

layer2.4.weight f4 [10, 256]
00000000: 91b2 c6bc e0f7 e3bc e5b7 36bd 9b83 6bbd
00000010: a913 133e 2d95 663d 2bdc 2dbc 6f8a 1c3b
00000020: 8e6e 8ebc 2120 c43d d332 49bd 7110 033a
00000030: 08dd 933c 1897 e23d 3cd3 513c e4a7 353d
00000040: a716 7abd eeb0 37bd cba3 2f3d f00d c53d
00000050: ebcd 063c bd63 ca3c 1194 8a3d 7236 f43b
00000060: 7529 be3d b653 433d 0b5e 0fbc dacc 863d
00000070: 0e18 4dbd bc7a 30bd d257 c43c 4d35 643d
00000080: 0ce8 70bd 02dd df3b 79dd fb3b 3dc9 b5bd
00000090: 5f65 8ebd 2f6d fb3c 1185 b0bd 4df9 6abc
000000a0: 0819 203e 53e3 eebb 0011 4cbd b396 af3c
000000b0: 277b 353d ca5f c83d 4d70 f73d 5d5b d23c
000000c0: e3cc 3dbd bb82 3fbd 4b97 aa3d 311c 453d
000000d0: 3bf5 c3bd e6af ac3d d6d9 913c 4312 93bc
000000e0: 989d cabd 1676 b83c 3802 283e b6c3 0a3e
000000f0: d048 35bc 0c27 fa3d fdff babd 0a5e 65bc
00000100: f86c d8bc 0d13 c03d 7789 3d3c e4f7 13be
00000110: 2538 7b3c f6f7 643d e443 0cbe 4a06 5cbb
00000120: 4c78 bd3c 49a8 d23c 957b 7abd 936b dc3d
00000130: 35df f0bd 3c12 c03d 749b 9fbc 6caa 17be
00000140: 71db 8c3d 6bcf f7bc af49 da3c 3a85 ea3d
00000150: f6a8 7e3d 0d57 c83d 2cb7 863d 6b10 453d
00000160: 6558 0cbe 1652 053e 1b0a cfbd 62ae 183c
00000170: c808 92bd 1a8c 903d c4ed d6bd 8272 d23d
00000180: 4567 35bd 78a1 e93d e3e7 e33d ca60 21bd
00000190: 42b2 b0bd bc36 cebc 4f57 23be 33f6 8c3b
000001a0: b0cd 0fbe 25b2 74bd f250 edbd 4bae e63d
000001b0: e409 b03d 4181 c6bd f642 52bb 3bbe e63c
000001c0: 44d2 093d 302e 64bd b57b fe3d c09e 73bc
000001d0: 46f5 803d 977b b5bd 8364 2a3d 7a37 20be
000001e0: b9fa fabc c538 9dbc db99 fb3b 4d58 b53d
000001f0: 19d9 81bd d8b4 67bd 0dbf aabd adde 9f3d
00000200: 25c7 a43d 5eef f23c dff1 e8bc 590b 3c3d
00000210: 7496 febd 193d cf3d 73df 943c d1a7 2ebd
00000220: 56b0 0b3d 5f79 d73d 7cc9 653c bdb7 043d
00000230: e7b9 e23c 3be8 a6bd 93f1 203c e166 ed3c
00000240: 79fc 3a3d 8b97 5dbd 0958 42bc 7f71 30bd
00000250: 0b18 f9bd 6163 833d d328 083e c52c 943d
00000260: db8f e03c 9fda 5f3d 1e1d e73d 9828 693d
00000270: eee1 75bd c547 efba c6b6 31be 56e0 26bd
00000280: cd4e ef3d 641a 33bc bbaf 8dbd 5810 b4bd
00000290: 1957 f8bc 4404 963c 3d6c f3bd 62b3 c8bc
000002a0: 1453 f8bb 92a7 d23d 907c 073e e7b1 473d
000002b0: 7d80 643d 6393 bfbd 3d69 243d cd13 0b3d
000002c0: a77c 0b3d 9597 753c 15d8 f43b 3fdb d13b
000002d0: a094 873d a1e2 7fbd 8293 9d3d f920 ae3d
000002e0: 136f f03d 047c 263e 2e10 c83d dc84 af3d
000002f0: 5a42 a43c d933 fcbc bb6b acbd fb40 eabd
00000300: 4ef2 a83c 4a8c 803d 6ec3 933c 6c1d 2abe
00000310: b60f c93c 9e4e 93bd 4aa5 403c 307b ea3d
00000320: fbc3 03bd 4297 50bd 3ce9 f2bc 0d78 a13d
00000330: 26bc 953c ad12 a13d 174e f0bd f2ec 15bc
00000340: b4fa 9ebc 5234 2d39 e3c3 f93c 3105 6e3c
00000350: d709 d6bd 1a94 5a3d 40d7 143d 1eec 7fbd
00000360: ec1f 89bd 30d8 6bbd 72b0 0a3e 0a03 14bd
00000370: df9c 4bbd bdec 9bbd c3c8 b0bd bb05 f63d
00000380: 4d72 38be 70a4 4b3d 2daf 7bbc 3c6d b73d
00000390: 78a0 5d3c 7cd0 d6bd 080a 2bbd 00b6 f13c
000003a0: f9ca b73d 95ef 30bd c287 3d3d 6ad4 8ebd
000003b0: 1195 a73d 29fa 10bd eab8 5cbd 323d 8bbd
000003c0: 173d c23b 4744 f9bc cc1f 73bd b168 803d
000003d0: 8d88 d4bc 93d0 843c 43fc 3cbd cf7a aebd
000003e0: 857f 65bd 6e42 d93c f4ad 1abd 3671 233d
000003f0: 786f 04bd 18f8 a53d 7d88 9f3d 1de7 113d
-0.024255069 -0.027828157 -0.04460897 -0.057498556 0.14362969 0.05629461 -0.010611574 0.0023886224
-0.017386701 0.095764406 -0.049120735 0.00049997034 0.018049732 0.11063975 0.01280671 0.044349566
-0.06105676 -0.044846468 0.042880815 0.09621799 0.008227806 0.024705762 0.06766523 0.0074527794
0.09285251 0.047687255 -0.008750449 0.06582041 -0.05007177 -0.0430858 0.023967657 0.055714894
-0.058815047 0.006831766 0.0076863137 -0.08876274 -0.06952929 0.030691711 -0.086191304 -0.0143416645
0.15634549 -0.0072902828 -0.0498209 0.021434164 0.0443069 0.09783895 0.120819665 0.025678331
-0.046337973 -0.046755534 0.08329638 0.04812259 -0.095682584 0.084319875 0.017804068 -0.017953044
-0.0989334 0.022517245 0.16407096 0.1355122 -0.011064723 0.12214479 -0.09130857 -0.013999471
-0.026419148 0.09378634 0.011568419 -0.14450032 0.01533321 0.055900536 -0.13697773 -0.0033573085
0.023128651 0.02571501 -0.061153013 0.10762706 -0.11761323 0.09378478 -0.019483306 -0.14811105
0.068777926 -0.030250272 0.026646463 0.11451192 0.062172852 0.097822286 0.06577906 0.04811136
-0.13705595 0.13019595 -0.10109349 0.00931892 -0.07130581 0.07057972 -0.10494569 0.10275747
-0.04428794 0.11407751 0.11128213 -0.039398946 -0.0862775 -0.025172584 -0.15951274 0.00430181
-0.14043307 -0.059740204 -0.11587705 0.112637125 0.085956365 -0.09692622 -0.003208337 0.02816688
0.03364779 -0.05570811 0.12425939 -0.014869392 0.06296782 -0.088614635 0.04159976 -0.15646163
-0.030637132 -0.019192109 0.007678253 0.08854733 -0.06340236 -0.05656895 -0.08337221 0.07806144
0.08045796 0.029655155 -0.028435646 0.04590926 -0.124310404 0.10119075 0.018172955 -0.04264051
0.034103714 0.105211966 0.014025088 0.03240179 0.027676536 -0.08149763 0.009823221 0.02897972
0.045650933 -0.0540996 -0.0118618095 -0.04307699 -0.12162789 0.064154394 0.13296823 0.072351016
0.027412346 0.054651853 0.112848505 0.05692348 -0.060029916 -0.0018255642 -0.17354879 -0.040741287
0.11684952 -0.010931585 -0.069182836 -0.0879218 -0.030314969 0.01831258 -0.11885879 -0.024499599
-0.007578263 0.10285868 0.1323111 0.048753645 0.0557866 -0.09354284 0.040139426 0.03395443
0.034054425 0.014989753 0.007472048 0.00640431 0.06620145 -0.06247199 0.076941505 0.08502383
0.11739936 0.16258246 0.09768711 0.08570263 0.02005117 -0.030786442 -0.084189855 -0.11438175
0.020623352 0.06276758 0.018037524 -0.16612786 0.024543624 -0.071927294 0.011758158 0.114492774
-0.032169323 -0.0509255 -0.02965223 0.07884226 0.018278193 0.0786489 -0.117336445 -0.00915073
-0.019406654 0.00016518057 0.030488914 0.014527605 -0.104510956 0.053363897 0.03633809 -0.06248104
-0.06695542 -0.05757922 0.13543871 -0.03613571 -0.04971015 -0.076135136 -0.08632042 0.12012812
-0.18012352 0.049717367 -0.015361589 0.08956382 0.013527028 -0.10488984 -0.041757613 0.02950573
0.08974261 -0.043197233 0.046272047 -0.069741085 0.08182729 -0.03539482 -0.053887285 -0.067987815
0.0059276926 -0.030428065 -0.059356496 0.06269968 -0.025944019 0.016212737 -0.046139013 -0.08519518
-0.056029815 0.026520934 -0.03776355 0.03990289 -0.032332867 0.08103961 0.07789705 0.035620797

layer2.4.bias f4 [10]
00000000: 19f6 b0bd 69c5 4cbe 9e3d 85bf 8bb1 81be
00000010: 7060 73be ebff 883c d813 5abe d042 e23c
00000020: 1835 93bd 5ea2 37bd
-0.086406894 -0.19997181 -1.0409429 -0.25330767 -0.23767257 0.016723594 -0.21296632 0.02761975
-0.07187861 -0.04483258
