MyZipTobeUploaded/helpdesk_Neighbour_embedding/TimestampPredictor_parameters_helpdesk_weighted_0.0001_run0.pt (torch, 286967 bytes, 8 tensors)

layer1.bias f4 [9]
0	0x00000000	0.0
1	0x00000000	0.0
2	0x00000000	0.0
3	0x00000000	0.0
4	0x00000000	0.0
5	0x00000000	0.0
6	0x00000000	0.0
7	0x00000000	0.0
8	0x00000000	0.0

layer1.W f4 [4, 2]
0	0xbf107944	-0.56435037
1	0xbf57083e	-0.8399695
2	0xbd8c78ce	-0.06858979
3	0x3f41a5e8	0.7564378
4	0x3f95133f	1.1646498
5	0x3f41e1b4	0.7573502
6	0xbf73210d	-0.94972306
7	0xbdbf00e6	-0.09326343

layer1.a f4 [4, 1]
0	0x3b85fa45	0.0040886723
1	0x3e08af3a	0.13348094
2	0xbc930bd2	-0.017949972
3	0x3d38f476	0.04515501

layer2.0.weight f4 [256, 18]
0	0x3dd3e860	0.103470564
1	0xbe9ebb62	-0.31002337
2	0x3e0ebd86	0.13939485
3	0x3d393a5b	0.045221668
4	0xbe582f1f	-0.21111725
5	0xbdba8d88	-0.09109026
6	0xbe0d8c5a	-0.13823071
7	0xbd98f6d6	-0.07468955
8	0xbb777e0b	-0.0037764336
9	0x3e5940d4	0.21216136
10	0x3e274350	0.16334271
11	0xbeacf0ee	-0.33777565
12	0xbd256ac8	-0.040385038
13	0xbe1ea370	-0.15492034
14	0xbca21848	-0.019786969
15	0xbe873efd	-0.26415244
16	0xbe472c0c	-0.19450396
17	0xbe76fe9d	-0.24120565
18	0xbe50b763	-0.20382456
19	0x3c0528c1	0.008127392
20	0x3e064cd1	0.1311524
21	0x3e2f0f8c	0.17095774
22	0xbd12eaed	-0.035868574
23	0xbde19c5b	-0.110161506
24	0xbe17ec31	-0.14836194
25	0xbd04f57a	-0.032460667
26	0x3ea4913b	0.32142052
27	0x3d969bc9	0.073539324
28	0x3e278c20	0.16362047
29	0x3da2014d	0.07910404
30	0x3e1232e7	0.1427723
31	0xbd956cd5	-0.07296149
32	0x3dc5a2f9	0.09650225
33	0x3e0544f9	0.13014592
34	0xbde54896	-0.11195485
35	0xbe4a143f	-0.19734286
36	0xbe00aca6	-0.1256586
37	0x3d8c2999	0.068438716
38	0xbd710840	-0.05884576
39	0x3de5ca94	0.11220279
40	0xbe7c6eb4	-0.24651605
41	0x3d80430a	0.06262787
42	0x3e5ed9d6	0.21762785
43	0x3dca7544	0.09885648
44	0xbe8cf5aa	-0.27531177
45	0x3ec24854	0.37945807
46	0x3de35273	0.1109971
47	0x3a83904f	0.0010037514
48	0xbd800059	-0.06250066
49	0xbe487aa3	-0.19578032
50	0x3e93ddfc	0.28880298
51	0xbd778069	-0.060425196
52	0x3d9d2959	0.07673902
53	0x3e2c0f74	0.1680277
54	0xbd901536	-0.07035296
55	0xbdd7ba29	-0.10533554
56	0xbe043180	-0.12909508
57	0x3d6e12b7	0.058123317
58	0xbca17f65	-0.019714067
59	0x3e8d4c8e	0.2759747
60	0xbe27cf7e	-0.16387746
61	0xbdf97e9d	-0.12182353
62	0x3e408860	0.18802023
63	0xbd9a5a32	-0.07536735
64	0xbe1cff3d	-0.1533174
65	0xbcd82a1f	-0.026387272
66	0xbd4ec067	-0.050476458
67	0x3cb91b31	0.022595974
68	0xbe0b7f05	-0.13622673
69	0x3e65ca0b	0.22440355
70	0x3e4c008a	0.1992208
71	0xbe0e514c	-0.138982
72	0x3e3e8bdb	0.18608038
73	0x3ab6e110	0.0013952572
74	0x3e0a046c	0.1347825
75	0xbe80ace9	-0.2513192
76	0x3e1ad0c8	0.15118706
77	0xbdd1ffbf	-0.10253858
78	0x3e70c806	0.23513803
79	0x3dc2c025	0.09509305
80	0x3e9c2266	0.30494994
81	0xbe7524d7	-0.23939835
82	0xbe2e254e	-0.17006418
83	0x3dd2f969	0.103014775
84	0x3e3de085	0.18542679
85	0xbdbe4648	-0.09290749
86	0xbd7cc427	-0.061710503
87	0xbdfeff5b	-0.12451049
88	0xbe2f327f	-0.17109106
89	0x3d84b1f8	0.06479257
90	0x3e0934e4	0.13399082
91	0xbdcd3c7c	-0.10021302
92	0xbd8c8b27	-0.06862479
93	0xbe346cc2	-0.17619613
94	0x3d45c56c	0.04828398
95	0x3ddaee53	0.10689988
96	0x3e18a50a	0.14906707
97	0xbe033886	-0.1281453
98	0xbe38e69e	-0.18056723
99	0xbe43e6d9	-0.1913103
100	0xbd6b9bf3	-0.05752177
101	0x3c9efb54	0.019406952
102	0x3e2af654	0.16695529
103	0xbd20ff27	-0.039305832
104	0x3dcbc2cd	0.09949265
105	0xbdb5b9f9	-0.08873362
106	0xbe54448c	-0.20729274
107	0x3ddd89b5	0.10817281
108	0x3d988fec	0.07449326
109	0x3dc71865	0.0972145
110	0xbceced48	-0.028921738
111	0xbe785524	-0.24251229
112	0x3db6ed22	0.08931948
113	0x3e00c5f1	0.12575509
114	0x3e1d0d00	0.1533699
115	0xbd8016dd	-0.06254361
116	0x3e9298af	0.28632113
117	0x3dc52984	0.09627059
118	0x3e01b18c	0.12665385
119	0xbdc0249f	-0.09381985
120	0xbca409e6	-0.020024251
121	0xbda3afc3	-0.07992508
122	0xbe033aa0	-0.12815332
123	0xbe3dae23	-0.18523459
124	0xbcecc21d	-0.028901154
125	0x3db87099	0.09005851
126	0xbdd3c605	-0.103405036
127	0xbd163135	-0.03666802
128	0x3df5ed1c	0.12008116
129	0x3d321bcc	0.04348354
130	0x3e55da8c	0.2088415
131	0x3dda834a	0.10669573
132	0x3bbf0488	0.0058293976
133	0xbe8d56e2	-0.2760535
134	0x3d757cf2	0.05993361
135	0xbedad3cd	-0.42739716
136	0xbe044967	-0.12918626
137	0x3e1775e9	0.14791073
138	0xbdf5e20e	-0.12006007
139	0xbd523c02	-0.05132676
140	0xbdf73f56	-0.12072627
141	0x3d3f4e30	0.046705425
142	0x3dce3933	0.10069504
143	0x3d20b24f	0.03923255
144	0x3e6b0f5a	0.22955075
145	0x3c758a82	0.014986636
146	0x3dd4c242	0.10388614
147	0x3c92cbaa	0.01791938
148	0xbdcc427a	-0.09973617
149	0xbe0dee7a	-0.13860503
150	0xbd8e8ea2	-0.06960799
151	0x3d911b3b	0.07085272
152	0x3eba376f	0.36370417
153	0xbe7ce3c7	-0.24696265
154	0x3dc5aa86	0.096516654
155	0x3b852435	0.004063154
156	0xbd1ad7e6	-0.037803553
157	0x3e44cc3b	0.19218533
158	0xbe5c1a49	-0.21494402
159	0x3e2bb098	0.16766584
160	0x3ddc1f96	0.10748212
161	0xbe366a2e	-0.17813942
162	0x3ea9f40b	0.33194003
163	0xbdfc9b63	-0.12334325
164	0x3d398d61	0.045300845
165	0xbd15fe80	-0.036619663
166	0x3dedf082	0.11618139
167	0x3e690bc9	0.22758402
168	0xbdf52a0c	-0.119709104
169	0xbe220bdb	-0.15824835
170	0x3e919f1e	0.2844171
171	0xbeaa367d	-0.33244696
172	0x3e343d51	0.17601515
173	0x3e6f1e3e	0.2335138
174	0xbdb7682a	-0.089554146
175	0x3e275228	0.16339934
176	0x3e17a612	0.14809445
177	0x3b40b1d4	0.0029402869
178	0x3ecf3d99	0.40476683
179	0xbb8ee0ab	-0.0043602786
180	0x3dd7841b	0.10523244
181	0xbe193c7f	-0.14964484
182	0x3d73cd99	0.059522245
183	0xbc0886a2	-0.00833288
184	0x3e2be951	0.16788222
185	0x3d2a8ad4	0.041636303
186	0xbe7d6949	-0.24747194
187	0x3e371794	0.17880088
188	0x3e91c1e1	0.2846823
189	0xbe6fe116	-0.23425707
190	0xbe1bb621	-0.15206195
191	0x3e1003d1	0.14063956
192	0x3de2b66f	0.11069953
193	0xbe880d64	-0.26572716
194	0x3cea60d6	0.028610628
195	0x3c1feae9	0.009760597
196	0x3dd4ba3f	0.10387086
197	0x3de00906	0.10939221
198	0xbe2c95cd	-0.1685402
199	0xbe41f1b7	-0.18939863
200	0xbd543cd8	-0.051815838
201	0xbe89d5ab	-0.26920828
202	0x3e56d020	0.20977831
203	0x3dd4688a	0.10371502
204	0x3d8bb43a	0.06821485
205	0x3e193b84	0.1496411
206	0x3dfe54a8	0.12418491
207	0xbf110d1a	-0.56660616
208	0xbd00a7bd	-0.031409968
209	0x3e368a58	0.17826211
210	0x3e0c6be9	0.1371304
211	0xbe52d7df	-0.20590161
212	0x3c65f11c	0.014034536
213	0xbc7b1055	-0.015323718
214	0x3d4857fd	0.048912037
215	0x3d95bcd2	0.07311405
216	0xbd4ee5ed	-0.050512243
217	0xbdd66e23	-0.10470226
218	0xbd4cdc83	-0.050014984
219	0x3def200b	0.116760336
220	0x3e8ae801	0.2713013
221	0x3e0e2ac7	0.13883506
222	0xbe92f2af	-0.28700778
223	0xbe28e8a6	-0.16494998
224	0x3dc25ab1	0.09489954
225	0xbe2dc9c5	-0.169715
226	0x3e90e8df	0.28302667
227	0xbce9336e	-0.028466906
228	0xbcafe98d	-0.02147367
229	0xbd749454	-0.05971177
230	0x3e36c53b	0.17848675
231	0x3d964af0	0.07338512
232	0x3ebd11ba	0.36927587
233	0x3df22cb7	0.11824935
234	0x3de00ec1	0.10940314
235	0xbda64af4	-0.08119765
236	0x3df452a3	0.11929824
237	0x3e71fe74	0.23632222
238	0x3e84a486	0.2590677
239	0x3e91c215	0.28468385
240	0x3ed5cde0	0.41758633
241	0x3e1b0526	0.15138683
242	0xbe938b5b	-0.28817257
243	0x3e9b4bdf	0.30331323
244	0xbdaf3ab6	-0.0855612
245	0xbe0b2f10	-0.13592172
246	0x3eaef3a5	0.3417026
247	0x3df80ea9	0.12112171
248	0x3d0d5b66	0.034510992
249	0xbe15f4a0	-0.14644098
250	0x3e96f9f7	0.29487583
251	0xbdf51b3f	-0.119680874
252	0xbe2a64d8	-0.16640031
253	0x3de99e72	0.11407174
254	0xbe361c9c	-0.17784351
255	0xbbe43e84	-0.0069654603

layer2.0.bias f4 [256]
0	0x3e7f7ac6	0.24949178
1	0x3f28633f	0.6577644
2	0xbf137c26	-0.5761131
3	0x3c0a9407	0.008458144
4	0x3f8b187c	1.0866847
5	0x3e8301fc	0.2558745
6	0xbf1737bc	-0.5906942
7	0x3fad15d0	1.3522282
8	0x3f92f80b	1.1481947
9	0x3fa3c10e	1.2793291
10	0x3f96254e	1.1730134
11	0x3f4a0ac4	0.7892268
12	0x3f24b9cb	0.64346
13	0xbf9280ad	-1.1445519
14	0x3f5be136	0.8589052
15	0xbf69b6f0	-0.91294765
16	0x3fcb3897	1.5876645
17	0xbf1d3d79	-0.61421925
18	0x3f01b5f9	0.50668293
19	0x3d9b9bd4	0.07598081
20	0xbe8b3978	-0.27192283
21	0xbeda278a	-0.4260829
22	0xbf302cee	-0.6881856
23	0x3ec5614d	0.38550797
24	0xbdd44128	-0.1036399
25	0x3f8625a4	1.0480237
26	0xbe57da8b	-0.21079461
27	0xbe97cef2	-0.29650074
28	0x3f644c55	0.89178973
29	0xbea60c71	-0.32431367
30	0xbf976d46	-1.1830223
31	0xbf366418	-0.7124648
32	0xbeda887a	-0.42682248
33	0x3ffb9635	1.9655215
34	0xbf903711	-1.1266805
35	0x3f689e83	0.9086687
36	0x3f2e5de5	0.6811202
37	0xbf6470c5	-0.8923457
38	0xbf891e2b	-1.0712332
39	0x3f6200eb	0.8828265
40	0x3feee7ee	1.8664529
41	0x3f4e73ae	0.80645263
42	0x3e09ddf3	0.13463573
43	0xbf9a125d	-1.2036854
44	0xbf5d2ff8	-0.8640132
45	0x3fb7df21	1.4364969
46	0x3f6cc1f4	0.9248345
47	0x3f605d22	0.8764211
48	0xbf128f7a	-0.5725018
49	0x3ce14e6d	0.027503217
50	0x3f51c4d9	0.8194099
51	0xbf682760	-0.9068508
52	0x3f80cc60	1.006237
53	0xbef0374f	-0.46917197
54	0xbf7ad41c	-0.97979903
55	0x3fd75089	1.6821452
56	0xbf59ffbc	-0.85155845
57	0xbd547989	-0.051873717
58	0x3edc437b	0.43020234
59	0xbf25215d	-0.64504033
60	0x3f838c8d	1.0277268
61	0x3f8a6c59	1.0814315
62	0xbeb0ed9b	-0.3455628
63	0xbe4221d8	-0.18958223
64	0x3e6a35ef	0.22872137
65	0x3e1f08c3	0.15530686
66	0xbdfb5c87	-0.122735076
67	0x3f692325	0.9106925
68	0xbf5f1ed0	-0.8715639
69	0xbd87360f	-0.06602108
70	0xbf20b357	-0.6277365
71	0x3eaab9cc	0.33344877
72	0xbe991652	-0.29899842
73	0x3f594926	0.8487724
74	0xbfb99bdd	-1.4500691
75	0xbe0016e7	-0.12508737
76	0x3f8e9164	1.113812
77	0xbee8178f	-0.45330474
78	0x3d643db3	0.055722903
79	0xbf159920	-0.58436775
80	0xbf944c8b	-1.1585859
81	0x3f9c69e0	1.221981
82	0xbec477f6	-0.38372773
83	0x3f696b20	0.91179085
84	0x3e7b5d94	0.24547416
85	0x3fae88a6	1.3635452
86	0xbf399014	-0.7248547
87	0x3c5eeace	0.0136057865
88	0x3f6bc81d	0.92102224
89	0xbed02559	-0.40653494
90	0xbfd2d791	-1.6472036
91	0xbed6fb20	-0.41988468
92	0x3f056680	0.5210953
93	0x3f87470a	1.0568554
94	0x3f851625	1.0397383
95	0xbf49d19a	-0.7883545
96	0xbf3b1f73	-0.7309486
97	0xbe42bc52	-0.19017151
98	0x3fc9ed1e	1.5775487
99	0xbf842532	-1.0323851
100	0x3fad12c7	1.3521355
101	0x3fc5de46	1.5458457
102	0xbf70b354	-0.94023633
103	0x3f6cc389	0.9248586
104	0xbfa9e624	-1.3273358
105	0xbf1af007	-0.605225
106	0xbe5a10a7	-0.21295415
107	0xbf7779f0	-0.96670437
108	0xbf425b2f	-0.75920385
109	0xbec72252	-0.38893372
110	0xbf166e53	-0.5876209
111	0xbf40c50b	-0.75300664
112	0x3f89f127	1.0776719
113	0xbee166bd	-0.44023696
114	0xbf734d06	-0.95039403
115	0xbf1ab807	-0.60437053
116	0x3f946e19	1.1596099
117	0xbf0e274b	-0.55528706
118	0xbf8e2792	-1.1105826
119	0x3f9c9414	1.223269
120	0xbf19e4bb	-0.6011464
121	0xbeca1ab2	-0.39473492
122	0x3f0ae393	0.542535
123	0xbee57509	-0.44815853
124	0xbde14058	-0.10998601
125	0xbf05dfc4	-0.52294564
126	0xbede4be5	-0.43417278
127	0xbe9742dd	-0.295432
128	0xbec52d35	-0.38511053
129	0xbf95b38b	-1.1695417
130	0xbf06d2c6	-0.52665365
131	0xbed7c3d1	-0.42141584
132	0x3f665774	0.8997719
133	0x3f871c37	1.0555485
134	0xbeb162e4	-0.3464576
135	0x3fb1aafb	1.3880304
136	0x3f906961	1.1282159
137	0x3d143950	0.03618747
138	0xbf8a0544	-1.0782857
139	0xbfa55856	-1.2917583
140	0xbf776250	-0.9663439
141	0x3fa0d302	1.2564394
142	0x3f5dde3a	0.86667216
143	0x3f4cc6ea	0.7999102
144	0xbe91e70d	-0.2849659
145	0xbd616e41	-0.055036787
146	0xbe83b617	-0.2572486
147	0xbf31c293	-0.6943752
148	0xbe208a27	-0.15677701
149	0x3fb7161b	1.4303621
150	0x3dbea336	0.09308474
151	0xbf801b89	-1.0008403
152	0xbe0b6553	-0.13612871
153	0x3f66d241	0.9016457
154	0x3f8065ad	1.0031029
155	0x3f7b5575	0.9817727
156	0xbf5b9158	-0.8576865
157	0xbefa0648	-0.48832917
158	0x3e78ba20	0.24289751
159	0x3f011155	0.5041707
160	0xbcb95bf2	-0.02262685
161	0xbefd12f0	-0.4942851
162	0xbe0dde1a	-0.13854256
163	0xbf3ad2bf	-0.72977823
164	0xbf8d80e0	-1.1054955
165	0xbf05cb97	-0.5226378
166	0xbc5768bc	-0.013147529
167	0xbe93ac38	-0.2884233
168	0x3f8a8c56	1.0824077
169	0x3fb724e6	1.4308136
170	0xbf553db5	-0.8329728
171	0x3fb1982d	1.3874565
172	0xbf8df4c6	-1.1090324
173	0x3e5194f0	0.20466971
174	0xbed55b2f	-0.4167113
175	0xbf4a5944	-0.7904246
176	0xbeaac65c	-0.3335446
177	0xbedd025a	-0.43165857
178	0x3fb74e77	1.432082
179	0xbf2293b4	-0.6350663
180	0x3e9c0f46	0.30480403
181	0xbf6381d9	-0.88870007
182	0x3fbb3ee1	1.4628564
183	0xbec1c295	-0.37843767
184	0xbf138e37	-0.5763888
185	0xbf480aee	-0.7814168
186	0x3fb5ed87	1.4213113
187	0x3f460b7b	0.7736127
188	0x3f8e767d	1.112991
189	0xbf401ba5	-0.7504218
190	0x3f1ce6bd	0.6128958
191	0xbdfe86ca	-0.12428053
192	0xbe39627d	-0.18103977
193	0x3eaf7077	0.3426549
194	0x3f6ca393	0.92437094
195	0xbf22f9ba	-0.636623
196	0xbecffbf8	-0.40621924
197	0x3f86a7d4	1.0519967
198	0xbf034599	-0.5127807
199	0x3f893108	1.0718088
200	0x3f881696	1.0631893
201	0x3fcca8c6	1.5989006
202	0xbf6280ee	-0.8847798
203	0xbe5070d2	-0.20355538
204	0x3db9d50f	0.09073841
205	0xbf45679a	-0.7711121
206	0x3fc432cc	1.5328002
207	0xbf0a09ec	-0.5392139
208	0xbf710575	-0.9414895
209	0xbf014e66	-0.5051025
210	0xbe15f51a	-0.1464428
211	0xbdd9f1ee	-0.106418476
212	0x3f86aad3	1.0520881
213	0xbf806e1a	-1.00336
214	0x3f3a5914	0.7279217
215	0x3fba8833	1.4572815
216	0xbf609e19	-0.8774124
217	0xbf3e7dee	-0.74410903
218	0xbf01fd83	-0.50777453
219	0x3f4d181a	0.801149
220	0x3f6054e2	0.8762952
221	0x3f862f95	1.0483271
222	0xbf5dc63d	-0.8663061
223	0x3f9512dc	1.164638
224	0xbf407eea	-0.75193655
225	0xbf60d5f0	-0.8782644
226	0xbf0f3282	-0.55936444
227	0xbed33bfd	-0.41256705
228	0x3f84ccbd	1.0374981
229	0x3f67109a	0.90259707
230	0x3e0cfd02	0.1376839
231	0xbfbc37f9	-1.4704581
232	0x3fcbd359	1.5923873
233	0x3f493e6c	0.78610873
234	0x3f12bdcb	0.5732085
235	0xbf76ce4e	-0.96408546
236	0xbeb1bbda	-0.34713632
237	0xbec60d1a	-0.3868187
238	0x3f19fe34	0.6015351
239	0xbe24d9dd	-0.16098733
240	0xbf35d039	-0.7102085
241	0xbd11736b	-0.03551046
242	0xbcc2ae81	-0.02376485
243	0xbeb91237	-0.3614671
244	0xbf716d97	-0.94307846
245	0xbf70aff1	-0.94018465
246	0x3ed3ebba	0.41390783
247	0x3f628254	0.88480115
248	0xbf27cea9	-0.65549713
249	0x3f129c4c	0.5726974
250	0x3fc40b5d	1.5315968
251	0x3e3e0e71	0.18560196
252	0xbf38816e	-0.72072494
253	0xbf4dccf3	-0.8039085
254	0xbe3e1bb4	-0.18565255
255	0xbf64342a	-0.89142096

layer2.2.weight f4 [256, 256]
0	0xbd898f5f	-0.06716799
1	0xbbd08f04	-0.006364705
2	0xbddf36b7	-0.10899108
3	0x3d478bb2	0.04871721
4	0x3c2bdf09	0.010490187
5	0x3c94dd4e	0.018171933
6	0x3bb207ef	0.0054330747
7	0x3d1d8444	0.038456216
8	0x3d0ad2e0	0.033892512
9	0x3e2d1be5	0.16905172
10	0x3e145c05	0.14488228
11	0x3d955332	0.07291259
12	0x3e203d70	0.15648437
13	0xbd4ddd30	-0.05025977
14	0x3ce51428	0.027963713
15	0xbd7082b4	-0.0587184
16	0x3da816e2	0.082074896
17	0xbd46d43d	-0.04854225
18	0x3d15ed12	0.03660304
19	0xbca0144a	-0.019540925
20	0xbd78ac1e	-0.06071102
21	0x3c2f6ffa	0.01070785
22	0xbd22d359	-0.039752338
23	0x3d9735dd	0.073833205
24	0xbe10b2ce	-0.14130709
25	0x3cf332fa	0.029687393
26	0xbcbd7b4f	-0.023130087
27	0x3d0a39fd	0.03374671
28	0xbb0332b3	-0.0020019233
29	0xbd0fd0c4	-0.035111204
30	0xbc2fe5fd	-0.010735986
31	0xbd6ac22a	-0.057314076
32	0x3cf3b6b6	0.02975021
33	0x3dabaf09	0.08382995
34	0xbe8f21c7	-0.27955458
35	0x3cf6320f	0.030053167
36	0x3cb8a034	0.022537328
37	0xbcc8bd58	-0.024504349
38	0xbdb05aa3	-0.086110376
39	0xbcc41c67	-0.023939325
40	0x3e04f93b	0.12985699
41	0x3d8f371f	0.069929354
42	0x3b80e831	0.0039339294
43	0xbd611261	-0.054949168
44	0x3cd4b155	0.025963465
45	0xbca59b9d	-0.020215804
46	0x3e602f96	0.21893153
47	0xbd0a166a	-0.033712782
48	0xbd9c4ad5	-0.076314606
49	0x3d74fc84	0.05981113
50	0x3e47f992	0.19528797
51	0xbbd1dac8	-0.0064042546
52	0xbc8ba9e8	-0.017048791
53	0xbc5267a6	-0.0128420945
54	0xbdfb1aa1	-0.122609384
55	0xba94aaf2	-0.001134245
56	0xbd6ed95c	-0.05831276
57	0x3ce10b67	0.027471257
58	0x3dcfa7ce	0.10139428
59	0xbe475d02	-0.19469073
60	0xb9f67cfc	-0.00047013897
61	0xbd729bec	-0.05923073
62	0x3dda32da	0.106542304
63	0xbd9b9c8e	-0.0759822
64	0xbc917948	-0.017758027
65	0x3b55d586	0.003262849
66	0x3cba32ea	0.022729356
67	0x3da31822	0.07963587
68	0xbdd322fd	-0.10309408
69	0x3b4cb8e3	0.003123813
70	0xbc5d04d6	-0.0134899225
71	0x3dcc186f	0.09965598
72	0xbdc7625a	-0.09735556
73	0xbd01cdaf	-0.031690296
74	0xbd178973	-0.036996316
75	0xbd500841	-0.05078912
76	0x3ccb241a	0.024797488
77	0xbd16dfe6	-0.03683462
78	0x3d27b041	0.040939573
79	0xbdfa056a	-0.12208064
80	0xbc1e4c0a	-0.009661684
81	0xbd53675a	-0.051612236
82	0x3c1d0f3e	0.009586154
83	0x3da51244	0.080601245
84	0xbbd754b5	-0.006571377
85	0x3d7485fe	0.059698097
86	0xbcbac48f	-0.022798805
87	0xbcf13979	-0.02944635
88	0xbcb46bea	-0.022024114
89	0xbc12424f	-0.008926942
90	0xbe494299	-0.19654311
91	0xbd8f0077	-0.069825105
92	0xbda26922	-0.07930209
93	0x3d00c52c	0.031438038
94	0x3d456f61	0.048201922
95	0xbd8f1562	-0.069865
96	0xbdc909fc	-0.098163575
97	0xbdb795dc	-0.0896413
98	0x3d5fe94d	0.054665852
99	0xbe19d90a	-0.150242
100	0x3db1da35	0.08684198
101	0x3db28326	0.08716421
102	0xbd9a2a07	-0.07527547
103	0xbba0fd6b	-0.0049130223
104	0xbe04db09	-0.1297418
105	0xbc648565	-0.013947819
106	0x3ce17e29	0.027525978
107	0xbd29b71d	-0.041434396
108	0xbdb4886c	-0.08815083
109	0xbd6d97c6	-0.05800607
110	0xbe38b79a	-0.18038788
111	0xbe0b84af	-0.13624834
112	0x3d3443c9	0.044009957
113	0x3d8ea5cb	0.06965216
114	0xbda7ac20	-0.08187127
115	0xbdcebff4	-0.10095206
116	0x3df3ce37	0.11904567
117	0xbd80ea26	-0.0629466
118	0xbccf113b	-0.02527677
119	0x3d6db590	0.05803448
120	0xbded41eb	-0.115848385
121	0xbd4169d9	-0.047220085
122	0xbcbc1501	-0.022959234
123	0x3bf845b2	0.0075766677
124	0x3c006031	0.007835434
125	0xbe29a5c7	-0.16567145
126	0xbdbf2aee	-0.0933436
127	0xbc235630	-0.009969279
128	0xbd94caab	-0.07265218
129	0xbde88e2b	-0.113552414
130	0x3d19b6f4	0.037527993
131	0xbd39137e	-0.045184605
132	0x3c829681	0.015940906
133	0xbe028c58	-0.1274885
134	0xbdb3ab17	-0.08772867
135	0xbba4bc69	-0.005027343
136	0x3c91988d	0.017772937
137	0xbcc88aae	-0.02448019
138	0xbdfcec3d	-0.123497464
139	0xbdf2e92f	-0.118608825
140	0xbdc8d1ed	-0.09805665
141	0x3dee8988	0.11647326
142	0x3dc91947	0.098192744
143	0xbc4ea8a6	-0.012613451
144	0xbe51e464	-0.2049728
145	0x3c403ac5	0.011732762
146	0xbe22f540	-0.15913868
147	0x3d566009	0.05233768
148	0xbe4579ae	-0.19284698
149	0x3d037ea2	0.03210319
150	0xbd29e5f4	-0.041479066
151	0xbdd35857	-0.10319584
152	0x3cd7c98c	0.026341222
153	0x3d6fd813	0.058555674
154	0x3dc08306	0.09399991
155	0xbcfad671	-0.030619832
156	0xbdbf1b53	-0.093313836
157	0x3c9d8015	0.019226113
158	0x3d44297c	0.047891125
159	0x3d5b7293	0.053576063
160	0x3c90b7dc	0.017665796
161	0xbcc9072c	-0.024539553
162	0xbce8354f	-0.028345732
163	0xbc86dc98	-0.01646261
164	0xbdffee2b	-0.12496599
165	0x3ca8102b	0.020515522
166	0xbdee5389	-0.11637027
167	0xbe3c16fc	-0.18368143
168	0x3de37a20	0.11107278
169	0x3d906280	0.070500374
170	0x3c12966f	0.008946999
171	0x3d8f67fd	0.07002256
172	0xbd7e14bd	-0.062031496
173	0x3dca6e0b	0.0988427
174	0xbd5825b0	-0.052770317
175	0x3dc8be39	0.09801907
176	0xbd9b257b	-0.07575508
177	0xbd8011d0	-0.062533975
178	0xbc02957b	-0.007970209
179	0x3be2f49c	0.0069261324
180	0xbdbe6118	-0.09295863
181	0xbce6d011	-0.028175386
182	0x3d915ca3	0.07097747
183	0xbd39d374	-0.045367673
184	0xbdd93238	-0.106052816
185	0xbd8a2f56	-0.0674731
186	0x3e1cc99c	0.15311283
187	0x3d85fae1	0.06541992
188	0x3bfd829f	0.0077365185
189	0xbd97cf7c	-0.074126214
190	0x3da5ac3b	0.08089491
191	0x3dd9c6cb	0.1063362
192	0xbc868103	-0.01641894
193	0xbd117efd	-0.035521496
194	0x3cd4e323	0.025987213
195	0xbc909278	-0.017647967
196	0xbde0dbe7	-0.10979443
197	0xbcd67076	-0.026176672
198	0xbe0f41a2	-0.1398988
199	0x3da7fdc7	0.08202701
200	0x3d012045	0.031524915
201	0x3c9c083d	0.019046897
202	0xbc3f504a	-0.011676857
203	0x3d9e5b2b	0.07732233
204	0xbda162fb	-0.07880207
205	0xbdf69785	-0.12040619
206	0xbd9f4fee	-0.07778917
207	0xbdfdafd0	-0.12387049
208	0xbd28bdc1	-0.04119659
209	0xbd886a46	-0.06660895
210	0xbd02b7d7	-0.031913605
211	0x3c84f3d6	0.016229551
212	0x3da0d43d	0.07852981
213	0xbda77d82	-0.081782356
214	0x3d3bdb9b	0.04586373
215	0x3b10a95a	0.0022073598
216	0xbdef6f23	-0.116911195
217	0xbddb8131	-0.10718001
218	0xbdec5469	-0.115395375
219	0x3dd6eabe	0.10493992
220	0x3bbf6f32	0.005842113
221	0x3dbe9ed4	0.09307638
222	0xbda45690	-0.08024323
223	0x3d5d9d48	0.054105073
224	0xbd0ba84a	-0.03409604
225	0xbd0e6810	-0.03476721
226	0x3d047cdf	0.03234565
227	0xbc769e5d	-0.015052405
228	0x3dde9066	0.108673856
229	0x3e495fa9	0.19665398
230	0xbcfbd51f	-0.030741272
231	0xbd3d85e5	-0.04627027
232	0xbc187e0e	-0.0093073975
233	0x3c482380	0.012215495
234	0x3e69e930	0.2284286
235	0xbda14fab	-0.078765236
236	0xbcac4a49	-0.021031516
237	0xbc70f037	-0.014705709
238	0x3da253b1	0.07926119
239	0xbc3d80e5	-0.011566375
240	0x3cd675a0	0.026179135
241	0xbd14b066	-0.03630104
242	0x3c9f921d	0.019478852
243	0xbd8fc561	-0.07020069
244	0xbcf16eba	-0.029471744
245	0xbd105cea	-0.03524486
246	0xba5343f6	-0.0008059138
247	0xbd0b146f	-0.033955034
248	0xbcd91dab	-0.026503405
249	0x3c1d0ca2	0.009585531
250	0x3e038f4f	0.12847637
251	0x3d435e47	0.04769733
252	0xbb004950	-0.0019574948
253	0xbd5d3e0c	-0.05401425
254	0xbcb62911	-0.022236379
255	0xbd49f590	-0.049306452

layer2.2.bias f4 [256]
0	0x3f66e7dd	0.90197545
1	0x3f6a4112	0.9150554
2	0x3f857719	1.0426971
3	0x3c404121	0.011734278
4	0xbf5d2de7	-0.86398166
5	0xbe2f5a80	-0.17124367
6	0xbce8b4a0	-0.028406441
7	0x3f481232	0.78152764
8	0x3e50867d	0.20363803
9	0xbd810e85	-0.063015975
10	0xbedea2a6	-0.43483466
11	0xbbf82cc2	-0.007573695
12	0x3faad81a	1.3347199
13	0xbcac33cd	-0.021020794
14	0xbe62ee03	-0.22161107
15	0xbdaec951	-0.08534492
16	0xbf2931d3	-0.6609165
17	0x3f86bec4	1.0526967
18	0xbf37cae5	-0.7179397
19	0x3f5fc713	0.8741314
20	0x3f983d1c	1.1893649
21	0x3f99c131	1.2012082
22	0xbf1837f7	-0.59460396
23	0x3f016b91	0.5055476
24	0x3e4d6c34	0.20060807
25	0x3ddc8b8e	0.107688054
26	0xbd86f3f8	-0.06589502
27	0xbdabef75	-0.08395282
28	0xbd8b9c12	-0.068168774
29	0xbdcd7f77	-0.100340776
30	0x3c7f6049	0.015586921
31	0x3f46c0cd	0.7763794
32	0x3f28eff3	0.65991133
33	0x3f246347	0.64213985
34	0xbd05c1aa	-0.032655396
35	0xbdd1e58b	-0.1024886
36	0x3f510611	0.8164988
37	0x3f425126	0.7590507
38	0xbb58e8c8	-0.0033097733
39	0xbde214cc	-0.11039123
40	0xbd3f0c47	-0.046642568
41	0x3fc75c5a	1.5575058
42	0xbdd03953	-0.10167184
43	0xbe218191	-0.15772082
44	0xbed130e9	-0.40857628
45	0x3fbce807	1.4758309
46	0x3f937fb8	1.1523352
47	0x3f78496d	0.9698704
48	0x3f8a47ab	1.0803121
49	0x3f8d4b29	1.1038562
50	0x3f861701	1.047577
51	0x3fa54bc7	1.291375
52	0xbe87d503	-0.26529703
53	0x3f80dbbd	1.0067059
54	0xbddf2d42	-0.10897304
55	0x3fc9bacd	1.5760132
56	0xbf2a9360	-0.66631126
57	0x3fae2fe1	1.3608361
58	0x3ce6a429	0.02815445
59	0xbf14b4a1	-0.5808812
60	0x3feef48e	1.8668382
61	0x3f757f4c	0.95897365
62	0xbd0a44d7	-0.033757057
63	0xbab7cd1a	-0.0014022917
64	0xbed04039	-0.40673998
65	0x3d191b22	0.03737939
66	0x3ebbbc4b	0.36667094
67	0xbd3d0744	-0.046149507
68	0xbf0e383b	-0.5555455
69	0xbde552f8	-0.11197466
70	0x3f116e5f	0.5680904
71	0xbdfdc79a	-0.123915866
72	0x3f64545f	0.8919124
73	0x3d037b6f	0.032100137
74	0x3c160df7	0.009158603
75	0x3d3302ff	0.04370403
76	0x3fbddedf	1.483364
77	0x3f1dfeeb	0.617171
78	0xbdfdbd37	-0.123896055
79	0x3f9b7515	1.2145106
80	0x3f38ff27	0.7226433
81	0x3f96ad1a	1.1771576
82	0x3f33c80c	0.7022712
83	0x3f52fee8	0.82420206
84	0x3f9117fc	1.1335444
85	0x3f424937	0.75892967
86	0x3f910aba	1.1331398
87	0x3f94f828	1.1638231
88	0x3fdfb524	1.7477155
89	0x3f05c3af	0.52251714
90	0xbe8e7730	-0.27825308
91	0x3f90a1d6	1.1299388
92	0x3cca89a1	0.02472383
93	0x3f3a0394	0.7266171
94	0xbef5806e	-0.47949547
95	0x3f8abed6	1.0839489
96	0x3e00396f	0.12521909
97	0x3fa20e47	1.2660607
98	0x3f9e4de7	1.2367524
99	0xbf37aae3	-0.7174513
100	0xbd527a65	-0.051386256
101	0x3f483135	0.78200084
102	0x3f747873	0.9549629
103	0x3f9c9861	1.2234002
104	0xbf1cd466	-0.61261594
105	0xbd1f4374	-0.038882688
106	0x3f991d03	1.1961979
107	0x3f780e7d	0.9689711
108	0x3f2d7aac	0.6776531
109	0x3f4c62e6	0.7983841
110	0x3f50df23	0.8159048
111	0xbd8dcaf7	-0.06923478
112	0x3fc9d9be	1.5769575
113	0xbe7e433b	-0.24830334
114	0x3f9f5f12	1.2450888
115	0xbdd1b8d4	-0.10240331
116	0xbe349b1f	-0.17637299
117	0x401e3d15	2.4724782
118	0x3d258290	0.040407717
119	0xbd76f412	-0.060291357
120	0x3f6bd635	0.9212373
121	0x3fa861c9	1.3154842
122	0xbe1fc4d0	-0.15602422
123	0x3f244b60	0.64177513
124	0xbe917f88	-0.2841761
125	0xbedf297f	-0.43586347
126	0x3f77196a	0.96523154
127	0x3f659b03	0.89689654
128	0x3f10e362	0.5659696
129	0x3fa926b7	1.321494
130	0x3fa5ec3f	1.2962722
131	0x3f85b7d4	1.0446725
132	0x3f703837	0.9383578
133	0x3f817613	1.0114158
134	0xbe8acda0	-0.27110004
135	0x3cba41a3	0.022736376
136	0x3f9ce66f	1.2257823
137	0xbda7e1b2	-0.08197345
138	0x3f1d6f04	0.6149752
139	0x3fa3a023	1.2783245
140	0x3fa1816c	1.2617621
141	0xbbe1a095	-0.006885598
142	0x3f3e6cdf	0.74384874
143	0x3fb12ad6	1.3841197
144	0xbe2865e6	-0.16445121
145	0x3f9edd21	1.2411233
146	0xbd0639c8	-0.03276995
147	0x3f9da891	1.2317067
148	0x3f9f6da7	1.2455338
149	0x3f8005f8	1.0001822
150	0x3e1f5d0e	0.15562841
151	0x3b95cb58	0.0045713596
152	0x3f5eafa8	0.8698678
153	0x3f538cc0	0.8263664
154	0x3f9bf4f8	1.2184134
155	0xbd15e7bc	-0.036597952
156	0xbdc04736	-0.093885824
157	0x3d00d127	0.031449463
158	0x3f82ae9d	1.0209538
159	0x3fc07367	1.5035218
160	0xbb44fec8	-0.0030059088
161	0x3fb76d9f	1.4330329
162	0x3fa021a1	1.2510263
163	0xbe196f86	-0.14983949
164	0x3f2d2a7b	0.67642945
165	0x3f66a44f	0.90094465
166	0x3f87e5df	1.0617026
167	0x3f841f24	1.0322003
168	0x3c72593f	0.014791786
169	0xbdb7e84e	-0.089798555
170	0x3fa33d45	1.2753073
171	0xbdc74ef6	-0.097318575
172	0x3f9fc48d	1.2481858
173	0xbd091c18	-0.033474058
174	0x3f91946a	1.1373417
175	0xbc5cb284	-0.013470296
176	0x3f91b7cb	1.1384214
177	0x3d4c8ebe	0.049940817
178	0xbd4c0e59	-0.04981837
179	0x3fc275fe	1.5192258
180	0xbe881194	-0.2657591
181	0xbdc46993	-0.09590449
182	0xbd869411	-0.0657121
183	0x3d12e972	0.035867162
184	0xbf3f54c5	-0.74738723
185	0x3ea7f5a7	0.32804605
186	0x3f6464a2	0.89216053
187	0x3e57b4e0	0.21065092
188	0xbda0f27c	-0.0785875
189	0xbe35ce87	-0.17754565
190	0xbe919a15	-0.28437868
191	0xbe823399	-0.2542999
192	0xbe308180	-0.172369
193	0xbbd80efb	-0.0065935827
194	0xbd899e74	-0.06719676
195	0xbdc1dc66	-0.09465866
196	0xbd9c5a55	-0.07634417
197	0x3fafb97e	1.3728483
198	0x3b82e9a7	0.0039951387
199	0xbea44370	-0.320827
200	0x3d06e15e	0.03292977
201	0xbe073939	-0.13205422
202	0xbf20fcbc	-0.6288564
203	0xbb57b270	-0.0032912754
204	0x3f97b50b	1.1852125
205	0xbeb790df	-0.35852715
206	0xbe3c8761	-0.18411018
207	0x3f96c210	1.1777973
208	0xbeae17cd	-0.34002534
209	0x3de48680	0.11158466
210	0x3d23d62e	0.03999918
211	0x3fbedc2e	1.4910944
212	0x3e6729af	0.22574495
213	0xbdb685bc	-0.089122266
214	0xbe3f6436	-0.18690571
215	0xbe46d832	-0.1941841
216	0x3fa7084c	1.3049407
217	0x3f674800	0.9034424
218	0x3fad0b49	1.3519069
219	0xbe967384	-0.29385006
220	0x3f9d7098	1.2299986
221	0x3f826774	1.0187821
222	0x3f516830	0.817996
223	0x3fa1858f	1.2618884
224	0xbe87dc04	-0.26535046
225	0xbb636757	-0.0034699047
226	0x3f5ceceb	0.8629901
227	0xbe898994	-0.26862776
228	0xbf495bd6	-0.78655756
229	0xbb04eea0	-0.0020283833
230	0x3ee4e00e	0.4470219
231	0xbd1ccfbb	-0.038284045
232	0xbe5979db	-0.2123789
233	0x3faae1e6	1.3350189
234	0x3fb0c4df	1.381008
235	0x3f85d52b	1.0455679
236	0xbe672a9f	-0.22574852
237	0x3f2517b2	0.6448928
238	0x3be069cd	0.00684855
239	0xbe13c23e	-0.14429566
240	0xbf2f2e67	-0.6843018
241	0xbf0f4181	-0.55959326
242	0xbca5ed1a	-0.02025466
243	0x3cdac318	0.026704356
244	0x3f7bae3b	0.9831273
245	0x3f9479ee	1.159971
246	0x3f5c9ade	0.8617381
247	0x3b927f32	0.0044707293
248	0xbd7d791f	-0.06188309
249	0xbe016b75	-0.12638648
250	0xbc4e55c7	-0.012593693
251	0xbd8171fa	-0.063205674
252	0xbd3224ff	-0.043492313
253	0x3f94f8ee	1.1638467
254	0xbeb6b943	-0.35688218
255	0x3f9448b6	1.158469

layer2.4.weight f4 [1, 256]
0	0x3d12ff9c	0.0358883
1	0x3e4d632b	0.20057361
2	0x3e75c6e6	0.24001655
3	0x3d326084	0.043549076
4	0xbdbd3327	-0.09238272
5	0xbc2f75a0	-0.010709196
6	0xbe48891d	-0.19583555
7	0x3e7a38f5	0.2443579
8	0xbab81b9f	-0.0014046318
9	0xbd593b95	-0.053035337
10	0xbd65059f	-0.055913564
11	0xbacbd873	-0.0015552178
12	0x3df0a18a	0.11749561
13	0xbb3e90e1	-0.0029078054
14	0xbcd39495	-0.025827685
15	0x3a0f6b5f	0.00054710166
16	0xbb4f3bae	-0.0031621265
17	0x3dab20be	0.083558545
18	0xbdd9fe54	-0.10644212
19	0x3e456d34	0.19279939
20	0x3e98e0f6	0.29859132
21	0x3e60e91c	0.21963924
22	0xbd715c66	-0.05892601
23	0x3e7a15ff	0.24422453
24	0x3e457520	0.19282961
25	0xba235460	-0.00062305294
26	0xbd33f1e2	-0.04393185
27	0xbcf829f5	-0.030293444
28	0xba3059fa	-0.0006727275
29	0x39dfcce5	0.00042686533
30	0x3d5560a0	0.052094102
31	0x3ea1178f	0.31463286
32	0x3e3212a3	0.17389922
33	0x3e46246d	0.19349833
34	0x3c745fdc	0.014915433
35	0xbd1ee8a2	-0.038796075
36	0x3e2cd8eb	0.16879623
37	0x3dd032e9	0.1016596
38	0xbcff10dd	-0.03113597
39	0x3a51a471	0.0007997221
40	0x3d0cd6d1	0.034384552
41	0x3d9f77b6	0.07786505
42	0xbe000f38	-0.12505805
43	0xba358246	-0.00069240143
44	0x3b284a9b	0.0025679234
45	0x3e37e06f	0.17956708
46	0x3e9bfaaa	0.3046468
47	0x3de922a4	0.1138356
48	0x3e4fe7eb	0.20303313
49	0x3dbd52e6	0.09244327
50	0x3e874160	0.26417065
51	0x3dd9fda6	0.10644083
52	0xbcbb8daf	-0.022894708
53	0x3d30637b	0.043063622
54	0x3b02adba	0.0019939975
55	0x3e41a177	0.1890925
56	0xbdf8b62d	-0.12144122
57	0x3e9b9109	0.3038409
58	0xbc39c2fb	-0.011337991
59	0xbd99fd62	-0.07519032
60	0x3e1b8130	0.15186
61	0x3e9ad266	0.30238646
62	0xbd4931e2	-0.049119838
63	0xb9413fc4	-0.00018429669
64	0x35230840	6.073424e-07
65	0x3cd677fc	0.02618026
66	0x3eaeab07	0.34114859
67	0xbab41ea6	-0.0013742044
68	0xba699512	-0.0008910458
69	0xb7376fcc	-1.093368e-05
70	0x3e878f74	0.26476634
71	0x3b1a1a73	0.00235143
72	0x3e47d2b1	0.19513966
73	0x3b4c855a	0.0031207413
74	0x3cbd4aa4	0.02310688
75	0x3a8a65f1	0.0010558945
76	0x3e087f7b	0.1332988
77	0x3e77d9a5	0.24204119
78	0xbd6d246c	-0.057896063
79	0x3daca8fb	0.08430668
80	0x3e8f2166	0.27955168
81	0x3e199418	0.149979
82	0x3e5f38d8	0.21799028
83	0x3e803d96	0.25046986
84	0x3e9663d3	0.29373035
85	0x3e52327f	0.20527075
86	0x3e7631e8	0.24042475
87	0x3e3e92fb	0.18610756
88	0x3d47a0db	0.048737388
89	0x3e19d215	0.15021546
90	0xbb8f8deb	-0.0043809316
91	0x3d7562d1	0.05990869
92	0xbc297f20	-0.01034525
93	0x3e56febf	0.20995615
94	0xbdf4a2f1	-0.11945141
95	0x3e837a3b	0.25679192
96	0x3d532353	0.05154736
97	0x3eadf1a1	0.3397341
98	0x3e625691	0.22103335
99	0xbe38dd93	-0.18053274
100	0xbd0a2307	-0.03372481
101	0x3e1f0db6	0.15532574
102	0x3e593cdc	0.21214622
103	0x3e8cf338	0.2752931
104	0xbb11cafb	-0.002224623
105	0xbb208f47	-0.0024499462
106	0x3dd2ec9e	0.102990374
107	0x3dea8010	0.11450207
108	0x3e90fea3	0.28319272
109	0x3e5d99ab	0.21640651
110	0x3e84be4b	0.25926432
111	0xba489609	-0.00076517515
112	0x3df5b8e5	0.119981565
113	0xb99e9d68	-0.00030253385
114	0x3e9e6cbd	0.30942336
115	0xbb493f45	-0.0030707878
116	0x3b1a9d77	0.0023592392
117	0x3db5abbb	0.088706456
118	0x3baaa28a	0.0052073644
119	0xbdae63ae	-0.08515106
120	0x3e0fa6a4	0.14028412
121	0x3e0bfd42	0.13670829
122	0xbaa628cf	-0.0012676957
123	0x3e8539c1	0.26020625
124	0x3a17cb6b	0.00057905045
125	0xbd8e48bb	-0.06947466
126	0x3e68742f	0.2270057
127	0x3e76d4cb	0.24104612
128	0x3e8ac195	0.27100816
129	0x3dca2e47	0.09872108
130	0x3e1b4078	0.15161312
131	0x3e3b1b70	0.18272185
132	0x3e3926b3	0.18081169
133	0x3e714b46	0.23563871
134	0xbbef93d6	-0.0073113246
135	0x3c17c0fa	0.009262318
136	0x3e326079	0.17419614
137	0x3b3e9e84	0.0029086182
138	0x3e981a6e	0.29707664
139	0x3d00d09f	0.031448957
140	0x3e46de8b	0.19420831
141	0x39d642b1	0.0004086695
142	0x3e396913	0.18106489
143	0x3e5d5698	0.21615064
144	0xbba024a5	-0.004887181
145	0x3e9fd22d	0.3121504
146	0x3b486541	0.003057793
147	0x3e9229cf	0.28547522
148	0xbce33139	-0.027733432
149	0x3e192d83	0.14958768
150	0x3a8dae15	0.0010809327
151	0xbc93f69a	-0.018061925
152	0x3e286724	0.16445595
153	0x3e41af71	0.18914582
154	0x3ea2bdfe	0.31785578
155	0xbd60b150	-0.0548566
156	0xba195fc4	-0.0005850757
157	0x399ecbf7	0.00030288074
158	0x3d8b5808	0.068039
159	0x3e421573	0.18953495
160	0xbd259f44	-0.04043509
161	0x3dc3713d	0.09543083
162	0x3e92aed5	0.2864901
163	0x3b3f1097	0.0029154175
164	0x3e4ef47d	0.20210452
165	0x3e64b1f0	0.22333503
166	0x3e8e2ef8	0.2777021
167	0x3e897290	0.26845217
168	0x3c0bc186	0.008530026
169	0xbd47cd59	-0.04877982
170	0x3e9b086b	0.3027986
171	0x39bb073e	0.00035672815
172	0x3e0de8b5	0.13858302
173	0x3b418184	0.002952666
174	0x3db71d8c	0.089411825
175	0xb755540a	-1.2715356e-05
176	0x3db7966f	0.0896424
177	0xbaf97264	-0.0019031283
178	0xbab81246	-0.0014043532
179	0x3e1d1f4e	0.15343973
180	0x3ac6e940	0.0015175715
181	0xbcf90efc	-0.030402653
182	0x3bbfe67a	0.0058563324
183	0x3a849e8c	0.0010118051
184	0xbe077c74	-0.13231069
185	0x3e1b2555	0.1515096
186	0x3e33a8b1	0.1754482
187	0xba86dafd	-0.0010288652
188	0xbac4dc8c	-0.0015019341
189	0x3c68153c	0.014165219
190	0xbc1824ff	-0.009286164
191	0x3a1e1668	0.00060305605
192	0x3c219737	0.009862713
193	0xbb8d55f1	-0.0043132235
194	0xbcf4c6d2	-0.029879961
195	0xbd3d292c	-0.046181843
196	0xbc822f50	-0.015891701
197	0x3e6fc662	0.23415521
198	0xbe297056	-0.16546759
199	0x3b47765c	0.0030435538
200	0x3e017efc	0.12646097
201	0x3d68f843	0.056877386
202	0xbcfba786	-0.03071953
203	0x3b2cd397	0.0026371235
204	0x3e611cb5	0.21983607
205	0xba8da714	-0.001080724
206	0xbb222ea0	-0.002474703
207	0x3e7e531b	0.2483639
208	0x3db8eb70	0.09029281
209	0x3e0a06ad	0.13479109
210	0x3c458860	0.01205644
211	0x3e44608a	0.19177452
212	0xbd23829a	-0.039919473
213	0x3a15b0cf	0.00057102455
214	0x3a450653	0.0007515896
215	0xbe848869	-0.25885323
216	0x3db4a476	0.08820431
217	0x3e5fec04	0.21867377
218	0x3e8b1873	0.2716709
219	0x3b04ec4e	0.002028245
220	0x3df05be4	0.11736277
221	0x3e668ef5	0.22515471
222	0x3de99b3d	0.114065625
223	0x3e1a4a8e	0.15067503
224	0xbe3fc08e	-0.18725798
225	0x3c866f9b	0.01641064
226	0x3da35a9f	0.07976269
227	0xbb8f44fa	-0.0043722363
228	0xbe2c6f79	-0.16839398
229	0x3b3eec00	0.0029132366
230	0xb9bacae8	-0.00035627862
231	0xbca614b0	-0.020273536
232	0x3dc087ef	0.09400927
233	0x3e9a53a3	0.30141935
234	0x3e478397	0.19483791
235	0x3eb2a048	0.3488791
236	0x3db128e3	0.08650377
237	0x3eb05a33	0.34443817
238	0xbb34bef5	-0.002757964
239	0xbbe8e3b5	-0.007107223
240	0xbdfbdd72	-0.12298097
241	0xbd428459	-0.047489498
242	0xbc5b4be9	-0.013384798
243	0xbcb73095	-0.022362033
244	0x3e9418a8	0.2892506
245	0x3dddcc66	0.108300015
246	0x3d400a3d	0.046884764
247	0xbd2f54bb	-0.042805415
248	0xb8d3c653	-0.00010098205
249	0xbd453346	-0.0481446
250	0xbb0f1ea1	-0.0021838325
251	0xba81fcd3	-0.0009917266
252	0xbb0c9952	-0.002145369
253	0x3ea47549	0.3212073
254	0x3b3a3fd4	0.0028419392
255	0x3da7c8f0	0.08192623
