MyZipTobeUploaded/helpdesk_Neighbour_embedding/TimestampPredictor_parameters_helpdesk_laplacianOnBinary_0.001_run0.pt (torch, 286967 bytes, 8 tensors)

layer1.bias f4 [9]
0	0x00000000	0.0
1	0x00000000	0.0
2	0x00000000	0.0
3	0x00000000	0.0
4	0x00000000	0.0
5	0x00000000	0.0
6	0x00000000	0.0
7	0x00000000	0.0
8	0x00000000	0.0

layer1.W f4 [4, 2]
0	0xbe57df2f	-0.21081232
1	0xbcb81996	-0.022473138
2	0x3f0ac226	0.54202497
3	0x3e218104	0.15771872
4	0x3e761e2c	0.24034947
5	0xbffbe34b	-1.9678739
6	0x407a9cd3	3.9158218
7	0x3fd1f8f2	1.6404097

layer1.a f4 [4, 1]
0	0x3e1d2b15	0.15348466
1	0x3e4b8e1a	0.19878426
2	0x3e1d2b15	0.15348466
3	0x3e4b8e1a	0.19878426

layer2.0.weight f4 [256, 18]
0	0xbf11ce76	-0.5695566
1	0x3f1e4585	0.6182483
2	0xbee62fe0	-0.449584
3	0x3ebc9629	0.36833313
4	0xbf02c540	-0.5108223
5	0xbe32f3eb	-0.1747586
6	0x3e16a050	0.14709592
7	0x3f816ffc	1.01123
8	0xbef54ade	-0.47908682
9	0x3cd9da59	0.026593374
10	0x3e83701d	0.25671473
11	0xbf4d0d37	-0.8009829
12	0xbe4fdd06	-0.20299158
13	0x3e6dd86d	0.23227091
14	0xbe6d0d14	-0.2314952
15	0xbce5e09f	-0.02806121
16	0xbdd34b3a	-0.10317083
17	0x3c16cb5e	0.00920376
18	0xbec9fbbf	-0.3944988
19	0x3e8633f7	0.2621152
20	0x3ded965f	0.11600947
21	0x3f3d9b9d	0.7406557
22	0xbd9d9f56	-0.076964065
23	0xbe052017	-0.13000523
24	0xbe98e633	-0.29863128
25	0x3d59a2d5	0.053133804
26	0x3ed73eb1	0.42040017
27	0x3f1f7cab	0.62299603
28	0x3d19c3f4	0.03754039
29	0xbe223769	-0.1584145
30	0xbdfb17f8	-0.12260431
31	0x3dddbd97	0.10827177
32	0x3e02f371	0.12788178
33	0xbfb9c707	-1.4513863
34	0x3e58dda5	0.211783
35	0xbe86d54d	-0.2633461
36	0xbe01cea1	-0.12676479
37	0x3e8ea63b	0.278612
38	0xbe6b64a7	-0.22987615
39	0x3f2e7e37	0.6816134
40	0xbe5de1ef	-0.21668218
41	0x3f07a465	0.5298522
42	0x3dda2ffa	0.10653682
43	0x3f370bc1	0.7150231
44	0xbe0affc0	-0.13574123
45	0x3f34a62f	0.70566076
46	0xbd1413e7	-0.036151793
47	0x3e3f5e45	0.18688305
48	0xbd6121d4	-0.0549639
49	0x3ef718c8	0.48261094
50	0xbdc64a29	-0.09682114
51	0x3f320175	0.69533473
52	0xbc8cfe59	-0.017211126
53	0x3f582589	0.84432274
54	0xbe0bde73	-0.13659076
55	0xbf0a5f4e	-0.54051673
56	0xbf050348	-0.5195813
57	0xbe0ab105	-0.1354409
58	0xbf15665f	-0.5835933
59	0xbf280e40	-0.65646744
60	0xbf18e650	-0.5972643
61	0xbea85b32	-0.32882077
62	0xbed2bd5c	-0.41160095
63	0xbebe8df9	-0.37217692
64	0xbf362a2f	-0.7115812
65	0xbf021d96	-0.50826395
66	0xbed09f7a	-0.4074667
67	0xbe1a2902	-0.15054706
68	0xbd5af116	-0.053452574
69	0xbe99b47f	-0.3002052
70	0x3e93253f	0.28739354
71	0x3fccda92	1.6004202
72	0x3e2bb55b	0.167684
73	0x4033d161	2.8096545
74	0xbd4da4c4	-0.05020596
75	0xbda5f7ef	-0.0810393
76	0x3db91836	0.09037821
77	0x3e9efb4d	0.31051102
78	0xbed463e4	-0.4148246
79	0xbd0e16d4	-0.03468974
80	0xbdb3cc0b	-0.087791525
81	0xbea82b0b	-0.3284534
82	0x3e9305d0	0.28715372
83	0x3ed67deb	0.41892943
84	0xbe3ac78a	-0.1824018
85	0xbe2bdee6	-0.16784248
86	0x3f586a64	0.8453734
87	0x3fbf8a5f	1.4964103
88	0xbf580d49	-0.8439527
89	0xbf19dc74	-0.6010201
90	0xbea73ce4	-0.32663643
91	0x3e7340ec	0.23755234
92	0xbe942aed	-0.28939
93	0xbda6fdd4	-0.081538826
94	0xbf005b70	-0.5013952
95	0xbe7b2cf9	-0.24528874
96	0xbe4a85b0	-0.1977756
97	0x3e37a1f7	0.17932878
98	0xbe91a78d	-0.28448144
99	0xbcef5230	-0.029213995
100	0xbf6b0798	-0.9180846
101	0xbe2346f0	-0.1594503
102	0xbe711d8d	-0.23546429
103	0xbc5b08dc	-0.013368811
104	0xbee49d9d	-0.446515
105	0x3ec28090	0.3798871
106	0xbe873418	-0.26406932
107	0x3e8b78ec	0.27240694
108	0xbe888d93	-0.26670513
109	0xbe110d01	-0.14165117
110	0x3df6c79d	0.12049792
111	0xbe53d1e6	-0.20685539
112	0xbe4ac471	-0.19801499
113	0x3d96e9b4	0.07368794
114	0xbe73ecff	-0.23820876
115	0x3e18ba1c	0.14914745
116	0x3ca104b6	0.019655567
117	0x3e585bd3	0.21128778
118	0xbe621e57	-0.22081886
119	0x3d580f21	0.052748803
120	0x3da90be8	0.08254224
121	0x3d8b1103	0.06790354
122	0xbe0d01a8	-0.13770163
123	0xbbc0857f	-0.005875289
124	0xbe6841a9	-0.22681297
125	0x3bb8f9ef	0.005645029
126	0xbd84ebbb	-0.064902745
127	0x3ed82812	0.4221807
128	0xbe83dc75	-0.25754133
129	0x3e81a531	0.25321344
130	0xbe8d2623	-0.27568159
131	0x3def6bc4	0.116904765
132	0xbe8c5b0b	-0.2741321
133	0x3ea56e88	0.3231089
134	0xbec9461b	-0.393113
135	0x3ed55e25	0.4167339
136	0xbe34966c	-0.17635506
137	0xbe763903	-0.24045186
138	0xbe163b1a	-0.14670983
139	0x3e58b518	0.21162832
140	0xbed98717	-0.42485878
141	0x3e69d7e8	0.22836268
142	0xbf3f1d55	-0.7465413
143	0x3e1c6249	0.15271868
144	0xbee8bde1	-0.45457366
145	0x3e4e526d	0.2014863
146	0x3e4fba6d	0.2028596
147	0x3f12cc69	0.57343155
148	0xbf1cf9b4	-0.61318517
149	0x3ec25164	0.3795272
150	0xbef50e4e	-0.47862476
151	0x3e7752ec	0.24152726
152	0xbe98932c	-0.29799783
153	0x3e822826	0.25421256
154	0xbf231285	-0.63700134
155	0xbe8e99b8	-0.27851653
156	0xbe5ec056	-0.21753058
157	0x3e81fe20	0.25389194
158	0xbebc7465	-0.36807552
159	0x3db5e762	0.088820234
160	0xbe1d9725	-0.15389688
161	0xbf49b8c2	-0.78797543
162	0xbeb013da	-0.34390146
163	0x3e81c6c6	0.25346965
164	0xbf1cc223	-0.6123373
165	0x3ea904a8	0.33011365
166	0xbecb5709	-0.3971484
167	0x3d8f8b8a	0.07009037
168	0xbee407a4	-0.4453708
169	0x3d074ad3	0.033030342
170	0xbf0aec03	-0.54266375
171	0x3d9763de	0.07392095
172	0xbf51638b	-0.81792516
173	0xbec0bb94	-0.3764311
174	0xbf2d3e35	-0.67673045
175	0x3e5a3e8c	0.21312922
176	0xbeba5e5e	-0.3640012
177	0x3ed8152f	0.42203662
178	0xbe85dc63	-0.26144704
179	0x3ec4d63e	0.38444704
180	0xbd44988f	-0.047997054
181	0x3f08557a	0.53255427
182	0x3d23d6da	0.03999982
183	0xbd4dc783	-0.050239097
184	0x3e89ef91	0.26940587
185	0x3ee38cd2	0.44443375
186	0xbe2f90d2	-0.17145088
187	0x3e452182	0.19251063
188	0x3ecdaa1d	0.4016885
189	0x3ec6e2fc	0.3884505
190	0x3de19384	0.110144645
191	0x3f67d35a	0.9055687
192	0x3e0f4604	0.13991553
193	0x3eabd874	0.33563578
194	0xbf3a32e3	-0.72733897
195	0x3d2ccc73	0.042187165
196	0xbeafb296	-0.34315938
197	0xbe4fd270	-0.2029512
198	0x3dad25b0	0.08454454
199	0xbf335a34	-0.70059514
200	0xbe415699	-0.1888069
201	0xbd3d57d5	-0.04622634
202	0x3db39450	0.08768523
203	0xbf2ce534	-0.67537236
204	0xbe1a8c6f	-0.15092634
205	0xbf0168d8	-0.50550604
206	0x3e338b5c	0.1753363
207	0xbe9f637e	-0.31130594
208	0x3eb0513b	0.34436974
209	0xbf5248c4	-0.8214228
210	0x3e2695fd	0.16268153
211	0xbe41e930	-0.1893661
212	0xbeb723b7	-0.35769436
213	0xbeb12fe5	-0.34606853
214	0xc0366f0a	-2.8505273
215	0xbf0ab433	-0.5418121
216	0xbe3a67a6	-0.18203601
217	0x3d397a46	0.045282625
218	0xbf008807	-0.5020756
219	0xbe8d0bb4	-0.2754799
220	0xbd561965	-0.05227031
221	0xbf283b2d	-0.65715295
222	0xbf0100c0	-0.5039177
223	0xbe8e9ed7	-0.2785556
224	0xbe84982d	-0.2589735
225	0xbedbe819	-0.42950514
226	0xbf2d681d	-0.6773699
227	0xbf98bf4a	-1.1933377
228	0x3ce34ee2	0.027747575
229	0xbefb0c37	-0.49032757
230	0x3e9b93a5	0.3038608
231	0xbd20df35	-0.039275367
232	0x3f033e05	0.5126651
233	0xbf0da8fe	-0.55335987
234	0x3e095055	0.1340955
235	0xbf69896e	-0.91225326
236	0xba0463e6	-0.00050502864
237	0xbef922d8	-0.48659396
238	0xbe8963b0	-0.26833868
239	0x3e356602	0.17714694
240	0xbd492ab8	-0.049113005
241	0xbea449d4	-0.32087576
242	0x3e306678	0.17226589
243	0xbdffccae	-0.124902114
244	0xc0240a28	-2.56312
245	0x3fc0fea1	1.5077707
246	0xbe0153b6	-0.1262959
247	0x3bbd9e7a	0.005786714
248	0x3ec6f9e7	0.38862535
249	0xbee2f2e3	-0.44325933
250	0x3d58e59e	0.052953355
251	0xbf645bfb	-0.8920285
252	0x3f0d9e1d	0.55319387
253	0xbebfbba8	-0.37447858
254	0x3f6de3d9	0.9292579
255	0x3f02e9b1	0.51137835

layer2.0.bias f4 [256]
0	0x404f2ec2	3.2372289
1	0x3f0461d9	0.51711804
2	0x404e7282	3.225739
3	0x40c5df61	6.183518
4	0x3e4bdb79	0.19907941
5	0x3f8ec12d	1.1152703
6	0xbeb6881f	-0.35650727
7	0x3f234583	0.6377794
8	0xbef25610	-0.47331285
9	0x3f907264	1.1284909
10	0xc09e25be	-4.942107
11	0x3f50bd3d	0.81538755
12	0x40b849da	5.759015
13	0xc0cc9cd1	-6.3941426
14	0x40e8d54c	7.276037
15	0xc0fd5ea4	-7.917803
16	0xbf0f91fe	-0.5608214
17	0xc0a96b7d	-5.294371
18	0x401ad55b	2.4192722
19	0x3ff24e83	1.893021
20	0x40d36b8e	6.606879
21	0x40b96914	5.794077
22	0x403c8801	2.945801
23	0xc0ac683f	-5.3877254
24	0xc0d9b447	-6.8032565
25	0x40ea600a	7.3242235
26	0x403138c8	2.7690907
27	0x40dec57e	6.961608
28	0xc017efb4	-2.3740053
29	0x3ec9c654	0.39409125
30	0x403c633d	2.943557
31	0xc03a0095	-2.9062855
32	0xc0201f8e	-2.501926
33	0xc051c081	-3.2773745
34	0xbf60e08c	-0.8784263
35	0x4005cf74	2.090787
36	0x3fdaee7b	1.7104028
37	0x3eb6c565	0.35697475
38	0xc0b24705	-5.5711694
39	0x40da9599	6.8307614
40	0x3ff816f7	1.9382008
41	0xc064ecc5	-3.5769513
42	0x3ec0787f	0.3759193
43	0x3fcc3869	1.5954715
44	0x3f27fb2b	0.65617627
45	0xbf5501ab	-0.8320567
46	0x409776f8	4.7332726
47	0x40be16ba	5.9402742
48	0x4034229f	2.814613
49	0x400ad21c	2.169074
50	0x3e8891ff	0.26673886
51	0x404fe387	3.2482622
52	0xc0813341	-4.0375066
53	0x4070b94b	3.7613094
54	0x3c99726e	0.018731322
55	0x408fd26e	4.494437
56	0x4109a0d8	8.6017685
57	0xc06a5ebc	-3.6620321
58	0xc0f45667	-7.635547
59	0xc0c9b358	-6.3031425
60	0x3f087652	0.5330554
61	0xc0875ca7	-4.23006
62	0x40ec7c5b	7.39018
63	0xbfdd982a	-1.7312062
64	0xc0eb53e0	-7.3539886
65	0xc0f3cf88	-7.6190834
66	0x3f45aa21	0.7721272
67	0xc04aec92	-3.170689
68	0x3fa516c7	1.2897576
69	0xc0e56760	-7.168869
70	0xc0a4408a	-5.1328783
71	0xc0e82739	-7.254788
72	0x400439af	2.0660207
73	0x4055f281	3.3429263
74	0x4045827f	3.0860898
75	0xc0d08e02	-6.517335
76	0xbf176bdf	-0.59148973
77	0x410813bb	8.504817
78	0x40a5400d	5.1640687
79	0x40d89bad	6.7690034
80	0x402d1e22	2.7049642
81	0xc0b979a0	-5.796097
82	0x3f22ebe9	0.6364122
83	0x3f8a8c5a	1.0824082
84	0xc10043bb	-8.016536
85	0x4015bb13	2.339543
86	0x4067eaf9	3.6237166
87	0x40b1e249	5.5588727
88	0xbf9ee7b1	-1.2414457
89	0xbf0d545b	-0.5520684
90	0xbf3e5d05	-0.74360687
91	0xc0edcb2f	-7.4310527
92	0xc0533c82	-3.300568
93	0xbffff515	-1.9996668
94	0xbfc81351	-1.5630895
95	0x40b2749a	5.5767336
96	0x406055a1	3.5052264
97	0x40bd2b67	5.911548
98	0xc0d82906	-6.7550077
99	0x3f34e58f	0.7066278
100	0xbee6594c	-0.44990003
101	0x408788e3	4.23546
102	0x3fccc945	1.5998923
103	0xc05dd6b5	-3.4662297
104	0x40b3b20d	5.6154847
105	0xc0ffe8a1	-7.997147
106	0xbfbfc8a1	-1.4983102
107	0x3d7bf389	0.06151155
108	0xbf1beb7c	-0.60906196
109	0xbf18b051	-0.5964404
110	0xc02cceae	-2.7001147
111	0xc0fc2b63	-7.880296
112	0x4083e632	4.12185
113	0x40b5b039	5.6777616
114	0xc0b1aaaa	-5.552083
115	0xc087cd89	-4.2438397
116	0x3f8661b4	1.0498567
117	0xbef29222	-0.47377115
118	0xc0956dca	-4.669652
119	0x40cc1a3e	6.3782034
120	0xc049a526	-3.1507049
121	0x40a4ebcb	5.1537833
122	0xc0d2ee1a	-6.591565
123	0x40b314e5	5.5963006
124	0xc0c73f23	-6.226457
125	0x41026b38	8.151176
126	0xbfe92903	-1.8215641
127	0x40606637	3.5062387
128	0xc091afb8	-4.5527
129	0x40cededc	6.4647045
130	0xc0fa4b14	-7.821665
131	0x3fa6c549	1.3028957
132	0x3f60be3e	0.87790287
133	0xc0c95c5b	-6.292524
134	0x40ab5e6e	5.355277
135	0x40b7ec7e	5.7476187
136	0x403dc9fc	2.9654531
137	0xbeeb8d02	-0.46006018
138	0x3e8c32a9	0.273824
139	0x41031d81	8.194703
140	0x4033369b	2.8002079
141	0xc10002c5	-8.000676
142	0x3f59b8d0	0.85047626
143	0x407b7fbf	3.929672
144	0x3fc0c6a0	1.5060616
145	0x409670e9	4.701283
146	0xc0af4cad	-5.47811
147	0x40d29856	6.5810957
148	0x40151303	2.3292854
149	0x40d8189a	6.753003
150	0x3e5b2ace	0.21403047
151	0x410bd98c	8.740612
152	0xc07261ea	-3.7872262
153	0x410d59cb	8.834422
154	0xc040e7f4	-3.0141573
155	0xbf081b4c	-0.5316665
156	0x40c2c605	6.0866723
157	0x40f24d63	7.5719466
158	0x3fe9c617	1.8263577
159	0x40a81e65	5.2537103
160	0xc0e062c1	-7.012055
161	0xc0d631e9	-6.6935925
162	0x4087bc24	4.2417164
163	0xc0a5a4db	-5.176374
164	0x407427f3	3.8149383
165	0xc055cecd	-3.340747
166	0x3fee7e3d	1.8632275
167	0xc074b1a0	-3.8233414
168	0xc0da1a51	-6.8157125
169	0xbef6fad0	-0.4823823
170	0xc0b5c1b1	-5.679894
171	0x40982704	4.7547626
172	0xc0e84d73	-7.2594543
173	0x4091ea4a	4.5598497
174	0xc086d1ce	-4.213111
175	0xbee96060	-0.4558134
176	0xc09b064e	-4.8445196
177	0x40f46971	7.6378713
178	0x40affb74	5.499445
179	0x3f482035	0.78174144
180	0x40a127d4	5.036112
181	0x40912c7e	4.536681
182	0x410ce2a0	8.805328
183	0xc09a2070	-4.8164597
184	0xbe8f98ee	-0.28046364
185	0x3f1095fd	0.56478864
186	0x3f8ec8b8	1.1155005
187	0x3fa49485	1.2857825
188	0x40f2125a	7.56474
189	0xc0c1a1e9	-6.0510144
190	0xc08cd20c	-4.4006405
191	0xc086d17c	-4.213072
192	0xbf04e429	-0.51910645
193	0xc06df51c	-3.7180853
194	0xc0a7978c	-5.2372494
195	0xc068b38c	-3.6359587
196	0x3f7239d3	0.9461948
197	0x4090bc6b	4.5230002
198	0xc0d104ee	-6.531852
199	0x40cb540c	6.3540096
200	0x40974732	4.727441
201	0xc0ed47ad	-7.4149995
202	0xc0a63b3b	-5.1947303
203	0xc0ef36d7	-7.4754443
204	0xbf16e6e4	-0.5894606
205	0x409bee80	4.872864
206	0x40e8b7e7	7.272449
207	0xbf28e4fc	-0.659744
208	0xc0b7fc98	-5.749584
209	0x3fcd2d10	1.6029377
210	0x40ab8f8f	5.3612742
211	0x40d0c0bc	6.523527
212	0xc0a30954	-5.0948887
213	0x40d014a7	6.502521
214	0x40aa2001	5.3164067
215	0xbfde6ba4	-1.7376599
216	0x3fb9089b	1.4455751
217	0xbfad0e1b	-1.351993
218	0x4097bb3d	4.741606
219	0xbfe28aaf	-1.7698573
220	0xc0b0d89e	-5.5264425
221	0x408e8f06	4.454959
222	0xbdb6c209	-0.08923728
223	0xc081cbce	-4.0561285
224	0x3f9442ba	1.1582863
225	0x40df115d	6.9708695
226	0xbfe1d5da	-1.7643387
227	0x3f961d47	1.1727685
228	0x401de629	2.4671729
229	0xc082491b	-4.071424
230	0x408b7bfd	4.3588853
231	0xbec43eae	-0.3832907
232	0xc0f1fbc5	-7.5619836
233	0xc053ffcd	-3.3124878
234	0xbfd716b9	-1.680381
235	0x40004254	2.0040483
236	0x4088f222	4.279557
237	0xbe478196	-0.19483027
238	0x4081b260	4.0530243
239	0x3e4ce644	0.20009714
240	0xc0910cfc	-4.532835
241	0x3f85be07	1.0448617
242	0x40b4b2da	5.6468325
243	0x4026a056	2.6035361
244	0xc07e303c	-3.971694
245	0x401828eb	2.3774974
246	0x406dff57	3.7187097
247	0x40906738	4.5126
248	0xc0ef6ec1	-7.48227
249	0x402397d0	2.556141
250	0x40c03cfb	6.007444
251	0xbe1bd849	-0.15219225
252	0x3f1622f8	0.5864711
253	0x40e0e880	7.0283813
254	0x41002952	8.010088
255	0x4106875c	8.408047

layer2.2.weight f4 [256, 256]
0	0x3d56b263	0.052416217
1	0xbd6577ce	-0.056022458
2	0x3d298631	0.04138774
3	0xbdd487e3	-0.10377481
4	0xbda1032d	-0.07861934
5	0x3cf05fc6	0.029342543
6	0x3c62ae34	0.013835479
7	0x3cf6c2b1	0.030122133
8	0xbd36191e	-0.044457547
9	0xbd80d7c2	-0.062911525
10	0x3a2cf9dc	0.0006598511
11	0xbdae1100	-0.08499336
12	0xbc21f7ed	-0.00988577
13	0x3cd7bb7f	0.026334522
14	0xbd65d9c1	-0.05611587
15	0x3d10292e	0.035195522
16	0x3d67f1fa	0.05662725
17	0xbcc8e5f7	-0.024523718
18	0xbd20c128	-0.03924671
19	0xbd8549a4	-0.065081865
20	0x3ccbf341	0.024896266
21	0x3c09957d	0.008397457
22	0xbca62cf7	-0.020285113
23	0x3bc6fc98	0.006072592
24	0x3d0aec94	0.033917025
25	0x3ccd0171	0.025025101
26	0x3c9f458e	0.019442346
27	0xbdcb75ad	-0.09934554
28	0x3c8b0408	0.016969696
29	0xbcc995cf	-0.024607567
30	0xbd6950e7	-0.05696192
31	0xbd44a22e	-0.04800623
32	0xbd8579ae	-0.06517349
33	0xbc20982a	-0.009801904
34	0xbc845776	-0.016154986
35	0x3c449a4a	0.011999676
36	0x3c5d6b47	0.013514346
37	0xbc7969b6	-0.015222957
38	0xbdae9db2	-0.08526172
39	0xbc4986de	-0.012300221
40	0xbc58e637	-0.013238481
41	0xbd357212	-0.04429824
42	0xbd556ee0	-0.05210769
43	0x3d0da2cf	0.034579094
44	0xbbe8c0af	-0.007103048
45	0xbc236335	-0.009972383
46	0xbdbd500d	-0.09243784
47	0xbc959b57	-0.018262548
48	0x3d22e260	0.03976667
49	0xbbb440f2	-0.005500906
50	0xbdd74fe8	-0.10513288
51	0xbb336d50	-0.0027378388
52	0xbbb6a66c	-0.0055740383
53	0xbd07afed	-0.03312676
54	0x3c2991fc	0.010349747
55	0xbcba7d3e	-0.022764798
56	0xbd207610	-0.039175093
57	0xbdba8f66	-0.09109382
58	0x3d16dba1	0.03683055
59	0x3ba0df64	0.0049094427
60	0x3c4de65d	0.01256713
61	0xbdca2d58	-0.0987193
62	0xbdabff90	-0.08398354
63	0xbd997aed	-0.07494149
64	0xbd8e43fc	-0.06946561
65	0x3be43279	0.0069640246
66	0xbc6bda80	-0.014395356
67	0xbbc0cb8a	-0.0058836387
68	0x3d27b821	0.040947083
69	0x3b7d32ce	0.0038635018
70	0x3c74c565	0.014939641
71	0xbdaed50e	-0.08536731
72	0xbd2bb896	-0.04192408
73	0xbd56b699	-0.052420232
74	0xbd50a3c6	-0.050937437
75	0xbc24a580	-0.010049224
76	0xbced4894	-0.028965272
77	0xbd4c76c6	-0.04991796
78	0xbd3849ea	-0.044992365
79	0xbd54f3df	-0.051990386
80	0xbd3ddff2	-0.04635615
81	0xbdbb276d	-0.09138379
82	0xbd59ff61	-0.053222064
83	0x3cd163f9	0.025560366
84	0xbc6c91f0	-0.014439091
85	0x3d25f459	0.04051623
86	0xbd85e084	-0.065369636
87	0x3d290344	0.04126288
88	0x3d458f85	0.048232574
89	0xbca49f5b	-0.020095518
90	0x3d742612	0.05960662
91	0xbdc9ab31	-0.09847105
92	0xbd7c2689	-0.061560187
93	0xbce00ca3	-0.027349776
94	0xbccbc079	-0.024872052
95	0xbd58aa3d	-0.052896727
96	0xbd58fd6c	-0.052976057
97	0xbdb5bdea	-0.08874114
98	0x3d2e0d91	0.042493407
99	0xbde63e2a	-0.112423256
100	0xbd6d954e	-0.058003716
101	0xbd077306	-0.03306868
102	0xbc9ec7b8	-0.019382343
103	0xbdc7c6e5	-0.09754733
104	0xbcff953c	-0.03119909
105	0xbc3ef345	-0.01165468
106	0x3b79cabc	0.0038115224
107	0x3a5c6db8	0.00084086834
108	0xbd81cbeb	-0.063377224
109	0xbcecf0ab	-0.028923353
110	0xbdacb919	-0.08433742
111	0xbd27242d	-0.040805984
112	0xbd94401b	-0.0723879
113	0x3d2efe9d	0.042723287
114	0xbcdb9141	-0.02680266
115	0x3b46e7b7	0.0030350515
116	0xbd6f8caa	-0.058483757
117	0x3c925077	0.017860634
118	0xbcec0b3e	-0.028813954
119	0xbd93e74f	-0.07221853
120	0x3a664c38	0.0008785161
121	0x3caf19c5	0.021374593
122	0xbbb07ca4	-0.005385952
123	0xbd20c846	-0.039253496
124	0xbdc8a4d9	-0.09797067
125	0x3d03f4bf	0.03221583
126	0xbdbd32f4	-0.09238234
127	0xbcb23a78	-0.021756396
128	0xbd954320	-0.07288194
129	0xbdd9b661	-0.10630489
130	0xbd44f5a1	-0.048085812
131	0x3c951828	0.018199995
132	0xbd47f006	-0.04881289
133	0xbd8cf3d5	-0.06882445
134	0x3cf4fb47	0.029904975
135	0x3c4fd253	0.012684423
136	0x3ce6384f	0.028103022
137	0xbd6b441b	-0.057437997
138	0xbc743a26	-0.014906442
139	0xbd548eeb	-0.05189411
140	0xbd8d2090	-0.068909764
141	0x3d831a6a	0.064015225
142	0xbd3d7138	-0.046250552
143	0x3ad88874	0.0016520158
144	0x3d34d23e	0.044145815
145	0xbcfb00f5	-0.030640105
146	0x3c22ae37	0.009929231
147	0xbd7050eb	-0.05867092
148	0xbd0e3f24	-0.034728184
149	0xbd31e281	-0.0434289
150	0xbd2b6d99	-0.041852567
151	0xbceb7631	-0.028742881
152	0xbd83031b	-0.06397077
153	0xbd35a13b	-0.044343214
154	0xbd42b96b	-0.04754011
155	0xbceb0336	-0.028688055
156	0xbd61f03b	-0.055160742
157	0xbdc83447	-0.09775596
158	0x3b71f33c	0.003691866
159	0xbd1a0787	-0.037604835
160	0xbde627fa	-0.11238094
161	0xbc53da49	-0.012930461
162	0xbd8709b6	-0.06593649
163	0x3d72d1e6	0.059282206
164	0xbd23947b	-0.039936524
165	0xbc9631c4	-0.018334277
166	0x3c900bd6	0.017583769
167	0xbdac68e5	-0.084184445
168	0xbd2004ed	-0.039067198
169	0x3ce1de61	0.027571859
170	0xbb787419	-0.0037910996
171	0x3cf15d6b	0.02946349
172	0xbc26175b	-0.010137404
173	0xbca20530	-0.019777864
174	0xbdcaf358	-0.099096954
175	0xbce3ccc5	-0.027807603
176	0x3c814d1a	0.015783835
177	0x3c0b9320	0.008518964
178	0xbc8ebf50	-0.01742521
179	0xbd3426e7	-0.043982413
180	0x3d71293a	0.058877207
181	0xbd9d0779	-0.07667441
182	0xbd3d505e	-0.046219222
183	0xbdadded6	-0.08489768
184	0xbd1fa0e7	-0.038971808
185	0x3d407596	0.04698714
186	0xbc8a6489	-0.016893642
187	0xbcc0697b	-0.023487797
188	0xbc19b9e8	-0.009382702
189	0xbd231a3f	-0.039819952
190	0xbc50a6b0	-0.012735054
191	0xbbc62ee3	-0.00604807
192	0x3d3b7654	0.045767143
193	0xbdb3b59a	-0.08774872
194	0x3c0a207e	0.008430598
195	0x3c7e5e04	0.015525345
196	0xbda523cc	-0.08063468
197	0xbb657b41	-0.0035016092
198	0xbaa4eded	-0.0012583114
199	0xbd73f85b	-0.059563022
200	0xbd7d70d9	-0.061875198
201	0xbc5e2040	-0.013557494
202	0x3b9a91a8	0.0047170706
203	0x3cbc64e2	0.022997323
204	0x3d39d583	0.045369636
205	0xbd106626	-0.035253666
206	0xbca2c476	-0.01986907
207	0xbc7fb90c	-0.015608083
208	0xbcf9fcaa	-0.030515987
209	0xbd8e6070	-0.06951988
210	0xbd1f2459	-0.038853023
211	0xbc89bff6	-0.016815167
212	0xbe19ac45	-0.15007122
213	0x3c30a846	0.010782307
214	0xbcc6b57d	-0.024256462
215	0xbd01aeed	-0.031660963
216	0x3cb27205	0.021782884
217	0x3c6e55e7	0.014546848
218	0x3ca0f492	0.01964787
219	0xbc55d8a4	-0.013052139
220	0xbcb96904	-0.022633083
221	0xbc0a58fe	-0.008444069
222	0xbdb81f77	-0.089903764
223	0xbc85cc00	-0.016332626
224	0xbbf33492	-0.0074220384
225	0xbce5a18a	-0.02803113
226	0xbd24bcf7	-0.040219273
227	0xbdd67ba4	-0.10472801
228	0x3b8c3dc0	0.004279822
229	0xbc8ff1b0	-0.0175713
230	0x3d459b0b	0.048243564
231	0xbd91a0de	-0.07110761
232	0x3cbdc8f8	0.023167118
233	0xbc9b5453	-0.018961107
234	0xbda098c3	-0.07841637
235	0xbd06e7d4	-0.032935932
236	0x3c716698	0.014733933
237	0x3cf4c1b0	0.029877514
238	0xbc254eda	-0.0100896
239	0xbd1e21ea	-0.03860656
240	0xbce91631	-0.028452964
241	0xbd39858e	-0.045293383
242	0xbd9818e6	-0.07426624
243	0xbd215ee1	-0.039397124
244	0xbd77b204	-0.060472503
245	0x3d09d070	0.033646047
246	0xbd054f3d	-0.03254627
247	0x3c6825fc	0.014169212
248	0x3bdd94a9	0.0067621064
249	0xbd833389	-0.06406314
250	0xbdbe456f	-0.09290587
251	0xbb3ffac2	-0.002929375
252	0xbdc41fff	-0.09576415
253	0xbd30469c	-0.04303609
254	0xbd28cff9	-0.041213963
255	0xbced8a49	-0.028996604

layer2.2.bias f4 [256]
0	0xbddc260c	-0.10749444
1	0x3e88856a	0.26664287
2	0xbe624d75	-0.2209986
3	0xbed7fb2a	-0.4218381
4	0xbd90e29f	-0.070744745
5	0x3de950d9	0.113923736
6	0xbde7afcb	-0.11312827
7	0xbd112a78	-0.035440892
8	0xbd1f9d35	-0.038968284
9	0xbc48c052	-0.012252884
10	0xbd02e59a	-0.031957246
11	0xbdc08510	-0.0940038
12	0xbda2fdb1	-0.07958544
13	0xbd1b8ef0	-0.037978113
14	0xbe02cf15	-0.12774308
15	0x3ef4b5a9	0.47794846
16	0xbdc83be8	-0.09777051
17	0xbdedd1ba	-0.11612268
18	0x3e318905	0.17337425
19	0x3b8c8cb5	0.0042892345
20	0xbdc3ea67	-0.09566193
21	0xbde339bf	-0.110949986
22	0xbe013816	-0.12619051
23	0xbdc414cb	-0.095742784
24	0x3d093126	0.033494137
25	0x3cf1b153	0.0295035
26	0xbd5e8e1b	-0.05433474
27	0xbbed7541	-0.007246644
28	0xbdcb0e44	-0.0991483
29	0x3bcdb08e	0.0062771505
30	0xbdd1bc8b	-0.1024104
31	0xbd5c20d2	-0.053742237
32	0xbd1147e3	-0.035468947
33	0x3d493297	0.04912051
34	0x3c875713	0.016521012
35	0xbd90e519	-0.07074947
36	0xbd16bab3	-0.036799144
37	0x3d2038df	0.039116737
38	0xbdb2105c	-0.086945266
39	0xbd8e8ac9	-0.06960065
40	0xbe1c331f	-0.15253876
41	0xbc8cf792	-0.017207894
42	0xbd9f1332	-0.07767333
43	0xbcd05bf0	-0.025434464
44	0xbd89d998	-0.06730956
45	0xbc3f16d2	-0.011663156
46	0xbc5fa8f3	-0.0136511205
47	0x3d5066fd	0.050879467
48	0x3dcb6047	0.09930473
49	0xbc08712e	-0.008327765
50	0xbd8d395e	-0.068957075
51	0xbd0aeaff	-0.033915516
52	0x3c07e31e	0.008293895
53	0xbd8cfb9c	-0.06883928
54	0x3ee3867c	0.4443854
55	0xbd539d51	-0.0516637
56	0x4005eca4	2.0925684
57	0xbcec9538	-0.028879747
58	0xbe2bae31	-0.16765667
59	0xbd93236f	-0.07184493
60	0xbe087cc1	-0.1332884
61	0xbdc03271	-0.09384621
62	0xbda61565	-0.081095494
63	0xbdc05243	-0.0939069
64	0xbcb12943	-0.02162612
65	0xbe21df08	-0.15807736
66	0x3d104fca	0.035232343
67	0x3e0121a0	0.12610483
68	0xbd1cdf0e	-0.03829866
69	0xbd2e73df	-0.042590972
70	0x3de3d248	0.11124092
71	0x3e35d88e	0.1775839
72	0x402ba422	2.6818929
73	0xbda96172	-0.08270539
74	0x3e3c2a89	0.18375601
75	0xbd31da29	-0.043420944
76	0x3f7eee27	0.9958214
77	0xbd6db3ce	-0.058032803
78	0xbc931f0c	-0.01795914
79	0xbdf97c46	-0.121819064
80	0xbcb86e75	-0.022513608
81	0xbdb2a8ac	-0.08723578
82	0xbc6fc3d1	-0.014634089
83	0xbd7797de	-0.060447566
84	0xbc4684df	-0.01211664
85	0xbd110fb3	-0.035415363
86	0xbbfd2a23	-0.0077259704
87	0x3d26ae7d	0.04069375
88	0xbda85953	-0.08220162
89	0x3fa14d9f	1.2601813
90	0xbd1c4c0c	-0.03815846
91	0xbd30825d	-0.043093074
92	0x3e696477	0.2279223
93	0x3db18648	0.0866819
94	0xbd0860a1	-0.033295278
95	0xbdc13906	-0.094347045
96	0xbd8d4eba	-0.068997815
97	0x3d86b083	0.06576636
98	0xbd9a0593	-0.075205944
99	0xbd8513db	-0.06497928
100	0xbd2a1e0f	-0.041532572
101	0x3c9bae49	0.019004004
102	0x3cb40daa	0.021979172
103	0xbc8533b2	-0.016260002
104	0xbc6215cd	-0.013799143
105	0x3fcb548d	1.5885178
106	0xbd7e4ee4	-0.062086955
107	0xbdd207f2	-0.10255422
108	0xbd8f657d	-0.07001779
109	0xbd93e2fa	-0.07221027
110	0x3ede14e0	0.433753
111	0xbe81c5a5	-0.25346103
112	0xbce6e75d	-0.028186494
113	0xbe02bfdc	-0.12768501
114	0x3c6477dc	0.013944592
115	0x3d96bd00	0.07360268
116	0xbd8478c4	-0.06468347
117	0xbd6e351c	-0.058156118
118	0xbe08a384	-0.13343626
119	0xbe9a2eba	-0.30113775
120	0xbe2b31eb	-0.16718261
121	0xbdc6b189	-0.09701831
122	0x4050eeaa	3.264567
123	0x3e31a463	0.17347865
124	0xbdb2996c	-0.08720669
125	0xbd80d078	-0.06289762
126	0xbd55f936	-0.05223962
127	0x3d3a7ba6	0.045528077
128	0xbe1496e2	-0.14510682
129	0x3ead9c48	0.33908296
130	0x3e9d80cb	0.30762324
131	0x3e4f7174	0.20258123
132	0xbd7d794a	-0.06188325
133	0x3c9598f0	0.018261403
134	0xbce003dd	-0.027345592
135	0xbdd47a5b	-0.103749
136	0x3c344b73	0.011004317
137	0xbc869c21	-0.01643187
138	0xbdb045ae	-0.0860704
139	0x3d2e5714	0.042563513
140	0xbc301df2	-0.010749327
141	0xbc80d310	-0.015725642
142	0xbd743df8	-0.05962941
143	0xbd07e8b9	-0.033180926
144	0xbd9120d1	-0.07086337
145	0x3e654038	0.22387779
146	0xbd999e76	-0.07500927
147	0xbda3d04b	-0.07998713
148	0xbd397a82	-0.04528285
149	0xbd87644d	-0.06610928
150	0x40fa288b	7.817449
151	0xbdaa8fd1	-0.08328212
152	0xbb386e64	-0.002814197
153	0x3d107ad1	0.035273377
154	0x3a95b6bf	0.001142226
155	0xbdc378ed	-0.09544549
156	0xbdb88276	-0.090092584
157	0xbcd0d067	-0.025489999
158	0xbd979fab	-0.07403501
159	0xbdd25da6	-0.10271768
160	0xbeca6bd0	-0.3953538
161	0x3d914f11	0.07095159
162	0x3db92414	0.090400845
163	0xbdb5fd93	-0.08886256
164	0xbd1f506c	-0.038895056
165	0x3e50febf	0.20409678
166	0xbe24c5a9	-0.16091026
167	0xbe051b06	-0.1299859
168	0x3d761f6f	0.06008857
169	0xbea7e0f9	-0.32788828
170	0x40dfa17f	6.988464
171	0x3ad21d19	0.00160304
172	0x3dd83751	0.10557426
173	0x3e35e456	0.17762884
174	0xbd0e32af	-0.034716304
175	0xbcf96743	-0.030444747
176	0xbd71455c	-0.058904037
177	0x41037113	8.215106
178	0x3de29317	0.110632114
179	0x3e8c97cc	0.27459562
180	0xbe0522db	-0.13001578
181	0xbcbc4592	-0.022982392
182	0x3eaec6ef	0.3413615
183	0xbec67f71	-0.38769105
184	0x3e5e74b0	0.217242
185	0xbd12a230	-0.035799205
186	0x3c922f4f	0.017844824
187	0x3c117825	0.008878742
188	0x3d8aa667	0.0677002
189	0xbde38e52	-0.1111113
190	0xbd47dd02	-0.048794754
191	0xbd77c23a	-0.060487963
192	0xbb989dcb	-0.0046574823
193	0xbdf97fd3	-0.12182584
194	0xbded075a	-0.11573668
195	0x3e34ac41	0.17643835
196	0xbd8796f5	-0.0662059
197	0x3de92c43	0.113853954
198	0xbcb0d6cf	-0.021586804
199	0x3fd9c405	1.7012945
200	0xbbbc6f7a	-0.0057505937
201	0xbd807069	-0.062714405
202	0x3e4baf7c	0.1989116
203	0xbdc2047a	-0.0947351
204	0xbc3a40cf	-0.011367991
205	0xbc971f45	-0.018447528
206	0xbd25275f	-0.04032075
207	0x410c1190	8.754288
208	0x3c2c18c0	0.010503948
209	0xbd72670f	-0.059180316
210	0x40022122	2.0332723
211	0xbdd56304	-0.10419276
212	0xbc1a25f1	-0.00940846
213	0xbd5848ee	-0.052803926
214	0x3c153910	0.009107843
215	0xbd9e4be9	-0.077293225
216	0xbd3d332c	-0.04619138
217	0xbc3a1546	-0.011357611
218	0x3d36f8b2	0.044670768
219	0xbd22bfc1	-0.039733652
220	0xbe0941b4	-0.1340397
221	0x3d1df899	0.03856716
222	0x3d1b6f8c	0.037948176
223	0x408a36cd	4.3191895
224	0xbe030d4d	-0.12798043
225	0xbdb98be7	-0.090598874
226	0x3d703b67	0.0586504
227	0x40040f37	2.0634286
228	0x3bb6b49e	0.0055757305
229	0x3e229795	0.15878136
230	0xbb58ece6	-0.0033100187
231	0xbd900de5	-0.070339
232	0xbdc7b07c	-0.097504586
233	0x3d075a73	0.033045243
234	0x3ba0d111	0.004907735
235	0xbe0f2f93	-0.13982992
236	0xbe170044	-0.14746195
237	0xbd1fb774	-0.038993314
238	0x3ea47b9e	0.32125562
239	0xbd5ef9f2	-0.054437585
240	0xbd62e60d	-0.055395175
241	0x3e4f05bb	0.2021703
242	0xbe033711	-0.12813975
243	0xbd47266b	-0.048620623
244	0xbd828b5b	-0.06374236
245	0xbd9810d4	-0.07425085
246	0xbba3d9b2	-0.0050003165
247	0xbdb924d2	-0.09040226
248	0xbc419cfa	-0.011817211
249	0xbdc3aa67	-0.09553986
250	0xbccd533c	-0.025064103
251	0x3e10ad87	0.14128695
252	0x3ed4a94f	0.41535422
253	0xbcab3b8c	-0.020902418
254	0xbcc8cdf1	-0.024512263
255	0xbe0e05e8	-0.1386944

layer2.4.weight f4 [1, 256]
0	0x3c97f838	0.018550977
1	0x3ca914e4	0.020639844
2	0x3cb194b9	0.021677362
3	0x3bd0cab4	0.0063718203
4	0x3d39677d	0.04526471
5	0x3c6fa691	0.014627115
6	0xbc757950	-0.014982536
7	0x3ada72b4	0.0016666264
8	0x3c0cf51a	0.008603359
9	0x3ca43291	0.020043643
10	0x3a9095e8	0.0011031004
11	0x3cd4fa72	0.025998328
12	0xbb97e142	-0.004635007
13	0xbbe7381c	-0.0070562493
14	0x3a94eaba	0.0011361458
15	0xb9bd9c9a	-0.00036165566
16	0xbc457e79	-0.012054079
17	0x3c23be32	0.009994077
18	0xbcff0bf6	-0.031133633
19	0x3ce9c0dc	0.028534345
20	0x3c1f9b6f	0.009741648
21	0x3c9777bd	0.018489713
22	0xbb11fb15	-0.00222749
23	0xbd28dcb7	-0.041226115
24	0x3c8c9770	0.017162055
25	0x3c3b29ae	0.011423511
26	0xbbbf9932	-0.0058471197
27	0x3cd1c5fb	0.0256071
28	0xbced0002	-0.028930668
29	0x3bb62c6e	0.0055594957
30	0x3caed5cb	0.021342179
31	0x3cb70397	0.022340579
32	0xbc9b6cdc	-0.018972807
33	0x3cea1c02	0.028577808
34	0xbca48416	-0.020082515
35	0xbc0407b5	-0.008058478
36	0xbcc7232f	-0.024308769
37	0xbba544db	-0.0050436086
38	0x3cc55615	0.024088899
39	0xbcf9a62b	-0.030474743
40	0xbc2e186f	-0.010625943
41	0x3c1df1ef	0.009640201
42	0x3b7ed0c5	0.003888176
43	0x3ca92320	0.020646632
44	0x3b81a657	0.003956597
45	0x3bb994c0	0.0056634843
46	0xbcb1f0b3	-0.02172122
47	0x3cdf6b4a	0.02727284
48	0xbb1d3ca8	-0.0023992453
49	0xbd08213e	-0.033234827
50	0xbc6a3b5b	-0.014296378
51	0xbca726c2	-0.020404223
52	0x3bced926	0.006312507
53	0x3c6ec16b	0.014572482
54	0x38663111	5.488197e-05
55	0x3cc3b3f1	0.023889514
56	0xbc0b6b5f	-0.008509486
57	0x3cc88b5b	0.024480512
58	0xbc12e9da	-0.008966887
59	0x3cb392b4	0.02192054
60	0x3cf9fd57	0.03051631
61	0x3b320e14	0.0027169036
62	0x3c48db61	0.012259335
63	0x3b802e55	0.003911773
64	0x3b32ae34	0.0027264478
65	0xbcfd2a82	-0.030904058
66	0x3c9c6866	0.01909275
67	0xbc6b996a	-0.0143798385
68	0x3cc3872a	0.023868162
69	0xbc8655a2	-0.016398255
70	0x3b575d24	0.0032861913
71	0x3afd1077	0.0019307275
72	0xbca7611b	-0.020432046
73	0x3cb36a88	0.021901384
74	0xbcc0e1f3	-0.023545241
75	0x3c872969	0.016499238
76	0x3d486331	0.04892272
77	0xbc805262	-0.015664283
78	0x3cb0e4fe	0.021593567
79	0xbc09e604	-0.008416656
80	0xbba51e9a	-0.0050390484
81	0x3a992601	0.00116843
82	0xbaf873df	-0.0018955431
83	0x3ca64106	0.020294677
84	0x3c6db6c7	0.01450891
85	0x3c276058	0.010215841
86	0x3c31cd4f	0.010852172
87	0xbccf1a5a	-0.02528112
88	0x3b41eb24	0.0029589618
89	0xbcc45269	-0.023965077
90	0x3d007e2b	0.031370323
91	0xbcbd57ce	-0.023113158
92	0xbbe28f84	-0.006914081
93	0x3c50d655	0.012746413
94	0x3c7d6665	0.015466307
95	0x3b49971b	0.0030760232
96	0xbcb3657c	-0.021898977
97	0x3b139995	0.0022521962
98	0x3c8415e4	0.01612372
99	0xba782abb	-0.00094668166
100	0xbcc19167	-0.023628904
101	0xbc95fb73	-0.018308377
102	0x3c8f1fe3	0.01747126
103	0xbc83bd50	-0.016081482
104	0x3d30d584	0.043172374
105	0xbb83fe2a	-0.0040281015
106	0xbc7000ad	-0.014648599
107	0x3aa4bd18	0.0012568561
108	0xbccbe531	-0.02488956
109	0x3cd98434	0.026552297
110	0xbce5f87e	-0.028072592
111	0xbcf58caa	-0.0299743
112	0xbcf8f69a	-0.030391026
113	0xbcf14f7b	-0.029456845
114	0xbc0079ac	-0.007841509
115	0xbc649e66	-0.013953781
116	0x3cda3de3	0.026640838
117	0x3cdae675	0.026721219
118	0x3ca4abba	0.020101417
119	0xbce59c0e	-0.028028514
120	0x3c58db44	0.013235871
121	0xbc405583	-0.011739138
122	0x3e01c6bf	0.12673472
123	0xbd00f7b0	-0.031486213
124	0xbc97b6c6	-0.01851977
125	0xbbcb2879	-0.006199893
126	0x3cb49609	0.022044199
127	0x3cdbd5e0	0.026835382
128	0x3cd1976b	0.025584897
129	0xbc61b832	-0.013776826
130	0x3c69940d	0.014256489
131	0xbcb64dac	-0.022253834
132	0x3b60ee3e	0.003432169
133	0x3c9fdc7f	0.01951432
134	0x3d00c651	0.03143913
135	0x3cf21c61	0.029554548
136	0xb8c15a0c	-9.21973e-05
137	0xbc77b1e4	-0.015118096
138	0x3bf5e921	0.007504598
139	0xbc541e33	-0.012946653
140	0x3ca807e7	0.02051158
141	0x3c8740ac	0.01651033
142	0x3d06a95d	0.03287636
143	0xbb511ac2	-0.0031906818
144	0x3bde52f9	0.0067847935
145	0x3ced0ca6	0.028936695
146	0xbc5bf384	-0.013424758
147	0xbbc615a9	-0.0060450626
148	0xbcdd94b8	-0.027048454
149	0xbb97994e	-0.0046264296
150	0x3e05a04c	0.1304943
151	0xbd0e8cf5	-0.034802396
152	0x3c3c1d27	0.01148156
153	0x3bebab6e	0.007192067
154	0xbc5cc1ad	-0.01347391
155	0x3c35734a	0.01107485
156	0x3cd2e061	0.025741758
157	0x3cdd4eeb	0.02701517
158	0xbcabf52c	-0.02099093
159	0xbb8edddc	-0.004359944
160	0x3c8bf312	0.017083678
161	0x3c296235	0.010338356
162	0xbce860e7	-0.02836652
163	0x3c55cea5	0.013049756
164	0x3d1c49a7	0.038156178
165	0xbcfb41bf	-0.030670999
166	0x3c070475	0.008240809
167	0x3cdcf762	0.02697343
168	0x3da1ec44	0.07906392
169	0x3cf0e626	0.029406618
170	0x3e8c2b57	0.27376816
171	0xbce0714e	-0.027397778
172	0x3c64197d	0.0139220925
173	0x3defd1ec	0.11709961
174	0x3d690876	0.056892835
175	0x3ce39bb3	0.027784204
176	0xbc9ec2af	-0.019379942
177	0x3db5570a	0.08854492
178	0x3ce845f3	0.028353667
179	0x3afcaa7d	0.0019276884
180	0x3d003882	0.03130389
181	0xbc48516f	-0.0122264465
182	0xbcdde6b1	-0.027087541
183	0xbdfcd101	-0.12344552
184	0xbcae7158	-0.02129428
185	0xba8f5389	-0.001093493
186	0x3cc42bd5	0.023946682
187	0x3cd5fada	0.026120592
188	0x3ccb2303	0.024796968
189	0xbbadfe88	-0.0053098835
190	0x3ce14aa1	0.027501406
191	0x3cf83ba0	0.030301869
192	0xbc1b98e5	-0.009496902
193	0xbcb8728b	-0.022515556
194	0x3c0d6582	0.008630158
195	0xbadf14e0	-0.0017019771
196	0x3bd3a74e	0.0064591533
197	0x3cff0de0	0.031134546
198	0x3c0abfd8	0.008468591
199	0x3b1bec52	0.002379198
200	0xbd3cccfd	-0.04609393
201	0x3ba7ee31	0.00512483
202	0x3b698dbf	0.0035637466
203	0x3c17b1cf	0.0092587015
204	0x3d15574f	0.036460217
205	0xbc067fcb	-0.008209179
206	0x3c2e539b	0.01064005
207	0x3eb5c08f	0.35498473
208	0xbca5086e	-0.020145621
209	0x3c910cf5	0.017706374
210	0x3e02a1be	0.12757012
211	0xbace2cda	-0.001572992
212	0x39611593	0.00021465709
213	0x3c3c468d	0.01149143
214	0x3d77ee3e	0.06052994
215	0x3cd79bdd	0.026319439
216	0xbc47381d	-0.012159375
217	0x3c5127d7	0.012765846
218	0xbb9521bf	-0.004551142
219	0xbb2346ce	-0.002491403
220	0x3c39db7c	0.011343833
221	0x3c11a23a	0.0088887755
222	0x3b6c9a6e	0.003610279
223	0x3ea843c7	0.3286421
224	0x3c369cbd	0.011145768
225	0x3c09e7fd	0.008417127
226	0xbb64312c	-0.0034819348
227	0x3c84afc8	0.0161971
228	0x3c41f94d	0.011839223
229	0x3c9718f8	0.018444523
230	0xbc4164f7	-0.011803857
231	0xbbaff7d3	-0.005370119
232	0xbc8d8bbb	-0.017278543
233	0xbca2dae9	-0.019879775
234	0x3cca80fe	0.024719711
235	0xba1d1893	-0.00059927366
236	0xbc9ab68f	-0.018885879
237	0x3cc6fd1d	0.024290616
238	0xbc9624db	-0.018328121
239	0x3c80efff	0.015739439
240	0xbc763c65	-0.015029048
241	0x3c9ebb9c	0.019376568
242	0x3c95b429	0.018274384
243	0x3cedaac5	0.029012093
244	0x3cbd75a5	0.023127386
245	0x3be094c8	0.0068536736
246	0xbcdd5a66	-0.027020644
247	0xbbac6a23	-0.005261676
248	0x3ceb1482	0.028696302
249	0x3c141833	0.009038973
250	0xbcb52ef8	-0.022117123
251	0xbc814057	-0.01577775
252	0x3c67b58d	0.014142406
253	0xbced1deb	-0.02894493
254	0x3c9cea73	0.019154763
255	0x3c7da7bf	0.015481888
