MyZipTobeUploaded/helpdesk_Neighbour_embedding/TimestampPredictor_parameters_helpdesk_laplacianOnWeighted_0.0001_run0.pt (torch, 286967 bytes, 8 tensors)

layer1.bias f4 [9]
00000000: 0000 0000 0000 0000 0000 0000 0000 0000
00000010: 0000 0000 0000 0000 0000 0000 0000 0000
00000020: 0000 0000
0.0 0.0 0.0 0.0 0.0 0.0 0.0 0.0
0.0

layer1.W f4 [4, 2]
00000000: 6282 af3e c0c2 41bf c528 973f fac7 dcbd
00000010: 6322 b6bd 7802 8f3f 7e05 2c3f 885b 6e3f
0.34279162 -0.7568779 1.1809317 -0.1078033 -0.088932775 1.1172628 0.6719588 0.93108416

layer1.a f4 [4, 1]
00000000: 525f 54bd de03 b03c 525f 54bd de03 b03c
-0.051848717 0.021486219 -0.051848717 0.021486219

layer2.0.weight f4 [256, 18]
00000000: 9e1f 75bd 5841 a43a a2c0 96bc b30b 193e
00000010: a4d6 a13c e9e2 08be 08bb 82be f08f 163e
00000020: 759b 3e3d 880b d6bc d728 123d de30 eabd
00000030: 7224 8d3d e3e8 31be edc5 a9be 98e1 d0bd
00000040: 487a 95bd 7cb7 473e 2aed 103e 72ce 283e
00000050: 0ae9 38be 05c8 f2bd e09e acbd c33f 12bd
00000060: 01e7 e33a 327b ffbd a02a 59be 6588 583d
00000070: 6443 13be 1912 b63d 89f0 13be 4a1b 93bd
00000080: fef4 1a3e 5218 81bd 192a a03e 6668 b03d
00000090: c0bf 7e3e d866 483e 6e97 9fbd b07b 493e
000000a0: d3a0 043e 6929 d0bd 14fc 0dbe b91e 263e
000000b0: f2ea 9d3d 393d 6dbe 706d b13d 2273 83be
000000c0: c390 4cbe 6717 21bd 5e34 9d3d 280b 99bd
000000d0: adca c2bd 4aff 163e e43c 0dbe 0523 f53d
000000e0: 4e24 53be c5fb 8f3d 171d 1bbe 45d7 793e
000000f0: 5789 2d3e 7556 36bd bc6b a43d f4cb 03bd
00000100: e08c 333e 668b 2abe 2cb4 953d 5d50 7d3e
00000110: 05b8 443c 8ec5 12bd 6a5d c2bd 1dae 49be
00000120: 6f9d c0be 8518 f53d 3365 1abd df0c 6a3e
00000130: 86f2 bc3d 7812 01be 9ade 67be 6afc a03b
00000140: aea2 833d 7796 2cbd 3952 463e e587 e7bd
00000150: 0a63 2bbd 0e59 07be b6fe b43d 60d9 f83d
00000160: 8e58 7dbe 6854 29be 78c4 2e3e 1a22 f63d
00000170: 0dba 57bd 2672 e938 ea28 82bd 23c2 74be
00000180: 54d9 a13d 35ef 1b3e 3e07 ecbd 8be1 6bbd
00000190: 80cf 2dbe bc02 79be ef01 513e 5cd6 903d
000001a0: 5b2b 6dbe fdfe 57be 61d8 be3e c2e7 633e
000001b0: 6a65 5d3d dc1d 84be c6e0 053e 01d3 d83d
000001c0: 8b71 15be 672d 9e3c 8356 1e3e 9e72 613e
000001d0: f9f2 c33d 6615 a13d 1585 2d3e ebd8 583e
000001e0: 1a34 5ebe c3a7 95bd 280a 80be 03f0 b03d
000001f0: 4993 6c3e bacc 9d3d 5e0e a6bd 67ac c23d
00000200: a235 fb3d 710f 303e 6ff9 7c3d 35ce 15be
00000210: 6708 0cbc 5656 993d 1208 18be 48e5 3b3e
00000220: 6a0d 733e ffdf 24be f1d7 35be 71bd 4cbd
00000230: 99ce a5bd 7957 f93d f17d 91bd baa2 e2bd
00000240: 4f77 763e 3596 f23d 8669 03bf f323 a93e
00000250: dbaa 3fbe 50ec c9bd 05b9 3e3d e655 6fbe
00000260: 951d 40be 601d 5f3d 67de cb3e 30e1 98be
00000270: 45d5 48be 364d d9bc fa51 e3be 30fc 51bd
00000280: a878 543d 320b 2c3e 079a bc3d d310 263e
00000290: cd5d 3cbe c843 95bc 8109 0fbe 3adb 273e
000002a0: e31f f83d 4c92 10be 5b57 8dbe a1bd 45bc
000002b0: befa 64bc 74f0 a7bb 5ab4 19be 1e41 423e
000002c0: 30c8 cabd 52f7 2cbe ce7d 743e a54c b4bd
000002d0: 4df2 8dbe 729d 4d3d 80f4 9abe 9f23 e0bd
000002e0: 181d 8bbe e395 3b3e 968d cebe 5022 c9bd
000002f0: 6ea5 f4be 1105 32be aecf 0dbf 324f 06be
00000300: 81e2 6ebe 24a9 523d 32d3 bdbd ae02 dfbd
00000310: ec64 3fbe b496 033e 08b3 b23d a2bd 0dbe
00000320: e35c ea3e 00ff 24bd 2e3c bdbd 1299 3a3e
00000330: fed0 15bd 1c50 9f3c 3559 0ebe 8f30 e23d
00000340: 6f1b afbe 50b9 653e f83b c3bd be6c 803d
00000350: b802 4f3e 1fed ec3d 61a3 9f3e e355 38be
00000360: 33c6 4c3e 0d88 55bb 3b17 dfbd 673d 09be
00000370: 313a 63be 2cd8 2e3e d325 bbbd 67d7 bbbd
00000380: 8a35 363e 379e 113e fb11 4f3e ecbb 0f3d
00000390: 8c62 73bd 31e0 073e 7452 793e 77aa 36be
000003a0: 902b 0fbd 8026 083e 1bda 0d3d ba60 ae3d
000003b0: 81c5 54be 3bee 0ebe d220 293e c35e e63d
000003c0: 68ce 24bd 7b1d 55bd b38e 7dbc 86cd df3d
000003d0: 5c48 9e3d 96b4 273d de68 a63d 8250 eebd
000003e0: c045 583e 5738 ad3d 5f9f 9bbe f736 a8be
000003f0: 8f67 703e 68a9 663e 4e6a 6dbe 01dc 3a3e
-0.059844606 0.0012531681 -0.018402401 0.14945869 0.019755669 -0.1336781 -0.2553332 0.14703345
0.046534974 -0.026128545 0.03568348 -0.11435102 0.06891717 -0.17373995 -0.33158818 -0.101992786
-0.07298714 0.19503587 0.14152971 0.16485003 -0.18057647 -0.11854557 -0.084287405 -0.03570534
0.001738757 -0.124746695 -0.21207666 0.05286445 -0.14381176 0.088901706 -0.14447226 -0.07182939
0.1513252 -0.06303467 0.31282118 0.086136624 0.24877834 0.19570482 -0.07792555 0.1967609
0.12951975 -0.10164148 -0.13865691 0.16222657 0.07710828 -0.23167886 0.08663452 -0.25673777
-0.19977097 -0.03932896 0.07676004 -0.07472831 -0.095113136 0.14745823 -0.13792759 0.1196957
-0.20619318 0.07030443 -0.15147816 0.24398525 0.16946922 -0.044516046 0.08028361 -0.032176927
0.17534208 -0.16654739 0.07309756 0.24737687 0.012006764 -0.035832934 -0.094904736 -0.19695325
-0.37620112 0.11967567 -0.037694167 0.22856472 0.09225945 -0.12604702 -0.2264351 0.0049129026
0.06427513 -0.042135682 0.19367303 -0.11305217 -0.041842498 -0.13217565 0.08837645 0.12150836
-0.24740812 -0.16536105 0.17067134 0.12018223 -0.052667666 0.000111315676 -0.0635546 -0.23902182
0.0790278 0.15227969 -0.11524819 -0.05758814 -0.16973686 -0.2431745 0.20410894 0.07072136
-0.2316107 -0.21093364 0.3727446 0.22256377 0.054051794 -0.2580403 0.13074026 0.10587121
-0.14594094 0.019308759 0.15462689 0.22016379 0.09567828 0.078654096 0.16945298 0.21176498
-0.21699563 -0.07307389 -0.2500775 0.086395286 0.2310306 0.07705064 -0.08108209 0.095055394
0.12266089 0.1719339 0.061761316 -0.14629443 -0.008546925 0.074871704 -0.14846829 0.18349183
0.23735586 -0.16101073 -0.17758156 -0.049985353 -0.08096046 0.12174887 -0.071040995 -0.11066194
0.2406895 0.11845056 -0.5133289 0.3303524 -0.1871752 -0.09859526 0.046563167 -0.23372611
-0.18761285 0.054471374 0.39818117 -0.29859304 -0.19612606 -0.026526075 -0.4439848 -0.051265895
0.05187288 0.16801146 0.09209066 0.16217355 -0.18395157 -0.018220797 -0.13968469 0.16392222
0.12115457 -0.14118308 -0.2760571 -0.012069137 -0.013975797 -0.0051251 -0.15010205 0.18970153
-0.09901464 -0.1689122 0.23876116 -0.08803681 -0.27723923 0.05019898 -0.30264664 -0.10944294
-0.27170634 0.18318896 -0.40342396 -0.09820998 -0.47782463 -0.17384745 -0.5539502 -0.13116148
-0.23328592 0.051430836 -0.09268798 -0.10889183 -0.18690842 0.12850457 0.08725554 -0.1384187
0.45773992 -0.04028225 -0.09239994 0.18222454 -0.036576264 0.019447379 -0.13901217 0.11044418
-0.34200618 0.22433972 -0.095329225 0.06270741 0.20215881 0.11568665 0.31179336 -0.18001513
0.19997482 -0.0032582313 -0.10893103 -0.1340233 -0.22190167 0.1707465 -0.09138074 -0.09171944
0.17793861 0.1422051 0.20221703 0.035091326 -0.059420153 0.13269116 0.2434786 -0.17838465
-0.034953654 0.13295937 0.03463183 0.08514543 -0.20778467 -0.13958065 0.16516426 0.11248543
-0.040235907 -0.052030068 -0.015475917 0.10927872 0.07728645 0.040943705 0.081254706 -0.116364494
0.21120358 0.084580116 -0.30395028 -0.32854435 0.23477004 0.22525561 -0.23185083 0.18247987

layer2.0.bias f4 [256]
00000000: fc52 81be c18e c9be f488 063f 037f f63e
00000010: d197 d23e 1cfd 04bf 71d0 f9be 25e8 143f
00000020: d2b3 f33e e5ed b43d 0099 55be ca6f 47be
00000030: 6ea9 cbbe 3e60 423f 2c6c 1f3f 534d fdbc
00000040: 4ab3 c7be cac1 823e 33d3 5a3e f5b5 d83c
00000050: 0134 4fbe ffc2 703e d890 27be f9e5 25be
00000060: 732a 11bf b25a 71be ebde ecbd 483e b13e
00000070: 293b 06bf 8708 183d c151 00be 7a1d 98be
00000080: d290 0cbd 1319 e33e 9937 863e 5f70 febd
00000090: 81e5 cd3c 7532 ccbd 83b3 81be c086 3c3f
000000a0: 9aa0 ddbe d23d 2a3f 60ba 79be 1dcd 9dbe
000000b0: 5e19 a7be a94c 2ebf da43 a43e 56ae 1dbf
000000c0: ba83 bdbd 9944 fb3c 26f5 8fbe 3a52 4ebe
000000d0: d27a 18be acee 3d3f 0f65 c13e d8dd adbe
000000e0: c40b efbe 201f 663e cea8 06be 41de c6be
000000f0: 94bf ed3e 3299 1bbe 3eed 063e 43ff e6be
00000100: 689a 043e d17d ae3e 35f5 91bd 7242 483e
00000110: fbab afbd 7238 a63e 50eb 7abe 278e cf3e
00000120: 2355 8f3d 9cef 7abe 6fc3 84bc 434f 0b3f
00000130: 5ce0 d5be cf2b 913d 18ed dabe 38f6 f5bd
00000140: 2c13 963e 6503 8d3e 5b38 4fbe dc8a 8a3e
00000150: 81b6 88be 01ba 6bbe 474f c33e 1d73 75be
00000160: 07aa d6be 7531 b5be 27dc 883e 0f1a 67be
00000170: 6515 b13e e352 c7bd f6c2 3d3b 0faf b13e
00000180: 993b 3d3f 7e2c 1c3e f258 9f3e c49c a53e
00000190: 3480 0ebf 0318 f2bd 21a1 b73d a449 c6bd
000001a0: b9f6 dc3e 3ee6 a53e e4cf 0dbf 75dc c63e
000001b0: f486 dbbe 8fe0 313e 3904 56be a9eb aebd
000001c0: 06da 8dbe ae1e 20be 1071 14bf 6dcd ed3d
000001d0: 4d08 54be 7d0e 023f 7448 eb3e aaca 82be
000001e0: 774c f1be cc8d 173e 9a60 97be 19ea c7be
000001f0: a5b8 1abf d2e0 c5be 1545 503e 1579 adbe
00000200: f7f9 3fbd db65 313e 5a68 bc3e 95a6 8fbe
00000210: ff7b b0be e3b5 603e 0f19 65be ed40 40be
00000220: b927 afbe b884 16bf 09c1 17bf c636 0b3e
00000230: ae1d 413a 0bc4 ba3d ec9a 0abf e00a cebd
00000240: 45d9 35bf 7ce0 94be b5ac 0b3e 4eb3 ab3e
00000250: e11b 38be 7502 91be 2ff7 37be d1d5 ea3d
00000260: d9b6 a1be ad2e 85be be38 193f 7fb5 74be
00000270: bd26 c2bd 2b10 cebc 67a2 c9be 1dc9 b0be
00000280: 6994 31be f39b 063f 31eb 9a3e 946b eb3e
00000290: 0aa1 4dbe bc36 013f 9bbc f13d 1f2c 283f
000002a0: 2391 383f 192c 413b 1105 b1bd 70ec 7d3e
000002b0: e148 363d fb87 943d 06f5 eebe 9861 0f3f
000002c0: dd79 cd3e 1366 f3be e49b d23e 020f 40be
000002d0: e279 a9be cfe6 a5be d8a5 7fbd fcbf f2bd
000002e0: 063a ddbd 078a 69be 7b52 05be c183 8b3e
000002f0: 7289 06bf b3e3 5fbd 914c 883e aadd 08bd
00000300: 3351 d83e e15c 843e d9eb 0c3f b5be b73e
00000310: 0488 f0be e47c a4be bba6 0cbe 9f7e 13bf
00000320: 403c 053f cd7b c3be 7543 b0bd f527 b8bd
00000330: b928 a4be 569e 893e 3d72 4ebe c5fc fb3e
00000340: fb12 c93e c95b 26be 58f0 f73e 21ad 363c
00000350: 6209 80bd 7681 793c 5deb 153f e045 9e3e
00000360: db39 c4be f938 343f 52a8 833d 9f7b 083e
00000370: f13d 79be bd1a 15bf a660 313d 3449 d03e
00000380: 3e10 913e e7bb 003f 204d 023f 7f9d b23c
00000390: dd29 f23d 7799 923e 1e24 fbbe 5031 863e
000003a0: 748a d03e 9e00 e53e 5e64 d43e d682 76be
000003b0: 335f 5bbe 4838 793d 7d65 7abd ebc2 e13e
000003c0: 5f00 333e d52b 93be 4fde 9cbb 5a9d 61bd
000003d0: 02b8 9cbe 20d0 913d 1ad6 333f 64f5 6fbe
000003e0: add2 d3be 68c9 4f3e 107e 7e3d c117 dfbe
000003f0: ebdd 13bf 171b 8e3e c002 7bbe 917e 813d
-0.25258625 -0.39366725 0.52552724 0.48143777 0.41131452 -0.51948714 -0.4879184 0.58166724
0.4759813 0.08834437 -0.20859146 -0.19476238 -0.39777702 0.75928104 0.6227443 -0.03092066
-0.39003974 0.25538474 0.21369629 0.026453951 -0.20234682 0.23511885 -0.16363847 -0.16201009
-0.567054 -0.23569754 -0.11565956 0.3461783 -0.5243402 0.037117507 -0.12531187 -0.2970999
-0.0343178 0.44355068 0.26214293 -0.12423777 0.02513385 -0.099705614 -0.2533227 0.7364311
-0.43286592 0.6650058 -0.24387503 -0.30820552 -0.3263654 -0.68085724 0.32083017 -0.6159414
-0.092536405 0.030672358 -0.2811672 -0.20148554 -0.14890602 0.7419231 0.37772414 -0.33958316
-0.46688664 0.22472811 -0.13150331 -0.3884144 0.46435225 -0.15195158 0.13176438 -0.45116624
0.12949526 0.34080365 -0.07126848 0.19556597 -0.085777245 0.3246494 -0.24503827 0.4053814
0.069986604 -0.24505466 -0.016206471 0.5441782 -0.41772735 0.07088434 -0.42759013 -0.12009853
0.29311502 0.27541652 -0.20236342 0.27059066 -0.2670174 -0.23020174 0.3814642 -0.23969693
-0.41926596 -0.35389295 0.26730463 -0.22568534 0.34586635 -0.09732606 0.0028955317 0.34703872
0.73919064 0.15251347 0.31122547 0.32346165 -0.5566437 -0.11820986 0.0896628 -0.096820146
0.43156984 0.32402223 -0.5539534 0.3884007 -0.428764 0.17370819 -0.20900048 -0.08541042
-0.277054 -0.15636703 -0.5798502 0.116114475 -0.20706291 0.5080336 0.45953715 -0.25545245
-0.4712865 0.14800185 -0.2956589 -0.3904579 -0.60437995 -0.38648087 0.20338853 -0.3388144
-0.046869244 0.17324011 0.36798364 -0.2805678 -0.34469602 0.21944384 -0.2237284 -0.18774767
-0.34209993 -0.5879626 -0.59278923 0.13595113 0.00073667883 0.091194235 -0.5414264 -0.10060668
-0.7103465 -0.29077518 0.13640101 0.33535236 -0.17979385 -0.28322187 -0.17965387 0.114665635
-0.31584814 -0.26012173 0.59852207 -0.2389736 -0.09480045 -0.025154194 -0.39381716 -0.34528437
-0.1734177 0.5258171 0.30257562 0.45980513 -0.20080963 0.50474143 0.11803552 0.65692323
0.7209646 0.0029475747 -0.086435445 0.24797225 0.044503096 0.07252499 -0.46671313 0.5600829
0.40132037 -0.47538814 0.4113456 -0.18755725 -0.33100802 -0.32402655 -0.06241402 -0.11853024
-0.10802083 -0.2280656 -0.13019745 0.27248958 -0.52553475 -0.05466051 0.26620916 -0.03341452
0.4224945 0.2585211 0.55047375 0.35887685 -0.46978772 -0.32126534 -0.13735478 -0.57615083
0.5204506 -0.3818039 -0.086066164 -0.08991996 -0.3206232 0.26878613 -0.20160766 0.49216285
0.39272293 -0.16245951 0.48425555 0.011149676 -0.0625179 0.01522862 0.5856226 0.30912685
-0.3832539 0.70399433 0.06428589 0.13328408 -0.24340035 -0.58243924 0.04330506 0.4068085
0.28332704 0.50286716 0.50898933 0.021803616 0.11824391 0.2863271 -0.49050993 0.26209497
0.4073063 0.44727033 0.41482824 -0.24073347 -0.21423034 0.06084469 -0.061131943 0.44094023
0.1748061 -0.2874438 -0.0047872434 -0.055081703 -0.30609137 0.07119775 0.7024857 -0.23433453
-0.4137167 0.20291674 0.06213194 -0.4357281 -0.57760495 0.27755043 -0.24512768 0.06322969

layer2.2.weight f4 [256, 256]
00000000: 6af0 cb3b 51cc 543d 81f3 ca3c fa9b 353d
00000010: 44f6 97bd 6e31 8fba 9636 9cbd cb50 723d
00000020: e17f 42bc bceb 91bc ff29 b6bc e29e 80bd
00000030: bb7e 1f3d 0378 7cbd f68c dabc c664 3b3d
00000040: c23e 10bd 3b57 953c 2d53 513c 495c 95bd
00000050: f971 9f3b d258 9bbd 1f22 423d b722 acbb
00000060: 69f7 c9bd 6e61 253c 5268 c63c 762c 243d
00000070: e623 023d 2cd3 04bc 75dd d53c 8d77 e73c
00000080: 26fe 273d ae44 86bd 1731 93bc 1f60 2e3d
00000090: eec6 1abd d1e5 1a3b 08e3 7aba 875a a3bc
000000a0: 9629 cfbc c2d4 393d b30d 8ebc 67cb 02bc
000000b0: 32ed e63c c29e 6d3d 2758 5bbd 7d9a 72bd
000000c0: 03b4 85bd df4e 2cbc d4f4 17bd 3b02 a4bd
000000d0: 7778 8d3d 44ab 1ebd 54ce 5d3d c45f 683d
000000e0: 3d5b 1c3d d8dd 0dbd ccf2 38bc 84bf 17bc
000000f0: a53d ae3c a7d2 6dbd d17c 7ebc 01a4 c63b
00000100: 78a1 863c 0535 47bc 5e9e 1d3c f528 843d
00000110: 6d2c 36bd 2379 7b3d 77ba 1b3d d668 3cbc
00000120: c1d9 c33c a385 1bbd b925 8abd 40e2 2dbd
00000130: d70e 2abb a243 48bd 8422 05be bea5 e03c
00000140: 0365 3c3d e9c0 273c d09e 94bd d2a4 8a3c
00000150: f7e3 15bd c122 393d fae3 a43c 2cde 02bd
00000160: 8395 34bd 3e14 943b 3308 98bd 300b 51bc
00000170: 2ce4 b5bd a0d1 e2bc ca4b 55bc 3dba b23b
00000180: 706b b7bc 7ac2 8fbd 84e5 243c dc76 d1bc
00000190: b0c1 41bd 334e c8bc 1a1d 5f3d 6277 a43c
000001a0: 07ba c4bc b868 cbbd 06ad d2bc ac5a 093d
000001b0: 32ac aabb fef1 2cbd 33ee aa3c 71c8 373c
000001c0: b3d2 82bc 15c3 e8bb a119 4fbd 0629 cbbb
000001d0: 2e2e 5dbd fb64 f7bc c2e2 43bb c3cf 6b3d
000001e0: bbe5 ed3a 37a2 81bd c489 03bd 912c a0bd
000001f0: 71f4 f13c 1418 27bd d45c 6abd cef6 6ebd
00000200: 9505 b4bc 120e b93c 74a9 3a3d 644f 453c
00000210: fc3d 32bc a0a6 5cbd 67cd 1d3d 8b88 643c
00000220: 4665 353d 633b 0cbd 1184 9c3c 29be 59bc
00000230: 404a 8c3c 12f4 96bd 5e10 d13c b46c 6bbd
00000240: 8321 5bbd 370a dfbd aabf a4bc a28b 4abd
00000250: 5b71 e93c 2ecf 8ebc 3439 823d 8168 8abd
00000260: dfab 203d 2a44 a83a f620 bebc 099f 443d
00000270: fc31 0ebd 1b7d c6bc bdd3 613b 1de4 89bd
00000280: fe96 c2bd ef54 0dbd 3f0f 08bd ac29 03bd
00000290: 5e5f 3b3c 8710 b6bc ef9e a33b c897 cb3c
000002a0: 9abd 4bbd fa52 803d 9b97 b6bc 0098 52bd
000002b0: 7f18 a4bd 9df7 b83c a1c8 28bd 965b 153b
000002c0: 9fe9 7f3b 98a4 133d 2ac9 81bb 9eb7 76bd
000002d0: c36f 513c f367 3ebd 69b3 f9bc d12f 8ebd
000002e0: 7ab7 a33c 13d8 893d c38f 8b3d 0e3f 59bb
000002f0: eed1 6e3b 6913 c83c 5361 f83c e5d9 95bd
00000300: 6b45 3b3d c5da 0e3d 1ada dfbc 198b 92bd
00000310: 6197 f43a 7174 66bc cd3b e43b 4f45 19bd
00000320: 61da bd3b ebdd 13bd 2b31 dbbc 733c a1bd
00000330: 8ecb 96bd 9fbb 5ebd 411e 67bd d6d6 babd
00000340: a6e4 01bd 3ff8 d73c 032d 9dbc cb34 49bd
00000350: a65b 85bd 17d7 623d 3b01 553d a40a 85bd
00000360: 2d70 dcbc 5427 eebc d57b 6cbb 26d8 283d
00000370: a75b 02bd eac4 973b 8474 473c e584 6fbd
00000380: a785 6bbd 3124 65bd d9dc 33bd 53a5 12bd
00000390: eb80 423d bbff 8dbd 26f0 afbd 6790 2a3c
000003a0: 2425 f43a 64ab 3cbd 43ae 74bc a093 f3bc
000003b0: ccc0 0e3c e02b a8bd 6cda 50bd 521f 60bb
000003c0: 4e9a 293c a90a d6bb e1ee 3c3d 7109 f5bd
000003d0: 7926 07bd 1751 07bd 3287 9dbd f227 92bd
000003e0: 5964 c6bc 6293 04bd 4993 ed3c 8ad1 7e3c
000003f0: 5cfa 753d dfdd 313d 7a71 8a3c 7725 a6bd
0.006223728 0.051952664 0.024774315 0.044338204 -0.07420018 -0.0010924765 -0.07627599 0.05915908
-0.011871309 -0.017812602 -0.022236822 -0.062803045 0.03893922 -0.06163789 -0.026678544 0.045750402
-0.0352161 0.018230071 0.012776178 -0.072929926 0.0048658815 -0.075853005 0.04739582 -0.005253162
-0.09861643 0.01009403 0.024219666 0.040081464 0.031772517 -0.008106988 0.026106576 0.028255248
0.04101386 -0.06556068 -0.017967744 0.042572137 -0.03778737 0.0023635516 -0.00095705735 -0.019940628
-0.025288384 0.045368917 -0.017340517 -0.007983065 0.028189275 0.05801273 -0.053550866 -0.059229363
-0.06528475 -0.010516851 -0.03709872 -0.08008238 0.069077425 -0.03873755 0.054151848 0.056731954
0.03817295 -0.034635395 -0.011288356 -0.0092619695 0.021269629 -0.05806222 -0.015532688 0.0060620313
0.016434416 -0.012158637 0.009620277 0.064531244 -0.04447596 0.06139482 0.038019624 -0.011499604
0.023907544 -0.037969243 -0.06745476 -0.042452097 -0.0025948787 -0.048892625 -0.13001448 0.027422782
0.04599477 0.010238864 -0.072568536 0.016924296 -0.036594357 0.04519916 0.020128239 -0.03195016
-0.044087898 0.0045190146 -0.07423439 -0.012759015 -0.08881411 -0.027687848 -0.013018558 0.0054543302
-0.022390097 -0.07019515 0.010064486 -0.025569372 -0.047303855 -0.02445135 0.054471113 0.020076457
-0.024014486 -0.09932083 -0.02571727 0.033533737 -0.0052085156 -0.04222297 0.020865535 0.011217223
-0.01596961 -0.0071033337 -0.05056155 -0.0061999587 -0.05399912 -0.030199518 -0.0029889797 0.057571184
0.001815013 -0.06329768 -0.032113805 -0.07821 0.029535504 -0.040794447 -0.057217434 -0.05834084
-0.021975318 0.022589717 0.04557176 0.012042854 -0.010879036 -0.053869843 0.038525965 0.01394857
0.044286035 -0.034236323 0.019105943 -0.013289967 0.017125249 -0.073707715 0.0255205 -0.057476714
-0.053498756 -0.1089062 -0.020110924 -0.04944957 0.028496435 -0.017432775 0.06358567 -0.06758214
0.03922641 0.0012837697 -0.023209076 0.04800323 -0.034715638 -0.024229577 0.0034458481 -0.06732962
-0.09501456 -0.034504827 -0.033217665 -0.032022163 0.0114363115 -0.022224678 0.0049933116 0.024852648
-0.049741365 0.062658265 -0.022289088 -0.05141449 -0.08012485 0.022579009 -0.04120696 0.0022790185
0.003904916 0.03604564 -0.003960748 -0.060233705 0.012782994 -0.046485852 -0.030481057 -0.06942714
0.01998495 0.06730666 0.0681453 -0.0033149156 0.0036441046 0.024423318 0.030319845 -0.07316951
0.0457205 0.034876604 -0.027325679 -0.07155437 0.0018660837 -0.014065848 0.0069651366 -0.037419613
0.005793855 -0.03610031 -0.026756844 -0.07872858 -0.07363044 -0.05437815 -0.056425337 -0.09123008
-0.031712197 0.02636349 -0.019186502 -0.049122613 -0.06511621 0.055380907 0.052003127 -0.0649617
-0.026908958 -0.029071487 -0.0036084552 0.04122176 -0.031825688 0.0046316283 0.012173776 -0.058476347
-0.057500508 -0.055942718 -0.04391179 -0.035802197 0.047486227 -0.06933542 -0.085907266 0.010410405
0.0018626791 -0.04606189 -0.014934125 -0.029733479 0.008712959 -0.082114935 -0.050989553 -0.0034198356
0.0103517305 -0.0065320325 0.04612625 -0.119646914 -0.032995675 -0.033036318 -0.07691802 -0.07136525
-0.024217771 -0.032367118 0.029000895 0.015552888 0.060053214 0.043424483 0.016899813 -0.081126146

layer2.2.bias f4 [256]
00000000: 092d 16be 5c5d 923e 853c c8bd fc45 113f
00000010: bdf0 63bd b84a b03d d338 26be 772f 21bd
00000020: 3094 1b3c f46d e73e fc85 e93e f0b8 06be
00000030: d5ce bb3e ea2a 9abd d928 f2bc 3e58 5bbe
00000040: 8541 133f cb9c 9dbd 6a50 88be cbb3 e33d
00000050: 7d94 b53b 75ca 293e 244c 6b3e b351 ee3e
00000060: 1260 cf3e b4af 0d3d f406 9c3e c600 133f
00000070: 463c dfbd 311b c73e 3eb5 f43e 8baf ee3e
00000080: 3202 99bd d5cd c1bb ed0d 6abe b0f8 0fbe
00000090: 1d13 4dbd 8275 9d3e d5b6 563f 0ded 043c
000000a0: cc2c d6bd afed 68bd fbdf 78bd 9f14 b83b
000000b0: ccba 503f 3837 febd 9138 d93e 5de7 e53e
000000c0: 5ec5 0f3f d52c f3bd 828e b13e c50d 143f
000000d0: 2a52 cfbd 2d49 4cbe e7d0 ce3e b993 3a3f
000000e0: 17e1 a9bd 29eb ed3e 2f13 87bd 166d 1c3f
000000f0: ea39 5dbe 2199 b6bd ec19 503f b5f7 973d
00000100: e141 a63e dfb5 b9be 0dbe b23d a3ef e53e
00000110: 0890 c5be e60e 5fbd 1fab 9abd 2aa2 9abc
00000120: 4c56 433e 0113 b13c 07aa 7bbd 8402 23be
00000130: 2780 d23e aa68 0bbd ebb3 76be 67af 6ebe
00000140: 3aa4 3abc d402 34be 5ad5 8e3c f7af 5dbe
00000150: e20b 7c3e 107d b0ba a690 6fbd 3446 d63e
00000160: 9a75 92be 9ed2 bcbd b50d 79bc e7e1 dabd
00000170: c9bb 18bd 6db8 f73b 0225 903e 1066 b03e
00000180: 4489 11be c2d7 e63c bed5 ff3e ce24 fd3c
00000190: 7516 a43e d630 9a3c 4944 e73e 72d7 0b3d
000001a0: a3bd 12be 0f6b fbbc f5fa 3fbe 0771 bfbc
000001b0: 9d85 2c3d 8e31 bdbd 8432 133c bdcb 843e
000001c0: e582 c1bc 92a7 c33e fb5e 9ebd 416d ebbd
000001d0: c14a 33be a074 b9bd 0221 ef3d a833 e23e
000001e0: ebbb 94bd 42da a8bd d4e1 ee3e c509 a8bd
000001f0: 24da 123f 5632 f23e 64f4 443c e8fd 003f
00000200: 8ebb 903c 087a f83e 2334 623e 9d67 91bd
00000210: 4ba9 1ebd 24fb 0e3f 6523 133f 7823 c33d
00000220: 0049 4abe ff07 73be 2a86 5fbe e033 133d
00000230: 14d4 b8bd dbcb dfbd c39c df3e 7ce5 233e
00000240: 9144 bbbe 603b 04be 4fc5 733d 2ad7 6cbd
00000250: e6fe 923e d448 893e 550f dfbd e891 303d
00000260: bb2f fa3e c64a 3c3a a402 35be 96d7 753e
00000270: 04a7 f43e 5c75 e5bd f573 163f 5ad1 6abd
00000280: a085 85bd 3272 b03e bbc0 53bd 2c9d a23e
00000290: b467 cabd c1d9 97bd 4ce0 50bb 4358 343e
000002a0: b18f 083f 8c99 d83d 60c6 bd3e 46c6 6a3e
000002b0: ee3c b43e 9b19 85bc e3f8 c73e a1e1 ce3e
000002c0: e936 273d cff4 013f 00aa 8cbd 40d7 5bbe
000002d0: b669 b93e 09b5 d0bd f662 7ebe d940 c43e
000002e0: f9fc 9c3e 54b9 383d bf1f 14be 3271 a43e
000002f0: 3a70 5ebe 74fb d73e 4d3b 50bd 061a 863e
00000300: 6e7c 13bd 72d0 e33e 3a3a 363c f1c0 efbd
00000310: 17c1 08be 1e5e 063f 894e 9c3e 1a93 b8bd
00000320: 310b 50bd bcef 0dbe bc2d 433e 4cb7 f5bd
00000330: 6045 113f 3af6 2f3d 3538 183f c8ff 0aba
00000340: ecc7 c4bc e64c 5c3f 5a3e 03be ffe8 0a3f
00000350: da57 2dbe 21f5 12be db08 b1bc 36a0 ed3c
00000360: 4b1a 9fbd 48fc bdbd dd53 053f 3513 703e
00000370: f2ef 013c 4acb b9bd abad 503f 0e4a 87bd
00000380: f091 b8bc bf3e 5b3b f1da fc3d 590b 923d
00000390: f3f2 453c 5ee2 31bd f411 ffbd 587d 91bd
000003a0: 7904 153f 3278 08be 6db3 ea3e f609 f03b
000003b0: 0cbf 37be f2be ec3e 26e4 0ebd 5fcd d5bc
000003c0: 9205 013f ef42 0fbe df51 4b3e 8aad 33be
000003d0: 5422 c7bc 0e9c c63e 2667 bc3d 79ca f53d
000003e0: d638 cdbd 830b 43bd 9787 0e3d 4549 1abe
000003f0: 6a88 073f 939a ab3e 6f59 0c3d ac78 633e
-0.14665617 0.28586853 -0.09777168 0.5674741 -0.055649508 0.086080015 -0.16232614 -0.039351907
0.00949578 0.45201075 0.45610034 -0.13156486 0.36681238 -0.075277165 -0.029560493 -0.2142038
0.5752185 -0.076959215 -0.2662385 0.11118277 0.005541383 0.16581137 0.22978264 0.46546707
0.40502983 0.03459139 0.30474055 0.57423055 -0.10900168 0.38887933 0.47794527 0.46618304
-0.07471122 -0.0059144297 -0.22856875 -0.1405971 -0.050067056 0.30753714 0.8387273 0.008113158
-0.10457763 -0.056867298 -0.06076048 0.0056176926 0.8153503 -0.12412876 0.4242597 0.4490308
0.56160533 -0.118737854 0.34679037 0.5783351 -0.101230934 -0.1994979 0.40393755 0.72881657
-0.082948856 0.46468475 -0.06595456 0.6110395 -0.21604124 -0.08915926 0.81289554 0.07420293
0.32472137 -0.3627157 0.087276556 0.4490939 -0.3858645 -0.054457568 -0.0755217 -0.018876154
0.19075888 0.021615507 -0.061441448 -0.15918928 0.41113397 -0.034035362 -0.24092071 -0.23309098
-0.011391694 -0.17579204 0.017435718 -0.21649157 0.24613908 -0.0013465006 -0.058487557 0.41850436
-0.28605348 -0.092198595 -0.015201022 -0.10687619 -0.03728846 0.007559827 0.28153235 0.34452868
-0.14212519 0.028179053 0.4996776 0.030901339 0.32048383 0.018822115 0.45169285 0.03414101
-0.14330153 -0.030690698 -0.18748076 -0.023369325 0.04211961 -0.092379674 0.008984212 0.2593669
-0.023621986 0.38213784 -0.0773296 -0.11495448 -0.17508985 -0.090554476 0.116762176 0.44180036
-0.07262405 -0.082447544 0.46656668 -0.082049884 0.57364106 0.47304028 0.012021158 0.5038743
0.017667558 0.48530602 0.22090201 -0.07099841 -0.03873567 0.5585196 0.5747588 0.095282495
-0.1975441 -0.23733519 -0.21828523 0.035938144 -0.09024826 -0.10927554 0.43674287 0.1600551
-0.3657575 -0.12913275 0.05951434 -0.057822384 0.28710097 0.26813376 -0.10891596 0.043107897
0.4886454 0.0007182773 -0.17676789 0.24008021 0.47783673 -0.11204025 0.58770686 -0.05732856
-0.065196276 0.34462124 -0.051697474 0.31760538 -0.09883061 -0.0741458 -0.0031871973 0.17611794
0.53344256 0.10576162 0.3706541 0.22927198 0.35202736 -0.016247561 0.39057073 0.40406516
0.04082385 0.50764173 -0.068683624 -0.2146883 0.36213464 -0.1019078 -0.24842438 0.38330725
0.30661753 0.045098618 -0.14465235 0.3211761 -0.21722499 0.4218403 -0.050837804 0.2619173
-0.036007337 0.4449497 0.011122281 -0.117067225 -0.13354908 0.5248736 0.30528668 -0.090124324
-0.050791923 -0.13860983 0.19060415 -0.11997852 0.5674648 0.04295943 0.59460765 -0.00053023966
-0.024021111 0.8605484 -0.12816754 0.54261774 -0.16928044 -0.14351322 -0.021610668 0.029007059
-0.07768687 -0.092766345 0.5208109 0.23444827 0.007930743 -0.090719774 0.81514996 -0.06605922
-0.022530526 0.0033454148 0.12346447 0.07131071 0.012081849 -0.04342877 -0.12454596 -0.071039855
0.5820995 -0.13327101 0.45840016 0.007325406 -0.17943972 0.4623943 -0.034885548 -0.026098905
0.50399125 -0.13990377 0.1985545 -0.17546669 -0.024308361 0.38790935 0.091993615 0.12001509
-0.10020606 -0.0476184 0.034797277 -0.15067013 0.52942526 0.33516368 0.034264978 0.22214001

layer2.4.weight f4 [1, 256]
00000000: 12b1 663a 7d6f fa3e 647c cab9 14e7 963e
00000010: 2ea1 41bd 905d bf3b bef5 03bd f411 06bc
00000020: a834 9db9 c73e b03e abf1 923e 3daf 87bd
00000030: 96ae d23e cb41 cf3a 9f43 16bd 9947 58ba
00000040: 594f 1e3e 9c86 4cbb 0749 0f3a cd61 163e
00000050: 45a6 203d 81ed a43e f133 a63e 931e 9d3e
00000060: 6887 b23e ee4b 363c fc9d cb3e 5e34 4a3e
00000070: 0af3 28bb 0b19 ad3e f073 753e 0265 6e3e
00000080: cc11 0dbd cb92 203d 7a32 c7b9 0378 1cbd
00000090: 35b4 673a 9ef8 d83e 9081 7f3e d4fc 16bd
000000a0: 2c44 57bb 1ee3 22bc 903a 77b9 e825 0cbd
000000b0: a43b 533e d36a ecbb 34d9 b53e 0c6e 793e
000000c0: bf66 213e 19c2 0a3b e527 f33e 61b7 3e3e
000000d0: abcd f03a 5960 de3d 07da 833e c350 2b3e
000000e0: 4de5 8cbc db4f 673e 1020 cd3c 76ba 463e
000000f0: 78c8 0fbd 8085 34bd 7d88 d73d 0f87 9c3e
00000100: 21a2 7e3e b427 a2bd c959 b43e 9682 cc3e
00000110: 8f42 24be 587f 17bb 5a8e ea3b bded ddbc
00000120: 70b5 813e 7d8c 91bb 3805 f6bc ea97 22bc
00000130: 13b0 af3e 2196 8dbd 4338 39bb a643 363b
00000140: 6621 233d 1e63 4fbd c9a6 5d3c 4f72 983a
00000150: 6256 d83e 5bcd b5bb 2e74 fcbb e1a1 963e
00000160: f141 bcbc 435f 5cbc 8282 033b 6d0e ceb9
00000170: e749 0a3d 2d03 953b 19d5 c43e e760 c93e
00000180: d8e8 f93a 536f a53a b94d 853e 11a2 163d
00000190: 750f d83e 788c 913a aad1 713e e462 0bbd
000001a0: 8086 d6bd b5e3 a8ba b58a 56bc 2184 2bbd
000001b0: 27a3 a73e 25bb 2ebd 5a3f a83e b42b c63e
000001c0: 9218 7139 ccf6 6c3e e992 6bba c58f 6cbb
000001d0: dd09 1e3b 9c6b fbb8 e616 733c 408c 893e
000001e0: 048b 14bc 4246 27bd 90a3 b23e bf92 17bb
000001f0: e940 793e 0d26 903e e495 adbc 1dd1 983e
00000200: e83e c2bc 17a4 8a3e d068 b03e d100 383a
00000210: 4e39 84ba 8c64 453e a9d5 853e 1474 10bb
00000220: 38b6 17bd ac19 06bb 2bd3 3ebc 493b 133b
00000230: 76f5 313b a8b4 81bc 9794 4a3e f51a 9a3e
00000240: 1302 51b8 425d b63a 5695 553d 26c5 1cbd
00000250: ae0f ce3e a54e 0f3e 9842 57bc 0cc7 473a
00000260: 6e05 bc3e 9fce 093c 7cb0 66bb 8ca1 143e
00000270: eff0 593e 4f81 2dbc 7716 bd3e a6ab 3c3b
00000280: 6780 dbbc 1378 963e be15 a4bb a43c ab3e
00000290: 6299 ac3e 4c6e a5bc 6078 2dbd b2e5 c13e
000002a0: 5eee 0f3e 7bd8 c23e 5739 d03e 33ac c03e
000002b0: 5cd7 7c3e cad1 97ba 2baf c33e fc3d 993e
000002c0: 22ab 93bb a76f 6f3e 1291 9f3a 1ba9 4abc
000002d0: 7835 1f3e 71b5 223b cb9e 21bc cbc1 e63e
000002e0: 7456 ba3e a69e 3c3d 75e1 cf3a c2ff 6d3e
000002f0: 5ed9 533a 3296 5b3e 824c 173d 581d a13e
00000300: 0331 1fbd d8eb b53e 4af4 ae3e 7d27 79bd
00000310: 59e4 38bd 33f8 8d3e b628 e23e 703b 3b3b
00000320: 3ed7 abbc 4b06 04bc f091 933e 3855 a33a
00000330: 9045 883e 0fc9 63bd bd37 313e d000 30bd
00000340: 1cac 89bc 0047 383e cbf0 23bb 544f 8e3e
00000350: 0db2 59ba de94 8cbc 329e 8dbd 3cc9 67bc
00000360: 69d7 0fbd 4e32 1cbc 42a5 a13e d4a8 883e
00000370: b3c3 8b3c ae5b 473a 7d76 283e b0bc 913c
00000380: de60 f9ba 1334 c2bb 4a85 9b3e 7de9 a33c
00000390: c250 f7bc 0431 2fbc 12e6 183a d894 b4ba
000003a0: 2b77 1c3e e8fa 403b 7f56 9e3e 9a26 92bc
000003b0: 8397 c7bc 0db2 a03e 4413 ee39 bd6c 8abc
000003c0: 244a 973e 5d06 f139 5e14 e23e e859 df39
000003d0: 9a0b dbba fcfe 7d3e 2594 a03e 483d 8e3e
000003e0: 0adb 22bc cf3c 22bd 22de 113d 7233 103b
000003f0: 0267 0c3e 1c5d a13e 7e3b 043a fc61 cf3e
0.0008800189 0.48913184 -0.0003862112 0.29473174 -0.047272854 0.005840011 -0.03221678 -0.008182991
-0.00029984605 0.34422895 0.28700003 -0.06625221 0.41148823 0.0015812455 -0.036685582 -0.0008250415
0.15459956 -0.0031208163 0.0005465899 0.14685746 0.039221067 0.3221245 0.32461503 0.3068739
0.34868932 0.0111265015 0.3976897 0.19746539 -0.0025779628 0.3380817 0.23970008 0.23280719
-0.0344408 0.039202493 -0.00037993846 -0.03820039 0.00088388036 0.4237718 0.24951768 -0.03686221
-0.003284703 -0.009941844 -0.00023577572 -0.034215838 0.2062822 -0.007214883 0.35517275 0.24358386
0.15761851 0.002117282 0.47491375 0.18624641 0.0018371841 0.108582206 0.2575228 0.16730027
-0.017199183 0.22589056 0.025039703 0.19407067 -0.03510329 -0.044072628 0.1052408 0.30571792
0.24866535 -0.07917729 0.3522475 0.3994338 -0.16041015 -0.0023116674 0.007158083 -0.027090902
0.25333738 -0.0044417963 -0.030031785 -0.009923914 0.3431402 -0.069134004 -0.0028262294 0.0027811318
0.039826773 -0.050631635 0.013528534 0.0011630746 0.42253405 -0.005548162 -0.0077042794 0.2942038
-0.022980662 -0.013450447 0.0020066802 -0.0003930213 0.033761885 0.0045474977 0.3844383 0.39331743
0.0019066585 0.0012621678 0.2603586 0.036775652 0.42199293 0.0011104485 0.23615137 -0.034029856
-0.104748726 -0.0012885245 -0.013094594 -0.041874055 0.32741663 -0.042658944 0.32860833 0.38705218
0.00022992704 0.2314102 -0.000898643 -0.0036096436 0.0024114766 -0.000119886565 0.014837002 0.26864815
-0.009066347 -0.040838487 0.34890413 -0.002312824 0.24341168 0.2815403 -0.021189637 0.2984704
-0.023711637 0.27078316 0.34454966 0.00070191646 -0.0010087879 0.19276637 0.26139572 -0.0022041844
-0.03703901 -0.002046208 -0.011647026 0.0022465757 0.0027154363 -0.015833214 0.19783245 0.30098692
-4.9831415e-05 0.0013913291 0.05214437 -0.038273953 0.40246338 0.13994844 -0.013138436 0.0007620908
0.36722893 0.008411079 -0.0035200408 0.1451475 0.21283315 -0.010589912 0.36931202 0.0028788834
-0.026794625 0.29388484 -0.0050074747 0.33444703 0.33710772 -0.020194195 -0.042351127 0.37870556
0.14055774 0.38055786 0.40668747 0.37631378 0.24691528 -0.0011582908 0.3821958 0.29930103
-0.0045064846 0.23382436 0.0012173972 -0.012369419 0.1554774 0.0024827386 -0.009864519 0.45069727
0.36394083 0.046049736 0.0015860038 0.23242095 0.00080814015 0.21444014 0.036938198 0.314677
-0.0388651 0.35531497 0.34170753 -0.060828675 -0.045139644 0.27728423 0.44171685 0.0028569363
-0.020976659 -0.008058141 0.2882228 0.001246131 0.26615572 -0.055611666 0.17306419 -0.042969525
-0.016805701 0.17995834 -0.002501535 0.27794898 -0.00083044247 -0.01716083 -0.06914939 -0.014147099
-0.03511754 -0.009533478 0.31571394 0.26691306 0.01706109 0.0007604909 0.1645145 0.017790169
-0.0019026061 -0.005926618 0.3037513 0.020008797 -0.030189876 -0.010692839 0.0005832623 -0.0013777269
0.15279834 0.0029446427 0.30925366 -0.017840672 -0.024364239 0.31385842 0.00045409251 -0.016897554
0.29548752 0.00045971843 0.44156164 0.0004260086 -0.0016711832 0.248043 0.31363025 0.2778113
-0.009939918 -0.039608773 0.035612233 0.002200332 0.1371117 0.3151635 0.00050442654 0.40504444
