MyZipTobeUploaded/helpdesk_Neighbour_embedding/TimestampPredictor_parameters_helpdesk_laplacianOnWeighted_0.001_run0.pt (torch, 286967 bytes, 8 tensors)

layer1.bias f4 [9]
0	0x00000000	0.0
1	0x00000000	0.0
2	0x00000000	0.0
3	0x00000000	0.0
4	0x00000000	0.0
5	0x00000000	0.0
6	0x00000000	0.0
7	0x00000000	0.0
8	0x00000000	0.0

layer1.W f4 [4, 2]
0	0xbee5bfa9	-0.44872788
1	0xbf00e42f	-0.5034818
2	0x3f7c56ba	0.98569834
3	0x3f186a9e	0.59537685
4	0x3eb28fac	0.34875238
5	0xbfb2f51e	-1.3981054
6	0x41122928	9.135048
7	0xbfa43d2e	-1.283117

layer1.a f4 [4, 1]
0	0xbd9f048e	-0.077645406
1	0x3eb62b22	0.35579783
2	0xbd9f048e	-0.077645406
3	0x3eb62b22	0.35579783

layer2.0.weight f4 [256, 18]
0	0xbea3ef59	-0.32018545
1	0xbd8d895e	-0.06910966
2	0xbe770991	-0.24124743
3	0x3eb382c0	0.35060692
4	0xbe2811b8	-0.16413009
5	0x3e67e0c6	0.22644338
6	0x3de03781	0.109480865
7	0x3c3577b0	0.011075899
8	0x3dfdce88	0.12392908
9	0xbcdb1c47	-0.026746882
10	0xbdf8d1b8	-0.12149376
11	0xbeccc540	-0.3999424
12	0xbe60ebe4	-0.21964985
13	0xbd83ed48	-0.06441742
14	0xbd362d98	-0.044477075
15	0x3da9d6cf	0.082929246
16	0xbe458e5c	-0.19292587
17	0x3e34bd6d	0.17650385
18	0xbee7ef2a	-0.45299655
19	0xbc7c39a2	-0.0153946
20	0xbd108a0f	-0.035287913
21	0x3e6162b0	0.22010303
22	0xbd1537b9	-0.036430094
23	0x3e8c88d3	0.2744814
24	0xbdfa7b4f	-0.122305505
25	0x3d131104	0.0359049
26	0xbe4efe2b	-0.20214145
27	0x3e8a7567	0.27042696
28	0xbd2b746e	-0.041859083
29	0xbe05b004	-0.13055426
30	0xbea49c48	-0.32150483
31	0xbde80e1b	-0.113308154
32	0xbe72a252	-0.23694733
33	0x3e14b6fd	0.1452293
34	0xbd71ca23	-0.059030663
35	0xbda1d1a9	-0.079013176
36	0xbeaf218b	-0.3420528
37	0x3bea79cc	0.0071556326
38	0xbf0c3684	-0.54770684
39	0x3e699d9d	0.22814031
40	0xbebd9e4a	-0.37034827
41	0xbe97e8e9	-0.29669884
42	0xbf21d6a1	-0.6321812
43	0xbd0f8e7a	-0.035047986
44	0xbef30020	-0.47461033
45	0xbc54de1b	-0.012992407
46	0xbeb7e6d1	-0.35918286
47	0xbf0f9d07	-0.5609898
48	0xbeb292c6	-0.34877604
49	0x3e40ae2b	0.1881644
50	0xbe2fc402	-0.17164615
51	0xbe1963e3	-0.1497951
52	0xbe7881dc	-0.24268287
53	0x3f189f82	0.5961839
54	0x3d7317fe	0.059349053
55	0x3fa2a4c0	1.2706528
56	0x3edd1a48	0.43184114
57	0xbdba1914	-0.090868145
58	0x3edbe52b	0.4294828
59	0xbe42f30c	-0.19038028
60	0x3e6ae6b3	0.22939567
61	0x3f33f24c	0.7029159
62	0x3eb6a614	0.35673583
63	0x3dc43f61	0.09582401
64	0x3d10aa68	0.035318762
65	0x3e5ba7b4	0.21450692
66	0x3e8b0484	0.27151883
67	0x3e9ec05c	0.31006134
68	0x3cebf04c	0.028801106
69	0x3f30c6a9	0.6905313
70	0x3cd79f55	0.026321093
71	0xbfd038d5	-1.6267344
72	0xbf8e553a	-1.1119759
73	0x3db8071b	0.0898573
74	0xbe7e2e97	-0.2482246
75	0xbf143503	-0.5789339
76	0xbf4d0012	-0.8007823
77	0xbd2098d7	-0.03920826
78	0xbe935fbd	-0.2878398
79	0xbda27f2a	-0.07934411
80	0xbef2f7d1	-0.47454694
81	0xbdca13f4	-0.09867087
82	0xc0013dbe	-2.0193934
83	0x3f3205dc	0.6954019
84	0xbf2a50e2	-0.6652967
85	0xbc8f8e86	-0.017524015
86	0xbda46638	-0.08027309
87	0xbdd81e0d	-0.10552607
88	0x3f766797	0.96251816
89	0xbf8a066f	-1.0783213
90	0xbf18bf59	-0.59666973
91	0x3ee06653	0.43828067
92	0xbf0f07b7	-0.55871147
93	0xbdc85242	-0.097813144
94	0xbe8a5056	-0.27014416
95	0xbdf9c662	-0.12196042
96	0xbf277f93	-0.6542904
97	0xbd64bc09	-0.055843387
98	0xbf2aa3a6	-0.6665596
99	0xbd96cf74	-0.07363787
100	0xbe8afeb7	-0.27147457
101	0xbf18c3f2	-0.5967399
102	0xbf2f2285	-0.6841205
103	0x3e603557	0.21895348
104	0xbe9aacc1	-0.30209926
105	0x3db42b7e	0.08797358
106	0xbd105abc	-0.03524278
107	0x3eb406f7	0.35161564
108	0x3f36bf68	0.7138581
109	0xbef81bf2	-0.4845882
110	0x3f15fbbc	0.5858724
111	0x3e9a6224	0.30153
112	0x3eeebf41	0.4663029
113	0x3f93f4c4	1.1559072
114	0x3ed1abd6	0.40951413
115	0x3f56a062	0.83838475
116	0x3f01a461	0.5064145
117	0x3f2c2a4c	0.6725204
118	0xc0041885	-2.0639966
119	0x3fea4087	1.8300942
120	0x3ed969a0	0.42463398
121	0x3f25a216	0.6470045
122	0xbfa32a13	-1.2747215
123	0xbfa8f0f0	-1.3198528
124	0x3efbf5f5	0.49211088
125	0x3eea3750	0.45745325
126	0x3f1041dc	0.56350493
127	0xbf2f64d3	-0.6851322
128	0x3ee78ecc	0.45226133
129	0xbdf8aaff	-0.1214199
130	0x3e535575	0.20638068
131	0xbec0d3df	-0.37661645
132	0x3dce7aa4	0.100819856
133	0xbeed22c5	-0.4631559
134	0x3e1dd515	0.15413316
135	0xbef6ecdd	-0.48227587
136	0x3f63e79c	0.8902528
137	0x3f73d0bd	0.95240384
138	0x3ea3fea1	0.32030204
139	0xbd7107af	-0.05884522
140	0x3f0b345e	0.5437678
141	0xbf7ce09d	-0.9878023
142	0xbf498549	-0.78719
143	0xbdff4347	-0.12464004
144	0x3e22497d	0.15848346
145	0xbe173573	-0.14766483
146	0xbe58d0df	-0.21173428
147	0xbe94baa2	-0.2904864
148	0xbea58750	-0.32329798
149	0xbda66974	-0.08125582
150	0xbe9dc5a5	-0.30814853
151	0xbeeddaf0	-0.464561
152	0xbf0f3a07	-0.5594792
153	0xbd13ed2a	-0.03611485
154	0x3f29569c	0.6614778
155	0x3fa0aa3d	1.2551953
156	0xbdf0800a	-0.117431715
157	0xbecb5d39	-0.3971956
158	0x3e6a3df5	0.22875197
159	0x3ea1f76d	0.31634083
160	0xbdd9564f	-0.10612165
161	0xbf394bfe	-0.7238158
162	0xbedd2005	-0.4318849
163	0x3f114704	0.56748986
164	0xbf15a7d7	-0.5845923
165	0xbe6e1d91	-0.23253466
166	0xbeac13d6	-0.33608884
167	0xbf87d14c	-1.0610747
168	0xbe419836	-0.1890572
169	0xbef1a7e2	-0.47198397
170	0xbe489dff	-0.1959152
171	0xbf2b29c2	-0.6686059
172	0x3e0b6096	0.13611063
173	0xbf9b1ab7	-1.2117528
174	0xbe5b47cd	-0.21414109
175	0xbf0c137b	-0.54717225
176	0x3f058d1e	0.5216845
177	0x3ea55e80	0.3229866
178	0x3e569871	0.2095659
179	0x3dcef027	0.10104399
180	0xbf1f5596	-0.6223997
181	0x3e280281	0.16407205
182	0xbf553ff4	-0.8330071
183	0xbc2cf06c	-0.010555368
184	0xbf7493e0	-0.9553814
185	0x3d85469e	0.0650761
186	0xbf40b132	-0.7527038
187	0xbe778a0e	-0.24173757
188	0xbf5d849a	-0.8653046
189	0xbd87af77	-0.06625264
190	0xbece027b	-0.40236267
191	0xbf1eb9c2	-0.62002194
192	0xbf2117ae	-0.6292676
193	0xbde43742	-0.11143352
194	0xbf65164d	-0.89487153
195	0xba189a7d	-0.00058213604
196	0xbdd59d38	-0.10430378
197	0x3f689cfa	0.9086453
198	0xbe5147ea	-0.2043759
199	0x3d6b1247	0.057390478
200	0xbe185eb4	-0.14879876
201	0x3d5aff80	0.05346632
202	0xbed7ab84	-0.42123044
203	0xbda53b39	-0.080679365
204	0xbd5c86ef	-0.05383962
205	0xbd11d81c	-0.03560649
206	0xbed5e630	-0.41777182
207	0x3b701abc	0.0036637029
208	0xbea501af	-0.32227847
209	0xbe4ed999	-0.20200194
210	0xbed88c32	-0.4229446
211	0x3b0a9aae	0.0021149325
212	0xbe878313	-0.2646719
213	0x3eb414f3	0.35172233
214	0x3c0b1493	0.008488792
215	0x3d66fbfc	0.056392655
216	0xbea01afb	-0.31270584
217	0xbd30756c	-0.043080732
218	0xbe9ee385	-0.3103296
219	0xbcb22897	-0.02174787
220	0xbf033c7e	-0.5126418
221	0x3e137f69	0.14404072
222	0xbe975ef6	-0.29564637
223	0xbae4535a	-0.001741986
224	0xbf0d4c01	-0.551941
225	0xbe111c36	-0.14170918
226	0xbea5cd47	-0.32383177
227	0xbe0613f9	-0.13093556
228	0xbe76b0f4	-0.2409094
229	0x3d542042	0.051788576
230	0xbf230d19	-0.6369186
231	0x3f27370f	0.6531839
232	0x3e1360d6	0.14392409
233	0xbd0321f7	-0.032014813
234	0xbf53d3b9	-0.8274494
235	0x3e5fefe7	0.21868859
236	0x3f418f5e	0.75609386
237	0xbed0c922	-0.40778452
238	0x3eae536c	0.3404802
239	0x3e705b0c	0.23472232
240	0x3f287a50	0.65811634
241	0xbd15dc0a	-0.0365868
242	0x3c23a3f6	0.009987822
243	0xbd0ab36c	-0.033862516
244	0xbf6a451d	-0.9151171
245	0x3f34e5e8	0.7066331
246	0x3d577034	0.05259724
247	0xbe67840f	-0.2260897
248	0xbfdb9eff	-1.7157897
249	0xbecdc19b	-0.40186772
250	0x3fc6466c	1.5490241
251	0xbfb4e777	-1.4133137
252	0xbe1def5a	-0.15423337
253	0xbd31af33	-0.043379974
254	0x3d5e6cec	0.054303095
255	0x3e6fb51f	0.23408936

layer2.0.bias f4 [256]
0	0xbd0c8f1a	-0.03431616
1	0xbf2e3ddb	-0.68063134
2	0x4038f155	2.8897297
3	0x40a19f36	5.050685
4	0xc0bc7e85	-5.8904443
5	0x4064c9d2	3.5748181
6	0xc0fa1447	-7.8149753
7	0xc027d5f9	-2.6224349
8	0xc06142b1	-3.5196955
9	0x41012de5	8.073705
10	0x4009058c	2.1409636
11	0x3effe6ee	0.49980873
12	0x401466c6	2.3187728
13	0xc0733e1f	-3.8006666
14	0x3e443521	0.19160892
15	0xc0184144	-2.3789835
16	0xbea40ad7	-0.3203952
17	0x3fec364e	1.8454072
18	0xbe3907a0	-0.18069315
19	0x40733421	3.8000567
20	0xc0c08810	-6.016609
21	0xc05f7539	-3.4915297
22	0xbf68289c	-0.90686965
23	0xbce9d372	-0.028543208
24	0x403651d5	2.8487446
25	0xc08ca5db	-4.395246
26	0xbfca8b60	-1.5823784
27	0xbd9b365d	-0.07578728
28	0xc0c03577	-6.0065265
29	0x40c8b467	6.272022
30	0xbfd828cd	-1.6887451
31	0x4008187f	2.1264951
32	0xc0614787	-3.5199907
33	0x407f7fd2	3.9921765
34	0xc062ab74	-3.5417147
35	0x40003601	2.0032961
36	0x404b665e	3.178123
37	0xc0a7ed25	-5.2476983
38	0xbf8c834c	-1.0977569
39	0x3edd2722	0.43193918
40	0x3dcb201e	0.09918235
41	0xc0348fe7	-2.821283
42	0x3d2fcf9e	0.04292261
43	0x401f47be	2.4887538
44	0x40094085	2.144563
45	0x3ff6cf85	1.928208
46	0x409c8ca6	4.892169
47	0x3e29c003	0.16577153
48	0x3fb96d49	1.4486476
49	0x3fb61417	1.4224881
50	0xbf1dd71f	-0.61656374
51	0xc042f499	-3.046179
52	0xc0427003	-3.0380867
53	0x3f557701	0.8338471
54	0xc03cc7cd	-2.9496949
55	0xc019ff27	-2.4061983
56	0x3e845f01	0.25853732
57	0x4102f4a8	8.184731
58	0x3ed15c15	0.40890566
59	0xc05818ee	-3.3765216
60	0xc0e243c0	-7.0707703
61	0x40a44d7a	5.1344576
62	0x4086ab75	4.20843
63	0x40e95fd4	7.292948
64	0x40212146	2.5176558
65	0xbf21a829	-0.6314722
66	0xc04b2c7e	-3.1745906
67	0xbd95f479	-0.0732202
68	0xc0e96e25	-7.2946954
69	0x40832106	4.097781
70	0x4079e846	3.9048018
71	0xbee81b75	-0.45333448
72	0x40f7b889	7.7412763
73	0x40404fa7	3.0048616
74	0x3eafe9b2	0.34357983
75	0x3ffd8329	1.9805652
76	0x3fedf7d0	1.8591251
77	0x40885758	4.260662
78	0xbe9de0ec	-0.30835664
79	0xc00b303c	-2.174819
80	0xc0a229f6	-5.067622
81	0x40504b91	3.2546122
82	0x4073bb48	3.8083057
83	0xc085da68	-4.182911
84	0xbfd1ef5d	-1.6401173
85	0xc011e7bd	-2.2797692
86	0xc0a52203	-5.160402
87	0xc06805f6	-3.6253638
88	0xbf59778b	-0.84948033
89	0x40c950d8	6.2911186
90	0xc089ff74	-4.3124332
91	0xc02cc309	-2.699404
92	0x40b7bdc6	5.7419157
93	0xc089b193	-4.3029265
94	0x3fa60d7c	1.2972865
95	0x40922b75	4.567805
96	0x3e2fbe35	0.17162402
97	0xbfb26392	-1.3936636
98	0xbec118f1	-0.3771434
99	0x3eeb1cc7	0.45920393
100	0xc0c6bedb	-6.210798
101	0x40394da0	2.8953629
102	0x3dff8d50	0.12478125
103	0xc0a4641e	-5.1372213
104	0xbefcd557	-0.49381515
105	0xbfc11d74	-1.5087113
106	0xbf939711	-1.1530477
107	0xc09aec66	-4.841357
108	0x3cd2f016	0.025749248
109	0xc0cff4d0	-6.4986343
110	0x40d7a79b	6.7392097
111	0xc06bf792	-3.6869855
112	0x4003c1d6	2.0587058
113	0xc0aef937	-5.4679217
114	0xc0801ec4	-4.0037556
115	0x3e725364	0.23664623
116	0xc093d579	-4.6198087
117	0xbfff97f3	-1.9968246
118	0xc0b1d053	-5.55668
119	0xc0abba20	-5.3664703
120	0xc0a8ca25	-5.274676
121	0x40a59b10	5.1751785
122	0xc066fd41	-3.6092074
123	0x40763d94	3.8475084
124	0x40d13b2f	6.5384746
125	0x3fc64e90	1.5492725
126	0xc06715dc	-3.6107092
127	0xbfc090d3	-1.5044197
128	0xbfd414f7	-1.6568898
129	0xbe0aaea0	-0.13543177
130	0x3f3f5312	0.7473613
131	0xbe906f69	-0.2821
132	0xc09dd91f	-4.932754
133	0x400f1757	2.2357996
134	0xc052b408	-3.2922382
135	0xbfec87bf	-1.8478926
136	0xc09416a7	-4.627765
137	0x40b2d30c	5.5882626
138	0x41039d0c	8.2258415
139	0x40be85ee	5.953849
140	0xbfd98928	-1.6994982
141	0xc01422a9	-2.3146155
142	0x3fdc290f	1.720003
143	0xbee825a4	-0.45341218
144	0xbfe40c54	-1.7816262
145	0x3fe2ac7e	1.770889
146	0xc095ad87	-4.6774325
147	0xbf82197d	-1.0164028
148	0x3e9c5490	0.30533266
149	0xc029490d	-2.6450837
150	0xbd05e703	-0.032691013
151	0x4051a977	3.2759683
152	0xc006551a	-2.0989442
153	0xbf5074a3	-0.81427974
154	0x3ee7f019	0.45300367
155	0xc09feee8	-4.9979134
156	0xbfb78c92	-1.4339774
157	0x408a9773	4.3309875
158	0xc0c16f2e	-6.0448217
159	0x40ef9f3b	7.4881873
160	0x3e81b581	0.2533379
161	0xc0931b1b	-4.597059
162	0x3f5d3bd0	0.8641939
163	0xbfe06d50	-1.753336
164	0x3e85bc6e	0.26120323
165	0x3ef11c24	0.47091782
166	0xbf04599e	-0.51699245
167	0x4087ecb7	4.247646
168	0xbdfa320c	-0.12216577
169	0xc0c23047	-6.068393
170	0xc08b1018	-4.3457146
171	0x409deb1d	4.9349504
172	0x3feb8019	1.8398467
173	0x409b5479	4.8540616
174	0xc0f85cc5	-7.7613244
175	0xbeac8292	-0.33693367
176	0x41042747	8.259589
177	0xbd44b869	-0.04802743
178	0x407dfa16	3.968389
179	0x4089ee28	4.310322
180	0xbe598497	-0.21241985
181	0xc0c3600e	-6.1054754
182	0x3ea1edb7	0.31626675
183	0x40bf9ef6	5.9881544
184	0x3fa25595	1.2682368
185	0x40293615	2.643926
186	0x3e90bc42	0.2826863
187	0xc02676d0	-2.6010017
188	0xc108d061	-8.550874
189	0xc0935a46	-4.6047697
190	0xc097f591	-4.7487264
191	0xc0675ae6	-3.614923
192	0x4017e847	2.373552
193	0xc0112bfa	-2.268309
194	0xc0e42aea	-7.1302385
195	0x40847871	4.1397023
196	0x40a99a7d	5.3001084
197	0xc1051826	-8.318396
198	0xc012953f	-2.2903593
199	0xc0335799	-2.8022215
200	0x4104d5e9	8.302224
201	0xc08bd66e	-4.3699255
202	0x402e26f0	2.7211266
203	0xc09a423b	-4.820585
204	0xc02d96bb	-2.7123249
205	0x408d9ab3	4.425134
206	0x3f6c985e	0.92419994
207	0x4095ecaf	4.685142
208	0x406727b7	3.611799
209	0x401e65dc	2.474967
210	0x40035cbe	2.0525355
211	0x405d597f	3.4585874
212	0xc076fdff	-3.8592527
213	0xc0308e4e	-2.7586856
214	0x3fbee2b8	1.4912939
215	0xbf0f6db0	-0.56026745
216	0xc0bfb9c8	-5.9914284
217	0x3f9da476	1.2315814
218	0x40c795f2	6.237054
219	0x3fdd3bf3	1.728392
220	0xc0ac617b	-5.3868995
221	0x3f99db13	1.2019981
222	0x4049e392	3.1545148
223	0xbfd05fd6	-1.6279247
224	0x40e35196	7.103709
225	0x401a4531	2.410473
226	0xbf789c24	-0.9711325
227	0x40e41452	7.1274805
228	0x408c37ef	4.381828
229	0x40c2334f	6.0687633
230	0xbf8a9ad9	-1.0828506
231	0xc09ee0ce	-4.964942
232	0x4029afe2	2.65136
233	0x4029d44b	2.6535823
234	0x40b2f7d6	5.5927534
235	0xbe4426cb	-0.19155423
236	0xbd243418	-0.040088743
237	0xbca82aa4	-0.020528145
238	0x3f630e16	0.8869337
239	0x40303a3a	2.7535539
240	0x3ef3c309	0.47609738
241	0x3ecaa540	0.395792
242	0x4071888a	3.7739587
243	0x3fbf83da	1.4962113
244	0xc0fd0f3e	-7.9081106
245	0xc0e47ea1	-7.1404576
246	0x3f688d4e	0.90840614
247	0xbedddcd8	-0.43332553
248	0xbf313e18	-0.6923537
249	0xc0a77257	-5.2327075
250	0x3f046b44	0.51726174
251	0x408ba003	4.3632827
252	0x4087aa1b	4.239515
253	0xc0086ab1	-2.131512
254	0xc0191601	-2.391968
255	0xc085bc02	-4.1792

layer2.2.weight f4 [256, 256]
0	0xbd1f4be4	-0.038890734
1	0xbd8433d0	-0.06455195
2	0xbc47d946	-0.012197798
3	0x3cfbef79	0.030753838
4	0xbd879b4f	-0.0662142
5	0xbd1310ae	-0.03590458
6	0xbd07dcd9	-0.0331696
7	0xbcc9f555	-0.024653116
8	0xbde78ef0	-0.1130656
9	0xbca88d9c	-0.020575337
10	0xbdd6557e	-0.10465525
11	0x3d446f30	0.0479576
12	0xbd2a1a1c	-0.041528806
13	0xbd117a6a	-0.035517134
14	0xbb5dad93	-0.0033825382
15	0x3c22b9a6	0.009931957
16	0xbd98c115	-0.074587025
17	0xbadc3279	-0.001679971
18	0x3d1db69d	0.03850423
19	0xbdde851a	-0.10865231
20	0xbd38915e	-0.045060508
21	0xbd8cadfb	-0.06869122
22	0x3d4bf360	0.049792647
23	0xbd49a005	-0.049224872
24	0x3bf0ca18	0.00734831
25	0xbdcd6355	-0.10028712
26	0x3cc46fe6	0.023979139
27	0xbcbe5e14	-0.02323822
28	0xbd357e20	-0.044309735
29	0xbd520bf2	-0.051280923
30	0xbcca4bf3	-0.024694419
31	0xbb8691ce	-0.0041067367
32	0xbc81fd76	-0.01586793
33	0xbda5e2d2	-0.08099903
34	0xbc9c959f	-0.019114314
35	0xbd2631ae	-0.040574722
36	0xbd8dec37	-0.0692982
37	0xbce09486	-0.027414571
38	0xbd33ad18	-0.043866247
39	0xbd779d39	-0.060452674
40	0xbdcef99c	-0.10106203
41	0xbce596e9	-0.028026061
42	0x3c936abe	0.017995235
43	0xbd86250f	-0.06550037
44	0xbe0834e2	-0.13301423
45	0x3b0187f7	0.001976488
46	0x3c4ed8d4	0.012624938
47	0xbd750633	-0.059820365
48	0x3d014f9a	0.031570055
49	0x3b846ab1	0.004041039
50	0xbd833254	-0.06406084
51	0xbdbf9d93	-0.09356227
52	0xbd1ebf4c	-0.038756654
53	0xbc7e9a10	-0.015539661
54	0x3d056c78	0.032574147
55	0xbd888d38	-0.0666756
56	0xbd37e3fd	-0.04489516
57	0x3c990902	0.018681053
58	0x3b42e932	0.0029741046
59	0xbd6c8b44	-0.05775
60	0xbd40c672	-0.047064252
61	0xbb814df6	-0.0039460612
62	0xbc44eebf	-0.012019812
63	0xbcd9183a	-0.02650081
64	0x3cbe90be	0.023262378
65	0xbc605990	-0.013693228
66	0xbcd82712	-0.026385818
67	0x3d0959e3	0.03353299
68	0xbd967f74	-0.073485285
69	0x3c56a362	0.013100477
70	0xbbbcfd36	-0.00576749
71	0xbdbfe1d8	-0.09369248
72	0xbd9eaf41	-0.07748271
73	0xbd96a498	-0.073556125
74	0xbd3057ba	-0.043052413
75	0xbd7611ab	-0.060075443
76	0xbb271b86	-0.0025498583
77	0xbe0616d0	-0.1309464
78	0x3d4151fc	0.047197327
79	0xbd9e9f4d	-0.07745228
80	0x3ac87997	0.0015295026
81	0x3cf86761	0.030322732
82	0xbd275d8e	-0.040860705
83	0x3ccb67f1	0.024829837
84	0x3cf7272a	0.030170042
85	0xbdc4ee55	-0.09615771
86	0xbd869e98	-0.06573218
87	0xbd5dbfa3	-0.054137837
88	0xbcf9cf60	-0.030494392
89	0x3d003ac8	0.03130606
90	0xbd684b5b	-0.05671249
91	0x3b73e3fd	0.003721475
92	0xbc1a345c	-0.0094118975
93	0xbc7ded8a	-0.015498528
94	0x3abba974	0.0014317469
95	0x3d939183	0.072054885
96	0x3d2b66cc	0.04184608
97	0xbd98cd86	-0.074610755
98	0xbcff509d	-0.03116637
99	0x3d1f4a67	0.038889315
100	0xbd6e0f4f	-0.05812007
101	0xbdc2ecb4	-0.09517804
102	0xbd1c1c0b	-0.03811268
103	0xbd564cb9	-0.052319262
104	0xbd8b5583	-0.068034194
105	0x3c814d89	0.015784042
106	0xbca5f76e	-0.020259585
107	0xbcdd2322	-0.026994292
108	0x3c9430a1	0.018089594
109	0x3d65bb1b	0.05608664
110	0xbd955e96	-0.072934315
111	0x3c9fdb42	0.01951373
112	0xbd8c302a	-0.06845124
113	0xbd266f47	-0.040633466
114	0xbcbf5728	-0.023356989
115	0xbcce9ebf	-0.02522218
116	0xbdb283a7	-0.08716517
117	0x3ce5a8ad	0.028034532
118	0xbccf5eab	-0.025313696
119	0x3c788f15	0.015170832
120	0xbd069ec2	-0.032866247
121	0xbd31326a	-0.04326097
122	0x3c525d3e	0.0128396135
123	0xbd56999b	-0.052392583
124	0xbd9e6226	-0.07733564
125	0x3d75f599	0.060048673
126	0xbe1b3cb7	-0.1515988
127	0xbb74bf5a	-0.00373455
128	0xbcd3215e	-0.025772747
129	0xbd5c1406	-0.053730033
130	0x3b50f377	0.0031883398
131	0x3d0ad27e	0.033892147
132	0x3d1fd1a4	0.03901829
133	0xbcb82bf1	-0.02248189
134	0x3c9d58c4	0.019207366
135	0xbd90d5b7	-0.07072013
136	0xbd7a265a	-0.06107173
137	0xbc5dfb7c	-0.013548728
138	0xbc8aa26b	-0.01692315
139	0x3b41a9bc	0.0029550632
140	0x3d07f7ab	0.03319518
141	0xbd89242b	-0.066963516
142	0x3d3ac07e	0.04559373
143	0xbd8369ef	-0.064166896
144	0xbc7c6e94	-0.015407223
145	0xbd99fbfa	-0.07518764
146	0xbd03fd0c	-0.032223746
147	0xbd4bb667	-0.0497345
148	0xbc785875	-0.015157809
149	0x3c19fed3	0.009399134
150	0xbd59e006	-0.05319216
151	0xbd0001de	-0.03125178
152	0xbb9b4b62	-0.004739211
153	0xbcc9081b	-0.024539998
154	0xbca4e1e1	-0.020127239
155	0xbd3f877a	-0.04676006
156	0xbd1632c3	-0.036669504
157	0x3b10c0e9	0.002208764
158	0xbda72744	-0.08161786
159	0x3ca3a47e	0.019975897
160	0xbd4ebeb2	-0.05047483
161	0x3cb389d0	0.0219163
162	0x3cf68350	0.030091912
163	0xbbe56205	-0.00700021
164	0x3d12a472	0.03580136
165	0xbcada48e	-0.02119663
166	0xbd2c274d	-0.042029668
167	0xbd1dcdc2	-0.038526304
168	0x3cc98c23	0.024602955
169	0xbe01655c	-0.12636322
170	0xbcb5b73b	-0.022182098
171	0xbd336435	-0.043796737
172	0x3d83289e	0.064042315
173	0xbdc737e6	-0.09727459
174	0xbe14e62e	-0.14540932
175	0xbc9de6d1	-0.0192751
176	0xbd61d690	-0.055136263
177	0x3c864a32	0.016392801
178	0xbd1e8ed4	-0.03871043
179	0xbcc5d5a2	-0.02414972
180	0xba11c7f2	-0.0005561105
181	0xbd214d85	-0.03938057
182	0x3b49afb7	0.00307749
183	0xbd2bc2a3	-0.041933667
184	0xbc685ed9	-0.01418277
185	0x3cab69f0	0.020924538
186	0xbc1b8cea	-0.009494046
187	0xbd49c2a9	-0.049257908
188	0xbca6329f	-0.02028781
189	0x3b956cce	0.0045600897
190	0xbd28e009	-0.04122928
191	0xbd930f24	-0.07180622
192	0xbcbc39b7	-0.02297674
193	0xbd2b1b35	-0.041773994
194	0xbe1e1f97	-0.15441738
195	0xbd4a87ba	-0.049445845
196	0x3c98a65e	0.018634018
197	0xbc824c50	-0.01590553
198	0xbd2fdcd8	-0.042935222
199	0x39015350	0.00012333435
200	0xbd371db5	-0.044706065
201	0xbd1e8473	-0.038700532
202	0xbddd3d3d	-0.10802696
203	0xbd829103	-0.06375315
204	0xbd5ccf78	-0.053908795
205	0xbd004105	-0.031312007
206	0x3d493bf9	0.04912946
207	0xbd09e5b5	-0.03366633
208	0xbd62fa12	-0.055414267
209	0xbc644612	-0.013932722
210	0xbdab0e66	-0.08352356
211	0x3bd1c230	0.006401323
212	0xbdaf31ad	-0.08554397
213	0x3ce30338	0.027711496
214	0xbc91cd4e	-0.017798092
215	0xbcdfe8b2	-0.027332637
216	0x3d99855c	0.074961394
217	0x3cc670c1	0.024223687
218	0xbd734182	-0.059388645
219	0xbb5ee757	-0.00340124
220	0xbd944ee1	-0.072416075
221	0xbba1cee3	-0.004937993
222	0x3bdee825	0.006802576
223	0x3dc7edba	0.097621396
224	0xbd94a356	-0.07257716
225	0xbdc5e714	-0.09663215
226	0x3c5ed736	0.013601115
227	0xbcb7f449	-0.022455351
228	0x3c3a85af	0.011384412
229	0x3bcc3d57	0.006232898
230	0xbc628115	-0.013824721
231	0x3b937ed5	0.0045012035
232	0xbc075e14	-0.008262176
233	0xbbca3519	-0.0061708805
234	0x3d18e90f	0.037331637
235	0xbd6797f6	-0.056541406
236	0xbd0e6a8f	-0.03476959
237	0x3cd84692	0.026400838
238	0x3ce09ec1	0.02741945
239	0x3c51c200	0.012802601
240	0x3c4fa8f2	0.012674557
241	0x3bc5a450	0.0060315505
242	0x3bbbebc0	0.0057348907
243	0xbd3be916	-0.045876585
244	0x3b9ed245	0.0048468434
245	0xbce1a0d3	-0.027542507
246	0xbd83feb7	-0.064450674
247	0xbbed226d	-0.00723677
248	0xbc9025dd	-0.01759618
249	0x3cc8af83	0.024497753
250	0xbd10b719	-0.035330866
251	0x3ccf2d49	0.025290148
252	0x3d46adc1	0.04850555
253	0xbd0717fe	-0.032981865
254	0xbd04f709	-0.032462154
255	0x3d41a85a	0.047279693

layer2.2.bias f4 [256]
0	0x3e0afb3e	0.13572404
1	0x3c3bea7c	0.01146948
2	0xbdd5ee1b	-0.10445806
3	0xbb0648f0	-0.0020490251
4	0x3c90edc6	0.017691504
5	0xbe852ddf	-0.2601156
6	0xbeecc079	-0.46240595
7	0xbd8daf00	-0.06918144
8	0xbe00b7d9	-0.12570132
9	0xba81f902	-0.0009916129
10	0x3fd05589	1.6276103
11	0xbd46a048	-0.0484927
12	0x3ee87b34	0.45406497
13	0xbdf065d8	-0.11738175
14	0xbe48febf	-0.19628428
15	0x3f6d73da	0.927549
16	0x3d8650fc	0.06558415
17	0xbdf0c97f	-0.11757182
18	0xbc7eb197	-0.01554527
19	0xbdec0b6a	-0.115256146
20	0x3f2c7b8c	0.6737602
21	0x3efa05ca	0.48832542
22	0x3c7e334f	0.015515163
23	0xbd54c8b0	-0.051949203
24	0xbddaf300	-0.1069088
25	0x4056c619	3.355841
26	0xbd6f1705	-0.058371563
27	0xbe124cca	-0.14287105
28	0xbd82632b	-0.06366571
29	0x3e4e322f	0.20136331
30	0xbe09e5c2	-0.13466552
31	0xbd3351c7	-0.04377916
32	0xbd1ae7e4	-0.037818804
33	0xbd877d24	-0.066156656
34	0x3e05cfff	0.13067625
35	0xbd85f43e	-0.06540726
36	0xbd850f8b	-0.06497105
37	0xbcc805cb	-0.024416825
38	0xbd24fab7	-0.040278163
39	0xbcddea4e	-0.027089264
40	0xbe2f8799	-0.1714157
41	0x3dcbbdf9	0.09948344
42	0xbdd06b24	-0.101766855
43	0x3c5a242f	0.013314291
44	0xbdfd8244	-0.12378362
45	0xbe040be2	-0.12895158
46	0xbd292696	-0.041296564
47	0x3f619925	0.88124305
48	0xbd2962a5	-0.04135384
49	0xbd8a133a	-0.067419484
50	0xbe1a1ba1	-0.15049602
51	0xbdae9ec3	-0.08526375
52	0xbd90d132	-0.07071151
53	0x40365f8e	2.8495822
54	0xbd186238	-0.037203044
55	0xbbe007a7	-0.0068368497
56	0xbd6d930e	-0.05800157
57	0x3cbbdaf1	0.022931548
58	0xbc4f8b5f	-0.012667506
59	0xbdbdb7c1	-0.09263564
60	0xbc9c53c6	-0.019082915
61	0x3b2a921d	0.0026027032
62	0xbd2b051b	-0.041752916
63	0xbd128276	-0.03576895
64	0xbdb10b26	-0.086447045
65	0xbd426fa4	-0.04746975
66	0xbbe2922e	-0.0069143986
67	0xbe67e278	-0.22644985
68	0x3c6d4d4f	0.014483764
69	0xbddd0e1c	-0.10793707
70	0xbddd2f99	-0.10800094
71	0x3c705d39	0.0146706635
72	0xbd6c7525	-0.057728905
73	0x3d21b29a	0.03947697
74	0xbc173a90	-0.009230271
75	0xbe4c6a8e	-0.19962522
76	0xbc246777	-0.010034434
77	0xbe1abebb	-0.1511182
78	0xbe0875f4	-0.13326246
79	0x3e9ed7e1	0.31024078
80	0x3bc902fa	0.006134388
81	0xbdd19d58	-0.10235089
82	0x3de4bd24	0.11168888
83	0xbd747c34	-0.05968876
84	0x3d275955	0.040856678
85	0xbd0a31f0	-0.03373903
86	0xbbbf6469	-0.0058408272
87	0x3e6c1b1f	0.23057221
88	0xbdab072d	-0.08350978
89	0x3dc9b754	0.0984942
90	0xbd42eb17	-0.04758748
91	0x3e83c5b0	0.2573676
92	0xbd9a4608	-0.07532889
93	0xbd2a0185	-0.041505355
94	0x3d177e37	0.036985602
95	0xbd423ed3	-0.047423195
96	0xbcbdf09e	-0.023186024
97	0xbc4abade	-0.012373654
98	0xbd516725	-0.051123757
99	0xbd5857d9	-0.052818153
100	0xbbad8a4c	-0.0052960273
101	0x3d9f792e	0.07786785
102	0x3b5e6306	0.0033933534
103	0xbd115625	-0.035482544
104	0xbd9bba79	-0.07603926
105	0xbdcf714e	-0.10129033
106	0x3fd1c773	1.6388992
107	0xbc96fc04	-0.018430717
108	0xbd8fc540	-0.07020044
109	0xbdacc238	-0.08435482
110	0xbd18f18c	-0.037339732
111	0x3c8135cf	0.015772728
112	0xbcec2743	-0.028827315
113	0xbe379214	-0.17926818
114	0x3e132be4	0.14372212
115	0x3e0e43c8	0.13893044
116	0xbdccd1e6	-0.100009724
117	0xbd978289	-0.073979445
118	0xbd931bd9	-0.07183046
119	0xbe897ebe	-0.2685451
120	0xbd4771ba	-0.048692442
121	0xbda60c3f	-0.081078045
122	0xbdd1618e	-0.10223685
123	0xbe2062d3	-0.15662698
124	0x402e76e2	2.726006
125	0xbdc26c34	-0.09493294
126	0xbdbeccbf	-0.09316396
127	0xbda9b735	-0.08286897
128	0xbdf8b296	-0.121434376
129	0xbdcee01d	-0.1010134
130	0x3d1278ab	0.03575961
131	0xbd8646ff	-0.0655651
132	0xbc42dcdd	-0.011893478
133	0xbcf4c886	-0.029880773
134	0xbe1351b5	-0.14386638
135	0xbdc01666	-0.09379272
136	0xbe02e3c9	-0.12782206
137	0x3b884f1a	0.0041598203
138	0x3c9391dc	0.018013887
139	0xbd8fb0d6	-0.07016151
140	0x3d31ec61	0.04343832
141	0xbd37faa5	-0.044916768
142	0x4102d2d9	8.1764765
143	0xbd83975a	-0.064253524
144	0xbe261476	-0.16218743
145	0xbdb83264	-0.08993986
146	0x3b7462a7	0.0037290247
147	0xbab269c7	-0.0013611846
148	0x3d37da8b	0.044886153
149	0xbd520b9a	-0.051280595
150	0xbd9a2f2a	-0.07528527
151	0xbdb2c340	-0.08728647
152	0x3defec18	0.11714953
153	0x3d12e723	0.03586496
154	0x3ca38878	0.019962534
155	0x3c00a900	0.007852793
156	0xbdfd03c4	-0.12354234
157	0x3dc350dd	0.09536908
158	0xbe178857	-0.14798103
159	0xbd21de66	-0.039518736
160	0xbd09822a	-0.0335714
161	0x3e6cc693	0.23122625
162	0xbd4240d6	-0.047425114
163	0xbd9ff5a6	-0.078105256
164	0xbdfaa333	-0.12238159
165	0xbd26900a	-0.04066471
166	0xbc8f1fa5	-0.017471144
167	0x3e8cebf4	0.27523768
168	0xbd60a59c	-0.054845437
169	0xbd851b54	-0.06499353
170	0xbda32e13	-0.07967772
171	0x3d999116	0.07498376
172	0xbc609e95	-0.013709684
173	0x3b1b6b89	0.002371522
174	0x3e74b916	0.2389873
175	0xbda5107d	-0.080597855
176	0xbdc7e1ef	-0.0975989
177	0xbd9fc559	-0.07801313
178	0x3f30a968	0.69008493
179	0xbc4e3931	-0.012586878
180	0x3d074e58	0.0330337
181	0x3a954a7c	0.0011389996
182	0xbd8cf7d7	-0.06883209
183	0xbd0a7b4b	-0.033808988
184	0xbdec2063	-0.11529615
185	0xbddf173a	-0.10893102
186	0x3da5ac6f	0.0808953
187	0x3e50a6a6	0.20376071
188	0x3d625996	0.055261217
189	0x3f1812ce	0.59403694
190	0xbdae7c96	-0.08519857
191	0xbdbdfa08	-0.09276205
192	0xbde44a4a	-0.11146982
193	0xbb8ff3c3	-0.0043930723
194	0xbe0a9047	-0.135316
195	0xbe42e098	-0.19030988
196	0xbdea72c9	-0.11447675
197	0x3d0c6107	0.03427222
198	0xbdee15cd	-0.11625252
199	0xbe0350bb	-0.12823765
200	0xbe82ce66	-0.25548095
201	0xbd184e8c	-0.037184283
202	0xbd57ca98	-0.052683443
203	0xbdc1bb97	-0.09459608
204	0xbdc834cc	-0.09775695
205	0xbe415a2b	-0.18882053
206	0x402c1dc3	2.6893165
207	0xbdc67193	-0.09689631
208	0xbd37c722	-0.044867642
209	0xbdb6be7f	-0.08923053
210	0xbd1e462b	-0.038641136
211	0xbd852aba	-0.0650229
212	0xbd915e5b	-0.07098075
213	0xbcab68bb	-0.020923963
214	0xbda5b51f	-0.08091187
215	0x3d99e65a	0.07514639
216	0x3de6a154	0.1126124
217	0x3e9a945f	0.30191323
218	0x3c5d9512	0.013524311
219	0xbdb4b0aa	-0.088227585
220	0xbdf793cb	-0.12088736
221	0x3d97ca95	0.07411686
222	0xbdb26ba6	-0.087119386
223	0x3e08f00e	0.13372824
224	0x3e1f0b29	0.15531601
225	0xbddaff2d	-0.10693202
226	0x410e3035	8.886769
227	0xbd62592a	-0.055260815
228	0x3f3bb237	0.7331881
229	0xbc84bd67	-0.016203595
230	0xbe26f964	-0.16306072
231	0xbe06dbbd	-0.13169761
232	0xbd3a4a11	-0.04548079
233	0xbc4b3b9e	-0.012404351
234	0xbd933182	-0.07187177
235	0xbd879713	-0.06620612
236	0x3e460aab	0.19340007
237	0xbd8701aa	-0.06592114
238	0xbbabadee	-0.00523924
239	0x3ca98eee	0.020698037
240	0xbe03d520	-0.1287427
241	0xbe07da85	-0.13266952
242	0x409d5d44	4.917635
243	0x3e422edd	0.1896319
244	0xbd041935	-0.0322506
245	0xbbbaa6ff	-0.005696177
246	0x3eb20777	0.3477132
247	0xbd844045	-0.06457571
248	0xbc89cbda	-0.016820837
249	0xbd5247e7	-0.051338103
250	0x3f19664d	0.59921724
251	0xbe0da2a5	-0.13831575
252	0x40b8febd	5.781096
253	0xbd6cee82	-0.057844646
254	0xbdc93910	-0.09825337
255	0xbdaa27b3	-0.08308353

layer2.4.weight f4 [1, 256]
0	0x3cfc9734	0.030833818
1	0x3cb1b861	0.021694364
2	0x3cbc1737	0.022960288
3	0xbcb90fa5	-0.022590468
4	0x3cf37527	0.029718949
5	0x3c5adf41	0.013358892
6	0xbd021499	-0.031757925
7	0xba116bed	-0.0005547393
8	0xbbdbf66a	-0.0067127245
9	0x3c1bff6c	0.009521347
10	0x3d7ad5ce	0.061239056
11	0xbc7395b1	-0.014867232
12	0x3cf28a76	0.029607039
13	0x3c2a19c8	0.010382123
14	0xbcbd00ae	-0.023071613
15	0x3cba255e	0.022722896
16	0x3cd18359	0.025575327
17	0xbca038b6	-0.019558292
18	0x3c5bb0bc	0.013408836
19	0xbc88e8f5	-0.016712645
20	0x3cd1b974	0.025601126
21	0x3c1e485e	0.009660808
22	0x3a7e48b4	0.00097001647
23	0xbb3e983a	-0.0029082433
24	0xba92694f	-0.00111703
25	0x3f3b19de	0.73086345
26	0x3cd7a824	0.026325293
27	0xbce68969	-0.028141694
28	0x3ba8084e	0.005127943
29	0x3d8d2ef3	0.068937205
30	0xb9091415	-0.0001307282
31	0xbc3f70db	-0.011684622
32	0xbc6fa8b3	-0.014627623
33	0xbbcb21c8	-0.0061990954
34	0x3afbc2cf	0.0019207838
35	0x3c2a7c13	0.010405558
36	0xbc1211a1	-0.008915336
37	0x3be661e3	0.007030712
38	0x3c034f4a	0.008014509
39	0xbc637920	-0.013883859
40	0x3b972413	0.0046124547
41	0xba18726d	-0.00058153906
42	0x3c9716f4	0.018443562
43	0x3c36ee28	0.011165179
44	0xbbce615a	-0.0062982263
45	0x3ca1f873	0.01977179
46	0x3c6e266e	0.01453553
47	0x3b22d6a7	0.002484718
48	0x3c357502	0.01107526
49	0xbcb40013	-0.021972692
50	0x3cca5ba9	0.02470191
51	0x3cb211a2	0.021736924
52	0x3c2e1411	0.010624901
53	0x3f001ed3	0.50047034
54	0xbce3f558	-0.02782695
55	0x3d52851b	0.05139647
56	0x3bc75b86	0.0060839085
57	0x3c9f8ca8	0.01947625
58	0xbcd6fb9d	-0.026243025
59	0x3c550b7f	0.013003229
60	0x3b62f26b	0.0034629356
61	0x3cf9f7ca	0.030513663
62	0x3cb30ab2	0.021855686
63	0x3ca6d164	0.020363517
64	0x3cb34739	0.021884548
65	0xbc438da4	-0.011935625
66	0x3ce3d9cd	0.027813816
67	0xbbd80c95	-0.006593297
68	0x3ca28ca1	0.019842448
69	0x390bb6de	0.00013324196
70	0x3cacd685	0.021098385
71	0x3c6be4c2	0.014397802
72	0x3ca0f59a	0.019648362
73	0xbc1360c5	-0.00899524
74	0x3beb1031	0.007173561
75	0xbcdcc363	-0.026948636
76	0x3ce456ea	0.027873475
77	0x3cdfdcbd	0.027326936
78	0x3cbb29fb	0.022847166
79	0x39ab0fa7	0.00032627324
80	0x3cfd6070	0.030929774
81	0x3b461b7a	0.003022878
82	0xbcdfdb04	-0.027326114
83	0xbcd86b50	-0.026418358
84	0xbade2ccd	-0.0016950608
85	0xbc192b93	-0.009348768
86	0xbc140378	-0.00903403
87	0x3cf3f156	0.029778164
88	0xbb241560	-0.0025037155
89	0x3b76e15c	0.0037670946
90	0x3c6c519f	0.014423757
91	0xbcbaf162	-0.022820178
92	0x3c796157	0.0152209615
93	0xbbea04d5	-0.0071416893
94	0xbcfc55b0	-0.030802578
95	0xbc7cf497	-0.015439174
96	0x3d2c3a34	0.042047694
97	0xbcd94b2b	-0.0265251
98	0x355e85d8	8.2896213e-07
99	0x3cc59e3a	0.0241233
100	0xbce36b58	-0.027761146
101	0xbbbd4be2	-0.005776868
102	0x3ce84668	0.028353885
103	0x3cd0db9e	0.025495347
104	0x3c8d3984	0.01723934
105	0xbc6bb147	-0.014385528
106	0x3deb4a90	0.11488831
107	0xbd1c2079	-0.038116906
108	0x3c8c7e8b	0.017150184
109	0x3c9810da	0.018562723
110	0x39be4d20	0.00036297087
111	0x3cd35592	0.025797639
112	0x3caa4063	0.020782655
113	0x3ba62938	0.0050708316
114	0xba8d01ed	-0.001075802
115	0x3cfb532c	0.030679308
116	0x3cf7d285	0.03025175
117	0x3c9486bc	0.018130653
118	0xbc6adebc	-0.014335331
119	0x3cc11d8b	0.023573657
120	0x3d65fe5d	0.056150783
121	0x3c9cb20a	0.019127864
122	0x3c5348ea	0.012895802
123	0xbbf5e9ce	-0.0075046783
124	0x3f186a7a	0.5953747
125	0xbad7cc20	-0.0016464032
126	0x3cd7ca8e	0.026341703
127	0xbc6f6fe2	-0.014614077
128	0xbc20aa1a	-0.00980618
129	0xbcbbc827	-0.022922589
130	0x3cc7a822	0.024372164
131	0x3cadc456	0.021211784
132	0x3cb0dfe9	0.021591144
133	0x3c551b40	0.013006985
134	0xbc917f8f	-0.01776102
135	0xbc25cb16	-0.01011922
136	0x3c1d0fd9	0.009586298
137	0xb89df2b6	-7.531552e-05
138	0xbc09ea12	-0.008417623
139	0x3cf626bf	0.030047772
140	0x399d8d4d	0.0003005065
141	0x3c8a5fc0	0.01689136
142	0x3f10f33e	0.5662116
143	0x3c3c134e	0.011479212
144	0xbb1f7294	-0.0024329768
145	0xbcdc3ede	-0.026885446
146	0x3cfc4f53	0.030799543
147	0xbabade47	-0.0014256918
148	0xbc1cb9d0	-0.0095657855
149	0x3c64c37a	0.013962621
150	0xbd275992	-0.040856905
151	0xbce169a8	-0.027516201
152	0x3cc7afc7	0.02437581
153	0xbcb24df1	-0.021765681
154	0xbbaa8dc7	-0.0052048895
155	0x3ce0ba62	0.027432624
156	0x3ccad4d1	0.024759682
157	0xbcd9808a	-0.02655055
158	0x3c2a5ef2	0.010398613
159	0x3c1746f3	0.009233224
160	0xbc9e77ce	-0.019344237
161	0x3cc262cb	0.023728749
162	0x3cc93907	0.024563326
163	0x3cdd0fbf	0.026985047
164	0xbcb94109	-0.022614019
165	0x3cb677a0	0.022273839
166	0x3cc1f8c8	0.023678198
167	0xbb57a233	-0.0032903075
168	0x3c89ba16	0.016812366
169	0x3c5a02a7	0.013306296
170	0x3ad622fd	0.0016337332
171	0x3cd2590e	0.02567723
172	0x3cc04198	0.023468778
173	0x3c26b670	0.010175332
174	0xbcf4cf24	-0.029883929
175	0x3c17c7f8	0.009263985
176	0x3ced0154	0.028931297
177	0xbcf7f406	-0.030267727
178	0x3d8586a4	0.06519821
179	0x3a886868	0.0010407092
180	0x3a9de42c	0.001204615
181	0xbc93a434	-0.018022634
182	0xbaa126fd	-0.0012294945
183	0xbb8272c7	-0.0039809677
184	0xbc86c16a	-0.016449649
185	0x3b3340dc	0.0027351892
186	0x3c573c07	0.01313687
187	0x3b83f8c8	0.00402746
188	0xbb495cf6	-0.0030725575
189	0x3c903dd1	0.017607601
190	0xbbaa24a8	-0.005192358
191	0xbc66991b	-0.014074589
192	0xbc488441	-0.012238563
193	0xbc80fbc4	-0.015745051
194	0xbc9142d5	-0.017732063
195	0x3c3faa85	0.01169837
196	0x3cf6a1fc	0.030106537
197	0x3baecead	0.0053346963
198	0x3cb9ba3b	0.02267181
199	0xbcd62ac4	-0.02614344
200	0xbbf003d3	-0.0073246746
201	0xbc9b0212	-0.018921886
202	0x3b8df726	0.004332441
203	0x3be4989f	0.0069762017
204	0xbbc9c7fd	-0.0061578737
205	0x3cea34ec	0.028589688
206	0x3f0f9bf4	0.5609734
207	0x3cff7f34	0.031188585
208	0x3ccab591	0.02474478
209	0x3bdde7ec	0.006772032
210	0x3d299888	0.04140523
211	0xbb4a594b	-0.0030875977
212	0xbc9f150a	-0.019419212
213	0x3c8d42fe	0.017243858
214	0xbb80d95a	-0.0039321603
215	0x3ceb180c	0.02869799
216	0x3c2587fc	0.010103222
217	0x3be70701	0.0070503955
218	0x3cac448f	0.021028785
219	0xbc88b63c	-0.016688459
220	0x3b95da75	0.0045731612
221	0x3c9690df	0.018379627
222	0xbaa2f9cc	-0.0012434064
223	0xbc9eb072	-0.019371245
224	0x3cf1bfc1	0.02951038
225	0x3b1a9846	0.0023589297
226	0x3da35625	0.07975415
227	0xbc98d1fe	-0.01865482
228	0x3e57a7a1	0.21060039
229	0x3cc43701	0.02395201
230	0x3ce85b8e	0.02836397
231	0xbc9308a9	-0.017948465
232	0x3cb828db	0.022480419
233	0x3cea41c2	0.028595809
234	0x3c1e2a69	0.009653666
235	0x3b105bde	0.0022027413
236	0x3d05818b	0.032594245
237	0xbcee18d9	-0.029064583
238	0xbb5f83ee	-0.0034105736
239	0x3cadf63a	0.021235574
240	0x3b2c4b10	0.0026289858
241	0xbc7af087	-0.015316135
242	0x3ee1503f	0.44006535
243	0xbbcde965	-0.0062839263
244	0x3cfacb73	0.03061459
245	0x3b6cce8b	0.0036133851
246	0xbc4e715d	-0.01260027
247	0xbc9cf99d	-0.019161994
248	0x3c0e4a02	0.008684637
249	0xbd1f5fdd	-0.03890978
250	0x3ce1793a	0.027523626
251	0x3cc971a3	0.024590319
252	0x3dbc1f49	0.09185655
253	0x3c4ad439	0.012379699
254	0xbc84de93	-0.016219413
255	0x3c8182db	0.015809467
