MyZipTobeUploaded/helpdesk_Neighbour_embedding/TimestampPredictor_parameters_helpdesk_weighted_0.001_run0_better.pt (torch, 286967 bytes, 8 tensors)

layer1.bias f4 [9]
0	0x00000000	0.0
1	0x00000000	0.0
2	0x00000000	0.0
3	0x00000000	0.0
4	0x00000000	0.0
5	0x00000000	0.0
6	0x00000000	0.0
7	0x00000000	0.0
8	0x00000000	0.0

layer1.W f4 [4, 2]
0	0x3ec309b0	0.38093328
1	0xbe922dbe	-0.28550524
2	0xbf2c7f23	-0.67381495
3	0x3f27e73b	0.65587205
4	0x3fb8c940	1.4436417
5	0x3f62de91	0.8862086
6	0x409c9364	4.892992
7	0x40aba78c	5.3642025

layer1.a f4 [4, 1]
0	0xbe0a5e83	-0.13512616
1	0x3f00fffa	0.5039059
2	0xbf71b223	-0.9441244
3	0xbf91ea3e	-1.139961

layer2.0.weight f4 [256, 18]
0	0xbced2113	-0.028946435
1	0xbddde7a0	-0.108351946
2	0xbe5ec21f	-0.21753739
3	0xbd0eefa5	-0.03489651
4	0xbe4231e2	-0.18964341
5	0xbe91c544	-0.28470814
6	0x3cb1eda4	0.021719761
7	0xbc9515a1	-0.01819879
8	0x3e2e8546	0.17043027
9	0xbf09c389	-0.5381399
10	0x3de51736	0.11186068
11	0x3d878496	0.06617086
12	0x3da9d446	0.08292441
13	0xbe95ded8	-0.2927158
14	0xbe9874b3	-0.29776534
15	0x3d4a267b	0.049353104
16	0xbf0b8e22	-0.5451375
17	0xbf4799db	-0.7796914
18	0xbea666a5	-0.32500187
19	0xbc2948ab	-0.010332267
20	0x3e248dac	0.16069669
21	0xbf020276	-0.50785005
22	0x3e88c33e	0.26711458
23	0xbeca2c00	-0.39486694
24	0xbd38dd0a	-0.045132674
25	0xbd7ad88d	-0.061241675
26	0x3d93e4f7	0.07221406
27	0xbf05ca8e	-0.522622
28	0xbe5c32c0	-0.21503735
29	0xbe3dc473	-0.1853197
30	0x3dbd4420	0.092415094
31	0xbea86dc6	-0.3289625
32	0xbd9811a2	-0.07425238
33	0x3cfab6bf	0.030604718
34	0xbf24e938	-0.64418364
35	0xbe96e90c	-0.29474676
36	0x3dc21c64	0.09478071
37	0x3d8461a7	0.06463938
38	0xbe61e62b	-0.22060458
39	0x3d81ade8	0.06331998
40	0x3dfe47ab	0.12416013
41	0xbecf94af	-0.40543124
42	0x3e03132c	0.12800282
43	0x3e027a96	0.12742075
44	0xbe54babb	-0.20774357
45	0xbebe6182	-0.37183768
46	0xbd13871b	-0.03601752
47	0xbe57d84e	-0.21078607
48	0x3e6c81ed	0.23096438
49	0xbe2d7023	-0.16937308
50	0xbe8ee503	-0.27909097
51	0x3e7be252	0.24598053
52	0xbe4b2a1f	-0.19840287
53	0x3e240c03	0.16020207
54	0xbd794ba2	-0.060863145
55	0x3e0ea2f1	0.13929345
56	0x3e452dbd	0.19255729
57	0xbde5e2eb	-0.11224922
58	0x3f4dfa11	0.80459696
59	0xbf806de8	-1.0033541
60	0x3ef50d8a	0.47861892
61	0xbe9fb9d8	-0.31196475
62	0xbf5d2e69	-0.8639894
63	0x3f974c66	1.182019
64	0xbf533b24	-0.82512116
65	0x3f2c2dc7	0.6725735
66	0xbd230349	-0.039798055
67	0x3e142f53	0.14471178
68	0xbf451e89	-0.7699972
69	0xbf8c4c3d	-1.0960766
70	0xbff8c854	-1.9436135
71	0xbf52ebce	-0.8239106
72	0x3e0363f3	0.12831096
73	0xbee000a9	-0.43750504
74	0x3ed69c9a	0.41916353
75	0xbf0a6f48	-0.5407605
76	0xbe92de2c	-0.2868513
77	0x3d8b65cb	0.06806525
78	0x3ee57410	0.4481511
79	0xbebe0a46	-0.37117213
80	0xbf39564d	-0.7239731
81	0x3f559120	0.8342457
82	0x3e4620d3	0.19348459
83	0xbe3b7757	-0.18307243
84	0x3f187cc5	0.59565383
85	0xbf0b23d4	-0.54351544
86	0xbf0bcfe4	-0.5461409
87	0xbf0f20dc	-0.55909514
88	0x3f85f8ee	1.0466592
89	0x3f5690e1	0.8381482
90	0xbe14ab28	-0.14518416
91	0xbd14b897	-0.03630885
92	0xbe8df206	-0.27723712
93	0x3d60749c	0.054798707
94	0xbf195777	-0.59899086
95	0x3f4b6b78	0.7946086
96	0xbe5f9d9c	-0.21837467
97	0xbe6db634	-0.23214036
98	0xbd41603d	-0.04721092
99	0x3e2dbffc	0.16967767
100	0xbeb1db1c	-0.3473748
101	0xbf8bf0f0	-1.0932903
102	0x3cc0c597	0.023531718
103	0xbf19bf3b	-0.6005742
104	0xbf3e3766	-0.7430328
105	0xbe5ed737	-0.21761785
106	0x3f1a3e21	0.6025105
107	0x3e798cb0	0.24370074
108	0x3e7dadf9	0.24773397
109	0xbea73da0	-0.32664204
110	0x3d7de616	0.061987005
111	0xbdc091fa	-0.09402843
112	0xbe2baf50	-0.16766095
113	0xbd7ace67	-0.061231997
114	0xbd3bdca0	-0.0458647
115	0x3d67bba1	0.05657542
116	0xbe009824	-0.12558037
117	0xbebde094	-0.37085402
118	0xbf141f7c	-0.5786054
119	0x3e0623e0	0.13099623
120	0xbe20c474	-0.15699941
121	0xbe78d697	-0.2430061
122	0xbe8b300f	-0.27185103
123	0xbd5e9799	-0.054343794
124	0xbf09b5b5	-0.5379289
125	0x3eb6782b	0.35638556
126	0xbd9ae4f3	-0.075632
127	0xbe2a1ed2	-0.1661332
128	0x3ec323be	0.38113207
129	0xbeb7c491	-0.35892156
130	0xbf1d9e94	-0.61570096
131	0xbd303a2b	-0.043024223
132	0x3e489cbc	0.1959104
133	0xbf2b354f	-0.6687822
134	0x3c2ab8ee	0.010420067
135	0x3d68d608	0.05684474
136	0x3c689e5f	0.014197915
137	0x3ef71100	0.48255157
138	0x3dc309ab	0.095233284
139	0x3b190024	0.002334603
140	0x3d81884d	0.063248254
141	0xbf09c137	-0.5381045
142	0xbf778ea8	-0.9670205
143	0x3f0cd25b	0.55008477
144	0xbdb794bf	-0.08963918
145	0x3eab9778	0.33514
146	0x3f463748	0.774281
147	0x3e445791	0.19174029
148	0xbfb2090d	-1.3909012
149	0x3f37a87e	0.71741474
150	0x3ee03bf1	0.43795732
151	0x3e061a93	0.13096075
152	0x3e3e8721	0.18606235
153	0xbf2eda88	-0.683022
154	0xbf1b9451	-0.6077319
155	0xbf7efad4	-0.99601483
156	0x3e70dbc0	0.23521328
157	0xbea7efc7	-0.32800123
158	0x3e61777c	0.22018236
159	0x3ee724b7	0.451452
160	0x3f8137c0	1.0095139
161	0x3ecfb92a	0.40570956
162	0x3ea2af80	0.3177452
163	0x3c46faf3	0.012144792
164	0xbe4a98a0	-0.19784784
165	0xbe7d6939	-0.2474717
166	0x3cac4a6c	0.02103158
167	0xbf235d5a	-0.6381432
168	0xbda9f160	-0.08297992
169	0xbea86711	-0.32891133
170	0x3e5e823c	0.21729368
171	0xbefb057f	-0.4902763
172	0xbe45be43	-0.1931086
173	0xbee69601	-0.4503632
174	0xbe2af19e	-0.16693732
175	0xbe819472	-0.25308567
176	0xbc717b5a	-0.014738882
177	0x3cd50de0	0.026007593
178	0x3d96635d	0.07343171
179	0xbee27076	-0.44226426
180	0x3daf252a	0.0855201
181	0x3fbbdff4	1.467772
182	0x3f0a31f8	0.53982496
183	0xbe00a6e7	-0.12563668
184	0x3ece807f	0.4033241
185	0x3f39da28	0.72598505
186	0x3db268b3	0.08711376
187	0xbf19a769	-0.6002107
188	0x3ef000cb	0.46875605
189	0xbe6b97d1	-0.23007132
190	0xbfb46667	-1.4093751
191	0xbfa38422	-1.2774699
192	0xbdbaae74	-0.091153055
193	0xbf4ab46d	-0.7918156
194	0xbf2b3afe	-0.6688689
195	0xbf1f90b3	-0.6233017
196	0x3f79eeb5	0.97629863
197	0x3fa73bc8	1.3065119
198	0xbd161177	-0.03663775
199	0x3e4cbdb3	0.1999424
200	0xbe1314d4	-0.14363414
201	0x3d1f0fdf	0.038833495
202	0x3dc7b30c	0.09750947
203	0xbe3051d5	-0.17218716
204	0xbe09e858	-0.13467538
205	0xbeb70221	-0.35743812
206	0xbdaaee19	-0.08346195
207	0xbe3f5c80	-0.1868763
208	0xbef81aed	-0.48458043
209	0xbe8ca150	-0.27466822
210	0xbe6b695c	-0.2298941
211	0xbe8f1c49	-0.27951267
212	0xbed60e4d	-0.41807786
213	0x3e07a461	0.132463
214	0xbe8acfd2	-0.2711168
215	0x3d9eeadd	0.0775964
216	0x3f557ed0	0.83396626
217	0xbeb11087	-0.34582922
218	0xbd15016b	-0.036378305
219	0x3dd6b1bb	0.10483118
220	0x3ed9a59a	0.42509156
221	0x3da7bf35	0.08190767
222	0xbdf155ee	-0.11783968
223	0x3f05b263	0.5222532
224	0x3f18276e	0.59435165
225	0x3df6b666	0.120465085
226	0x3f6dcbc8	0.9288907
227	0x3e4161ff	0.18885039
228	0x3dbbd09b	0.09170648
229	0x3e82b929	0.2553189
230	0xbec37314	-0.38173735
231	0xbf8c735f	-1.0972708
232	0xbfa3b7a2	-1.2790415
233	0xbf0d2108	-0.55128527
234	0xbee1f1e5	-0.44129863
235	0x3ef8c1db	0.485854
236	0x3deded8c	0.11617574
237	0xbdb8b6cf	-0.09019243
238	0x3d81861d	0.06324408
239	0x3f26d47d	0.6516798
240	0x3e6959bc	0.22788137
241	0xbe49d311	-0.19709422
242	0xbd324cff	-0.04353046
243	0x3e91b611	0.28459218
244	0xbf2ce96f	-0.6754369
245	0xbf0f4e80	-0.55979156
246	0xbd755eb7	-0.05990478
247	0xbdfa290d	-0.12214861
248	0xbec62d35	-0.38706365
249	0xbe1f1b4b	-0.15537755
250	0xbeaebf41	-0.3413029
251	0xbeb67b35	-0.35640875
252	0xbc40858c	-0.01175059
253	0xbe93750c	-0.28800237
254	0xbfb88e95	-1.4418513
255	0xbfd69d37	-1.6766728

layer2.0.bias f4 [256]
0	0x3eb85341	0.36001018
1	0xbed0f651	-0.40812925
2	0xbe025ceb	-0.12730758
3	0xc04be77d	-3.186004
4	0x3dd38079	0.103272386
5	0xc03c3bf7	-2.94116
6	0xbf2291a6	-0.6350349
7	0xbecf2098	-0.40454555
8	0xc0a17f65	-5.046801
9	0xbdf287ed	-0.11842332
10	0xc0652c2e	-3.5808215
11	0xbf287411	-0.65802103
12	0x40d26245	6.574496
13	0xbf298410	-0.66217136
14	0x40280e6a	2.6258798
15	0x4099e444	4.8091145
16	0x40a64609	5.196049
17	0x40b23c06	5.569827
18	0x401814b6	2.376264
19	0x3eced752	0.4039865
20	0xbfc9993b	-1.5749887
21	0x40dc90b2	6.892663
22	0xbfafd8ea	-1.3738072
23	0xbe90980b	-0.28241
24	0x3af0114f	0.0018315705
25	0xbef9b65e	-0.48771948
26	0x4089eeb7	4.31039
27	0xbecd7810	-0.40130663
28	0x3fe6341e	1.7984655
29	0xc08e1c89	-4.4409833
30	0x3ef95053	0.48694095
31	0xc0010c98	-2.0163937
32	0xbff28d6f	-1.8949412
33	0xbeae388a	-0.3402751
34	0xbca8ad7c	-0.020590536
35	0x3fabcc3e	1.3421705
36	0x3f043685	0.5164569
37	0x3f0133fc	0.50469947
38	0xbeb8b3db	-0.3607472
39	0xc0cd8623	-6.422624
40	0xbfa34723	-1.2756084
41	0x403a344e	2.9094424
42	0x40b8a4e0	5.7701263
43	0x404deaa4	3.2174463
44	0x3ef573b8	0.4793985
45	0xbf1e891c	-0.6192796
46	0xc0518d0b	-3.2742336
47	0xc01c9a47	-2.4469163
48	0xbf400409	-0.7500616
49	0xbe891081	-0.26770404
50	0x3d4908cc	0.049080655
51	0xbf098255	-0.53714496
52	0xbd02f011	-0.031967226
53	0x402d6c6d	2.7097428
54	0x40e639f8	7.1945763
55	0xc0734ada	-3.8014436
56	0x40bfc7f2	5.9931574
57	0x400fe038	2.2480602
58	0xc0471bf3	-3.111081
59	0x4086f8b2	4.2178583
60	0x40aa89b1	5.329308
61	0x4033925f	2.8058088
62	0xbf6e5de9	-0.93112046
63	0x3e5fc962	0.21854165
64	0x40dbdd78	6.8707848
65	0xbebebcb8	-0.37253356
66	0xc0caf2f3	-6.342157
67	0x3fc95c96	1.573138
68	0xbecaa6d0	-0.39580393
69	0xc0741626	-3.8138518
70	0xbdcfab91	-0.101401456
71	0x3faa1e44	1.3290486
72	0x408c6455	4.3872476
73	0xbf0f27f8	-0.5592036
74	0x3c1cc45e	0.009568302
75	0xc088604e	-4.261756
76	0xc050fb68	-3.2653446
77	0xbfe2f95e	-1.7732351
78	0xbfd20d84	-1.6410375
79	0xc00e8f53	-2.2274978
80	0xbfa37a44	-1.2771688
81	0x40883acd	4.257178
82	0xc0538a70	-3.3053246
83	0xbe906b61	-0.28206924
84	0xbde21537	-0.11039203
85	0xc0473dbf	-3.1131437
86	0xbf052b90	-0.52019596
87	0x3cc14752	0.023593578
88	0xbc9dd541	-0.019266726
89	0xbe1493f1	-0.1450956
90	0xc07b4e5a	-3.9266572
91	0x3d19d11b	0.037552934
92	0x408a0d53	4.3141265
93	0xbb9c1549	-0.0047632796
94	0xc095b2d7	-4.678081
95	0x3d82a41b	0.06378957
96	0xbd85a5ac	-0.0652574
97	0xbed23b83	-0.4106103
98	0xbf58a829	-0.8463159
99	0xc0a58825	-5.172869
100	0xbf3c740f	-0.7361459
101	0xc072bc7d	-3.7927544
102	0xc0351719	-2.8295348
103	0xc089b80d	-4.303717
104	0xbfb0a218	-1.3799467
105	0x405ad9dd	3.4195473
106	0xc0a50074	-5.1563053
107	0x40049ea6	2.0721831
108	0xbe97922c	-0.29603708
109	0xc0318ae5	-2.7741024
110	0x40806e3c	4.0134563
111	0xbf8350c5	-1.0259024
112	0xbedb1008	-0.42785668
113	0x404313b0	3.0480766
114	0xbd3b689d	-0.045754064
115	0xc0c4162e	-6.1277075
116	0x40c84c47	6.259311
117	0xc061ea3e	-3.529922
118	0xbe1d124c	-0.15339011
119	0x40a57f93	5.171823
120	0xbe927a13	-0.2860876
121	0xbfa551ba	-1.2915566
122	0xbe909951	-0.2824197
123	0x3fd0dd58	1.6317549
124	0xc0262c0e	-2.596439
125	0xbe8b0fde	-0.27160543
126	0xbe816ee1	-0.25279906
127	0x40132c08	2.2995625
128	0xc0abe3d8	-5.371563
129	0x3e9374b4	0.28799975
130	0x3ff7ce55	1.9359843
131	0x3f8c6503	1.0968326
132	0xc0494e2c	-3.1453962
133	0x40198ab7	2.3990915
134	0xbe454fe0	-0.19268751
135	0x40489f5e	3.134727
136	0xc017277c	-2.361785
137	0xbee2ddf2	-0.44309956
138	0xbde1ac39	-0.11019177
139	0x40e3b9b8	7.1164207
140	0xbd9d6eea	-0.07687171
141	0xc0254af9	-2.582701
142	0xbf1d6d08	-0.61494493
143	0xbebc5860	-0.36786175
144	0xc0050b67	-2.078821
145	0xc0349da2	-2.8221211
146	0xc01cb9f7	-2.4488504
147	0xc0a449b2	-5.133996
148	0xbfe3dc0a	-1.7801526
149	0x3dbe324f	0.09286939
150	0xbedf4dcb	-0.4361404
151	0xc0b797d7	-5.737285
152	0x4082e195	4.090037
153	0x4000ff5c	2.015586
154	0x40703b3b	3.7536151
155	0xc00fff85	-2.2499707
156	0xbebddebc	-0.37083995
157	0xc074ca32	-3.824841
158	0xc0402709	-3.0023825
159	0x3f5fd50b	0.8743445
160	0xc0173cff	-2.363098
161	0x402b0089	2.6719077
162	0xbfac9e5d	-1.3485829
163	0xc0415eb5	-3.0214055
164	0xc0b5f9da	-5.6867495
165	0xc039751f	-2.8977735
166	0x40cd2428	6.4106636
167	0x3ef8a235	0.48561254
168	0x4015507f	2.333038
169	0x40164f5a	2.3485932
170	0xc08fba1a	-4.4914675
171	0xbfa2bd6a	-1.2714055
172	0xc0461477	-3.094999
173	0xc0355afc	-2.8336782
174	0xbf2c0692	-0.67197526
175	0x400be36b	2.1857555
176	0xbe80216e	-0.25025505
177	0xbeaa5ec0	-0.33275414
178	0xbf38e909	-0.72230583
179	0xc0b8b666	-5.7722654
180	0xc02306b4	-2.5472841
181	0xc080ec92	-4.028878
182	0x40921780	4.5653687
183	0xbf214532	-0.6299621
184	0xbf2be626	-0.67148054
185	0x4086b179	4.209164
186	0xbc823e00	-0.015898705
187	0xc012a5f0	-2.291378
188	0xbf9a2c8d	-1.2044846
189	0xbf0eceda	-0.5578438
190	0xbe9caeb0	-0.30602026
191	0xbd88608f	-0.06659042
192	0x3ff74c3b	1.9320139
193	0xbfe13928	-1.7595568
194	0x405ccd61	3.4500353
195	0x40b1e9e5	5.5598016
196	0xc019a21e	-2.4005198
197	0xbe58243c	-0.21107572
198	0x40afe945	5.4972253
199	0xbdd5b8f6	-0.10435669
200	0xbf1aba12	-0.6044017
201	0xbe5bfbb8	-0.21482742
202	0xc006188b	-2.095248
203	0xbe0db976	-0.13840279
204	0xbd913e8c	-0.07092008
205	0xc080a646	-4.020297
206	0xbf326218	-0.6968093
207	0xbedb3037	-0.42810223
208	0xc0cb169a	-6.346509
209	0x3f40b8de	0.75282085
210	0xbffc37a6	-1.9704483
211	0xbf35ba8d	-0.7098778
212	0xc095e04b	-4.6836295
213	0x40917867	4.5459476
214	0xc09289f5	-4.5793405
215	0xc01dbcea	-2.4646554
216	0x40face53	7.837686
217	0x3ed0f23d	0.40809813
218	0x3e3268dc	0.17422813
219	0xbebf48d9	-0.37360266
220	0xc0b2adff	-5.5837398
221	0xc0549580	-3.3216248
222	0xbebabd5d	-0.36472598
223	0xbe63a505	-0.22230919
224	0x3fb75df7	1.4325551
225	0x3ecd225a	0.4006527
226	0xbf53ed54	-0.8278401
227	0xc06b2d16	-3.6746268
228	0xc042faaa	-3.0465493
229	0xc026c715	-2.605901
230	0xbf9741fd	-1.1817013
231	0xc042ac09	-3.0417502
232	0xbf7cc3a1	-0.98736006
233	0xc0141823	-2.3139732
234	0xbee39260	-0.44447613
235	0x3d06b885	0.032890815
236	0xc088742d	-4.2641816
237	0x3f5b53e2	0.8567487
238	0xc024ad49	-2.5730765
239	0x3df82ada	0.12117548
240	0x3f522849	0.8209272
241	0x3dfc3fef	0.12316882
242	0xc05c6c8a	-3.4441247
243	0x3f0877d8	0.5330787
244	0xbedd484b	-0.43219218
245	0xc0887694	-4.264475
246	0xc0063993	-2.097264
247	0xbfb2d85b	-1.3972276
248	0x3f1692eb	0.5881793
249	0xc031d125	-2.7783902
250	0xbe318b5f	-0.17338322
251	0xc0318113	-2.773503
252	0x3ff3a802	1.9035647
253	0xbf5bef75	-0.8591226
254	0xbf28d44d	-0.65948945
255	0xc078f339	-3.8898451

layer2.2.weight f4 [256, 256]
0	0xbc60b35a	-0.013714636
1	0xbc627a78	-0.013823144
2	0xbd4de944	-0.050271288
3	0xbd54d45b	-0.05196033
4	0x3d51de90	0.051237643
5	0xbdfaf0be	-0.12252949
6	0x3b9fdeec	0.0048788693
7	0xbc853ab3	-0.016263342
8	0xbc814848	-0.015781537
9	0xbd07acee	-0.033123903
10	0xbd503cb0	-0.050839126
11	0xbc525d70	-0.01283966
12	0xbd63caa2	-0.055613168
13	0x3cbe9fd6	0.023269575
14	0xbd6ab75c	-0.05730377
15	0xbcebdce1	-0.028791847
16	0xbcfddc02	-0.030988697
17	0xbd506fef	-0.050888
18	0xbd292f8a	-0.041305102
19	0xbbc92f31	-0.006139659
20	0xbb892cb0	-0.0041862354
21	0x3c0140a0	0.007888943
22	0xbbd25d97	-0.006419848
23	0xbd62d78d	-0.055381346
24	0xbd79ff34	-0.061034396
25	0x3ceaf4fa	0.028681267
26	0xbd53052b	-0.0515186
27	0x3d08bafc	0.033381447
28	0x3d7d8e12	0.061903067
29	0xbceaf1c4	-0.028679736
30	0xbd677ff7	-0.05651852
31	0xbd688644	-0.05676867
32	0xbda678cd	-0.0812851
33	0x3d64e46e	0.05588191
34	0xbb8af490	-0.00424058
35	0xbc253bdf	-0.010085075
36	0xbd4ed8c5	-0.050499696
37	0xbc3e6090	-0.011619702
38	0xbcf0c0f5	-0.029388884
39	0xbc7f4cd0	-0.015582278
40	0x3d7d0250	0.061769783
41	0xbd1eac58	-0.03873858
42	0xbdbbd55e	-0.09171556
43	0xbd103516	-0.035206877
44	0x3cc6e46c	0.024278842
45	0x3d1c2a00	0.03812599
46	0xbcb862e8	-0.0225081
47	0xbd831def	-0.06402194
48	0xbd3f033f	-0.046633955
49	0xbc3f8be0	-0.011691064
50	0x3c2db1b0	0.010601446
51	0x3cf9b96c	0.030483924
52	0x3d5d43c8	0.05401972
53	0x3cb5f061	0.022209348
54	0x3bd780c5	0.00657663
55	0xbd10194a	-0.035180368
56	0xbd54618f	-0.05185085
57	0xbc4cacd9	-0.012492382
58	0xbd7a41da	-0.061097957
59	0xbdbc814d	-0.0920435
60	0x3c14c850	0.009080961
61	0xbd0b69ba	-0.034036376
62	0x3d7ceee8	0.061751276
63	0x3d1a895e	0.03772866
64	0xbd7a71ba	-0.061143614
65	0xbd306d62	-0.043073066
66	0x3c08c854	0.008348543
67	0x3babd137	0.005243446
68	0xbd03bd6e	-0.032163076
69	0xbd7deb3c	-0.061991915
70	0x3c82a374	0.015947081
71	0xbca33b22	-0.019925658
72	0xbda744eb	-0.08167442
73	0x3cb0a88d	0.021564746
74	0x3d3ff32e	0.046862774
75	0xbd34e5d1	-0.044164483
76	0x3c1505c8	0.009095617
77	0x3c9c65c0	0.019091487
78	0xbc816244	-0.015793927
79	0x3d0a10d4	0.033707455
80	0xbd72edde	-0.05930888
81	0xbd2ca44c	-0.042148873
82	0xbd8afd9a	-0.06786652
83	0xbdac340c	-0.08408365
84	0x3c850bdc	0.016241007
85	0xbca3d197	-0.019997401
86	0x3d0fdd83	0.03512336
87	0x3d7555b4	0.059896186
88	0xba2dd671	-0.00066313805
89	0x3d750030	0.059814632
90	0xbdaec5e9	-0.08533842
91	0xbd25b78e	-0.040458255
92	0x3ca94368	0.020662025
93	0x39073c00	0.00012896955
94	0x3d69b9f3	0.0570621
95	0xbd4bbfee	-0.049743585
96	0xbcbd863c	-0.023135297
97	0xbbb2b950	-0.00545422
98	0xbd44813a	-0.047974803
99	0x3bc53ceb	0.006019225
100	0xbc2b78cb	-0.010465811
101	0xbdb1e091	-0.08685411
102	0xbab58fdf	-0.0013852081
103	0xb9ff6314	-0.0004871121
104	0xbc4813be	-0.012211738
105	0xbd031a38	-0.032007426
106	0xbcd59a7f	-0.026074646
107	0xbc56fc02	-0.013121607
108	0xbd88f18e	-0.06686698
109	0xbd1b0c89	-0.03785375
110	0x3d545214	0.05183609
111	0x3b7ef440	0.0038902909
112	0xbd200fae	-0.039077453
113	0xbc884ee5	-0.016639182
114	0x3c01f9a8	0.007933058
115	0xbdaf1af5	-0.085500635
116	0xbc84d530	-0.016214937
117	0xbd5bfe01	-0.053709034
118	0xbd1cc540	-0.03827405
119	0x3bfa5d9b	0.007640553
120	0x3d530643	0.051519644
121	0xbd6a0d06	-0.057141326
122	0x3c36dee0	0.011161536
123	0x3ca3bcb3	0.01998744
124	0x3cd53186	0.026024591
125	0x3d02dcd2	0.031948872
126	0x3b88d530	0.0041758046
127	0x3c16392f	0.009168907
128	0xbd587c92	-0.052853175
129	0x3c56c964	0.013109539
130	0xba889900	-0.0010421574
131	0xbb92c0a5	-0.0044785314
132	0xbd6276d8	-0.05528912
133	0xbc8d9ca6	-0.01728661
134	0xbce7c3f0	-0.028291672
135	0x3d25ae44	0.040449396
136	0xbd2d4688	-0.042303592
137	0xbc8d8a6c	-0.017277919
138	0x3d0813a4	0.033221856
139	0xbd5dc70e	-0.05414491
140	0x3c56f558	0.013120018
141	0xbd420276	-0.04736563
142	0xbce9317c	-0.028465979
143	0x3ca080c4	0.01959265
144	0xbc78fd03	-0.015197041
145	0xbcf4235b	-0.029802015
146	0xbc1407f0	-0.009035096
147	0xbd500fce	-0.050796323
148	0xbd2ffe06	-0.042966865
149	0xbd250c7c	-0.04029511
150	0x3d067683	0.032827865
151	0xbca508cf	-0.020145802
152	0xbc328f20	-0.0108983815
153	0x3d15451a	0.036442854
154	0x3c87efc1	0.016593816
155	0xbdae0941	-0.08497859
156	0xbd3572d6	-0.04429897
157	0xbbaecde0	-0.005334601
158	0xbc6be370	-0.014397487
159	0xbd1a744f	-0.037708577
160	0xbc18c6d2	-0.009324746
161	0x3cd75588	0.026285902
162	0xbd8091c5	-0.06277803
163	0xbd8c7d43	-0.06859829
164	0x3bd5e38c	0.00652737
165	0xbd119e36	-0.035551272
166	0xbc1dc046	-0.009628361
167	0x3cb92f6a	0.022605617
168	0x3c2d1eb8	0.010566406
169	0xbccc8af1	-0.024968596
170	0xbcae46f1	-0.021274062
171	0x3d0a29d4	0.033731297
172	0x3d05a69e	0.0326296
173	0xbc553d92	-0.013015168
174	0xbcbb24fa	-0.02284478
175	0xbc454130	-0.012039468
176	0x3cb623dc	0.022233896
177	0xbb58767d	-0.003302961
178	0xbd8f10ed	-0.0698565
179	0xbd3f9642	-0.046774156
180	0xbdaaeca0	-0.08345914
181	0xbd23dcea	-0.040005602
182	0x3d21bc8c	0.039486453
183	0x3c8ffba4	0.017576046
184	0x3bd41799	0.0064725396
185	0xbda76e31	-0.08175314
186	0xbd4c3218	-0.04985246
187	0x3a471718	0.0007594689
188	0x3d502776	0.050818883
189	0xbccf65e4	-0.02531714
190	0xbb96d010	-0.0046024397
191	0x3c5a87c0	0.013338029
192	0xbb633c8c	-0.003467354
193	0xbcdfad84	-0.027304418
194	0x3caf8e28	0.02143009
195	0xbd795091	-0.06086785
196	0x3c55e773	0.01305567
197	0xbd1202bd	-0.035647143
198	0xbd7d988d	-0.061913062
199	0xbc5c96c0	-0.013463676
200	0xbce9e17f	-0.028549908
201	0xbda3725d	-0.079807974
202	0xbd20ed0e	-0.039288573
203	0xbcc0ca7b	-0.02353405
204	0x3cf21a98	0.029553697
205	0x3ce38510	0.02777341
206	0xbd001d0e	-0.03127771
207	0x3ca4ecc7	0.020132435
208	0xbd6509de	-0.055917613
209	0xbce02e8c	-0.027365945
210	0xbd0749c2	-0.033029325
211	0x3d0f7570	0.035024107
212	0x3cecc2af	0.028901426
213	0x3cb6a8c4	0.02229727
214	0xbc8a1a07	-0.016858114
215	0xbdcdd993	-0.100512646
216	0x3c609303	0.013706925
217	0xbd6eee4e	-0.058332734
218	0x3d47ce89	0.04878095
219	0x3b850794	0.0040597413
220	0x3bab99b0	0.005236827
221	0xbc6dde68	-0.014518358
222	0x3d3e8f2f	0.04652327
223	0x3c51acb3	0.012797522
224	0xbd7344c2	-0.059391744
225	0xbd2aa904	-0.041665092
226	0xbc8a0d34	-0.016851999
227	0x3c415d8e	0.01180209
228	0xbc8fe8db	-0.017567089
229	0x3d053a19	0.03252611
230	0x3b826266	0.003979015
231	0xbd9a9d87	-0.07549577
232	0xbd3d2c2b	-0.0461847
233	0x3c5f1d5d	0.013617841
234	0xbca493b7	-0.020089967
235	0x3d7aca24	0.061227933
236	0xbd85924a	-0.06522043
237	0xbd69092e	-0.05689352
238	0xbc1fee5e	-0.009761421
239	0xbcf86b5c	-0.03032463
240	0x3c5faa7d	0.013651487
241	0x3ab773c0	0.0013996288
242	0xbd0eaaae	-0.03483074
243	0x3cbdcd8f	0.023169307
244	0xbdc1e953	-0.09468331
245	0xbd0e7fd5	-0.03478988
246	0x3c2927d8	0.010324441
247	0xbbb887cc	-0.0056314226
248	0x3c8eb703	0.017421251
249	0x3d21171e	0.039328687
250	0xbd06722d	-0.03282373
251	0xbdba1d76	-0.090876505
252	0xbdb64242	-0.088993564
253	0x3d20568a	0.03914503
254	0xbc0729c6	-0.008249706
255	0xbda04c56	-0.0782706

layer2.2.bias f4 [256]
0	0xbdd98646	-0.10621314
1	0xbd9ff06f	-0.07809531
2	0xbe13cbd7	-0.14433227
3	0x3ec5516a	0.38538677
4	0x3fe3c336	1.7793949
5	0x3d36e153	0.04464848
6	0xbc2cbf6d	-0.010543686
7	0x3e07e52a	0.13271013
8	0xbdb457f0	-0.08805835
9	0xbe536836	-0.20645222
10	0xbd67c78b	-0.056586783
11	0xbdae0d26	-0.084986016
12	0xbdc0ae08	-0.09408194
13	0xbd9b0275	-0.07568828
14	0x40b3d437	5.619655
15	0xbe01955b	-0.12654631
16	0xbd299076	-0.041397534
17	0xbd3d916a	-0.046281256
18	0xbd82b80a	-0.06382759
19	0xbdb9031f	-0.090337984
20	0xbdb3e7a6	-0.08784418
21	0xbda257b0	-0.07926881
22	0xbd80321e	-0.06259559
23	0xbc96ab3b	-0.018392196
24	0xbd986448	-0.07441002
25	0xbdd08058	-0.1018073
26	0xbcc3a8a5	-0.023884127
27	0x40217db9	2.5232985
28	0xbd9d9aa5	-0.07695512
29	0x3d7ec90e	0.06220346
30	0x3da819c2	0.08208038
31	0xbd96ecff	-0.07369422
32	0xbc972a9a	-0.018452931
33	0x3fbc3499	1.4703552
34	0xbd04b2e8	-0.03239718
35	0xbd8c1fdd	-0.06842015
36	0xbd7cb5d4	-0.061696842
37	0xbd9ce0ba	-0.07660051
38	0x3c98704e	0.018608239
39	0xbe030f4d	-0.12798806
40	0x3e3ae506	0.18251428
41	0xbda3f406	-0.08005528
42	0x3df5d943	0.1200433
43	0x3e6c62fa	0.23084632
44	0x3f2c1680	0.6722183
45	0xbe0198c9	-0.12655939
46	0x3bb48b69	0.005509783
47	0xbc54ddd9	-0.012992346
48	0xbcab4c6f	-0.02091047
49	0x3fed6d87	1.854905
50	0xbe1043c5	-0.14088352
51	0x3d87a48b	0.06623181
52	0xbcce3fad	-0.025176847
53	0x3d96fd12	0.07372488
54	0x3fa1ea46	1.264962
55	0xbdd4486b	-0.10365375
56	0xbe39f192	-0.18158558
57	0x3b1a6ccb	0.002356338
58	0x3d6669a2	0.056253083
59	0xbd9fa4f7	-0.077951364
60	0xbd4102e4	-0.047121897
61	0x3e8190ec	0.2530588
62	0xbc5a2a74	-0.013315786
63	0xbda083e0	-0.07837653
64	0x3e3ed79e	0.18636939
65	0xbd8c6db3	-0.06856861
66	0xbd2fc8eb	-0.04291622
67	0xbd87af7e	-0.06625269
68	0xbd476f04	-0.048689857
69	0xbd96d3fc	-0.073646516
70	0x3d8c0069	0.06836016
71	0xbd140f46	-0.03614738
72	0xbe28c6f6	-0.16482148
73	0x40024b33	2.0358398
74	0xbcf88014	-0.03033451
75	0xbdaf504c	-0.08560237
76	0xbdbc4e7c	-0.09194657
77	0x3d42a350	0.04751903
78	0xbd28a1dc	-0.041169986
79	0xbd03b6b4	-0.03215666
80	0x410547c6	8.330023
81	0xbd7747eb	-0.06037132
82	0xbd874589	-0.0660506
83	0xbd46c0b9	-0.04852364
84	0x3d3d3dfb	0.046201687
85	0xbe053b1c	-0.1301083
86	0x3ba7f769	0.005125929
87	0x3bf79d99	0.007556629
88	0x3c5137f4	0.012769688
89	0xbd399991	-0.045312468
90	0x3e1bbdc7	0.15209113
91	0x3e5c8b30	0.21537471
92	0xbe20887e	-0.15677068
93	0xbd2c4cec	-0.042065546
94	0xbdd205b3	-0.10254993
95	0x3d240bc6	0.04005029
96	0x3f961976	1.172652
97	0xbc939718	-0.018016383
98	0x3f25d008	0.64770555
99	0xbdb32ed2	-0.08749165
100	0xbc911664	-0.017710872
101	0xbd6c528c	-0.05769591
102	0x3d2798ec	0.040917322
103	0xbe3d259c	-0.18471378
104	0x3cf5a5be	0.029986259
105	0xbdee7448	-0.11643273
106	0xbc2c6b6a	-0.010523656
107	0xbda02923	-0.07820346
108	0xbd5b933b	-0.053607207
109	0xbdebfa57	-0.11522358
110	0x3c12b868	0.008955099
111	0x3c4c6146	0.012474364
112	0xbdca5f14	-0.09881416
113	0xbdb0a2a6	-0.08624773
114	0x3e24870b	0.1606714
115	0xbe0b8cbc	-0.13627905
116	0xbc35b5ae	-0.011090679
117	0xbdfae24d	-0.12250195
118	0xbcdf709e	-0.02727538
119	0xbe01f37a	-0.12690535
120	0xbdb10d29	-0.08645088
121	0xbd7f57af	-0.06233948
122	0xbcdbcb8b	-0.026830455
123	0xbac3abed	-0.0014928557
124	0xbdd6da13	-0.10490813
125	0xbd777136	-0.0604107
126	0xbda3bbe4	-0.07994822
127	0x3ebb99fe	0.36640924
128	0xbda03789	-0.078230925
129	0x3a8209af	0.0009921099
130	0x3e907f21	0.28221992
131	0xbe469142	-0.19391349
132	0xbc1725fb	-0.009225364
133	0x3cce1cdf	0.025160251
134	0xbcc6042d	-0.024171913
135	0xbd9fd773	-0.078047656
136	0x405b0a81	3.422516
137	0xbcabffaa	-0.020995934
138	0xbd601efa	-0.05471704
139	0x408d84b6	4.42245
140	0xbda5714a	-0.08078249
141	0xbd7562bf	-0.059908625
142	0xbdbff43f	-0.09372758
143	0xbd2e1467	-0.042499926
144	0x40c4da98	6.151684
145	0xbc657486	-0.014004832
146	0x3aea2d97	0.001786637
147	0xbd2e6924	-0.04258074
148	0xbd992496	-0.07477681
149	0xbdab28c8	-0.08357388
150	0xbd2d3292	-0.042284556
151	0xbdab529d	-0.083653666
152	0xbdfaa847	-0.122391276
153	0xbdad0ca6	-0.08449678
154	0xbddf40c9	-0.10901029
155	0xbdf665a4	-0.12031105
156	0x3e9ca45b	0.30594143
157	0x3c716d9b	0.014735605
158	0xbd22351a	-0.039601423
159	0xbd481e0a	-0.048856772
160	0x3decdaa9	0.115651436
161	0xbda29754	-0.0793902
162	0xbd722a42	-0.05912233
163	0x3b6d42aa	0.0036203065
164	0xbd2ba500	-0.041905403
165	0xbc877a6f	-0.016537873
166	0xbcefbae7	-0.029263927
167	0xbd8286fc	-0.063734025
168	0x409d0e05	4.9079614
169	0xbe121c40	-0.14268589
170	0xbcfe59ed	-0.03104874
171	0xbdf348a4	-0.118790895
172	0x3fcbf061	1.5932733
173	0xbd052a70	-0.032511175
174	0xbcb3dee7	-0.021956874
175	0x3d88e3ad	0.06684051
176	0xbe1e97bf	-0.15487574
177	0xbd5c8bd5	-0.05384429
178	0xbe07a0ea	-0.13244978
179	0xbdff0d6d	-0.12453733
180	0xbdd4b8a6	-0.103867814
181	0xbdfd98b6	-0.12382643
182	0xbcea1e88	-0.028579012
183	0x3fc5d83a	1.5456612
184	0xbdb7aa25	-0.08967999
185	0x3bfeb068	0.007772494
186	0x40f81b7c	7.753355
187	0x3d033e3d	0.032041777
188	0x3cd50196	0.026001733
189	0x3c4f36ef	0.0126473745
190	0xbd7fe810	-0.06247717
191	0xbd286dff	-0.041120525
192	0xbc759019	-0.014987969
193	0xbd150216	-0.036378942
194	0x3d8e06b7	0.069348745
195	0x3daca219	0.08429355
196	0x3e4424e2	0.19154695
197	0xbcf0787c	-0.029354326
198	0xbd9da1e6	-0.07696895
199	0xbda9f9c0	-0.08299589
200	0xbe5cb372	-0.21552828
201	0x3f478c10	0.77948093
202	0x3c7ef3ca	0.0155610535
203	0xbd287055	-0.041122753
204	0xbdafc49b	-0.085824214
205	0xbb881b17	-0.00415362
206	0x3d01c078	0.031677693
207	0xbe198860	-0.14993429
208	0x3e1effba	0.1552724
209	0xbe685a1e	-0.22690627
210	0x40f587c8	7.672825
211	0xbe356d89	-0.17717566
212	0xbd1ac1e5	-0.03778257
213	0xbdbbbe8f	-0.091672055
214	0xbdaed3c3	-0.08536484
215	0x4084a5ac	4.1452236
216	0xbe07607d	-0.13220401
217	0xbdc8bcd6	-0.098016426
218	0xbdb3da48	-0.08781868
219	0xbd806ad0	-0.06270373
220	0x3f9a05f0	1.2033062
221	0xbd88acd7	-0.066735916
222	0x3dcb492b	0.09926065
223	0xbcd950e7	-0.026527835
224	0x3d0a52ea	0.03377048
225	0x3e34bc3b	0.17649929
226	0x3d87ae85	0.06625084
227	0xbd7c56d2	-0.061606236
228	0xbe1b1669	-0.15145268
229	0xbdd0cfe4	-0.10195902
230	0xbd084b72	-0.033275075
231	0xbc0e2adc	-0.008677211
232	0xbcf30d8d	-0.029669547
233	0xbd9cb707	-0.07652097
234	0xbc7eec8d	-0.015559328
235	0xbe03451a	-0.12819329
236	0xbced99a5	-0.029003927
237	0xbdd30feb	-0.103057705
238	0xbdcfff38	-0.10156101
239	0xbd88ad90	-0.066737294
240	0x3d80b459	0.062843986
241	0xbd9ed9da	-0.07756396
242	0x3da543cc	0.08069572
243	0xbd8f3548	-0.069925845
244	0xbdf06f5e	-0.117399916
245	0xbe4178f1	-0.18893792
246	0x40fc0bae	7.8764257
247	0xbd6e92d2	-0.058245488
248	0x3d10e591	0.03537518
249	0xbdc842d3	-0.09778371
250	0xbae5c636	-0.0017530385
251	0xbccb2d21	-0.024801793
252	0xbea5a494	-0.32352126
253	0xbde90a38	-0.11378902
254	0xbd395dee	-0.045255594
255	0xbd0bb8e4	-0.034111872

layer2.4.weight f4 [1, 256]
0	0xbcc2c809	-0.023777025
1	0x3cf3e386	0.029771578
2	0x3cd3e83a	0.02586757
3	0xbb9aa709	-0.004719619
4	0xbdcc4b07	-0.09975248
5	0x3c188cd5	0.009310921
6	0x3ca25c7e	0.019819494
7	0xbb52a362	-0.003214084
8	0xbc45a6f3	-0.01206373
9	0xbcaa7584	-0.020807989
10	0x3bd72902	0.006566168
11	0xbc887fbd	-0.016662473
12	0x3c0779eb	0.008268814
13	0x3cef0d47	0.029181136
14	0x3cd59d93	0.026076114
15	0x3ba13b24	0.00492038
16	0x3c267d9e	0.010161785
17	0xbcb2bd1d	-0.021818692
18	0xbc617449	-0.013760635
19	0xbafe2f8d	-0.0019392833
20	0x3cd9fea8	0.026610687
21	0x3d023d48	0.031796724
22	0xbcf3752e	-0.029718962
23	0xbcf43038	-0.029808149
24	0x3d20a7e0	0.039222598
25	0xbc9a270e	-0.01881745
26	0x3c375037	0.011188558
27	0x3c036b35	0.008021166
28	0xba1e676c	-0.0006042633
29	0x3bd8d3f9	0.006617066
30	0x3c6a4b4a	0.014300177
31	0xbc1dd12a	-0.009632388
32	0x3d015a22	0.031580098
33	0x3c8e70e3	0.017387813
34	0xbc582386	-0.013192063
35	0x3c1e1787	0.009649164
36	0xbcac67fe	-0.021045681
37	0xbd07658c	-0.033055827
38	0x3c70553b	0.014668758
39	0x3c199a83	0.009375217
40	0xbc877d9b	-0.016539386
41	0x3cbbf195	0.022942344
42	0x3cf41d54	0.029799141
43	0x3ce4d8c3	0.027935391
44	0xbc146a63	-0.009058568
45	0xbc7ed635	-0.015554001
46	0xbca23adf	-0.019803463
47	0xba8e5ce8	-0.0010861428
48	0xbc3e8d38	-0.011630349
49	0xbdd94f56	-0.10610835
50	0x3c0dbff8	0.008651726
51	0x3cefc468	0.029268458
52	0xbc310593	-0.010804552
53	0xbb7a6144	-0.0038204947
54	0xbcb32473	-0.021867966
55	0xbc921908	-0.017834201
56	0x3c348f73	0.011020529
57	0x3cd47832	0.02593622
58	0xbc71ee70	-0.014766321
59	0x3b2ebbb3	0.002666217
60	0xbaba6be7	-0.0014222831
61	0xbc4e79ad	-0.012602252
62	0xbd32b20b	-0.043626826
63	0x3a738596	0.000928962
64	0x3cfb6d01	0.030691626
65	0xbb6c538b	-0.0036060538
66	0x3b943485	0.0045228624
67	0x3b72b1a2	0.0037032147
68	0x3cfacecf	0.030616192
69	0xbd3138fd	-0.04326724
70	0x3baa5231	0.0051977863
71	0x3a73ce7f	0.00093004847
72	0x3cab8502	0.020937447
73	0xbcdd8942	-0.027042989
74	0xbc921632	-0.01783285
75	0x3c4d1d4d	0.012519193
76	0xbcfb61ae	-0.030686226
77	0xbc3bd2dc	-0.011463847
78	0xbbcdf9d5	-0.006285886
79	0x3caa9ec2	0.020827655
80	0x3e09419b	0.13403933
81	0xbc89ab14	-0.01680521
82	0xbcedc4e6	-0.029024553
83	0xbc1ef717	-0.0097024655
84	0xbcdf9854	-0.027294315
85	0x3cee12a8	0.02906163
86	0xbb008c20	-0.001961477
87	0x3c673e54	0.014113981
88	0xbb890c70	-0.004182391
89	0x3b7c5da7	0.003850797
90	0x3b95d376	0.0045723272
91	0xbc82c678	-0.015963778
92	0x3ac9f25d	0.0015407313
93	0xbbc17d49	-0.0059048277
94	0x3caf6172	0.02140877
95	0x3ccdae26	0.025107455
96	0x3e5519ea	0.20810667
97	0x3c003a9b	0.007826473
98	0x3cba8cdd	0.022772247
99	0xba51b446	-0.000799958
100	0x3c1dc2bf	0.009628951
101	0xbca29b7a	-0.019849528
102	0x3a75df74	0.00093793054
103	0x3cbc436b	0.022981366
104	0x3bfae70c	0.0076569375
105	0xbb694d06	-0.0035598888
106	0xbc6bf2e7	-0.014401174
107	0x3cac5c0a	0.021039981
108	0x3b2bf808	0.0026240367
109	0x3cef5947	0.029217375
110	0x3c097e55	0.008391936
111	0x3c97f331	0.01854858
112	0xbcf36893	-0.02971295
113	0xbcfeeedb	-0.031119755
114	0xbc444c34	-0.011981059
115	0x3aa4848f	0.0012551713
116	0x3cf9e469	0.030504422
117	0xbabedf55	-0.0014562408
118	0xbba28d2e	-0.0049606776
119	0x3c5ac433	0.013352442
120	0xbd64ab00	-0.05582714
121	0xbd057dbb	-0.03259061
122	0x3c64eec2	0.01397294
123	0x3c8bc484	0.01706148
124	0x3c2f4137	0.010696701
125	0xbbbf2a2a	-0.005833884
126	0xbc1f2fd6	-0.009715995
127	0xbc42176d	-0.011846405
128	0x3ce14433	0.02749834
129	0x3ce18dba	0.0275334
130	0x3dbd2de4	0.092372686
131	0x3c33a328	0.010964192
132	0x3ced775a	0.028987575
133	0x3a9c9955	0.0011947552
134	0xbc1f313a	-0.009716326
135	0xbca489c3	-0.020085221
136	0x3c7f81ac	0.015594881
137	0x3cfff0d7	0.031242771
138	0x3b92f63b	0.0044849194
139	0x3fe590c6	1.7934806
140	0xbcf3c777	-0.029758198
141	0x3bf4aeae	0.0074671125
142	0x3cff245e	0.03114527
143	0x3cf5b540	0.029993653
144	0x3e159442	0.14607337
145	0xbc82e04f	-0.0159761
146	0x3b277870	0.0025553964
147	0x3c09b17d	0.008404133
148	0xbc89c01e	-0.016815241
149	0x3cf5fe4c	0.030028485
150	0xbc789351	-0.015171842
151	0x3d00ceaf	0.03144711
152	0x3c869ee4	0.016433187
153	0xbc99e054	-0.018783726
154	0x3bee7c0b	0.0072779707
155	0xbccb4265	-0.024811933
156	0x3dd3c410	0.1034013
157	0xbc354f6c	-0.011066299
158	0xbd19931e	-0.037493818
159	0xbc132b69	-0.008982518
160	0x3c6c4adc	0.014422145
161	0xbc7c553c	-0.015401181
162	0x3bf85df7	0.007579561
163	0xbc839f3c	-0.01606714
164	0xbcfbcab2	-0.030736301
165	0x3c0cae85	0.008586531
166	0x3ce97a85	0.028500805
167	0x3c351a1a	0.011053586
168	0x3f1cee42	0.6130105
169	0x3ce102b5	0.027467111
170	0xbbbd9542	-0.005785615
171	0x3cb22adc	0.021748953
172	0x3cdb5ae0	0.026776731
173	0x3baaa5e8	0.005207766
174	0xbc460903	-0.0120871095
175	0x3c8ad0f5	0.016945342
176	0xbc9dc550	-0.019259125
177	0x3ac189e7	0.001476583
178	0x3beb7053	0.007185021
179	0xbcd9f377	-0.02660535
180	0x3be5da4e	0.0070145493
181	0xbb4e5152	-0.0031481576
182	0xbb542baf	-0.003237467
183	0xbb9fa1a5	-0.0048715645
184	0xbcbf69d9	-0.023365902
185	0xbbc9f755	-0.0061635175
186	0x3d7c1490	0.061543047
187	0xbb2e3f76	-0.0026588119
188	0xbce7e6bc	-0.028308265
189	0x3c8b06a8	0.016970947
190	0xbc2e0efd	-0.010623691
191	0x3b40f3c1	0.0029442164
192	0x38949bed	7.0862334e-05
193	0x3c8a12e6	0.016854715
194	0xbbe474a4	-0.0069719125
195	0x3cb3b4eb	0.021936854
196	0xbc6d5d0f	-0.014487519
197	0x3d010988	0.03150323
198	0x3ce8c023	0.02841193
199	0x3bab7345	0.005232247
200	0x3c131e89	0.008979448
201	0xbcc3a0e0	-0.023880422
202	0x3cbb93e6	0.022897672
203	0x3c11a5ff	0.008889674
204	0x3c89abce	0.016805556
205	0x3c321438	0.010869078
206	0xbb0f4098	-0.002185857
207	0xbcb049d4	-0.021519579
208	0x3c37557f	0.011189817
209	0x3ba0a627	0.0049026194
210	0x3d8d91a9	0.06912548
211	0xbcfdc1a2	-0.03097612
212	0x3caf3250	0.021386296
213	0xbd090ce4	-0.03345956
214	0xbafd2cde	-0.001931574
215	0x3cf70da8	0.030157879
216	0xbc9009bc	-0.017582767
217	0xbaa2403e	-0.0012378765
218	0xbb093d76	-0.0020941175
219	0x3cb660d9	0.022262977
220	0xbd07cba9	-0.03315321
221	0x3b95d5ff	0.0045726295
222	0xbc84ec72	-0.016226027
223	0x3ce44991	0.02786711
224	0x3aabf277	0.0013118525
225	0xbc539303	-0.012913468
226	0x3c422cb9	0.011851483
227	0x3cce380c	0.02517321
228	0xbc834cdc	-0.01602786
229	0x3cedda2c	0.029034697
230	0xbbe3c685	-0.0069511556
231	0x3c1dae77	0.009624115
232	0x3cf8bcba	0.03036343
233	0x3c9f48f2	0.019443963
234	0xbcf0cbb1	-0.029394003
235	0x3cb45636	0.022013765
236	0x3a7c925d	0.0009634847
237	0xbc4c5ece	-0.012473775
238	0xbd3ff554	-0.046864823
239	0xbced4c27	-0.028966976
240	0x3b904f45	0.004403981
241	0xbce6eed4	-0.028190054
242	0xbcac1582	-0.02100635
243	0xbafdb05e	-0.001935493
244	0xbccc7418	-0.024957702
245	0x3ca090a4	0.01960022
246	0x3e23d1a3	0.15997939
247	0xbbfa5c96	-0.0076404316
248	0xbc4f3b4b	-0.012648414
249	0x3c8e99bf	0.017407296
250	0xbc183650	-0.009290293
251	0x3cb761b8	0.022385463
252	0xbad6c3d8	-0.001638527
253	0xbc90eb01	-0.017690184
254	0x3b2a4481	0.0025980773
255	0x3c2cbce6	0.010543084
