MyZipTobeUploaded/helpdesk_Neighbour_embedding/TimestampPredictor_parameters_helpdesk_Binary_0.001_run0.pt (torch, 286967 bytes, 8 tensors)

layer1.bias f4 [9]
0	0x00000000	0.0
1	0x00000000	0.0
2	0x00000000	0.0
3	0x00000000	0.0
4	0x00000000	0.0
5	0x00000000	0.0
6	0x00000000	0.0
7	0x00000000	0.0
8	0x00000000	0.0

layer1.W f4 [4, 2]
0	0x3eddd294	0.4332472
1	0x3ed77682	0.42082602
2	0xbeebab02	-0.46028906
3	0xbf687964	-0.9081023
4	0x3fb0a6f1	1.3800946
5	0xbdd874c3	-0.105691455
6	0x409b7e29	4.8591504
7	0xc117e360	-9.493011

layer1.a f4 [4, 1]
0	0xc003ec19	-2.0612853
1	0x40380237	2.8751352
2	0xbe9d24da	-0.30692178
3	0x3e2ab534	0.16670686

layer2.0.weight f4 [256, 18]
0	0xbf06c066	-0.52637327
1	0xbceb8b17	-0.028752847
2	0xbeae50a3	-0.34045896
3	0xbcf8fea7	-0.030394865
4	0x3e7cbafc	0.24680704
5	0x3dcfbe39	0.10143704
6	0xbe88ae6b	-0.2669557
7	0xbe2821ff	-0.16419218
8	0xbf320eb7	-0.69553703
9	0x3f00cae2	0.50309575
10	0x3ef9a6d8	0.48760104
11	0xbe412699	-0.1886238
12	0xbf15747a	-0.58380854
13	0xbd81afea	-0.06332381
14	0x3db6fab4	0.089345366
15	0x3eb94f59	0.3619335
16	0xbf971db5	-1.1805941
17	0xbe6aa0f9	-0.22912969
18	0x3df2d439	0.118568845
19	0x3f8b3dd2	1.0878241
20	0xbec1a434	-0.3782059
21	0x3f26aac2	0.65104306
22	0x401be82f	2.4360464
23	0xbadf8634	-0.0017053545
24	0x3e2f59f5	0.1712416
25	0x3ee697cb	0.45037684
26	0x3ec3c274	0.38234293
27	0xbf663d19	-0.8993698
28	0xbe62a4dc	-0.22133201
29	0x3dcc4f53	0.099760674
30	0xbc866f33	-0.016410446
31	0x3f4dfb41	0.8046151
32	0x3f7381a2	0.9511968
33	0xbf7a628f	-0.9780664
34	0xbe2f763d	-0.17134948
35	0x3e8f5226	0.27992362
36	0x3ec27bf8	0.37985206
37	0xbd8cf8e4	-0.068834096
38	0xbe023023	-0.12713675
39	0xbe3ce66a	-0.18447271
40	0xbdcd91bb	-0.100375615
41	0x3e65b9c9	0.22434153
42	0x3ef489a4	0.4776126
43	0x3e605545	0.21907528
44	0xbe48f90b	-0.19626252
45	0x3ecc5d21	0.39914802
46	0x3f28212b	0.6567561
47	0xbe931298	-0.28725123
48	0x3dd8a608	0.10578543
49	0x3e8637cc	0.26214445
50	0x3edbce9e	0.42931074
51	0xbe59435e	-0.21217105
52	0xbf171212	-0.5901195
53	0x3f24aa45	0.6432231
54	0xbfa2a101	-1.2705384
55	0x3fc59d52	1.5438635
56	0xbee08a08	-0.4385531
57	0x3fbc1b5b	1.4695848
58	0xbef7313d	-0.48279753
59	0x3f8a7bed	1.0819069
60	0x3e8ea8ac	0.2786306
61	0x3fae4e45	1.3617636
62	0xbec20490	-0.37894106
63	0x3f87decc	1.0614867
64	0x40124eff	2.2860715
65	0xbfcb6370	-1.5889721
66	0xbe495b18	-0.19663656
67	0x3fbdd6f7	1.4831227
68	0x400f0834	2.2348757
69	0xbf916dfe	-1.1361692
70	0x3aa37e5b	0.001247357
71	0xc051e755	-3.2797444
72	0xbd9d8f2e	-0.07693325
73	0x3e707808	0.23483288
74	0xbde76d03	-0.11300089
75	0x3ea0d08b	0.31409106
76	0xbf4fdc4e	-0.81195533
77	0xbdf379e8	-0.11888486
78	0xbdb761f3	-0.08954229
79	0x3ef76065	0.4831573
80	0x3f05ba7d	0.52237684
81	0x3f846f38	1.0346441
82	0x3ea1a944	0.31574452
83	0xbf1bf5ca	-0.6092192
84	0xbd3294a6	-0.043598793
85	0x3e627da0	0.22118235
86	0x3e21700c	0.15765399
87	0xbe9fde11	-0.3122411
88	0xbf0dbfc5	-0.5537074
89	0x3f308f4a	0.6896864
90	0x3f69135e	0.91045177
91	0xbdb9174d	-0.090376474
92	0xbeba00ab	-0.36328635
93	0x3dea72f7	0.11447709
94	0xbea1f26f	-0.31630275
95	0x3e70774a	0.23483005
96	0xbe835b5d	-0.25655642
97	0x3eea1d7b	0.45725617
98	0xbe940fc5	-0.2891828
99	0x3ebf8b39	0.37410906
100	0x3e916acf	0.284018
101	0x3ebd9720	0.37029362
102	0xbe4978b2	-0.19674948
103	0x3de9a1ef	0.114078395
104	0x3f7e173d	0.9925421
105	0x3e817097	0.25281212
106	0xbeaa0de6	-0.3321373
107	0xbf0e30c0	-0.55543137
108	0xbfa4f262	-1.2886469
109	0x40178879	2.3677046
110	0xbefcdb88	-0.4938624
111	0x3fe25dd2	1.7684882
112	0x3fb37781	1.4020845
113	0xbf6f2aa4	-0.9342444
114	0x3cd88584	0.026430853
115	0x3fe8c5a5	1.8185316
116	0x3f06de71	0.5268317
117	0xbf7f8e65	-0.9982665
118	0x3f8364ae	1.02651
119	0xbe24a350	-0.16077924
120	0x3d83ff95	0.06445233
121	0x3ff4b31a	1.9117157
122	0x4026278a	2.5961633
123	0xbf5b92e0	-0.8577099
124	0x3ecb091a	0.3965538
125	0xbfa4f54d	-1.288736
126	0xbec769af	-0.38947818
127	0x3f257a57	0.646398
128	0xbf144071	-0.5791083
129	0x3ebcc116	0.36866063
130	0x3fe572ce	1.7925661
131	0x3dc6186d	0.096726276
132	0xbdb27abc	-0.08714816
133	0x3ec9a1e8	0.39381337
134	0xbea33f25	-0.31884113
135	0xbe9a9115	-0.30188814
136	0x3ef19ada	0.47188455
137	0xbf24ac50	-0.6432543
138	0xbe2620f1	-0.16223504
139	0x3ed49572	0.41520268
140	0x3fd2c010	1.6464863
141	0xbf3045f2	-0.6885673
142	0xbe9535d5	-0.29142633
143	0xbec3b0b4	-0.3822075
144	0xbe1e384d	-0.15451165
145	0x3de6f104	0.11276439
146	0xbe4fa8a2	-0.20279172
147	0x3e76067f	0.24025916
148	0x3cb65cd8	0.022261068
149	0x3ef66412	0.48123223
150	0x3dda153c	0.106485814
151	0x3e11d934	0.14243013
152	0xbbed417f	-0.0072404738
153	0x3f295615	0.66146976
154	0xbf117a12	-0.5682689
155	0x3edf7f58	0.43651843
156	0x3d914aa6	0.07094316
157	0xbbf71771	-0.007540636
158	0xbee6bed9	-0.4506748
159	0x3eb15b2f	0.3463988
160	0xbcbac01c	-0.022796683
161	0x3ef7f919	0.48432234
162	0xbea7acde	-0.32749075
163	0xbc0ee149	-0.008720704
164	0xbefe2717	-0.49639198
165	0x3c406b01	0.011744262
166	0x3f2cee07	0.675507
167	0x3f056723	0.521105
168	0x3d68dbf2	0.05685038
169	0xbe1707fb	-0.14749138
170	0x3d622317	0.055209246
171	0x3f9178f3	1.1365036
172	0xbf068190	-0.52541447
173	0x3dd4c581	0.103892334
174	0xbe582e03	-0.21111302
175	0x3e3a42ab	0.18189494
176	0xbf06e02e	-0.5268582
177	0xbe548ba4	-0.20756394
178	0xbf62bc4a	-0.88568556
179	0x3fa45785	1.2839209
180	0xbe6a09f7	-0.22855364
181	0xbdd9d187	-0.10635667
182	0xbf40b5da	-0.75277483
183	0xbdbe75b8	-0.09299797
184	0xbf024549	-0.5088697
185	0x3eeda5d0	0.46415567
186	0xbf239a12	-0.6390697
187	0xbcfbb7dd	-0.030727321
188	0xbfc29a79	-1.5203391
189	0x3e9cdfe0	0.30639553
190	0x3e94a6f9	0.2903364
191	0x3eabd672	0.33562046
192	0xbf24dc4c	-0.64398646
193	0xbd917e96	-0.071042225
194	0xbd1a2e89	-0.037642036
195	0x3dc0135a	0.09378691
196	0xbf3b669e	-0.73203456
197	0x3eea0f3c	0.45714748
198	0xbf23fa8a	-0.6405417
199	0x3ec85083	0.39123926
200	0x3cdf6b57	0.027272863
201	0x3b5b075c	0.0033421135
202	0x3e4ac1d3	0.198005
203	0x3e15f544	0.14644343
204	0xbdd96f70	-0.10616958
205	0x3d234f2f	0.039870437
206	0xbcb8918c	-0.02253034
207	0x3f4c86ce	0.79893196
208	0xbe9879be	-0.29780382
209	0x3edbfda5	0.42966953
210	0xbebb18f5	-0.36542478
211	0x3e722346	0.23646268
212	0xbf00c46b	-0.5029971
213	0x3ec1e87b	0.3787268
214	0xbdb00dca	-0.0859638
215	0x3e85555b	0.26041684
216	0xbf292576	-0.66072786
217	0x3e7e0c6a	0.24809423
218	0x3de7cf7c	0.113188714
219	0x3e03281e	0.12808272
220	0x3e8b1522	0.2716456
221	0x3f1a929a	0.60379946
222	0x3d5ef109	0.054429088
223	0x3ea6a045	0.3254415
224	0xbffc37a0	-1.9704475
225	0xbf6a5d36	-0.9154848
226	0xbf3b781c	-0.7323015
227	0x3f930c0f	1.1488055
228	0xbd78302e	-0.060592823
229	0x3f0049c1	0.5011254
230	0x3f5eeb7b	0.87078065
231	0x3dc37f6e	0.0954579
232	0xbebd6ccb	-0.36997065
233	0x3f590972	0.8478004
234	0x400b6d9e	2.1785655
235	0xbfb65452	-1.4244483
236	0x3e004468	0.12526095
237	0xbdb50318	-0.08838481
238	0xbfdffdc0	-1.7499313
239	0x3e304475	0.17213614
240	0xbf3a46ac	-0.72764087
241	0xbe264ba1	-0.16239788
242	0x3f11dac9	0.56974465
243	0x3f0effe6	0.5585922
244	0xbdf0b36e	-0.117529735
245	0x3dbb2dbe	0.09139584
246	0xbd97d504	-0.074136764
247	0xbed0e655	-0.4080073
248	0xc00b4481	-2.1760561
249	0x3fdd8734	1.7306886
250	0x3e817319	0.25283125
251	0x3ed8b30f	0.4232411
252	0xbf9dbe86	-1.2323768
253	0x3f972a73	1.180983
254	0xbd9c6cc6	-0.076379344
255	0x3f2a0037	0.6640658

layer2.0.bias f4 [256]
0	0xc00d66e9	-2.2094061
1	0xc03e7077	-2.9756143
2	0xc0111579	-2.2669356
3	0xbf60fd30	-0.87886333
4	0xc01c593b	-2.4429462
5	0xbff1c438	-1.8888006
6	0xc000c6f5	-2.0121434
7	0xc0216d77	-2.5223062
8	0xbf0269dc	-0.5094278
9	0x3e91d6d0	0.284842
10	0xc082c1c7	-4.0861545
11	0xbe4bc713	-0.1990016
12	0xc076a2ea	-3.8536935
13	0x40028e26	2.039926
14	0xc040140a	-3.001223
15	0x4078f98f	3.8902318
16	0xc02f5e0b	-2.740115
17	0xc0258222	-2.5860677
18	0xbeb3b5a1	-0.3509951
19	0xbeb34c7c	-0.3501929
20	0x3f36fe07	0.71481365
21	0x40a1fcee	5.062125
22	0x3e827b39	0.25484636
23	0xbe0eef34	-0.13958436
24	0x403d0cf9	2.9539168
25	0xbddb5431	-0.107094176
26	0xc0009247	-2.008928
27	0x3fda93e6	1.7076385
28	0x3e8e5828	0.27801633
29	0x3e99acb5	0.30014578
30	0x405f5da4	3.4900904
31	0xbfbfa2be	-1.497154
32	0xbf2a4067	-0.6650452
33	0xbfb4c654	-1.4123025
34	0x40067897	2.1011102
35	0x3f50a9e9	0.8150926
36	0x3f0f6c56	0.5602468
37	0x3f541547	0.82844967
38	0xbee0cf78	-0.43908286
39	0x3feb2eb2	1.8373625
40	0xc022360a	-2.5345483
41	0xbf4fa978	-0.81117964
42	0x3f8ee8fa	1.1164849
43	0xc07bd031	-3.934582
44	0xc007e10b	-2.1231105
45	0xbfdce507	-1.7257394
46	0x4008a960	2.1353378
47	0xc038e6d7	-2.8890893
48	0xbf2509a7	-0.64467853
49	0x3f865112	1.0493491
50	0x3f684807	0.90734905
51	0xc0172184	-2.3614206
52	0x3faa8508	1.3321848
53	0xbe611482	-0.2198048
54	0xc019fa58	-2.4059048
55	0x3eb6667d	0.35625067
56	0xbdcc363c	-0.09971282
57	0x3e3eb13e	0.186223
58	0xc01b1f08	-2.423769
59	0xbfcab18f	-1.5835437
60	0xbec4819b	-0.3838013
61	0x40267bcd	2.6013062
62	0x4085c1df	4.179916
63	0xbf829b4d	-1.0203644
64	0xbda95871	-0.08268822
65	0xbfc2ac4d	-1.5208832
66	0x3e2fd9fd	0.17173
67	0x3eeb338f	0.45937774
68	0x406e5f57	3.724569
69	0xc0719adf	-3.7750776
70	0x3fd77db0	1.6835232
71	0xbf0bedbd	-0.54659635
72	0xbf6e29e4	-0.9303267
73	0xbfbbdbe9	-1.4676486
74	0x3f1d9bfb	0.6156613
75	0x3fa48dc9	1.2855769
76	0xc0e199df	-7.050033
77	0x40968cef	4.704704
78	0x40a41f4d	5.128821
79	0x3f0c9a1e	0.54922664
80	0x407f84a3	3.9924705
81	0x4038495a	2.879477
82	0xbe3fcacc	-0.18729705
83	0xbf3cbabd	-0.7372244
84	0x403c297e	2.9400325
85	0x3f3ac7eb	0.729613
86	0x40970b74	4.720148
87	0xc01a1075	-2.4072545
88	0xc06670bc	-3.6006308
89	0xbfc2d9c8	-1.5222712
90	0xc014b0e0	-2.3232956
91	0xbfba01f4	-1.4531846
92	0xc042895c	-3.0396338
93	0x40b49263	5.6428695
94	0xc036d9f7	-2.8570535
95	0xbf526e6d	-0.82199746
96	0xc04b374f	-3.1752508
97	0x4000d45a	2.012961
98	0xbfc2f7f4	-1.5231919
99	0xbedad012	-0.4273687
100	0xbe74d503	-0.23909383
101	0xbf7af614	-0.98031735
102	0xc01d9c35	-2.4626591
103	0x4001930b	2.0245998
104	0xc05120b9	-3.2676222
105	0xc02de407	-2.7170427
106	0x3e20cc37	0.15702902
107	0x40c66a07	6.200443
108	0xc0029f25	-2.0409634
109	0xbdaf7097	-0.08566397
110	0x3e6695cc	0.2251808
111	0xc09da6b9	-4.926602
112	0x4093a7a6	4.614215
113	0xc01b045b	-2.4221408
114	0x406d7759	3.7104094
115	0x3ce8cdc8	0.028418437
116	0xbd1b04fb	-0.037846547
117	0xbe8af01b	-0.2713631
118	0xc0925584	-4.572939
119	0xc01422ac	-2.3146162
120	0xc0dcf898	-6.905346
121	0xbfd7f1e1	-1.687069
122	0xbf96873e	-1.1760023
123	0x4005aee3	2.0887992
124	0x4021bce2	2.5271535
125	0xbf038969	-0.51381546
126	0xbd960d2e	-0.073267326
127	0x3eca31c0	0.3949108
128	0xbfaab5e4	-1.3336759
129	0x3f8980db	1.0742449
130	0xbfc82205	-1.5635382
131	0xc043c520	-3.0589066
132	0xbf0c8af3	-0.5489952
133	0xbf484ce6	-0.7824234
134	0x3de1b31d	0.11020491
135	0xbee9a748	-0.45635438
136	0x407de885	3.9673169
137	0xbfd80092	-1.6875174
138	0x3fa89a10	1.3172016
139	0xc0020f44	-2.0321817
140	0x3ff38f39	1.9028083
141	0x4042d365	3.0441525
142	0x3f56b669	0.83872086
143	0x3f7410b2	0.95337975
144	0x3f1453fc	0.5794065
145	0x40668961	3.602135
146	0x3e9cd7e1	0.30633453
147	0xc0474bdc	-3.114005
148	0x3f049ec9	0.51804787
149	0xbef2bc6b	-0.47409377
150	0xc0709f33	-3.7597167
151	0x40026854	2.0376177
152	0xc0ba3282	-5.8186655
153	0x40994926	4.7901793
154	0xbf8175e6	-1.0114105
155	0xbeab9e6f	-0.33519313
156	0xc01fb937	-2.4956796
157	0x3f030eff	0.5119476
158	0x3ee0531a	0.438134
159	0x3fb302a8	1.3985186
160	0xc037c9b8	-2.871687
161	0x3e3b5ac0	0.18296337
162	0xc012fe94	-2.2967882
163	0xbfbb33db	-1.46252
164	0x3ec5c517	0.3862693
165	0xbfbb95a7	-1.4655045
166	0x3e7d07be	0.24709985
167	0xbf5b40f8	-0.8564601
168	0xc02379e2	-2.5543141
169	0xbfa69a6f	-1.3015879
170	0xbfaa56ef	-1.330778
171	0xbf38d82e	-0.72204864
172	0x3e5378df	0.20651577
173	0xbfd25759	-1.6432906
174	0x3e7affe8	0.24511683
175	0xc0d65a6e	-6.698539
176	0x3fb954c2	1.4478991
177	0x4097db3a	4.745511
178	0x4060575e	3.5053325
179	0x3f6357f6	0.8880609
180	0xbdd414d6	-0.10355537
181	0xbf98bcc2	-1.1932604
182	0xc08e89d5	-4.454325
183	0x3e99e625	0.300584
184	0x3f0bc34e	0.54594886
185	0x3f98af5c	1.1928515
186	0xbfb0e38e	-1.3819444
187	0x3d010a99	0.031504247
188	0x40598416	3.398687
189	0xbe7bf928	-0.24606764
190	0x405f6fe1	3.4912035
191	0x3ff77ba0	1.9334602
192	0xc0470344	-3.1095743
193	0xbfcc5ddb	-1.5966142
194	0x3f9ce771	1.225813
195	0xbfed3fe7	-1.8535126
196	0xc036d0d2	-2.8564954
197	0x3f928e5f	1.1449698
198	0xbf88ec26	-1.0697067
199	0x3edd56c8	0.4323027
200	0x3fa6ad8c	1.3021712
201	0xc06eedaf	-3.733257
202	0xc01ef300	-2.4835815
203	0x406a1c58	3.65798
204	0x3f469d37	0.7758364
205	0xc0312dd7	-2.7684228
206	0xbcaf4c14	-0.021398582
207	0x3fb54e25	1.4164473
208	0x3efbac60	0.4915495
209	0xc0475c54	-3.1150103
210	0xc04fc11a	-3.246161
211	0xc03f613a	-2.9903092
212	0xbf710045	-0.94141036
213	0xc0fe94b8	-7.955654
214	0x3ef4175b	0.4767407
215	0xbf6d287c	-0.926399
216	0xc0619460	-3.524681
217	0x408d7d2b	4.4215293
218	0x3fbf5527	1.4947861
219	0x3ec30e42	0.38096815
220	0xc0255dc3	-2.5838478
221	0x3e7d26ef	0.24721883
222	0xc06d6647	-3.7093675
223	0x408469c3	4.1379104
224	0x40ce846e	6.4536657
225	0x3e54f7b0	0.2079761
226	0xc02bcc87	-2.6843584
227	0xbf1537c4	-0.58288217
228	0xbfb2598f	-1.3933581
229	0x3f84a677	1.0363301
230	0x40692753	3.6430252
231	0x3efa89d4	0.4893328
232	0xc01ff414	-2.4992723
233	0x3e76ede0	0.2411418
234	0xc0035d59	-2.0525725
235	0xbee55572	-0.44791752
236	0x3e42f7ea	0.19039884
237	0xc01a83e1	-2.4142992
238	0xbf7896f0	-0.9710531
239	0x3fb51b4c	1.4148955
240	0x3f8033d3	1.0015815
241	0x4097f191	4.748238
242	0xc0092dce	-2.1434207
243	0x3fe2a91d	1.7707859
244	0xc012a0d7	-2.291067
245	0xc0a425f5	-5.1296334
246	0x3f141515	0.5784467
247	0x4087e981	4.247254
248	0x3fd98dee	1.6996439
249	0x3f161bb7	0.5863604
250	0xbf114ae3	-0.56754893
251	0x407d47ee	3.9575152
252	0x3fde5b5e	1.7371633
253	0xc0810867	-4.0322757
254	0xc03a75f9	-2.9134505
255	0x3e92152a	0.28531772

layer2.2.weight f4 [256, 256]
0	0xbd5d5983	-0.054040443
1	0xbdc8d32c	-0.09805903
2	0x3c5a3044	0.0133171715
3	0x3d5b592b	0.053551834
4	0xbd9c9298	-0.07645148
5	0xbd83457e	-0.06409739
6	0xbc3a7b03	-0.011381867
7	0xbd79281e	-0.060829274
8	0xbddc939f	-0.10770344
9	0xbd9e4580	-0.077281
10	0xbc456887	-0.012048847
11	0x3d2148bd	0.03937601
12	0xbd501234	-0.05079861
13	0x3b06bcd2	0.0020559323
14	0x3b112736	0.0022148616
15	0xbde05c3d	-0.10955093
16	0xbcb11b1e	-0.021619376
17	0xbab6eefc	-0.0013956721
18	0xbcc73ee6	-0.024321984
19	0xbdaacc2d	-0.08339725
20	0xbcdc9e8f	-0.026931075
21	0xbc2d1ec4	-0.010566417
22	0xbbc888a7	-0.006119806
23	0x3caa96e8	0.02082391
24	0x3c015321	0.007893355
25	0xbd177ce6	-0.036984347
26	0xbc826a4e	-0.01591983
27	0xbc988758	-0.018619224
28	0xbd72d4f3	-0.059285115
29	0xbd928ef2	-0.07156171
30	0xbced945d	-0.02900141
31	0xbd90f124	-0.07077244
32	0x3a720d75	0.00092335726
33	0xbd706851	-0.058693234
34	0x3d085199	0.033280943
35	0x3d0fa160	0.03506601
36	0xba85ca0e	-0.0010207312
37	0x3bd016dc	0.0063503813
38	0xbda66f17	-0.081266575
39	0x3a0e610c	0.0005431331
40	0xbe0989ea	-0.13431516
41	0xbd84aa7c	-0.0647783
42	0xbdd991ba	-0.10623498
43	0xbce4e416	-0.027940791
44	0xbcdff9c7	-0.027340783
45	0x3c9affed	0.018920863
46	0xbcc8227d	-0.024430508
47	0xbd4d82e3	-0.05017365
48	0xbe2ca587	-0.16860019
49	0x3b8bda6e	0.004267982
50	0xbd30d7f5	-0.043174703
51	0xbda2bdf3	-0.07946386
52	0xbd9c1d51	-0.07622779
53	0x3c597da0	0.01327458
54	0xbd721c58	-0.059109062
55	0xbd89c7e5	-0.0672758
56	0xbc8a3b74	-0.016874053
57	0x3c1b6013	0.009483355
58	0xbdf738d3	-0.12071385
59	0xbdb0102f	-0.08596837
60	0xbe03abb5	-0.1285847
61	0xbb97c1ed	-0.004631272
62	0xbcee5901	-0.029095175
63	0xbda654cc	-0.081216425
64	0xbd3d41ab	-0.046205204
65	0xbbee99bd	-0.0072815106
66	0xbd8e9961	-0.069628485
67	0xbd726134	-0.05917473
68	0xbd5e0f76	-0.054213963
69	0xbde3f618	-0.11130923
70	0xbd85560e	-0.06510554
71	0xbd40a803	-0.04703523
72	0xbe073af3	-0.13206081
73	0xbb2dea30	-0.0026537292
74	0xbd23311f	-0.039841767
75	0xbd02587d	-0.03182267
76	0xbd14821d	-0.0362569
77	0xbdc824d0	-0.097726464
78	0xbdcb5fe6	-0.099304006
79	0xbd1d2790	-0.038367808
80	0xbc254d10	-0.010089174
81	0x3d173999	0.036920164
82	0x3c6bf6ec	0.0144021325
83	0x3ca50c1a	0.020147372
84	0xbcf3f965	-0.029782007
85	0xbcdbadbf	-0.026816247
86	0x3c8ab7fb	0.016933432
87	0xbcf6385b	-0.03005617
88	0xbe03e13a	-0.12878886
89	0xbcacfd9d	-0.021117026
90	0xbd02e84b	-0.031959813
91	0xba48251f	-0.0007634926
92	0xbd2c7a0d	-0.042108584
93	0x3ca0accf	0.019613652
94	0xbb305921	-0.0026908594
95	0xbdf75f90	-0.12078774
96	0xbc7a0897	-0.015260837
97	0xbcd9cc64	-0.026586719
98	0xbd9ad487	-0.075600676
99	0xbdade345	-0.08490614
100	0xbd2646c3	-0.040594827
101	0x3b57b362	0.0032913317
102	0x3c8e6568	0.017382339
103	0xbcf4b645	-0.02987207
104	0xbb21fbdc	-0.002471677
105	0x3cce102d	0.025154198
106	0x3c81a8ad	0.015827501
107	0xbdc6f56f	-0.097147815
108	0x3d3738c9	0.04473189
109	0x3c28182f	0.010259672
110	0xbda44524	-0.08021
111	0xbd4002cd	-0.04687767
112	0xbc8f33a1	-0.017480673
113	0x3d0ff01c	0.035141096
114	0xbd2a6b41	-0.04160619
115	0xbce2795e	-0.027645763
116	0xbe039c30	-0.1285255
117	0x3d332b2c	0.043742344
118	0xbda95adb	-0.082692824
119	0xbd62fb9a	-0.055415727
120	0xbd536e5e	-0.051618926
121	0x3ca12b63	0.019674009
122	0xbdc39449	-0.095497675
123	0xbcd78620	-0.026309073
124	0xbcb3e798	-0.021961018
125	0xbc7b9317	-0.015354893
126	0xbda6a4c2	-0.08136894
127	0x3ce90e43	0.028449183
128	0x3ca46c93	0.020071303
129	0xbdcea4de	-0.1009004
130	0x3cc5d8ac	0.024151169
131	0xbda7fa4e	-0.08202039
132	0xbcb41b95	-0.021985808
133	0xbcdfa479	-0.027300106
134	0xbd415621	-0.04720128
135	0xbd2f09e2	-0.042734034
136	0x3ca0fd99	0.019652175
137	0x3bf6f25e	0.0075362166
138	0x3d81d162	0.06338765
139	0xbd5da54d	-0.05411272
140	0xbcf89c70	-0.030348033
141	0xbc374475	-0.011185755
142	0xbdfe430f	-0.12415134
143	0xbc5acd01	-0.013354541
144	0xbd3f6c62	-0.04673422
145	0xbdb4075a	-0.08790465
146	0xbd3b8bd9	-0.045787666
147	0xbd9f4872	-0.0777749
148	0xbc8d3d82	-0.017241243
149	0x3d91e5de	0.07123922
150	0xbdb8d55a	-0.090250686
151	0xbdd8e95d	-0.105913855
152	0xbd86447b	-0.0655603
153	0x3cbb1dae	0.0228413
154	0xbcbf0eba	-0.023322452
155	0xbcb53f4e	-0.022124913
156	0xbd66b373	-0.05632348
157	0xbdc03978	-0.09385961
158	0xbc48a205	-0.01224566
159	0xbc63f0db	-0.013912405
160	0xbd9014fc	-0.070352525
161	0xbd2d3d70	-0.04229492
162	0xbe0eb8be	-0.13937661
163	0x3cec5b6f	0.028852193
164	0x3b938df5	0.0045030066
165	0xbd35a594	-0.04434736
166	0xbcb93c11	-0.02261165
167	0x3d714e5c	0.05891262
168	0xbd40bf60	-0.04705751
169	0x3be92882	0.0071154246
170	0xbd1757f0	-0.036949098
171	0xbd74316d	-0.05961745
172	0xbdb8bb35	-0.09020082
173	0xbd20de65	-0.039274592
174	0xbdad00d8	-0.084474266
175	0xbd6d7490	-0.05797249
176	0xbc95123e	-0.018197175
177	0xbb7700f6	-0.0037689782
178	0xbc564e75	-0.013080229
179	0xbe25a06d	-0.16174479
180	0xbd3a6dd7	-0.045514908
181	0xbe125690	-0.14290833
182	0x3ced88ed	0.028995955
183	0xbdc59dd1	-0.09649242
184	0xbd01e020	-0.031707883
185	0xbcbe88ff	-0.023258684
186	0xbd87c5ec	-0.066295475
187	0x3a8594f2	0.0010191484
188	0xbce9752c	-0.028498255
189	0x3cb6e4ee	0.022325959
190	0xbbdab5db	-0.006674511
191	0xbdb15874	-0.08659449
192	0x3d81491e	0.06312774
193	0x3c76761b	0.015042807
194	0x3c2303ab	0.009949605
195	0xbda7e90b	-0.08198746
196	0x3d8af490	0.06784928
197	0xbccf151d	-0.025278622
198	0x3cc2f690	0.02379921
199	0x3d4c5d9e	0.049893968
200	0xbd9216d3	-0.071332596
201	0xbc059794	-0.008153815
202	0xbd2cc9ca	-0.04218463
203	0x3cd1f78a	0.025630731
204	0xbc70600f	-0.01467134
205	0x3cd5b8fd	0.026089186
206	0xbd408d64	-0.04700984
207	0x3bfd3839	0.0077276495
208	0x3cfbf62b	0.03075703
209	0x3b16ddb9	0.002302034
210	0x3c916ed5	0.017753044
211	0xbbb39ddc	-0.005481465
212	0xbd59f291	-0.053209845
213	0xbd97aa5f	-0.074055426
214	0xbd94be6d	-0.07262883
215	0xbd5ecfed	-0.054397512
216	0x3d49ae1c	0.04923831
217	0x3bbfe9c2	0.0058567235
218	0xbd2721cb	-0.04080371
219	0x3c0d2c02	0.008616449
220	0xbb9516b2	-0.0045498246
221	0xbc784816	-0.015153905
222	0xbd9c12c9	-0.076207705
223	0xba6d5572	-0.0009053565
224	0xbcf66a19	-0.030079888
225	0xbd19d8a3	-0.037560116
226	0x3d92c9dc	0.07167408
227	0xbceedbe1	-0.02915758
228	0xbbb1b8d6	-0.0054236455
229	0xbd2e25b3	-0.04251642
230	0xbda53f65	-0.08068732
231	0x3d649b65	0.05581226
232	0x3d117c25	0.035518784
233	0x3c51dd6a	0.012809137
234	0xbca0a4c9	-0.019609826
235	0xbd0aacb4	-0.03385611
236	0x3d53c66b	0.051702898
237	0xbd05b8eb	-0.032647055
238	0xbd134ce6	-0.035962008
239	0xbd83f417	-0.06443041
240	0x3d9e7dd7	0.07738846
241	0x3bc1e1e5	0.0059168213
242	0xbd5f06e6	-0.05444994
243	0xbce6ed5f	-0.02818936
244	0xbc2ba4ee	-0.010476334
245	0x3ccced2a	0.025015432
246	0xbd889add	-0.06670163
247	0xbc8993aa	-0.016794045
248	0xbc8d4187	-0.01724316
249	0xbd3f9a4c	-0.04677801
250	0x3cfec666	0.031100463
251	0xbd00f4a8	-0.031483322
252	0x3da53250	0.08066237
253	0xbcde4924	-0.027134486
254	0xbde38bc1	-0.1111064
255	0x3d6855df	0.056722518

layer2.2.bias f4 [256]
0	0xbd8b7e08	-0.06811148
1	0xbdb59bee	-0.08867632
2	0x3f695e2d	0.91159326
3	0x3e1dbc49	0.15403856
4	0xbde9e0f1	-0.11419857
5	0xbcb74ba4	-0.022374935
6	0x40ca0c59	6.3140073
7	0xbda26c08	-0.079307616
8	0xbd0290e8	-0.031876475
9	0x3bb05caf	0.0053821425
10	0xbec04bf2	-0.37557942
11	0xbdab6808	-0.08369452
12	0x3ec9afcd	0.39391938
13	0xbe8be1d9	-0.27320746
14	0xbd659e38	-0.056059092
15	0xbdca5e3a	-0.098812535
16	0xbd063ae4	-0.032771006
17	0xbd86fd23	-0.06591251
18	0xbcae9a53	-0.021313822
19	0xbd48faff	-0.049067494
20	0xbd58cd3b	-0.052930098
21	0xbc25def4	-0.010123957
22	0xbd70a8b7	-0.05875465
23	0xbdf8687c	-0.12129304
24	0x3dec55aa	0.115397766
25	0xbda0bbe0	-0.07848334
26	0xbd85f9f4	-0.065418154
27	0xbdc9b728	-0.098493874
28	0x3da7f2c4	0.08200601
29	0x3fac67c3	1.3469166
30	0xbdae8bce	-0.085227594
31	0xbde5eb6a	-0.11226542
32	0x3d6c249b	0.057652097
33	0xbe154bea	-0.1457974
34	0xbda15f63	-0.07879522
35	0xbda14a0a	-0.0787545
36	0xbc45e5bb	-0.012078698
37	0xbccff73c	-0.025386445
38	0xbe323cfa	-0.17406073
39	0x3e48835e	0.19581363
40	0xbcd3f22d	-0.025872314
41	0xbe889f8a	-0.2668422
42	0x3bd39efc	0.0064581614
43	0xbdba8390	-0.09107125
44	0xbda6384e	-0.08116208
45	0x3d068d4f	0.032849606
46	0x39c35899	0.0003725931
47	0x3d4ae360	0.049533248
48	0x3addc6c3	0.0016920198
49	0xbcfc268f	-0.030780105
50	0xbd1bbd2e	-0.038022213
51	0xbb645b2f	-0.0034844389
52	0xbd11076f	-0.03540748
53	0xbde23b81	-0.11046506
54	0xbe168373	-0.14698581
55	0xbd88cb96	-0.06679456
56	0xbdd2ebc5	-0.10298876
57	0xbd53b5d4	-0.051687077
58	0xbbaf6b7b	-0.005353389
59	0xbd324a8b	-0.04352812
60	0xbc60d6b5	-0.013723065
61	0xbda3d7b8	-0.080001295
62	0xbe002354	-0.12513477
63	0xbe5f11f3	-0.21784191
64	0xbd9c4022	-0.0762942
65	0xbdf1bbe2	-0.11803414
66	0xbdc5cb57	-0.096579246
67	0x3cdbac63	0.026815599
68	0xbccbce7d	-0.024878735
69	0xbd1bf2b6	-0.038073264
70	0x3c658460	0.014008611
71	0xbd986b27	-0.07442313
72	0xbdd7033c	-0.10498664
73	0xbdb321fc	-0.087467164
74	0xbdbe102d	-0.09280429
75	0xbdb13554	-0.0865275
76	0x3d4cd292	0.050005503
77	0xbe6f456f	-0.2336633
78	0xbd117dae	-0.035520248
79	0x3d8095cc	0.062785715
80	0xbc34f532	-0.011044787
81	0xbd61f619	-0.055166338
82	0xbdb9700e	-0.09054576
83	0xbc2e6c7e	-0.010645984
84	0xbbbf6d5b	-0.0058418936
85	0x3d10914e	0.035294823
86	0xbd20d55b	-0.03926597
87	0x3e02f7bd	0.12789817
88	0xbe6f8dd6	-0.2339395
89	0x3db8db76	0.09026234
90	0xbd963317	-0.07333963
91	0xbdbbe23c	-0.0917401
92	0xbd17a907	-0.03702643
93	0x3e07e42f	0.13270639
94	0x3d0901cc	0.03344898
95	0x3eadd96a	0.33954936
96	0xbda85c24	-0.082206994
97	0xbd06afd3	-0.032882523
98	0x3d4eddab	0.050504368
99	0xbdc72cd2	-0.09725346
100	0xbd9f0e1d	-0.07766364
101	0xbd479b1a	-0.0487319
102	0x3e776fa9	0.24163689
103	0xbd1025b0	-0.03519219
104	0xbde9ef18	-0.11422557
105	0xbdc55e65	-0.09637145
106	0xbd15179b	-0.036399465
107	0xbe52dbcd	-0.2059166
108	0xbdde2143	-0.10846188
109	0x3d00e63d	0.031469572
110	0xbe081dfa	-0.13292685
111	0xbde2c40e	-0.11072551
112	0x3b12e273	0.0022412806
113	0xbdb7f4dd	-0.08982251
114	0x3b98c958	0.004662674
115	0x3e583107	0.21112452
116	0xbda526bf	-0.08064031
117	0xbccf0254	-0.025269665
118	0x3d0e5050	0.03474456
119	0xbdea9e13	-0.114559315
120	0xbda8d36a	-0.08243449
121	0xbdec9ceb	-0.11553367
122	0xbdb2f9a3	-0.08739021
123	0x3b08576a	0.0020804056
124	0xbe7bd3c4	-0.24592501
125	0xbd5d54a4	-0.054035798
126	0xbc897f6e	-0.016784396
127	0xbd9dd848	-0.07707268
128	0xbd666e8f	-0.05625778
129	0x3c77ced7	0.015124998
130	0x3ac1effb	0.0014796251
131	0xbd8500d5	-0.06494299
132	0xbd9a3d5d	-0.07531235
133	0xbd467bb9	-0.048457835
134	0xbd24c430	-0.04022616
135	0xbcea0f4a	-0.028571744
136	0xbdd46ee4	-0.10372713
137	0x3d2d5658	0.042318672
138	0xbcc00785	-0.023441086
139	0xbde5905c	-0.11209175
140	0xbd6ce549	-0.05783585
141	0xbddcc997	-0.10780638
142	0xbd5167fd	-0.05112456
143	0x3df16e20	0.11788583
144	0xbe0a9847	-0.13534652
145	0xbd37f3c4	-0.044910207
146	0xbce76810	-0.028247863
147	0x3cca7606	0.024714481
148	0xbd6aa5aa	-0.057286896
149	0xbd38d4b0	-0.04512471
150	0xbdd1769b	-0.102277
151	0x3c5ec038	0.013595633
152	0x3f23ece6	0.64033353
153	0xbdaf30d9	-0.08554239
154	0xbdf27590	-0.118388295
155	0xbdfc4387	-0.12317567
156	0xbdab599b	-0.083667
157	0x3e584559	0.21120204
158	0xbd6a624f	-0.05722266
159	0xbd9da996	-0.076983616
160	0x3c8498e3	0.016186183
161	0x3f1b5acc	0.6068542
162	0xbcce60a4	-0.025192566
163	0xbe031e0e	-0.12804434
164	0xbe1b1951	-0.15146376
165	0xbde49279	-0.1116075
166	0x3d07056f	0.032964166
167	0x3dd35208	0.103183806
168	0x3d8a0c9d	0.06740687
169	0xbdd583d8	-0.10425538
170	0xbd90e11e	-0.07074188
171	0x40634b1d	3.5514596
172	0xbc8998fc	-0.016796581
173	0xbcc36765	-0.023853013
174	0xbdb58dbb	-0.088649236
175	0xbd3bd5b9	-0.04585812
176	0xbc858ede	-0.016303476
177	0xbce73341	-0.028222682
178	0x3f374503	0.7158968
179	0x3f58d97f	0.8470687
180	0xbd936db4	-0.071986586
181	0xbdbe09a6	-0.09279184
182	0xbdbe3942	-0.09288265
183	0xbd8085c3	-0.06275513
184	0xbd9b5fd1	-0.07586635
185	0x40ad3d0c	5.413702
186	0x3cf8dde7	0.030379249
187	0xbd65a528	-0.05606571
188	0xbdf55117	-0.11978357
189	0x3a980e5d	0.001160096
190	0x3e0ec2b7	0.13941465
191	0xbe5a3f3a	-0.21313182
192	0x3cd1aff3	0.025596594
193	0xbea52ba5	-0.3225986
194	0xbe6be326	-0.23035869
195	0xbdcda4c0	-0.10041189
196	0xbe6e8539	-0.23293008
197	0xbd3d6aa8	-0.046244293
198	0x3fdcb543	1.7242817
199	0xba1cf0b8	-0.00059867976
200	0xbd07b090	-0.033127367
201	0xbd9e0b92	-0.077170506
202	0x3cc8ca6b	0.024510583
203	0xbd34a3b3	-0.04410143
204	0x40ac1f8c	5.378851
205	0xbc23590d	-0.009969962
206	0x3d95d1a1	0.07315374
207	0x40e2da5e	7.089156
208	0xbe0bac33	-0.13639908
209	0xbdcf4e55	-0.101223625
210	0x3e2ce080	0.16882515
211	0xbd8dc216	-0.069217846
212	0xbb939e9f	-0.004504993
213	0xbd08faaf	-0.033442196
214	0xbd7a016c	-0.061036512
215	0xbdb1bb11	-0.08678258
216	0xbe0b1c6d	-0.13585062
217	0x3f0486d3	0.51768225
218	0xbe4810e4	-0.19537693
219	0x3e453fab	0.19262569
220	0xbdb69572	-0.08915223
221	0xbdd305ae	-0.10303818
222	0xbe04b3ea	-0.12959257
223	0xbd6d3c32	-0.057918735
224	0x3f9b0402	1.2110598
225	0xbd8d6089	-0.06903178
226	0x3c96f953	0.018429434
227	0xbc729194	-0.014805216
228	0xbd536031	-0.051605407
229	0xbb83de4e	-0.0040243035
230	0xbd7115ff	-0.058858868
231	0xbca5a047	-0.020218028
232	0xbe0dc9cf	-0.13846515
233	0xbd4e4d06	-0.050366424
234	0xbe50e9e3	-0.2040172
235	0xbcc90623	-0.024539059
236	0xbd8eb849	-0.06968743
237	0xbd636aa1	-0.05552161
238	0xbd479f17	-0.048735704
239	0x3c41529f	0.011799484
240	0xbd94e1e9	-0.072696514
241	0xbe6d056d	-0.23146601
242	0xbe1ddfa8	-0.1541735
243	0xbca38596	-0.01996116
244	0x39d99ccd	0.0004150629
245	0xbd48aa9e	-0.04899084
246	0xbd29c2aa	-0.04144541
247	0xbcbdc8c6	-0.023167025
248	0xbdc848b6	-0.097794935
249	0xbc1008a2	-0.008791121
250	0x406be7a5	3.6860135
251	0xbd7799c1	-0.060449366
252	0xbdf877ac	-0.121322006
253	0xbd1779b9	-0.03698132
254	0xbde2d075	-0.11074916
255	0x3d57a3a4	0.052646294

layer2.4.weight f4 [1, 256]
0	0xbb96ca9f	-0.004601791
1	0xbcec67cf	-0.028858094
2	0x3f8d43b4	1.1036286
3	0xbbee2e89	-0.007268731
4	0x3b352ca3	0.0027645014
5	0xbbcac2b8	-0.006187763
6	0x3e1769d0	0.14786458
7	0xbcd72677	-0.026263459
8	0xbc322096	-0.010872027
9	0xbcd2d7d2	-0.025737677
10	0xbd32a817	-0.043617334
11	0x3cd06cf6	0.025442582
12	0x3cb206ab	0.021731695
13	0xbccbe838	-0.024891004
14	0x3cbb4ec1	0.022864701
15	0x3cd999c3	0.026562577
16	0xbd005f3c	-0.031340823
17	0xbcf75d59	-0.030195879
18	0xbc6510ea	-0.013981083
19	0xbc7e6e85	-0.01552928
20	0xba35ee93	-0.00069401524
21	0x3dce55d9	0.10074968
22	0x3c2d4ffc	0.010578152
23	0x3bd09614	0.006365547
24	0x3dfafe15	0.122554936
25	0xbcb5c0fd	-0.02218675
26	0x3c5109c4	0.012758676
27	0x3c15fc6f	0.009154423
28	0xbc10d336	-0.008839419
29	0x3ce0d428	0.027444914
30	0x3cd68830	0.026187986
31	0xbc3e0885	-0.011598711
32	0xbc77e370	-0.015129909
33	0x3cfb8726	0.030704092
34	0xbc4d44d7	-0.01252862
35	0xbc9aa786	-0.01887871
36	0xbcf7e00f	-0.030258207
37	0x3b9d2be9	0.0047964943
38	0x3cf24cc4	0.02957762
39	0x3aed21e8	0.001809177
40	0x3bddde68	0.0067708977
41	0xbb5e2613	-0.0033897206
42	0xbc0ef008	-0.00872422
43	0x3c990279	0.018677937
44	0x3ca64039	0.020294296
45	0xbc58d990	-0.013235465
46	0xbd00f5de	-0.031484477
47	0xbc1c4056	-0.009536823
48	0x3c045388	0.008076556
49	0xbca6c8b1	-0.020359369
50	0x3cf3a91f	0.02974373
51	0xbc736552	-0.0148557
52	0x3c95329b	0.018212607
53	0xbae05a7e	-0.0017116813
54	0x3cbb5c0b	0.022871038
55	0x3ca3bb6f	0.019986836
56	0x3c317f92	0.010833638
57	0x3b6503a3	0.0034944795
58	0x3cd2703b	0.025688281
59	0xbc060372	-0.008179532
60	0x3d2b51a6	0.041825913
61	0x3c3f9a6c	0.011694532
62	0x3e0a17f0	0.13485694
63	0x3c2c9d2a	0.010535518
64	0xbc9f6611	-0.019457849
65	0xbb9d9675	-0.0048091956
66	0x3cc6162f	0.0241805
67	0xbcc76253	-0.024338877
68	0x3bfcd99a	0.00771637
69	0xb90af4ea	-0.00013251943
70	0x3db09c80	0.086236
71	0x3b864dee	0.0040986454
72	0x3bb0cd46	0.0053955643
73	0xbc5b9eb0	-0.013404533
74	0xbc278a00	-0.010225773
75	0x3cc89328	0.024484232
76	0x3ce778b6	0.028255802
77	0xbc4a3f3f	-0.012344181
78	0x3b598795	0.0033192385
79	0xbce1cc5f	-0.027563272
80	0x3b98d759	0.0046643433
81	0xbca60438	-0.020265684
82	0x3c69f127	0.014278687
83	0xbcf5b080	-0.029991388
84	0xbc8b1272	-0.016976569
85	0x3b540abc	0.003235503
86	0xbbbfd19d	-0.0058538453
87	0x3c3e3352	0.011608915
88	0x3b48373e	0.0030550505
89	0x3cce7db7	0.02520643
90	0xbca3b9a1	-0.019985976
91	0xbcefe37b	-0.029283276
92	0xbc8958dc	-0.016766004
93	0x3db5042a	0.08838685
94	0xbb67f0b8	-0.0035391282
95	0xbaeffa42	-0.0018308836
96	0xbc92fe74	-0.017943598
97	0xbc5e2e09	-0.01356078
98	0x3d08988f	0.033348616
99	0xbc72a1f3	-0.0148091195
100	0x3cffcab0	0.031224579
101	0x3ccfabee	0.025350537
102	0x3bfeeb71	0.0077795316
103	0x3ced83ed	0.028993571
104	0xb8ee5a67	-0.00011365563
105	0x3bdb77c9	0.006697629
106	0x3c3d539a	0.011555577
107	0xbabbf286	-0.0014339245
108	0xbaf4c6c3	-0.0018674958
109	0x3ce33b71	0.027738305
110	0xbc7a1b39	-0.015265279
111	0x3c18717a	0.009304399
112	0x3c4d7f77	0.012542597
113	0xbcfbef57	-0.030753775
114	0xbcc9c711	-0.024631055
115	0x3db0ccd4	0.08632818
116	0x3b958048	0.0045624115
117	0xbc282dbd	-0.010264811
118	0x3c94e287	0.018174423
119	0x3b1e300a	0.002413752
120	0x3c58a144	0.0132220425
121	0x3c5b640e	0.013390554
122	0x3c3bcc9b	0.011462356
123	0xbcb41228	-0.021981314
124	0x3cab1127	0.020882202
125	0xbb2f895a	-0.0026784749
126	0xba8baef8	-0.0010657003
127	0xbc198fb2	-0.009372639
128	0xbb4d64eb	-0.003134067
129	0x3c91b0f0	0.017784566
130	0x3bd5bc5c	0.0065226983
131	0x3d3faf56	0.046798073
132	0xbcfad861	-0.030620756
133	0xbcf3728c	-0.029717706
134	0x3cb5cc87	0.022192253
135	0x3c540fe7	0.012943245
136	0x3c10f618	0.008847736
137	0x3c6a7f68	0.014312603
138	0xbb1d688d	-0.0024018616
139	0x3b7ea4e9	0.0038855618
140	0x3bd83e0e	0.0065991944
141	0x3d36a873	0.04459424
142	0x3cb60d6b	0.022223195
143	0x3e2945ec	0.1653058
144	0x3c92bd12	0.017912421
145	0xbd00374f	-0.031302746
146	0xbca3d5d5	-0.019999424
147	0xbc486cfb	-0.012233014
148	0x3ca8989b	0.02058058
149	0x3c90f318	0.017694041
150	0xba20d5d7	-0.000613538
151	0x3b5c0bff	0.0033576486
152	0x3c22da20	0.0099397
153	0x3cdb2f7b	0.026756039
154	0x3b8bd428	0.0042672344
155	0xbd43a7f6	-0.047767602
156	0x3c9214f1	0.017832251
157	0x3b07d7fd	0.0020728104
158	0xbaafbb78	-0.001340731
159	0x3cf0841e	0.029359873
160	0x3c810277	0.015748246
161	0x3b9dd9b4	0.004817212
162	0x3cc5039b	0.02404957
163	0xbb0742d1	-0.002063919
164	0x3cbd0be5	0.02307696
165	0xbd192c35	-0.037395675
166	0x3d087c6e	0.03332179
167	0x3cfcac1e	0.03084379
168	0xbba5c5cd	-0.00505898
169	0xbd9f0895	-0.07765309
170	0xbc28fd30	-0.010314271
171	0x3f2c55bf	0.6731834
172	0xbcf967ed	-0.030445063
173	0x3a2cce18	0.00065919897
174	0x3c798ee1	0.015231819
175	0x3cad40bc	0.021149032
176	0xbca04776	-0.019565325
177	0xbaeb449b	-0.0017949523
178	0x3c6e8365	0.014557694
179	0x3bc33d09	0.0059582037
180	0x3c42b7a1	0.011884601
181	0x3b922d1c	0.004460944
182	0xbcde9aa4	-0.027173348
183	0xbca57e8f	-0.02020195
184	0x3c168d03	0.009188893
185	0x3d63099e	0.055429094
186	0xbca89e0f	-0.02058318
187	0x3ccbb6dc	0.024867468
188	0xbba9fcdb	-0.0051876134
189	0x3ce4ff86	0.027953874
190	0x3bf3da71	0.0074418117
191	0xbca93a9d	-0.020657832
192	0x3c8c89c1	0.01715553
193	0xbcbf2bb3	-0.023336267
194	0x3c97b270	0.018517703
195	0x3cfce394	0.030870236
196	0x3cfd9266	0.030953597
197	0xbb843820	-0.004035011
198	0x3e3a202d	0.18176337
199	0xbb811030	-0.0039386973
200	0xbc72c2a3	-0.014816913
201	0x3c115e78	0.008872621
202	0x3ce2db06	0.02769233
203	0x3ce529bb	0.027974
204	0x3ef0168e	0.46892208
205	0xbc19e28b	-0.009392391
206	0x3d2d7a8d	0.0423532
207	0x3f09830e	0.537156
208	0xbbf60af6	-0.007508631
209	0x3bedad53	0.007253328
210	0xbc257257	-0.0100980615
211	0xbce31bb2	-0.027723167
212	0x3c5c2674	0.013436902
213	0x3cfff96b	0.031246861
214	0x3bbb454b	0.0057150475
215	0xbca2d680	-0.019877672
216	0x3cf8d660	0.03037566
217	0x3d506557	0.050877895
218	0xbbd244d5	-0.006416897
219	0xbcadd23f	-0.021218417
220	0x3ce58179	0.028015839
221	0xbbb7b2fb	-0.005606053
222	0xbcd2c087	-0.02572657
223	0x3b4ca51e	0.0031226347
224	0x3d13175b	0.035910945
225	0xbb8f923b	-0.0043814457
226	0xbc99b1dc	-0.018761568
227	0x3c59af64	0.013286445
228	0xbaf0c95b	-0.0018370555
229	0xbc8bf843	-0.017086154
230	0x3c261b53	0.010138351
231	0x3cd85c0c	0.026411079
232	0xbcfd6a5c	-0.030934505
233	0x3c5ca371	0.013466702
234	0xbcd8d4b4	-0.026468612
235	0x3cb02552	0.02150217
236	0x3c193ac7	0.0093523925
237	0xbcb5d819	-0.02219777
238	0xbbae6bfb	-0.005322931
239	0x3d107eaa	0.035277046
240	0x3c22c176	0.00993382
241	0x3cf9d356	0.03049628
242	0xbc2b4d24	-0.0104554035
243	0x3b5b3b72	0.003345218
244	0xba4b4d35	-0.000775534
245	0x3caa928a	0.020821828
246	0x3b06e7db	0.0020584974
247	0x3bd2a730	0.0064286217
248	0xbc4460bd	-0.011985955
249	0xbc249fad	-0.010047835
250	0x3eb81761	0.35955337
251	0xbc387a8b	-0.011259685
252	0x3cc9dfa7	0.024642779
253	0xbc5b37a3	-0.013379964
254	0x3b38005f	0.0028076393
255	0xbc6ca5bb	-0.01444381
