EventPredictor_parameters.pt (torch, 286967 bytes, 9 tensors)

layer1.bias f4 [6]
0.0 0.0 0.0 0.0 0.0 0.0
00000000: 0000 0000 0000 0000 0000 0000 0000 0000
00000010: 0000 0000 0000 0000

layer1.W f4 [4, 2]
-0.8092754 -0.26322833 0.95508164 0.5323081 -0.9497797 0.05778392 -0.95267034 -0.2016603
00000000: ac2c 4fbf ddc5 86be 3b80 743f 5845 083f
00000010: c324 73bf d5ae 6c3d 34e2 73bf 0a80 4ebe

layer1.a f4 [4, 1]
0.020750344 -0.059083316 0.020750344 -0.059083316
00000000: a0fc a93c 5901 72bd a0fc a93c 5901 72bd

layer2.0.weight f4 [256, 12]
-0.29695043 0.01458579 0.25946414 -0.056409266 -0.045951687 -0.22684193 -0.055530686 0.24461292
-0.22333644 -0.047933154 -0.09874879 0.1435046 0.09009988 0.15770684 0.36107078 -0.03748675
-0.028745273 0.1833585 -0.01021863 -0.06003588 0.1555515 0.08536464 -0.1875431 0.23185752
0.14736566 0.008943855 -0.2219983 -0.050286286 0.05838214 0.10155822 -0.08132974 0.0041380813
-0.018950779 0.16890967 -0.15319769 -0.014289393 -0.18380961 -0.26263097 -0.15064429 -0.00039733303
-0.20376351 -0.00138896 0.3084191 0.01611406 -0.18611896 -0.3401177 0.041725915 -0.2501401
0.18348266 0.111138836 -0.1681194 0.19667132 -0.18056633 0.15922144 0.07974617 -0.13051951
-0.2032221 -0.07494692 0.3111645 -0.102126904 0.24968433 0.067336455 -0.19762369 -0.049802076
-0.14850163 0.16774385 0.14021699 -0.04625083 -0.19446206 -0.0066292463 0.10093761 -0.24915692
-0.25626627 -0.110075645 0.122930974 0.100737356 -0.053063277 0.068062805 0.07300045 -0.18672584
0.10645966 -0.251277 0.02841637 -0.08487835 -0.18333854 -0.095678076 0.24499545 0.19202201
-0.29595342 -0.24962924 -0.0012933522 -0.030287376 -0.23022841 0.21530023 -0.17528144 -0.26040757
-0.28489992 0.070580654 0.101795405 -0.06769838 0.16128032 -0.14689898 -0.10004787 -0.20452352
0.15040468 0.09841609 0.103925005 0.29178235 -0.059883516 -0.08499286 -0.33908772 0.13497785
-0.07214138 -0.08369244 -0.095978685 0.04718802 0.028790357 -0.10663411 -0.15684475 0.018647045
-0.06121005 0.1729888 0.1250907 -0.24700679 -0.2734485 0.044361554 0.27620053 -0.27983838
-0.20762117 0.017847056 -0.19738515 0.027652454 0.1861643 0.2363146 0.17785016 0.1518334
-0.28871158 -0.009851798 -0.06667622 -0.2503506 0.00393779 -0.1289983 -0.09543994 0.120140895
-0.18288939 -0.21068841 0.18747608 -0.009187896 0.17243958 -0.11542417 -0.14334403 0.17564109
-0.05218871 0.3191713 0.1641584 0.30024657 0.19454421 0.11132768 0.148515 0.2068646
0.20171006 -0.014423426 -0.30051216 -0.04835257 -0.06183119 -0.28317738 -0.2620177 -0.33062062
0.123156115 -0.06806252 -0.17610611 -0.11320009 -0.031422276 0.12843168 -0.08497245 0.13589431
-0.12392486 -0.12471787 -0.0012792747 -0.16359761 -0.06971349 0.26961127 -0.1377772 0.13853185
0.13888662 0.035816774 0.17035954 0.05251593 0.10960421 -0.108008616 -0.04336439 -0.17980297
-0.2198212 -0.12790483 0.15487842 -0.260742 0.052191846 0.14663461 0.13589148 -0.018501118
-0.18216611 0.057797715 0.10165188 -0.13504519 0.012087062 0.054780103 -0.029218474 0.27354464
-0.09052223 0.0042452225 -0.1364838 0.19703458 0.26305807 -0.12780914 0.19293177 0.18933794
0.3079754 -0.04072248 -0.13138655 -0.1570023 0.032049935 0.29215723 0.19676654 -0.096953675
-0.049069807 0.2948848 0.16339289 -0.14829206 -0.13269041 -0.14752115 -0.24202906 0.014235697
-0.08261398 -0.22916041 0.23110513 0.18105456 0.027668843 0.010111748 -0.09924425 -0.0025713504
-0.07334193 -0.23667803 -0.19572538 0.19158217 0.13148604 -0.08570589 -0.20228392 -0.17666696
0.1531105 -0.08253634 0.2218093 -0.24331634 0.1434371 -0.17247902 -0.13961592 0.12214596
00000000: e309 98be 3df9 6e3c 7cd8 843e 670d 67bd
00000010: d637 3cbd 4049 68be 2574 63bd cf7b 7a3e
00000020: 4fb2 64be 8e55 44bd ce3c cabd dff2 123e
00000030: 4986 b83d e77d 213e 45de b83e b58b 19bd
00000040: 357b ebbc 55c2 3b3e 0a6c 27bc 2fe8 75bd
00000050: e448 1f3e a8d3 ae3d 4c0b 40be 0f6c 6d3e
00000060: 06e7 163e 3f89 123c 8653 63be fef8 4dbd
00000070: 1c22 6f3d c2fd cf3d 3590 a6bd be98 873b
00000080: aa3e 9bbc a8f6 2c3e dbdf 1cbe 0f1e 6abc
00000090: 9638 3cbe 9177 86be 7f42 1abe 2351 d0b9
000000a0: 62a7 50be c40d b6ba 1ce9 9d3e a201 843c
000000b0: f895 3ebe e823 aebe cbe8 2a3d 5d12 80be
000000c0: e1e2 3b3e c29c e33d 7e27 2cbe 3564 493e
000000d0: 61e6 38be f20a 233e f651 a33d e8a6 05be
000000e0: 7419 50be c57d 99bd f450 9f3e e927 d1bd
000000f0: 40ad 7f3e b2e7 893d dd5d 4abe 43fd 4bbd
00000100: d010 18be 0bc5 2b3e 0b95 0f3e 8371 3dbd
00000110: 1021 47be 263a d9bb 61b8 ce3d fe22 7fbe
00000120: 5535 83be 576f e1bd 3cc3 fb3d 634f ce3d
00000130: e158 59bd 8364 8b3d 4381 953d 0f35 3fbe
00000140: 8607 da3d 61a7 80be 72c9 e83c b3d4 adbd
00000150: 19bd 3bbe def2 c3bd 16e0 7a3e 6ba1 443e
00000160: 3587 97be cf9e 7fbe b385 a9ba 3b1d f8bc
00000170: ffc0 6bbe aa77 5c3e fa7c 33be 2454 85be
00000180: 67de 91be 978c 903d 1c7a d03d 73a5 8abd
00000190: ab26 253e b06c 16be e6e5 ccbd 9d6e 51be
000001a0: af03 1a3e 608e c93d a2d6 d43d 7f64 953e
000001b0: 6b48 75bd bd10 aebd e89c adbe a237 0a3e
000001c0: dcbe 93bd f166 abbd 7990 c4bd 3a48 413d
000001d0: c1d9 eb3c fc62 dabd e99b 20be b0c1 983c
000001e0: 64b7 7abd fa23 313e c717 003e 59ef 7cbe
000001f0: 7101 8cbe 76b4 353d 286a 8d3e fa46 8fbe
00000200: a59a 54be fd33 923c 551f 4abe 6687 e23c
00000210: dba1 3e3e 74fc 713e 5a1e 363e 377a 1b3e
00000220: 01d2 93be 7069 21bc 8b8d 88bd f42d 80be
00000230: 9408 813b 2118 04be 0476 c3bd 6e0c f63d
00000240: 5b47 3bbe b4be 57be bbf9 3f3e d488 16bc
00000250: 0094 303e 8263 ecbd c7c8 12be 42db 333e
00000260: d4c3 55bd 6c6a a33e 2419 283e ebb9 993e
00000270: 9936 473e c4ff e33d 5114 183e 50d4 533e
00000280: 158d 4e3e 3c50 6cbc bbdc 99be 580d 46bd
00000290: b442 7dbd a0fc 90be 2f27 86be 1b47 a9be
000002a0: 4639 fc3d 5d64 8bbd 2955 34be 73d5 e7bd
000002b0: a5b4 00bd 9883 033e 0906 aebd e127 0b3e
000002c0: 51cc fdbd 156c ffbd 56ad a7ba 2286 27be
000002d0: f2c5 8ebd 7d0a 8a3e 7715 0dbe 4bdb 0d3e
000002e0: 4b38 0e3e 9cb4 123d bb72 2e3e f21a 573d
000002f0: 2c78 e03d 9f33 ddbd dc9e 31bd 451e 38be
00000300: cf18 61be 7cf9 02be 7398 1e3e fa7f 85be
00000310: 1ec7 553d 6227 163e 2327 0b3e a88f 97bc
00000320: c189 3abe 4cbd 6c3d dc2e d03d 4949 0abe
00000330: d008 463c 1a61 603d 955b efbc 0b0e 8c3e
00000340: b863 b9bd 821b 8b3b 69c2 0bbe 6fc3 493e
00000350: 8caf 863e 66e0 02be e88f 453e cee1 413e
00000360: f4ae 9d3e 9dcc 26bd 328a 06be 36c5 20be
00000370: cb46 033d a295 953e 2b7d 493e a68f c6bd
00000380: 6cfd 48bd 24fb 963e 7750 273e e0d9 17be
00000390: ffdf 07be c90f 17be 77d6 77be d73c 693c
000003a0: 8531 a9bd 07a9 6abe d3a6 6c3e 5e66 393e
000003b0: c5a9 e23c bfab 253c 9240 cbbd 1a84 28bb
000003c0: 4b34 96bd ba5b 72be 3c6c 48be 1e2e 443e
000003d0: 47a4 063e 9286 afbd 8423 4fbe 2fe8 34be
000003e0: 00c9 1c3e d008 a9bd fa21 633e eb27 79be
000003f0: 2de1 123e 579e 30be 7af7 0ebe a927 fa3d

layer2.0.bias f4 [256]
0.059330076 -0.35033628 -0.1923765 -0.35981384 0.07606197 -0.024388941 0.07756882 0.24672382
0.0049439105 0.14392707 0.14203441 -0.18419038 0.052056823 -0.10880461 0.24403928 0.024233213
0.16378178 -0.48183075 -0.014024572 0.019078149 -0.12142695 -0.026359286 0.20087127 0.19944675
-0.12782465 -0.014576849 0.19211885 -0.27415827 0.027350673 0.06449763 -0.36816415 -0.056234322
0.17137422 -0.051036846 -0.28676057 -0.06450517 -0.01575828 0.29552406 -0.039424803 0.0016970568
-0.28664133 -0.18060611 -0.10448578 -0.24817203 -0.10306568 0.04440416 0.09747921 0.07912244
-0.09990002 0.022912398 -0.23052055 0.06050287 -0.13359012 0.4256444 -0.20474601 -0.26752153
-0.21804275 0.15640356 0.3851348 0.0027802584 0.27466053 0.34945634 0.13404757 -0.40428326
-0.17119351 -0.040291052 0.035670426 -0.17191093 0.10025774 -0.23101147 -0.05243535 -0.019659597
0.2315901 0.32070497 0.15802993 0.19810693 -0.047124576 -0.24827214 -0.051060323 -0.1690434
-0.12295838 -0.043601315 -0.22774683 -0.02442939 -0.14211425 -0.25391218 -0.17849448 -0.33054703
-0.23093814 0.068210505 -0.014656811 -0.25482944 -0.2544174 -0.03491261 0.21610592 0.21905781
-0.056517687 -0.041743446 0.08286111 -0.034781996 -0.20100786 -0.16548094 -0.3082989 0.20915112
-0.31149906 0.058261417 -0.099327765 0.013674781 0.16891974 -0.21883377 -0.10119751 -0.10755567
0.10373871 0.21310838 0.011217259 -0.015252048 -0.33095735 -0.10508438 -0.20578708 -0.25698298
0.20148015 -0.049172956 -0.29595473 0.27720565 -0.21060966 -0.16162264 -0.09958444 -0.24221936
0.33410466 -0.0554972 -0.21154128 -0.1938382 -0.12483974 0.25721347 -0.27275202 0.007462219
-0.067631446 0.14573205 -0.10107309 -0.021870462 -0.2608846 -0.14934736 0.14954619 -0.028471261
-0.39988115 0.06999591 0.11146386 -0.32693374 0.12109396 0.2149704 0.23735528 0.2771332
0.067447595 -0.21585935 0.032992087 -0.22747178 0.36657998 -0.1439337 0.03485754 -0.2840101
0.02787217 0.2106116 -0.1597999 0.021574818 -0.25620356 0.17501101 0.22671477 -0.07100999
-0.28017536 -0.340763 -0.13956529 0.024805067 0.2559362 -0.035290416 0.027889052 -0.045977935
0.07394634 -0.15153658 0.114522785 -0.023746585 -0.15421328 0.15557876 -0.18469357 0.28839713
0.07517394 -0.26148438 -0.24875335 0.08389929 -0.25729063 0.007229587 -0.3190032 0.043254845
0.0754586 -0.006712246 0.09399532 -0.16641754 0.017123565 -0.22375138 0.13813673 0.25415218
-0.05390745 -0.23131123 0.094314426 -0.21234576 0.24080446 -0.29078278 0.22367443 -0.17754434
-0.2511278 0.21674186 0.30094123 0.15085131 -0.01376633 0.039633393 0.14487953 0.10279404
0.12806164 0.08086568 -0.0449287 -0.049572144 0.21281506 0.24132037 -0.13494745 -0.28571704
-0.14145224 0.28142962 0.16199122 -0.114445694 0.15106031 0.34966752 0.1936496 0.306905
-0.10006036 0.11041738 -0.21761537 0.012317876 -0.19169712 0.10834445 -0.108508065 -0.25958443
-0.19254363 0.0058821803 0.05494237 -0.070397854 0.014916477 0.3257678 0.05363858 0.07365235
-0.3439847 0.033729766 -0.17578267 0.07615471 -0.21010575 -0.2430621 -0.20749918 -0.21590164
00000000: 1804 733d 475f b3be 58fe 44be 8539 b8be
00000010: 61c6 9b3d 51cb c7bc 67dc 9e3d 2ba5 7c3e
00000020: 8700 a23b 9e61 133e 7871 113e 679c 3cbe
00000030: 8939 553d f4d4 debd 6fe5 793e bb84 c63c
00000040: 69b6 273e 85b2 f6be 52c7 65bc c749 9c3c
00000050: b1ae f8bd 6eef d7bc 33b1 4d3e c53b 4c3e
00000060: 77e4 02be bcd3 6ebc ceba 443e 795e 8cbe
00000070: 850e e03c 5517 843d 0380 bcbe f655 66bd
00000080: b97c 2f3e 030c 51bd 48d2 92be 491b 84bd
00000090: 8217 81bc ee4e 973e e77b 21bd c76f de3a
000000a0: a7c2 92be cff0 38be a4fc d5bd cf20 7ebe
000000b0: 1914 d3bd 23e1 353d 2ea3 c73d f20a a23d
000000c0: 6298 ccbd c8b2 bb3c 940d 6cbe dbd1 773d
000000d0: d9cb 08be 10ee d93e f0a8 51be 95f8 88be
000000e0: 9946 5fbe 4128 203e 6330 c53e ff34 363b
000000f0: 4ea0 8c3e f1eb b23e c443 093e 37fe cebe
00000100: 5a4d 2fbe 3b08 25bd 271b 123d 6b09 30be
00000110: ee53 cd3d 458e 6cbe 73c6 56bd 2a0d a1bc
00000120: f525 6d3e 7133 a43e 99d2 213e 8bdc 4a3e
00000130: b305 41bd 0d3b 7ebe a124 51bd b719 2dbe
00000140: 9ad1 fbbd 4b97 32bd 7736 69be 2520 c8bc
00000150: 6686 11be c700 82be 42c7 36be 763d a9be
00000160: 0c7b 6cbe f3b1 8b3d 1f23 70bc 0179 82be
00000170: ff42 82be 8600 0fbd df4a 5d3e b150 603e
00000180: 177f 67bd 2dfb 2abd 16b3 a93d 9177 0ebd
00000190: 01d5 4dbe d673 29be 5ad9 9dbe b62b 563e
000001a0: ce7c 9fbe 86a3 6e3d 5b6c cbbd 300c 603c
000001b0: 4cf9 2c3e f615 60be a440 cfbd 2646 dcbd
000001c0: f674 d43d 1539 5a3e 98c8 373c bae3 79bc
000001d0: 3e73 a9be 7b36 d7bd d9b9 52be 4693 83be
000001e0: d050 4e3e 9569 49bd 6187 97be e6ed 8d3e
000001f0: 0faa 57be 6880 25be edf2 cbbd 5a08 78be
00000200: c40f ab3e 0851 63bd 479e 58be 857d 46be
00000210: faab ffbd 7cb1 833e 27a6 8bbe a185 f43b
00000220: 5b82 8abd c83a 153e 69ff cebd af29 b3bc
00000230: ab92 85be 84ee 18be a322 193e 903c e9bc
00000240: 39bd ccbe 045a 8f3d 2a47 e43d dc63 a7be
00000250: 1c00 f83d 3321 5c3e 430d 733e 67e4 8d3e
00000260: f721 8a3d 3c0a 5dbe b622 073d 5dee 68be
00000270: 5fb0 bb3e 5b63 13be c8c6 0e3d c669 91be
00000280: 2d54 e43c 91aa 573e 96a2 23be acbd b03c
00000290: 1d2d 83be 1636 333e eb27 683e b06d 91bd
000002a0: 2573 8fbe 7d78 aebe 34ea 0ebe ff33 cb3c
000002b0: 120a 833e af8c 10bd 9577 e43c 5c53 3cbd
000002c0: 2e71 973d 682c 1bbe ec8a ea3d 3388 c2bc
000002d0: 16ea 1dbe 0a50 1f3e 5020 3dbe caa8 933e
000002e0: cbf4 993d 48e1 85be 33b9 7ebe 64d3 ab3d
000002f0: 99bb 83be 2ce6 ec3b 6354 a3be fe2b 313d
00000300: 0a8a 9a3d 67f2 dbbb 9e80 c03d 5c69 2abe
00000310: b846 8c3c 151f 65be b773 0d3e 3c20 823e
00000320: 0fce 5cbd dadc 6cbe ec27 c13d 2b71 59be
00000330: 7295 763e 7be1 94be e90a 653e 2fce 35be
00000340: d393 80be 94f1 5d3e f814 9a3e c478 1a3e
00000350: 2c8c 61bc a056 223d 4d5b 143e af85 d23d
00000360: 9722 033e e89c a53d 2807 38bd 290c 4bbd
00000370: 31ec 593e b01c 773e aa2f 0abe 8149 92be
00000380: dbd8 10be 8b17 903e 07e1 253e 8162 eabd
00000390: 8eaf 1a3e 9f07 b33e 154c 463e a722 9d3e
000003a0: 72ec ccbd 8222 e23d 90d6 5ebe ebd0 493c
000003b0: 404c 44be b2e3 dd3d 7a39 debd 40e8 84be
000003c0: 282a 45be 4ebf c03b 400b 613d c02c 90bd
000003d0: 3d64 743c 09cb a63e 21b4 5b3d 0bd7 963d
000003e0: c31e b0be 3928 0a3d 5f00 34be 00f7 9b3d
000003f0: f625 57be 45e5 78be aa7a 54be 5215 5dbe

layer2.2.weight f4 [256, 256]
-0.06306083 -0.14297692 0.093915254 -0.02466043 -0.07864594 -0.17525876 -0.050756644 -0.032755345
0.027807642 -0.0494876 -0.044288352 -0.14324374 0.0402712 -0.066760056 0.02710533 0.114824295
-0.015165507 0.06379873 -0.03303635 0.049288258 0.04974639 0.069190316 0.027735144 -0.015828596
0.023282394 -0.052139636 -0.043722745 0.0008384926 -0.09597429 0.14196596 -0.023305194 0.0054542944
-0.13832219 -0.106797375 -0.1419806 -0.0275692 0.060672387 -0.0016469159 0.11970167 0.135386
0.0155313155 0.04072849 -0.1582892 -0.019198693 0.010110883 -0.031399194 0.025624726 -0.106552385
0.065879285 -0.046804834 0.008852778 -0.14748873 -0.01965213 -0.10206637 -0.012227251 0.0023975163
0.048682984 0.026105061 0.02046459 0.009625898 -0.10468139 -0.040840182 -0.07432859 0.041246552
0.05358651 -0.021187117 0.060504902 0.079593934 0.015291068 0.06765402 -0.041427746 -0.09152946
-0.07198355 -0.027332984 -0.02268588 -0.032308266 0.023579316 0.0089638205 0.035152305 -0.0010158366
-0.052055214 -0.035341974 0.097012475 -0.018789694 -0.0033425635 -0.015378423 0.03249517 0.0817666
-0.05623606 -0.08037724 0.0003734093 -0.00071241945 0.034469195 -0.098623 0.03561099 -0.017461939
-0.09886759 0.0113265645 0.0032523402 -0.10842803 0.025096284 0.11670638 0.09068879 0.091527075
0.017909214 0.06494985 -0.052764915 -0.012736802 0.03570805 -0.046747718 0.028467521 -0.009538874
0.001921908 0.031184979 -0.07285638 -0.069619864 -0.116740316 -0.06781204 -0.022979736 0.07984089
0.02001665 -0.07621629 0.122288905 -0.041172087 0.1171481 0.05262094 0.069729276 0.12976763
0.015639352 0.017996613 -0.017091848 0.0041154153 0.10104773 0.0350892 0.038388126 -0.010238064
0.003214195 -0.020595139 0.03013195 -0.08828704 -0.040818308 0.07729667 0.004638943 0.0006469745
0.014396241 -0.0008403836 -0.08642322 0.057450954 0.0026451473 -0.09708864 -0.03900344 -0.05074497
0.12168846 -0.0010711659 0.02910189 -0.012726815 0.13979578 -0.07896929 -0.03874194 0.016579755
-0.1258942 -0.0789237 0.033682983 -0.15753984 0.005546694 0.07197305 -0.031351104 -0.010607575
-0.027653573 0.115208834 -0.12235422 -0.030113567 0.011927973 0.009348312 0.024032632 0.066415966
-0.06762306 0.1735318 -0.043214146 -0.09879841 -0.045106087 0.06973247 -0.019324489 -0.024377342
0.022919929 -0.040038496 0.0019870535 -0.120288946 0.015802978 -0.037848026 -0.055416774 -0.043759722
0.020054303 -0.01049597 -0.07388343 -0.08838646 0.002467802 0.0033563522 -0.0682531 0.05504697
-0.033279568 -0.1409124 0.1023224 0.038384356 -0.106740855 -0.05440632 -0.06238374 -0.069404155
0.10424284 -0.019611934 0.035432544 0.11496681 -0.05636611 0.0012793575 0.12323899 0.028170547
0.010747581 0.049329318 0.023217516 -0.060073085 0.081011824 0.020596236 -0.024603136 0.052017745
-0.12738524 -0.0024445397 -0.1198617 -0.031217938 -0.17977664 0.00090693234 0.07435464 0.09588657
0.005847866 -0.09250931 -0.024869164 -0.1328602 0.10444434 -0.1788874 -0.1375347 0.105296835
-0.058688506 0.023250194 0.028975947 -0.0048060957 -0.013818916 0.037931047 0.10385827 0.055433344
-0.044049755 0.07756782 0.0017632102 -0.005500264 0.0769647 -0.012728013 -0.12811312 -0.069854766
00000000: 0926 81bd 8b68 12be a456 c03d ac04 cabc
00000010: 1f11 a1bd 0877 33be 33e6 4fbd 782a 06bd
00000020: dacc e33c 82b3 4abd b467 35bd 7dae 12be
00000030: 6af3 243d 7fb9 88bd ff0b de3c 0029 eb3d
00000040: bf78 78bc e9a8 823d 2051 07bd 7ce2 493d
00000050: dfc2 4b3d a7b3 8d3d d034 e33c f9aa 81bc
00000060: b8ba be3c 5f90 55bd 9f16 33bd 49ce 5b3a
00000070: 2b8e c4bd 865f 113e 89ea bebc f0b9 b23b
00000080: 55a4 0dbe 95b8 dabd 5d63 11be ced8 e1bc
00000090: 9c83 783d 54dd d7ba 2626 f53d a1a2 0a3e
000000a0: 0f77 7e3c ebd2 263d 9016 22be 9446 9dbc
000000b0: 1ea8 253c 719c 00bd f2ea d13c 2338 dabd
000000c0: b8eb 863d 6db6 3fbd 3e0b 113c 4907 17be
000000d0: 81fd a0bc 2c08 d1bd cf54 48bc a61f 1d3b
000000e0: cf67 473d 48da d53c 5ba5 a73c f1b5 1d3c
000000f0: 3263 d6bd 0948 27bd 9639 98bd 25f2 283d
00000100: 877d 5b3d 9b90 adbc fdd3 773d 2502 a33d
00000110: 6387 7a3c 318e 8a3d 24b0 29bd cc73 bbbd
00000120: 1d6c 93bd 6ce9 dfbc bdd7 b9bc ac55 04bd
00000130: 6929 c13c fddc 123c ddfb 0f3d d225 85ba
00000140: d937 55bd bfc2 10bd 7aae c63d d8ec 99bc
00000150: e90e 5bbb c8f5 7bbc a819 053d 3f75 a73d
00000160: c857 66bd d39c a4bd 26c6 c339 a9c1 3aba
00000170: 922f 0d3d dbfa c9bd d4dc 113d 570c 8fbc
00000180: 177b cabd 0e93 393c 3725 553b 840f debd
00000190: b996 cd3c c103 ef3d 0bbb b93d 8c72 bb3d
000001a0: 58b6 923c 6d04 853d 0620 58bd 05ae 50bc
000001b0: 9b42 123d 897a 3fbd b834 e93c f048 1cbc
000001c0: 88e8 fb3a a477 ff3c ba35 95bd dc94 8ebd
000001d0: 8c15 efbd 0ae1 8abd 0040 bcbc 9f83 a33d
000001e0: f5f9 a33c 4917 9cbd 9b72 fa3d 10a4 28bd
000001f0: 58eb ef3d 0e89 573d 39ce 8e3d cee1 043e
00000200: 191e 803c a26d 933c 3404 8cbc 9bda 863b
00000210: 1df2 ce3d b1b9 0f3d de3c 1d3d 8ebd 27bc
00000220: 3ea5 523b 23b7 a8bc 47d7 f63c d6cf b4bd
00000230: 1931 27bd b74d 9e3d 4602 983b b999 293a
00000240: 36de 6b3c 304d 5cba a8fe b0bd b151 6b3d
00000250: 355a 2d3b 69d6 c6bd 12c2 1fbd f5d9 4fbd
00000260: cd37 f93d 5d66 8cba 1667 ee3c 2284 50bc
00000270: a026 0f3e a7ba a1bd deaf 1ebd 44d2 873c
00000280: 69ea 00be c0a2 a1bd 2bf7 093d 2052 21be
00000290: 0bc1 b53b 9b66 933d 046a 00bd 65cb 2dbc
000002a0: bf89 e2bc 9cf2 eb3d d994 fabd bab0 f6bc
000002b0: 8b6d 433c aa29 193c 15e0 c43c 1805 883d
000002c0: f57d 8abd 52b2 313e 5101 31bd d256 cabd
000002d0: 29c1 38bd e6cf 8e3d 644e 9ebc feb2 c7bc
000002e0: 93c2 bb3c 68ff 23bd 3a39 023b 0d5a f6bd
000002f0: 3f75 813c 8806 1bbd b3fc 62bd 653d 33bd
00000300: ec48 a43c 4af7 2bbc 3250 97bd f603 b5bd
00000310: d9ba 213b 3ff6 5b3b 48c8 8bbd ee78 613d
00000320: 2850 08bd 574b 10be 688e d13d ea38 1d3d
00000330: f39a dabd 29d9 5ebd 1886 7fbd c423 8ebd
00000340: 457d d53d 35a9 a0bc b721 113d b873 eb3d
00000350: 26e0 66bd 1db0 a73a b964 fc3d ebc5 e63c
00000360: 9f16 303c 8a0d 4a3d a932 be3c 320f 76bd
00000370: 87e9 a53d 70b9 a83c 848c c9bc 8f10 553d
00000380: 4771 02be 9234 20bb 0d7a f5bd c3bc ffbc
00000390: 5e17 38be 33bf 6d3a 3f47 983d 2e60 c43d
000003a0: 759f bf3b 8575 bdbd 6bba cbbc 810c 08be
000003b0: eae6 d53d 422e 37be e5d5 0cbe dea5 d73d
000003c0: 5c63 70bd 3177 be3c f75e ed3c 747c 9dbb
000003d0: bc68 62bc 965d 1b3d a5b3 d43d 130e 633d
000003e0: 846d 34bd e1db 9e3d 841b e73a 8f3b b4bb
000003f0: ab9f 9d3d 2889 50bc 1630 03be 0410 8fbd

layer2.2.bias f4 [256]
-0.14059138 -0.06310992 0.0031485984 0.065136686 -0.10083535 -0.10403198 0.04166725 0.022956043
0.023157181 0.07324668 -0.028568897 0.25892448 -0.15400812 -0.009204236 0.19432628 -0.03961049
-0.0027674322 -0.057325512 -0.14159474 -0.08370681 0.064897105 0.06850417 0.16726759 -0.06388421
-0.122969806 0.00057977426 0.050568305 -0.04718863 0.16522329 0.06951695 0.08861136 0.008727171
-0.014090393 0.029038344 0.1294335 -0.04840423 0.22439046 0.14833939 -0.08299058 -0.18723884
0.025049768 -0.11836033 0.016583279 0.030350761 0.12525587 0.02328222 0.059174716 0.038162895
-0.02474984 -0.20997873 -0.120606326 0.16402169 -0.029597353 0.1176771 -0.023593629 -0.100282565
0.012687628 -0.03576077 -0.12865609 0.060236357 -0.0039699194 0.10402696 0.09099518 0.059512272
-0.002293941 -0.072269164 0.021024095 0.17247967 0.055026546 -0.08645266 0.08137702 0.061255343
-0.027847879 -0.16608988 0.020893922 -0.061556052 -0.009731201 0.16675416 0.056074545 -0.036918204
-0.12375349 0.0036766946 0.028516013 -0.061378006 -0.03841092 0.041043393 -0.031055788 -0.046749648
-0.014682976 0.0624786 0.08892723 0.12805125 -0.17188613 -0.07340857 0.07120721 -0.037808336
-0.01903711 -0.048016097 -0.027156835 0.097697146 0.052158136 -0.13753928 0.012174845 0.015294958
-0.102935255 -0.17885748 0.11789297 0.034409065 -0.17686741 0.16485214 0.058106553 -0.07603898
-0.18516476 0.055198114 -0.14976107 0.18322586 -0.075251736 0.00047995706 -0.0047572125 -0.055602446
-0.049156364 -0.029513204 -0.08523593 -0.14290287 0.1151233 -0.14366211 0.014349678 -0.15952401
0.000562314 -0.17924386 -0.08035128 -0.14655736 -0.121490926 -0.0043590628 0.2454478 -0.16247761
0.03565257 -0.14049776 0.09130416 -0.042141844 -0.0815904 0.050558314 0.08716091 -0.0061936574
-0.019846274 0.064247034 0.101029694 0.1205133 -0.0043527684 -0.047968492 -0.1050308 -0.054403424
-0.114991866 0.044473067 0.01554133 -0.043860093 0.09960638 -0.039752774 0.06550946 -0.064641066
-0.015956633 -0.13983053 -0.017070122 0.22382763 -0.043813918 0.0724451 -0.17024878 -0.02186308
-0.030948954 -0.11661346 -0.06302874 -0.108914845 0.06725426 0.044237215 -0.10966356 0.13765098
-0.00025369826 -0.05178157 0.03785169 0.058623325 -0.16284439 0.028195404 -0.05609774 0.07932644
-0.0789117 -0.010079277 0.07144809 0.06611038 -0.048278626 0.0699071 -0.022453915 0.03165477
0.024570515 -0.06475493 0.07212493 0.054040458 0.08530615 -0.06827914 0.07223023 0.025406571
0.10435639 -0.0100647835 -0.18068416 -0.12597767 0.04411181 0.12497831 -0.1548343 -0.03648962
-0.010330043 -0.060091 -0.06520844 0.015723685 0.16568501 -0.010816498 -0.008911755 0.0023951198
-0.05625483 0.16717747 -0.024651501 -0.13482964 -0.17904581 0.01439805 0.10225416 -0.10561808
-0.02294933 0.03779682 -0.11553684 0.044658072 0.14694059 0.23180261 -0.078943275 -0.078488946
-0.05942688 -0.003509362 0.21593337 -0.0160574 -0.16276588 -0.12233433 -0.06353627 0.16881217
0.093617186 0.016635126 -0.13633886 -0.02133179 -0.10919259 0.019027088 0.06278739 0.0868198
-0.09097083 -0.118171655 0.1855456 0.17983082 -0.19222769 -0.14690405 0.012643035 0.13581668
00000000: 30f7 0fbe c63f 81bd b758 4e3b 6266 853d
00000010: c482 cebd b80e d5bd 47ab 2a3d 500e bc3c
00000020: 21b4 bd3c 5b02 963d 5209 eabc c091 843e
00000030: 4eb4 1dbe 5dcd 16bc 78fd 463e 9c3e 22bd
00000040: cf5d 35bb 28ce 6abd 36fe 10be 7a6e abbd
00000050: c6e8 843d ea4b 8c3d 3248 2b3e bad5 82bd
00000060: 98d7 fbbd fefb 173a b620 4f3d dd48 41bd
00000070: 4b30 293e e75e 8e3d df79 b53d 69fc 0e3c
00000080: 64db 66bc d2e1 ed3c 378a 043e 8443 46bd
00000090: 9dc6 653e 48e6 173e f7f6 a9bd 8abb 3fbe
000000a0: 2c35 cd3c e766 f2bd a8d9 873c 29a2 f83c
000000b0: 1343 003e 5bba be3c 3061 723d b250 1c3d
000000c0: 2dc0 cabc aa04 57be 7300 f7bd 4df5 273e
000000d0: 2676 f2bc b100 f13d 6d47 c1bc f260 cdbd
000000e0: c5df 4f3c e379 12bd 6cbe 03be 66ba 763d
000000f0: 1916 82bb 160c d53d ae5b ba3d 24c3 733d
00000100: f255 16bb db01 94bd b93a ac3c 839e 303e
00000110: 8463 613d 180e b1bd ffa8 a63d e2e6 7a3d
00000120: 3c21 e4bc 7713 2abe bb29 ab3c 3322 7cbd
00000130: 9e6f 1fbc 9ac1 2a3e 6cae 653d 8b37 17bd
00000140: 7872 fdbd b3f4 703b 6a9a e93c 8167 7bbd
00000150: c554 1dbd 1e1d 283d b568 febc 8f7c 3fbd
00000160: dd90 70bc 8fe9 7f3d 7b1f b63d de1f 033e
00000170: eb02 30be 3b57 96bd 16d5 913d eadc 1abd
00000180: b7f3 9bbc 87ac 44bd 0378 debc 7115 c83d
00000190: c5a3 553d 19d7 0cbe 0079 473c b497 7a3c
000001a0: b8cf d2bd 6a26 37be df71 f13d 85f0 0c3d
000001b0: bb1c 35be 00cf 283e 2301 6e3d 53ba 9bbd
000001c0: d59b 3dbe 6b17 623d f75a 19be 8f9f 3b3e
000001d0: 951d 9abd bfa2 fb39 64e2 9bbb 64bf 63bd
000001e0: 2f58 49bd adc5 f1bc 2d90 aebd 2155 12be
000001f0: c4c5 eb3d 291c 13be e91a 6b3c 435a 23be
00000200: 4168 133a b48b 37be 368f a4bd 2213 16be
00000210: 3cd0 f8bd 78d6 8ebb ab56 7b3e 8860 26be
00000220: 6e08 123d a5de 0fbe adfd ba3d ed9c 2cbd
00000230: de18 a7bd 3c16 4f3d 6b81 b23d 2af4 cabb
00000240: a794 a2bc f393 833d a8e8 ce3d adcf f63d
00000250: aba1 8ebb 9c7a 44bd 631a d7bd 20d6 5ebd
00000260: db80 ebbd 6429 363d 10a1 7e3c a4a6 33bd
00000270: 6efe cb3d ced3 22bd d329 863d 8962 84bd
00000280: 7cb7 82bc bc2f 0fbe a4d6 8bbc 1233 653e
00000290: 3976 33bd 195e 943d b255 2ebe 341a b3bc
000002a0: a988 fdbc 0ad3 eebd 3615 81bd bf0e dfbd
000002b0: 9abc 893d 1532 353d 4a97 e0bd 61f4 0c3e
000002c0: ce02 85b9 e918 54bd 600a 1b3d 031f 703d
000002d0: aec0 26be 0cfa e63c bec6 65bd e775 a23d
000002e0: 759c a1bd 8d23 25bc 6053 923d e164 873d
000002f0: cfbf 45bd 742b 8f3d 46f1 b7bc 6fa8 013d
00000300: 1b48 c93c 3c9e 84bd 3cb6 933d 8759 5d3d
00000310: feb4 ae3d efd5 8bbd 71ed 933d 7121 d03c
00000320: ceb8 d53d c3e6 24bc 4505 39be 4a00 01be
00000330: 96ae 343d a1f4 ff3d e28c 1ebe 2476 15bd
00000340: 573f 29bc fb21 76bd 018c 85bd f5ce 803c
00000350: 55a9 293e ae37 31bc 9c02 12bc 71f7 1c3b
00000360: 776b 66bd 9230 2b3e f2f1 c9bc c810 0abe
00000370: c957 37be cce5 6b3c a16a d13d 4b4e d8bd
00000380: 3c00 bcbc d7d0 1a3d 949e ecbd 62eb 363d
00000390: 9877 163e aa5d 6d3e 03ad a1bd d0be a0bd
000003a0: 9a69 73bd 53fd 65bb a31d 5d3e cf8a 83bc
000003b0: 19ac 26be 6c8a fabd 4e1f 82bd 19dd 2c3e
000003c0: 5eba bf3d 6346 883c 6a9c 0bbe 02c0 aebc
000003d0: 5da0 dfbd b2de 9b3c ad96 803d 94ce b13d
000003e0: ea4e babd fb03 f2bd aaff 3d3e 9225 383e
000003f0: 56d7 44be 046e 16be bb24 4f3c 8713 0b3e

layer2.4.weight f4 [7, 256]
-0.009560462 -0.112818785 0.05917068 -0.07002134 0.01315649 0.117247954 -0.0074510626 0.010667345
0.022832457 -0.12675114 -0.17845039 -0.11559618 0.12676938 0.03614135 -0.09887209 -0.06910461
0.0671761 -0.17100373 0.13210914 -0.04529531 0.008810489 0.0013640863 -0.05638261 -0.026468758
0.11761785 -0.01811663 -0.0013612362 0.022282992 -0.006397622 -0.0076227626 0.01727182 -0.18104187
-0.023606485 -0.08390638 -0.091660924 0.06754241 -0.18389411 -0.009588685 0.019183313 0.15050443
-0.03731033 0.026855601 0.032578625 -0.020965183 0.029967375 -0.0044385386 0.005292962 0.068864554
-0.03526223 0.1205131 0.18926357 -0.09756075 -0.08955926 -0.11791461 -0.011008619 -0.03627295
0.020495616 -0.0016563016 -0.02793479 -0.026145654 0.124681965 -0.07911951 0.12374645 0.05632868
0.01221536 0.07609181 -0.066810295 -0.11141753 -0.02681666 -0.06968068 -0.019910865 0.02147423
0.015596825 0.08526245 -0.13232066 0.1744911 -0.06486157 -0.045594234 -0.06503548 -0.10332922
0.03576924 0.08561291 0.014018543 -0.017976716 0.0589902 -0.040576387 -0.035494722 -0.024286695
-0.1284199 0.014408678 -0.012668933 0.0886758 0.016625168 -0.020748293 -0.074833915 -0.070852324
0.010793642 0.020724127 -0.076400146 0.043110333 0.029349267 -0.029424641 -0.004039121 -0.029864978
0.0051448126 -0.0044193836 -0.11080631 -0.0072658365 0.13027708 -0.08936255 -0.097480185 0.025576636
-0.010467887 0.091002405 0.025300605 -0.05259132 -0.08395618 0.019782552 -0.025129424 -0.043923277
0.0919539 -0.006103428 0.041489493 0.04953513 -0.09307542 0.075474344 -0.105489895 -0.10010975
-0.006933369 -0.031382583 -0.065452494 0.06854354 0.062408023 -0.022013111 -0.08330232 -0.008438852
-0.04136892 0.14828236 -0.054543186 -0.1103551 0.023725668 0.07969491 -0.058420327 0.053371735
-0.031007212 -0.07218553 0.0061338707 0.042464517 -0.0066619734 0.038629867 -0.041564375 0.086241916
-0.006309622 0.06630275 0.022080991 -0.03122391 0.04554761 -0.03735706 -0.023796642 0.02880432
-0.011297856 0.014189449 0.07760655 -0.11936012 0.040905226 0.07603174 0.004958989 -0.056480918
-0.045991268 0.18195456 0.08251012 -0.049237236 -0.06469468 0.039562237 0.13388169 -0.060415
-0.04967936 0.05617967 0.01443124 0.026217662 0.0503301 0.07880494 0.01689142 -0.06373384
0.09716562 -0.13003527 0.0145724565 -0.01873605 0.09180582 0.119027644 0.08207708 0.038937088
0.011332171 -0.040337317 0.033263247 0.021904893 -0.17296796 -0.049090654 -0.052070204 0.08268914
-0.033038743 0.032103915 0.048402335 0.06570055 -0.04783585 -0.1143295 -0.05355383 0.049505863
-0.03378098 -0.10074143 -0.044354852 0.0008424073 -0.010055286 0.039664876 -0.021472901 0.058853198
0.014341364 -0.02183859 -0.08567938 -0.08064387 0.04645789 0.0028716004 0.025862535 -0.0027649293
0.104584634 0.08841772 -0.031188194 -0.021162678 -0.07315187 -0.19084962 -0.021571146 -0.06098525
0.12166498 0.03248855 -0.09713967 -0.06366076 0.0021882192 -0.010253759 -0.03666107 -0.06966862
0.0099905 -0.025632175 0.056119658 -0.070536815 0.008274481 0.043306172 -0.16583066 -0.04749011
-0.02380768 0.10433217 -0.008966896 -0.020265112 0.06775031 -0.05916014 -0.009765472 -0.049341675
00000000: 7ca3 1cbc 890d e7bd f45c 723d 5967 8fbd
00000010: 528e 573c b21f f03d 0b28 f4bb 16c6 2e3c
00000020: 220b bb3c 0dcb 01be b3bb 36be b1bd ecbd
00000030: d5cf 013e f408 143d 737d cabd b886 8dbd
00000040: a093 893d 9a1b 2fbe 9e47 073e 9387 39bd
00000050: df59 103c 24cb b23a 74f1 66bd 02d5 d8bc
00000060: a1e1 f03d 5469 94bc 826b b2ba d28a b63c
00000070: 25a3 d1bb 5ec8 f9bb a27d 8d3c 0a63 39be
00000080: 6362 c1bc 1cd7 abbd b9b8 bbbd ad53 8a3d
00000090: bd4e 3cbe dc19 1dbc 5326 9d3c d51d 1a3e
000000a0: b7d2 18bd 4700 dc3c 2a71 053d 2dbf abbc
000000b0: 247e f53c 2971 91bb 9570 ad3b dc08 8d3d
000000c0: 216f 10bd 92cf f63d 4fce 413e eecd c7bd
000000d0: d86a b7bd 377d f1bd 7f5d 34bc f292 14bd
000000e0: 6ce6 a73c 4218 d9ba 80d7 e4bc 692f d6bc
000000f0: 4259 ff3d 6909 a2bd c76e fd3d e7b8 663d
00000100: ef22 483c 06d6 9b3d d6d3 88bd e02e e4bd
00000110: 9dae dbbc bfb4 8ebd 1c1c a3bc b9ea af3c
00000120: d389 7f3c 149e ae3d 117f 07be cbad 323e
00000130: 25d6 84bd 05c1 3abd 5231 85bd 459e d3bd
00000140: c482 123d d255 af3d 08ae 653c e843 93bc
00000150: b59f 713d 6d33 26bd ea62 11bd e4f4 c6bc
00000160: 8280 03be 6012 6c3c 5b91 4fbc a89b b53d
00000170: 8131 883c 53f8 a9bc 8642 99bd 061b 91bd
00000180: d1d7 303c a5c5 a93c ae77 9cbd 7694 303d
00000190: e06d f03c f20b f1bc 9a5a 84bb 66a7 f4bc
000001a0: d195 a83b 7ad0 90bb 6bee e2bd 4116 eebb
000001b0: 5b67 053e b603 b7bd b1a3 c7bd 1886 d13c
000001c0: 8081 2bbc 785f ba3d 3743 cf3c ff69 57bd
000001d0: 38f1 abbd 050f a23c 39dc cdbc e5e8 33bd
000001e0: 5452 bc3d 44ff c7bb e3f0 293d 59e5 4a3d
000001f0: 539e bebd 4b92 9a3d 160b d8bd 5706 cdbd
00000200: 5131 e3bb 068b 00bd f50b 86bd 8e60 8c3d
00000210: 8e9f 7f3d d754 b4bc 689a aabd 1c43 0abc
00000220: 7572 29bd 55d7 173e ad68 5fbd db01 e2bd
00000230: 555c c23c 1637 a33d 274a 6fbd 529c 5a3d
00000240: d602 febc 02d6 93bd a3fe c83b 46ef 2d3d
00000250: af4c dabb 5a3a 1e3d 683f 2abd 9a9f b03d
00000260: f2c0 cebb bcc9 873d 32e3 b43c 49c9 ffbc
00000270: 2190 3a3d b703 19bd 2df1 c2bc 0af7 eb3c
00000280: a51a 39bc dd7a 683c 2ff0 9e3d 1473 f4bd
00000290: 3d8c 273d 87b6 9b3d 047f a23b 8958 67bd
000002a0: 5761 3cbd 4c52 3a3e 11fb a83d fcac 49bd
000002b0: a57e 84bd 030c 223d 4818 093e b875 77bd
000002c0: 967c 4bbd a71c 663d 0271 6c3c 6cc6 d63c
000002d0: ef26 4e3d 7c64 a13d e05f 8a3c e386 82bd
000002e0: c5fe c63d f727 05be 50c1 6e3c 587c 99bc
000002f0: b104 bc3d c4c4 f33d 0718 a83d 7f7c 1f3d
00000300: 92aa 393c be38 25bd 0b3f 083d e471 b33c
00000310: 831e 31be 4813 49bd 9147 55bd ed58 a93d
00000320: a253 07bd 657f 033d 8741 463d 038e 863d
00000330: 86ef 43bd 9625 eabd 435b 5bbd a9c6 4a3d
00000340: ed5d 0abd 8651 cebd 6fad 35bd ffd4 5c3a
00000350: edbe 24bc a377 223d f0e7 afbc 0d10 713d
00000360: 0af8 6a3c d8e6 b2bc ac78 afbd 9d28 a5bd
00000370: a14a 3e3d 7631 3c3b abdd d33c d133 35bb
00000380: 7830 d63d 5914 b53d 627e ffbc 5a5d adbc
00000390: a6d0 95bd 156e 43be f9b5 b0bc abcb 79bd
000003a0: 7d2b f93d b712 053d 2af1 c6bd 9360 82bd
000003b0: 3a68 0f3b 62ff 27bc eb29 16bd 6cae 8ebd
000003c0: 32af 233c 91fa d1bc badd 653d 9b75 90bd
000003d0: b091 073c d061 313d 83cf 29be fd84 42bd
000003e0: 5308 c3bc 1bac d53d e3e9 12bc 0503 a6bc
000003f0: adc0 8a3d e751 72bd 5cff 1fbc 7f1a 4abd

layer2.4.bias f4 [7]
-0.18335973 -0.074959405 -0.12527847 -0.00011859019 0.028000548 0.04246314 0.098069556
00000000: a7c2 3bbe 5184 99bd 0049 00be a0b3 f8b8
00000010: 6861 e53c d4ed 2d3d b1d8 c83d
