TimestampPredictor_parameters.pt (torch, 280823 bytes, 8 tensors)

layer1.bias f4 [6]
0.0 0.0 0.0 0.0 0.0 0.0
00000000: 0000 0000 0000 0000 0000 0000 0000 0000
00000010: 0000 0000 0000 0000

layer1.W f4 [4, 2]
0.17753378 0.9051395 0.50398505 -0.6280682 -1.0807124 -0.34270728 -1.2112619 -1.1112868
00000000: 6acb 353e 39b7 673f 2a05 013f 14c9 20bf
00000010: c954 8abf 5477 afbe a10a 9bbf a53e 8ebf

layer1.a f4 [4, 1]
-0.0707868 0.07402902 -0.0707868 0.07402902
00000000: abf8 90bd 879c 973d abf8 90bd 879c 973d

layer2.0.weight f4 [256, 12]
-0.05206127 -0.05517586 -0.34043485 -0.07571625 -0.07909833 -0.20188175 -0.43987718 -0.14237799
0.5544652 0.23341064 -0.41773233 0.2418573 -0.057512097 0.0011742404 -0.22488411 0.087366655
-0.031804442 0.14348389 -0.15688138 -0.26739433 0.03749244 0.5068131 -0.4609468 -0.07480461
0.20135958 0.17955421 -0.27603334 0.2791364 0.2847308 0.068119444 -0.19647327 -0.088350534
-0.4286691 -0.3624739 0.2579814 -0.0801516 0.06958616 0.22482133 -0.1597862 0.18989101
-0.1026205 0.09406263 -0.45323357 -0.21012448 0.23967226 0.53404015 -0.13312656 -0.19003014
-0.09832079 0.39368665 0.1606483 0.40727964 0.17544782 -0.08532859 -0.12129379 0.36103842
-0.65156776 -0.529904 -0.21881235 0.33712256 0.002426687 -0.34911844 -0.38583416 -0.027620746
0.042707615 -0.11562223 0.08198672 -0.03913815 -0.0733132 0.18156648 -0.32132694 0.095761396
-0.35449475 -0.2964114 0.0010194577 0.24717313 -0.11180372 -0.078634895 -0.08781953 0.08938261
0.0005623224 0.008247076 -0.038281873 0.2361195 -0.39986047 0.23914765 0.0032938581 0.21595255
0.1992993 0.34767574 -0.13662274 0.090478174 -0.05268091 0.14896211 -0.116032414 0.21601415
-0.10624779 -0.010234836 -0.16050234 0.043451965 0.03298205 0.09260885 -0.14205325 0.3400267
0.27946684 0.058243733 -0.285155 0.09318648 -0.4720597 0.15059663 -0.070114724 -0.21765043
0.06814999 0.033012513 -0.3587173 0.07928211 -0.042315613 0.1715912 0.13578591 -0.030899432
0.18535574 0.5333158 -0.08377376 0.31531557 0.024188174 -0.11068696 -0.298387 0.14158134
-0.3513691 -0.5984337 0.11215674 0.26883554 -0.04173311 0.0063014477 -0.45214644 0.26389727
0.15213281 0.43989748 -0.10792228 -0.09645856 -0.042593535 0.033615675 0.087665215 -0.14407136
-0.43778652 0.017116724 -0.09268636 -0.07188844 -0.15643969 0.061950017 -0.0032954696 0.05985221
-0.23417138 0.37692964 0.20495541 -0.09906338 -0.15633951 -0.20436865 -0.523556 0.31443292
-0.048627604 -0.25111604 -0.3950106 -0.14006414 0.2699463 0.3675626 -0.5100125 -0.06648369
0.073459305 0.12156822 0.02490596 -0.014306849 0.020725727 0.21491449 -0.26555404 -0.095781565
0.12535432 0.34503767 -0.13113725 0.020259647 -0.15142326 -0.10933616 -0.1198967 0.13179637
0.044496555 0.021875089 0.006049113 0.09881098 -0.16155823 -0.23246378 0.028278759 -0.160928
-0.1907006 -0.21706556 -0.5421341 0.039807532 -0.08664108 0.0068739746 -0.29917324 -0.2568588
0.23634128 0.47678253 -0.6883747 0.22137871 -0.06998613 0.06480237 -0.07044612 0.3240052
0.21948585 0.10164008 -0.17378682 -0.07150374 -0.14364628 0.29878968 -0.33463636 -0.17706372
0.21763518 -0.30308166 0.031049138 -0.13681544 0.021974638 0.08297575 -0.37851742 0.27429372
-0.19373333 0.1783953 -0.3206463 0.013693531 -0.11201395 0.31573713 -0.12523554 0.24953105
-0.078674465 0.24359234 -0.037423868 -0.035192996 0.11271449 0.3844445 0.1224297 0.07514861
-0.19015661 -0.25405207 0.29706502 -0.09946187 -0.11686589 -0.07720125 -0.36004317 0.28816557
0.43518737 0.025327168 -0.31261072 -0.05138988 0.121327415 -0.13326305 -0.3816696 -0.029328497
00000000: 333e 55bd 1500 62bd 7a4d aebe 1f11 9bbd
00000010: 4efe a1bd 17ba 4ebe 9537 e1be 89cb 11be
00000020: 6ef1 0d3f 3303 6f3e 03e1 d5be 71a9 773e
00000030: ce91 6bbd f8e8 993a 0548 66be 4aed b23d
00000040: 6045 02bd 71ed 123e 83a5 20be e9e7 88be
00000050: ac91 193d 81be 013f 3801 ecbe 2933 99bd
00000060: 3531 4e3e 0fdd 373e 3e54 8dbe f7ea 8e3e
00000070: 3cc8 913e 3582 8b3d 4a30 49be 20f1 b4bd
00000080: 847a dbbe 2e96 b9be 2316 843e 8626 a4bd
00000090: 3083 8e3d 9037 663e fe9e 23be ca72 423e
000000a0: b22a d2bd e8a3 c03d 3b0e e8be df2a 57be
000000b0: a56c 753e dbb6 083f 5452 08be 4397 42be
000000c0: 695c c9bd 4c91 c93e fd80 243e f586 d03e
000000d0: 98a8 333e c1c0 aebd e168 f8bd 07da b83e
000000e0: 25cd 26bf caa7 07bf 5810 60be 549b ac3e
000000f0: 0d09 1f3b a7bf b2be 0e8c c5be e744 e2bc
00000100: 2eee 2e3d 59cb ecbd a7e8 a73d 534f 20bd
00000110: 3b25 96bd 90ec 393e f784 a4be 8d1e c43d
00000120: 5680 b5be 3cc3 97be 539f 853a f41a 7d3e
00000130: 59f9 e4bd 550b a1bd bada b3bd 3b0e b73d
00000140: d168 133a be1e 073c 74cd 1cbd 4fc9 713e
00000150: 83ba ccbe 1fe3 743e c5dd 573b aa22 5d3e
00000160: 1e15 4c3e 8e02 b23e d5e6 0bbe 9f4c b93d
00000170: f0c7 57bd 8689 183e 67a2 edbd d032 5d3e
00000180: 7198 d9bd 03b0 27bc ba5a 24be b0fa 313d
00000190: 3018 073d b5a9 bd3d 6876 11be fb17 ae3e
000001a0: 4716 8f3e fb90 6e3d d6ff 91be 8ed8 be3d
000001b0: cfb1 f1be 0136 1a3e 4f98 8fbd c1df 5ebe
000001c0: 3992 8b3d 2138 073d cba9 b7be a95e a23d
000001d0: 2353 2dbd 9bb5 2f3e 760b 0b3e ce20 fdbc
000001e0: e5cd 3d3e 6287 083f 9491 abbd 0b71 a13e
000001f0: 4726 c63c d8af e2bd 2ec6 98be b3fa 103e
00000200: a7e6 b3be f332 19bf 6fb2 e53d d0a4 893e
00000210: 56f0 2abd 607c ce3b bd7f e7be 8b1d 873e
00000220: b4c8 1b3e 3e3a e13e 5b06 ddbd 118c c5bd
00000230: 8f76 2ebd 97b0 093d d289 b33d 7187 13be
00000240: 8e25 e0be 5f38 8c3c 59d2 bdbd 3f3a 93bd
00000250: ba31 20be 4dbf 7d3d cef8 57bb 9727 753d
00000260: 9fca 6fbe ecfc c03e d5df 513e bee1 cabd
00000270: 7717 20be 0446 51be c407 06bf 5afd a03e
00000280: bd2d 47bd 4892 80be d43e cabe f96c 0fbe
00000290: 6736 8a3e 2a31 bc3e 2e90 02bf 9a28 88bd
000002a0: d571 963d c2f8 f83d 9507 cc3c 4667 6abc
000002b0: 00c9 a93c 8b12 5c3e b3f6 87be 2029 c4bd
000002c0: e25c 003e c7a8 b03e d848 06be 8ff7 a53c
000002d0: b30e 1bbe a3eb dfbd 678c f5bd a1f5 063e
000002e0: 0542 363d 6333 b33c a337 c63b 695d ca3d
000002f0: 856f 25be fc0a 6ebe dba8 e73c 4fca 24be
00000300: 0547 43be 6f46 5ebe 4dc9 0abf 390d 233d
00000310: e170 b1bd 143f e13b 3c2d 99be ff82 83be
00000320: 7303 723e d71c f43e 5339 30bf 1ab1 623e
00000330: e354 8fbd 1bb7 843d 0e46 90bd 02e4 a53e
00000340: e6c0 603e ad28 d03d 2cf5 31be 8e70 92bd
00000350: 0318 13be f6fa 983e 7555 abbe 3150 35be
00000360: c2db 5e3e 852d 9bbe c35a fe3c 5919 0cbe
00000370: 2804 b43c 31ef a93d 09cd c1be 3a70 8c3e
00000380: 0862 46be 42ad 363e c02b a4be d55a 603c
00000390: 9267 e5bd 4ca8 a13e bf3d 00be 1185 7f3e
000003a0: 1420 a1bd 4570 793e c549 19bd 8826 10bd
000003b0: dbd6 e63d e9d5 c43e 6cbc fa3d 84e7 993d
000003c0: 6ab8 42be 1d13 82be e818 983e aab2 cbbd
000003d0: 6257 efbd b01b 9ebd 9457 b8be 708a 933e
000003e0: e1d0 de3e ec7a cf3c 830e a0be 327e 52bd
000003f0: 827a f83d 1c76 08be 336a c3be 5142 f0bc

layer2.0.bias f4 [256]
-0.14143232 -0.77213585 1.1822456 -0.023121003 1.4333888 -0.5517502 -0.46570668 0.2277643
-0.7902269 0.11320543 1.5165622 -0.98497003 -0.46439633 -0.7649799 -0.78563243 0.60921645
-0.72182274 -0.48041487 -0.6074872 -0.39572933 -0.32214674 -0.56763744 -0.8140946 1.1334021
1.2516576 -1.1841227 0.57230645 0.20790729 -0.9542104 0.90206736 -0.14443907 0.79953074
-1.2159158 -0.7365193 1.2024018 1.2707635 -0.17610785 -0.033101264 -0.7995101 -0.13144784
-0.47947726 -1.0984439 0.7173411 1.3209797 -0.26962495 0.88819546 -1.094275 -0.81921744
0.09459928 -0.7153444 -0.8637785 1.2026262 -0.9917154 1.5140647 -0.18361254 -0.7270912
1.7596736 0.0336494 -0.22295597 1.0345719 1.2685384 0.45398468 0.039081145 -0.5300492
-0.10483403 -0.46660027 -1.3629767 1.6801987 -0.40894714 1.6478555 -0.05311539 1.2395082
-0.22286746 0.32305408 1.4691921 0.18616322 -0.0050443173 1.2841506 -0.7743126 0.83352095
-1.1461753 1.853102 -0.2779176 -0.8606242 -0.27795073 0.4384947 0.3762164 0.7385875
-0.33764735 0.15311942 -0.40690556 0.22532715 0.5008056 0.17390552 -0.967272 1.2371725
0.87038004 0.29864326 2.0323055 -0.39650717 -1.007075 0.8851334 0.96727854 0.10465902
-0.93874866 -1.25987 -0.5681273 -1.0296819 -1.4549586 -0.0423427 -0.68883777 0.50775105
0.19880606 0.79243004 -0.95008785 0.5920147 1.8165157 -1.1867539 1.4857655 0.8134689
-0.34033313 0.8353267 -0.28264266 -1.0767788 1.582415 0.75878906 -0.48102507 -0.19466498
-0.13913615 1.3545256 1.220662 -1.1561043 0.29324368 0.22702181 -1.2638279 1.2848638
0.19125377 -0.42650402 -1.2443621 0.90319306 1.4055527 0.8164967 -1.3047972 -0.20279022
1.1895802 0.77413094 0.106043175 -1.5527618 -1.025584 0.15963334 -0.88685507 -0.48587233
-1.4079224 0.8719699 1.1562068 2.1055336 -0.83624285 0.05253327 -0.87436944 1.3503768
-0.8272722 -0.5954531 -0.46137315 -0.75426555 0.9974479 0.024094079 -0.002062697 -0.65622646
0.46165907 -0.057883464 -0.9598055 1.1552906 0.28146514 1.3524419 -0.48220128 1.6816578
-0.71274906 1.3957757 -0.119592875 0.6936696 0.017797794 -0.17179853 -0.6345776 0.14095049
2.629758 -0.8755732 -0.14908467 0.25676757 0.1703469 1.4362233 -1.1497636 -0.14584863
-0.58989054 -0.11144591 1.7843004 -0.9844018 0.64905274 0.5849478 0.6545325 0.8082359
-0.30961618 -0.5247027 2.0241206 0.82362527 0.7813915 0.04403465 1.2132537 1.6127385
-0.32460287 2.0812168 -0.86736 1.3623698 -0.90460986 1.4498333 0.9419903 -0.3879234
-0.85679597 2.4969459 0.7087603 -0.56817806 1.3419576 -1.151699 -0.42548254 -0.65582556
1.0452679 -0.63023543 -0.8117615 -0.81709754 -0.530008 0.19286051 0.09762731 0.2116177
-1.1321871 -0.34983683 -0.970288 1.2806429 0.7211845 -0.3977606 -0.78260463 0.8547541
1.3802104 -0.07810263 -0.8449484 -0.534641 -0.725873 -0.8880038 -0.99850523 0.50943923
-0.2772379 -0.45249206 0.9712223 -0.60649896 -0.06121697 0.85945 0.5496089 -0.5921093
00000000: a2d3 10be b2aa 45bf d353 973f 4268 bdbc
00000010: 4979 b73f 803f 0dbf 1b71 eebe 0b3b 693e
00000020: 4f4c 4abf 40d8 e73d b61e c23f ff26 7cbf
00000030: 5bc5 edbe b9d5 43bf 351f 49bf 9cf5 1b3f
00000040: 60c9 38bf f0f8 f5be 4884 1bbf 099d cabe
00000050: 6bf0 a4be b050 11bf 8168 50bf 5213 913f
00000060: 5136 a03f 5591 97bf ad82 123f a6e5 543e
00000070: 2247 74bf e3ed 663f d6e7 13be 0cae 4c3f
00000080: 21a3 9bbf 878c 3cbf 4de8 993f 61a8 a23f
00000090: 9e55 34be 3195 07bd b2ac 4cbf 439a 06be
000000a0: 0b7e f5be cf99 8cbf aba3 373f dd15 a93f
000000b0: 480c 8abe c760 633f 3411 8cbf 3cb8 51bf
000000c0: 44bd c13d d020 37bf 9620 5dbf a8ef 993f
000000d0: 0fe1 7dbf dfcc c13f ed04 3cbe a622 3abf
000000e0: fc3c e13f f4d3 093d 924e 64be da6c 843f
000000f0: 775f a23f ae70 e83e 8d13 203d 4eb1 07bf
00000100: 39b3 d6bd 3be6 eebe 0576 aebf c010 d73f
00000110: 8561 d1be eeec d23f 868f 59bd 34a8 9e3f
00000120: 5e37 64be 5867 a53e 7d0e bc3f 92a1 3e3e
00000130: cd4a a5bb 0c5f a43f 5a39 46bf a161 553f
00000140: dfb5 92bf 7232 ed3f 374b 8ebe de51 5cbf
00000150: 8f4f 8ebe 6182 e03e 709f c03e 1214 3d3f
00000160: 1de0 acbe 56cb 1c3e ed55 d0be 29bc 663e
00000170: cc34 003f 4a14 323e 239f 77bf ab5b 9e3f
00000180: 3ad1 5e3f c5e7 983e 4b11 0240 fd02 cbbe
00000190: d5e7 80bf 1a98 623f 919f 773f 7857 d63d
000001a0: d551 70bf 6c43 a1bf ca70 11bf 9ecc 83bf
000001b0: 153c babf 8a6f 2dbd ac57 30bf f9fb 013f
000001c0: d193 4b3e b2dc 4a3f f538 73bf 468e 173f
000001d0: 9683 e83f 8de7 97bf 902d be3f 7f3f 503f
000001e0: 2540 aebe f8d7 553f 8ab6 90be e3d3 89bf
000001f0: 938c ca3f 0040 423f eb48 f6be 4256 47be
00000200: b579 0ebe 1861 ad3f a73e 9c3f 3afb 93bf
00000210: 0924 963e 6878 683e 1dc5 a1bf 6b76 a43f
00000220: 07d8 433e bc5e dabe 4247 9fbf a937 673f
00000230: 27e9 b33f ed05 513f 9803 a7bf 3da8 4fbe
00000240: 2a44 983f 722d 463f 2a2d d93d e6c0 c6bf
00000250: 5646 83bf ec76 233e ef08 63bf 42c4 f8be
00000260: cd36 b4bf 6b39 5f3f 96fe 933f 10c1 0640
00000270: 0314 56bf 202d 573d add6 5fbf 26d9 ac3f
00000280: 1cc8 53bf 9d6f 18bf 1a39 ecbe 8c17 41bf
00000290: bf58 7f3f f260 c53c 502e 07bb 75fe 27bf
000002a0: 945e ec3e 3617 6dbd d0b5 75bf 90e0 933f
000002b0: 331c 903e d11c ad3f 16e3 f6be 9040 d73f
000002c0: b976 36bf c7a8 b23f 1ced f4bd 5594 313f
000002d0: aecc 913c f4eb 2fbe ad73 22bf 5355 103e
000002e0: f44d 2840 9125 60bf a7a9 18be 0a77 833e
000002f0: 6b6f 2e3e 2ad6 b73f 742b 93bf 5859 15be
00000300: 1103 17bf c13d e4bd f563 e43f c201 7cbf
00000310: 5228 263f 24bf 153f 718f 273f 8ce8 4e3f
00000320: 0386 9ebe eb52 06bf 318b 0140 1bd9 523f
00000330: 4609 483f ad5d 343d e64b 9b3f 376e ce3f
00000340: 5932 a6be a832 0540 4e0b 5ebf 2262 ae3f
00000350: 8394 67bf 2394 b93f 4726 713f e59d c6be
00000360: fb56 5bbf f6cd 1f40 5171 353f 1e74 11bf
00000370: 44c5 ab3f df6a 93bf d9d8 d9be 2fe4 27bf
00000380: 57cb 853f 1c57 21bf 9acf 4fbf 4e2d 51bf
00000390: 9bae 07bf 3a7d 453e d4f0 c73d 4fb2 583e
000003a0: 82eb 90bf d01d b3be cb64 78bf 1bec a33f
000003b0: 8c9f 383f 47a7 cbbe c758 48bf 2ad1 5a3f
000003c0: bcaa b03f 46f4 9fbd 8a4e 58bf 3cde 08bf
000003d0: d0d2 39bf 3854 63bf 0a9e 7fbf 9c6a 023f
000003e0: 20f2 8dbe 0aad e7be 06a2 783f 8443 1bbf
000003f0: a5be 7abd ea04 5c3f 2bb3 0c3f 7a94 17bf

layer2.2.weight f4 [256, 256]
-0.08028379 0.037595365 -0.1803193 0.14034368 -0.058922775 -0.30485266 -0.028907904 -0.052602734
0.054558445 -0.057867922 -0.006742174 -0.04614953 -0.06951223 0.001646355 0.20236342 0.008024608
-0.06593898 0.025643641 -0.0017781223 0.043193158 0.14083795 0.011326764 -0.030427247 -0.10480311
-0.17303191 0.023729598 -0.23055874 0.0074533876 -0.016722756 -0.0054009613 0.09762419 -0.07893453
0.21930267 0.14335132 -0.10296747 -0.09103774 -0.020664683 -0.033506878 -0.17765148 -0.048146073
0.19163184 0.020227024 0.09848614 -0.10836267 -0.18654412 -0.013652416 0.1394226 0.06916596
-0.07304726 -0.034379095 -0.0275294 -0.19453765 0.016502365 -0.100699656 0.040814172 0.016089115
-0.25836876 0.077731125 0.03703377 -0.13585016 -0.115295425 0.046711676 -0.079315424 -0.0076096547
0.013389005 -0.02864267 -0.1189021 -0.098531246 0.14915445 -0.0840038 -0.06559555 -0.15410212
-0.021729685 0.007326315 -0.12122703 0.12695299 -0.04508232 -0.088849775 0.084483676 0.13825227
0.011578909 -0.23546901 0.12339375 0.0673485 0.13550071 -0.026815744 -0.008105516 -0.13420095
0.072696745 0.03214366 -0.08238879 0.09880893 0.14501141 0.08138124 0.11682907 -0.13963075
-0.10451003 0.20552312 -0.36677942 0.024923217 0.19156118 -0.012099407 -0.18626806 -0.070836514
-0.04234307 0.0052180844 -0.03242482 0.042451307 -0.057042897 -0.025417557 -0.1665555 -0.2240356
0.026845874 -0.110461764 0.16204578 0.041559108 -0.15054388 0.0964537 -0.03906234 -0.07855074
0.15336218 -0.048355334 0.08655141 -0.034971334 -0.15013357 -0.08742423 0.11776405 -0.01745099
-0.0032668011 -0.14153609 -0.0025409418 0.054520242 0.24029092 0.18092299 -0.09907117 -0.046594653
0.020185597 0.05675872 0.020563768 -0.07513697 -0.051724155 0.1210929 -0.05002675 -0.11973454
-0.104222074 -0.08362533 -0.09496909 0.1338016 -0.10344849 0.15420552 0.03867892 0.088223666
-0.17734843 -0.17095707 0.07931929 -0.20037404 0.0010624164 -0.06994852 -0.37604117 -0.09184278
0.03506561 -0.027120521 0.0001990666 0.052930437 -0.06474562 0.10347798 0.0009794316 0.1799823
-0.119218595 -0.022002319 0.026256124 -0.10419592 0.22943422 0.15144855 0.03778871 -0.14424321
0.14152415 -0.105164155 0.22012924 -0.08569059 -0.02959786 -0.07272156 -0.17803557 0.2206952
-0.12734629 -0.0029750618 0.019686177 0.10176867 0.022704452 -0.17163283 0.066399455 0.04071147
-0.060357176 -0.2376294 0.022730403 0.2563623 -0.09631076 -0.05766923 0.10434871 0.009481918
0.2021492 0.1326233 -0.15199484 -0.06584209 -0.19753063 -0.10998749 -0.0574214 -0.088181905
0.0745531 -0.19880587 -0.09690307 -0.07601579 0.05531574 -0.2540142 -0.16023362 -0.10070995
-0.16625313 -0.0827238 -0.1253174 0.24009806 -0.10595329 0.16961333 -0.080612734 0.023732072
-0.1274414 0.12551837 0.062177777 0.00085312856 0.008725891 -0.041963644 -0.087098 0.15880105
0.10076935 0.02331536 0.06806689 -0.081011064 -0.00043604543 -0.13255757 -0.019859714 -0.11032215
-0.066497095 -0.103600495 -0.074648105 0.0041466947 0.059301753 -0.060771335 -0.07353776 -0.025236519
0.111819 -0.04710311 -0.08029587 0.021183502 0.098461375 -0.14737317 0.20186643 0.033557482
00000000: d46b a4bd 99fd 193d 9fa5 38be 41b6 0f3e
00000010: 0259 71bd a615 9cbe 45d0 ecbc f775 57bd
00000020: ad78 5f3d ea06 6dbd 74ed dcbb 4a07 3dbd
00000030: 6e5c 8ebd 82ca d73a 5b38 4f3e a579 033c
00000040: 040b 87bd 9d12 d23c e20f e9ba 4feb 303d
00000050: d337 103e e493 393c 9042 f9bc 03a3 d6bd
00000060: 472f 31be 9364 c23c 9717 6cbe 8c3b f43b
00000070: 29fe 88bc 8cfa b0bb 31ef c73d 6da8 a1bd
00000080: e190 603e b0ca 123e 9ce0 d2bd ff71 babd
00000090: fb48 a9bc 823e 09bd 45ea 35be d134 45bd
000000a0: 233b 443e 25b3 a53c 1ab3 c93d 3fed ddbd
000000b0: 6c05 3fbe 62ae 5fbc ccc4 0e3e e2a6 8d3d
000000c0: cd99 95bd 18d1 0cbd 5685 e1bc e134 47be
000000d0: f82f 873c 9f3b cebd c32c 273d 52cd 833c
000000e0: e948 84be 7f31 9f3d b9b0 173d 4e1c 0bbe
000000f0: 0220 ecbd be54 3f3d 2070 a2bd 695a f9bb
00000100: 8f5d 5b3c 08a4 eabc f282 f3bd c0ca c9bd
00000110: f2bb 183e 2f0a acbd f656 86bd f2cc 1dbe
00000120: 7402 b2bc 9611 f03b e145 f8bd f7ff 013e
00000130: 3da8 38bd dff6 b5bd c705 ad3d 0192 0d3e
00000140: 77b5 3d3c ca1e 71be ddb5 fc3d 03ee 893d
00000150: b3c0 0a3e b1ac dbbc 00cd 04bc f96b 09be
00000160: 08e2 943d 12a9 033d 74bb a8bd 565c ca3d
00000170: df7d 143e 35ab a63d 1444 ef3d 5dfb 0ebe
00000180: 5b09 d6bd a774 523e 83ca bbbe c62b cc3c
00000190: 9d28 443e 973c 46bc 0ebd 3ebe bc12 91bd
000001a0: ed6f 2dbd 77fc aa3b e3cf 04bd 6ce1 2d3d
000001b0: d0a5 69bd 7b38 d0bc 868d 2abe 9769 65be
000001c0: e1eb db3c c739 e2bd 54ef 253e e239 2a3d
000001d0: 2d28 1abe 8489 c53d d5ff 1fbd 36df a0bd
000001e0: fa0a 1d3e 3e10 46bd de41 b13d 1a3e 0fbd
000001f0: 9dbc 19be 7a0b b3bd 472e f13d 61f5 8ebc
00000200: d417 56bb d6ee 10be ee85 26bb 9e50 5f3d
00000210: d30e 763e e043 393e d3e5 cabd 09da 3ebd
00000220: 445c a53c d57b 683d 5975 a83c 69e1 99bd
00000230: b5dc 53bd 8eff f73d d9e8 4cbd 6237 f5bd
00000240: 6272 d5bd c243 abbd 277f c2bd 4903 093e
00000250: cddc d3bd 0de8 1d3e ca6d 1e3d 9cae b43d
00000260: d49a 35be 5f0f 2fbe 2772 a23d da2e 4dbe
00000270: c740 8b3a 2b41 8fbd 7888 c0be 1118 bcbd
00000280: f5a0 0f3d db2b debc 89bc 5039 96cd 583d
00000290: 5a99 84bd 43ec d33d 4560 803a 484d 383e
000002a0: e128 f4bd 353e b4bc 1517 d73c ac64 d5bd
000002b0: cef0 6a3e 5415 1b3e 56c8 1a3d 7eb4 13be
000002c0: b5eb 103e 4e60 d7bd 8f69 613e 8c7e afbd
000002d0: 3677 f2bc 0bef 94bd f54e 36be ecfd 613e
000002e0: 1167 02be 41f9 42bb e844 a13c 186c d03d
000002f0: b0fe b93c 84c0 2fbe 70fc 873d 12c1 263d
00000300: 1639 77bd 1f55 73be 1c35 ba3c eb41 833e
00000310: 933e c5bd 9236 6cbd c7b4 d53d 0c5a 1b3c
00000320: 3300 4f3e 67ce 073e 89a4 1bbe 38d8 86bd
00000330: 7845 4abe 1f41 e1bd b432 6bbd b798 b4bd
00000340: 4caf 983d c493 4bbe 1e75 c6bd 2bae 9bbd
00000350: c292 623d 260e 82be 4814 24be 0541 cebd
00000360: 433e 2abe 186b a9bd 3453 00be 44dc 753e
00000370: 0afe d8bd 1eaf 2d3e 4a18 a5bd c369 c23c
00000380: 0080 02be e387 003e 20ae 7e3d 7da4 5f3a
00000390: 0af7 0e3c 12e2 2bbd 7060 b2bd be9c 223e
000003a0: 2960 ce3d dbff be3c a766 8b3d 21e9 a5bd
000003b0: 079d e4b9 2cbd 07be d7b0 a2bc 94f0 e1bd
000003c0: a12f 88bd 7f2c d4bd 1be1 98bd ffe0 873b
000003d0: 65e6 723d 5deb 78bd f79a 96bd d1bc cebc
000003e0: 5c01 e53d 31ef 40bd 2972 a4bd 0689 ad3c
000003f0: 1ea6 c93d fee8 16be 13b6 4e3e 9273 093d

layer2.2.bias f4 [256]
0.82031107 2.376306 0.45885667 0.5022571 0.69278824 0.1470788 0.27336115 0.6138399
-0.03124989 -0.13547403 -0.113359064 -0.06748386 0.7050908 0.43691763 1.389632 0.23012114
0.8514036 -0.05086059 -0.09213934 -0.05651356 -0.104772925 -0.17856874 0.83133644 0.71693397
-0.08648151 -0.052006204 -0.07652965 0.5893971 -0.100809895 1.2633771 -0.104620226 -0.054157477
0.022439241 0.22162321 -0.05153506 -0.09972492 1.3583976 1.2564077 0.03683504 -0.092899404
-0.18013456 2.835151 -0.05105619 0.057575606 -0.027638374 -0.35505393 1.8848135 -0.02507924
0.081682555 0.0005951595 -0.06403341 0.31387714 -0.038315296 -0.070268355 1.1788069 1.2466408
0.057871036 -0.043372296 -0.0747727 -0.22613096 -0.07724596 2.9085069 -0.028117433 -0.07402708
-0.19676456 0.18194346 2.2445676 -0.213263 1.3816779 -0.10517882 0.01979433 -0.15585189
-0.14189714 0.24182722 -0.37652388 0.22169594 -0.14579141 0.5071181 2.7643235 -0.0721683
-0.09982029 0.29883182 0.1516177 0.07303245 -0.017155273 0.18975322 -0.08314063 0.9246523
-0.09007305 -0.07271108 0.06474493 0.056519642 0.41101167 0.035752226 -0.09409467 0.07250215
-0.14014378 0.17390051 -0.28223965 -0.11350712 -0.19332527 0.13749845 -0.05108142 -0.15466525
1.1145376 -0.06892695 -0.048851814 -0.044979963 -0.23852812 0.19974631 -0.076934926 -0.17858785
-0.0702299 -0.14284855 -0.062356032 -0.083292 -0.10736367 0.7574038 0.06901161 -0.07709959
1.2425004 0.26089233 0.18593942 -0.13905784 1.048418 -0.22632977 -0.22418843 -0.05149058
-0.14647236 0.088842474 -0.018059699 -0.27059436 -0.09105995 -0.26042846 -0.097109124 -0.13607909
-0.17837061 1.9596456 -0.14298357 -0.04884299 1.002718 0.95701927 -0.156415 0.020357102
-0.11424128 -0.12321125 0.15278925 -0.1273284 -0.07244103 0.120911896 -0.06762094 0.018198345
1.0961995 0.49772507 -0.15746328 0.35915166 0.00983056 -0.13043791 -0.050347816 -0.13311811
-0.18388936 -0.08682135 -0.18620625 -0.17514193 -0.07379322 0.34892464 0.2286906 0.16328205
1.2578889 -0.0094293095 -0.23942024 0.06292661 0.02293996 -0.16535091 -0.19278523 1.6902648
-0.15952252 0.34146133 0.22504823 0.019485716 2.5388134 -0.17019811 -0.07053747 -0.21069351
-0.093117744 -0.10428231 -0.13575004 -0.17931898 0.42367068 -0.15415694 -0.006761143 -0.12339694
-0.3410205 0.2270791 -0.23508416 0.81407344 -0.10838071 -0.21966663 -0.042593546 -0.08910883
-0.18636495 -0.12663175 0.2522502 -0.013126202 -0.07997818 -0.10984328 -0.122835554 -0.11757575
0.83445114 0.120842755 -0.08312545 -0.40126616 -0.06765811 -0.1503824 -0.11798047 -0.32423058
-0.13575175 -0.26053214 -0.032781467 0.5065844 0.95412326 0.1370699 -0.61337036 0.15935358
0.43184027 2.4111726 -0.09490782 0.23550865 -0.17560172 0.31863013 -0.102419816 -0.04322927
-0.10826366 -0.21202941 -0.113131925 -0.097445965 -0.10420926 0.07654554 0.37800992 0.058537625
0.4510162 -0.114413336 0.23197018 -0.09851062 0.15525083 -0.110368386 -0.14472857 -0.02095444
-0.15670937 0.18518601 -0.14344522 -0.053840425 -0.19146402 1.6254659 0.0056022643 0.13296048
00000000: e8ff 513f 6615 1840 43ef ea3e ec93 003f
00000010: 925a 313f d39b 163e fef5 8b3e 9d24 1d3f
00000020: c5ff ffbc b4b9 0abe cc28 e8bd fa34 8abd
00000030: d580 343f abb3 df3e 76df b13f e0a4 6b3e
00000040: 96f5 593f 3253 50bd 8db3 bcbd c37a 67bd
00000050: 3093 d6bd b9da 36be 77d2 543f fc88 373f
00000060: 381d b1bd 7504 55bd 94bb 9cbd bae2 163f
00000070: 6b75 cebd 57b6 a13f 2143 d6bd 3bd4 5dbd
00000080: 80d2 b73c 32f1 623e 6d16 53bd 943c ccbd
00000090: f9df ad3f f8d1 a03f 57e0 163d 0b42 bebd
000000a0: 3275 38be 1d73 3540 4c20 51bd 66d4 6b3d
000000b0: df69 e2bc a1c9 b5be 9241 f13f fa72 cdbc
000000c0: 2f49 a73d 7a04 1c3a f323 83bd 81b4 a03e
000000d0: 80f0 1cbd dbe8 8fbd 25e3 963f ed91 9f3f
000000e0: 2e0a 6d3d 26a7 31bd 6e22 99bd e08e 67be
000000f0: 2133 9ebd fa24 3a40 8856 e6bc 829b 97bd
00000100: a67c 49be 634f 3a3e ffa6 0f40 9e61 5abe
00000110: d2da b03f fe67 d7bd b827 a23c a397 1fbe
00000120: 7c4d 11be 8ea1 773e bdc7 c0be 4304 633e
00000130: 584a 15be 7ed2 013f adea 3040 f9cc 93bd
00000140: 956e ccbd 7c00 993e ac41 1b3e 0a92 953d
00000150: 3789 8cbc ab4e 423e a245 aabd 03b6 6c3f
00000160: 3878 b8bd 8ce9 94bd fd98 843d 2481 673d
00000170: 1f70 d23e ed70 123d b5b4 c0bd 027c 943d
00000180: da81 0fbe fa12 323e b781 90be 6c76 e8bd
00000190: 0ff7 45be 65cc 0c3e c03a 51bd 9160 1ebe
000001a0: 2ba9 8e3f 9329 8dbd d718 48bd e93c 38bd
000001b0: b740 74be 4c8a 4c3e 0f90 9dbd bcdf 36be
000001c0: b2d4 8fbd e446 12be 0a69 7fbd ff94 aabd
000001d0: 7ce1 dbbd 37e5 413f f555 8d3d 64e6 9dbd
000001e0: 410a 9f3f ae93 853e e766 3e3e 2e65 0ebe
000001f0: 9032 863f fec2 67be a791 65be c9e7 52bd
00000200: dafc 15be 0bf3 b53d eff1 93bc 588b 8abe
00000210: a47d babd e156 85be 26e1 c6bd 5158 0bbe
00000220: c9a6 36be abd5 fa3f 496a 12be 960f 48bd
00000230: 1059 803f 37ff 743f 412b 20be f0c3 a63c
00000240: 55f7 e9bd 2e56 fcbd c974 1c3e 6062 02be
00000250: f65b 94bd a8a0 f73d d97c 8abd b214 953c
00000260: 4450 8c3f d2d5 fe3e 0e3e 21be bae2 b73e
00000270: 5b10 213c 8491 05be 8339 4ebd 1d50 08be
00000280: 7e4d 3cbe 64cf b1bd daac 3ebe 6858 33be
00000290: e620 97bd 40a6 b23e de2d 6a3e 6933 273e
000002a0: 8102 a13f 647d 1abc 942a 75be abdf 803d
000002b0: 95ec bb3c c051 29be 7e69 45be 995a d83f
000002c0: df59 23be 05d4 ae3e 0b73 663e 82a0 9f3c
000002d0: eb7b 2240 6a48 2ebe f375 90bd 0ac0 57be
000002e0: 84b4 bebd f791 d5bd 0f02 0bbe 659f 37be
000002f0: 5deb d83e 51db 1dbe 948c ddbb 89b7 fcbd
00000300: 3d9a aebe 6c87 683e e7b9 70be 1e67 503f
00000310: b5f6 ddbd 4af0 60be 9276 2ebd b17e b6bd
00000320: 74d6 3ebe c1ab 01be f026 813e 480f 57bc
00000330: 9acb a3bd 83f5 e0bd 3591 fbbd 8ecb f0bd
00000340: 979e 553f 687c f73d ad3d aabd c272 cdbe
00000350: 5690 8abd d8fd 19be bf9f f1bd 8d01 a6be
00000360: 8202 0bbe 7864 85be dc45 06bd 84af 013f
00000370: 6c41 743f 0d5c 0c3e d705 1dbf 962d 233e
00000380: 2b1a dd3e a750 1a40 085f c2bd 2e29 713e
00000390: f0d0 33be 7d23 a33e 7bc1 d1bd 2d11 31bd
000003a0: 56b9 ddbd 3d1e 59be b6b1 e7bd c091 c7bd
000003b0: aa6b d5bd e8c3 9c3d 848a c13e 26c5 6f3d
000003c0: 98eb e63e 8a51 eabd 9789 6d3e f0bf c9bd
000003d0: 13fa 1e3e d208 e2bd ba33 14be a5a8 abbc
000003e0: 6c78 20be 67a1 3d3e 4ee3 12be c787 5cbd
000003f0: 250f 44be 440f d03f 3393 b73b cb26 083e

layer2.4.weight f4 [1, 256]
0.07309865 -0.0037414846 0.033701293 0.008113523 0.007991606 -0.030840108 0.007215589 0.013803193
0.015918767 0.007725443 0.0044190506 0.0037528786 -0.008207645 0.04142991 0.0011426277 -0.0127978
-0.003951628 -0.005740319 -0.0211295 0.0020570369 -0.024611922 -0.0100542335 0.0035647037 -0.0057933684
0.011671962 0.025405185 0.0021079762 0.01987764 0.0062466185 -0.0038812493 0.00051096367 0.003494643
0.011623779 0.012093744 0.00035481006 0.013364075 0.025050199 0.0027607484 0.008394429 -0.012672729
0.028216925 0.10550014 -0.0054677217 -0.009151851 0.024960078 0.0013646882 0.10001567 0.019247666
0.018438265 0.011601326 0.027488953 0.010928458 0.00067186763 0.0041676625 0.09887708 0.028308
0.0045589055 -0.012968621 0.01018533 0.0023546142 -0.028648445 0.008309109 0.0018277358 -0.0068421722
-0.030295234 0.0014957279 -0.0047887038 -0.017115777 0.0040019127 0.010452051 -0.0025633697 0.027358625
0.02928199 0.0020690414 -0.007068932 0.0021305084 -0.0051167393 0.09789764 0.124209374 0.0034850116
0.025055762 -0.015308533 -0.011360576 -0.006942825 -0.0055879927 -0.0068008527 0.0032800543 0.021712668
0.01897398 -0.028734723 -0.002034112 -0.00915889 0.028196909 -0.0068981615 -0.0029474627 -0.008781417
-0.004120666 -0.0039564096 -0.01587424 0.026105333 0.011354817 -0.011512611 0.0005847653 0.0045622117
0.012454126 -0.028473377 -0.008201727 -0.007598657 -0.041864824 0.014206752 0.024539383 -0.061289378
-0.009561871 -0.008907841 0.009089878 0.0020737345 0.013152574 -0.0022964873 -0.009693574 0.02970924
0.07170501 4.796034e-05 0.00624768 -0.019907758 0.0046993233 -0.010498613 -0.0013815657 -0.017059576
0.019076189 0.028939294 0.009757486 -0.015598214 0.00295834 0.011821632 0.0027277318 -0.002942543
0.0016694284 0.045623846 -0.025494464 -4.8748025e-05 -0.0012797469 0.0054673837 0.009924488 0.010633453
0.0089474805 -0.024038311 0.027480084 0.022091925 0.023872228 0.027844058 -0.0074497205 -0.01348421
0.0049894797 -0.008312665 -0.007844876 -0.0006104097 0.0052797603 -0.0077211526 0.00042747636 0.011713225
-0.015990583 -0.0058485796 0.0062453784 0.00082095223 0.014534455 0.0012195469 -0.028641634 0.008600281
0.052049324 0.016080081 -0.00523372 0.059716854 -0.005570576 -0.021627884 -0.008620826 -0.025741285
0.017491672 0.037394695 0.072629295 0.031102259 -0.0020092386 0.005999189 0.011137328 0.0074272878
0.030377254 -0.011359582 0.004843459 0.0075516053 0.08108948 -0.0085213445 0.00892728 -0.008745239
-0.0041753575 -0.00612775 -0.0014279791 0.0065505668 0.002580033 -0.023228122 0.013126627 0.028538244
0.012750945 0.02531349 -0.007814 0.016481014 0.030361786 -0.024284432 0.029541193 -0.0018701585
0.016749935 0.02133869 -0.004564068 -0.011507065 0.020726142 0.0025460871 0.015774533 -0.0033329504
0.00026728094 0.018222654 0.00020331694 -0.0053909766 0.010862239 -0.010350773 -0.026251793 -0.022074541
0.021070343 0.17004713 0.013193938 -0.014932384 0.02063245 0.04288113 -0.0072268657 -0.0002228716
0.01609776 -0.020075262 0.003308705 -0.0009811912 -0.01597246 0.049234528 -0.00077090453 -0.010493448
0.03359035 0.019287609 0.027309712 -0.07932409 0.047184017 -0.00038605178 0.029409494 -0.009458507
-0.013603618 0.001022753 0.008262448 -0.015245548 -0.0028223202 0.02705457 0.018976519 -0.024024615
00000000: bfb4 953d b233 75bb 5e0a 0a3d 95ee 043c
00000010: 3aef 023c 65a4 fcbc bf70 ec3b ca26 623c
00000020: 1368 823c b725 fd3b afcd 903b dbf2 753b
00000030: 5c79 06bc 69b2 293d 39c4 953a ddad 51bc
00000040: a97c 81bb 4919 bcbb c617 adbc 5acf 063b
00000050: f19e c9bc 83ba 24bc ce9d 693b 4cd6 bdbb
00000060: c23b 3f3c 891e d03c f925 0a3b 6fd6 a23c
00000070: 6fb0 cc3b 8f5c 7ebb 31f2 053a 6106 653b
00000080: aa71 3e3c d724 463c cd05 ba39 fef4 5a3c
00000090: 1336 cd3c aced 343b ca88 093c 47a1 4fbc
000000a0: 2e27 e73c 7510 d83d 932a b3bb a5f1 15bc
000000b0: 1479 cc3c 56df b23a 04d5 cc3d 48ad 9d3c
000000c0: d80b 973c 7d13 3e3c 8330 e13c 460d 333c
000000d0: 4620 303a e390 883b 1180 ca3d 2ee6 e73c
000000e0: df62 953b 577a 54bc 5fe0 263c df4f 1a3b
000000f0: 25b0 eabc ee22 083c a390 ef3a 4d34 e0bb
00000100: b62d f8bc 4d0c c43a 8fea 9cbb 6336 8cbc
00000110: 7a22 833b 143f 2b3c 35fe 27bb 321f e03c
00000120: c9e0 ef3c c198 073b 80a2 e7bb 00a0 0b3b
00000130: 52aa a7bb 8f7e c83d 7c61 fe3d cb64 643b
00000140: be41 cd3c a4d0 7abc b621 3abc a380 e3bb
00000150: 7b1b b7bb b0d9 debb 2ef6 563b c4de b13c
00000160: 526f 9b3c 1565 ebbc bd4e 05bb 2b0f 16bc
00000170: 34fd e63c f909 e2bb 382a 41bb efdf 0fbc
00000180: a706 87bb c5a4 81bb b20a 82bc dada d53c
00000190: 8e09 3a3c 649f 3cbc ef4a 193a 9b7e 953b
000001a0: 640c 4c3c 0041 e9bc 8960 06bc 28fe f8bb
000001b0: 737a 2bbd 70c3 683c d106 c93c 920a 7bbd
000001c0: 65a9 1cbc 31f2 11bc b6ed 143c 7ee7 073b
000001d0: e57d 573c aa80 16bb ccd1 1ebc cb60 f33c
000001e0: 14da 923d 0629 4938 57b9 cc3b 9815 a3bc
000001f0: c8fc 993b 6002 2cbc a715 b5ba 86c0 8bbc
00000200: ab45 9c3c 1912 ed3c dddd 1f3c a78f 7fbc
00000210: b6e0 413b 85af 413c bfc3 323b aed7 40bb
00000220: b9d0 da3a 12e0 3a3d c4d9 d0bc cb76 4cb8
00000230: 2ebd a7ba bd27 b33b 529a 223c ef37 2e3c
00000240: 7498 123c feeb c4bc ea1d e13c 20fa b43c
00000250: b18f c33c 3919 e43c c91c f4bb e0ec 5cbc
00000260: ca7e a33b d831 08bc cb87 00bc e703 20ba
00000270: d701 ad3b b901 fdbb e81e e039 d4e8 3f3c
00000280: affe 82bc 71a5 bfbb 08a6 cc3b 2c35 573a
00000290: ec21 6e3c 34d9 9f3a dca1 eabc 31e8 0c3c
000002a0: ac31 553d 60ba 833c a07f abbb a999 743d
000002b0: 6189 b6bb f62c b1bc 5d3e 0dbc 63df d2bc
000002c0: b24a 8f3c 2e2b 193d abbe 943d 2aca fe3c
000002d0: 6ead 03bb d894 c43b 5779 363c 9b60 f33b
000002e0: b8d9 f83c 8a1d 3abc e1b5 9e3b 7573 f73b
000002f0: 3e12 a63d 1c9d 0bbc ba43 123c 3148 0fbc
00000300: 70d1 88bb 4bcb c8bb 072b bbba 23a6 d63b
00000310: c515 293b e748 bebc 1011 573c 09c9 e93c
00000320: 57e9 503c 3c5e cf3c 4b06 00bc 3103 873c
00000330: 48b9 f83c 25f0 c6bc 5f00 f23c 1b20 f5ba
00000340: 2937 893c 7ace ae3c 2d8e 95bb 2188 3cbc
00000350: dfc9 a93c 41dc 263b 9839 813c a16d 5abb
00000360: d721 8c39 ad47 953c 7a31 5539 caa6 b0bb
00000370: 88f7 313c 4a96 29bc 000e d7bc abd5 b4bc
00000380: b69b ac3c d620 2e3e 632b 583c f5a6 74bc
00000390: 6205 a93c 20a4 2f3d 58cf ecbb a4b2 69b9
000003a0: 73df 833c e074 a4bc dcd6 583b 509b 80ba
000003b0: add8 82bc 25aa 493d 8716 4aba b6ec 2bbc
000003c0: 0996 093d 0c01 9e3c 9eb8 df3c ab74 a2bd
000003d0: 0744 413d fe66 cab9 2eec f03c dbf7 1abc
000003e0: b6e1 5ebc e50d 863a 385f 073c 77c8 79bc
000003f0: adf6 38bb 8ca1 dd3c a574 9b3c 45cf c4bc
