MyZipTobeUploaded/helpdesk_Neighbour_embedding/BackUp/EventPredictor_parameters_helpdesk_Weighted_0.001_run0_GATTTT.pt (torch, 296183 bytes, 9 tensors)

layer1.bias f4 [9]
0.0 0.0 0.0 0.0 0.0 0.0 0.0 0.0
0.0
00000000: 0000 0000 0000 0000 0000 0000 0000 0000
00000010: 0000 0000 0000 0000 0000 0000 0000 0000
00000020: 0000 0000

layer1.W f4 [4, 2]
0.5744887 -0.83435863 0.8000709 -1.7960805 -0.3023683 -0.5965082 0.7428062 0.11007165
00000000: b111 133f 8798 55bf 72d1 4c3f f7e5 e5bf
00000010: 05d0 9abe c3b4 18bf 8c28 3e3f 3f6d e13d

layer1.a f4 [4, 1]
0.9958876 0.98027754 3.234275 3.4876335
00000000: 7df2 7e3f 78f3 7a3f 5dfe 4e40 6335 5f40

layer2.0.weight f4 [256, 18]
-0.1735772 0.056797553 -0.07420141 0.09269641 -0.28807563 0.07201602 -0.06600984 0.21143906
-0.47617704 -0.12374502 0.16600376 0.1608459 -0.17901555 0.1624907 0.22306019 -0.23597556
0.16485307 0.30208692 -0.13771363 -0.20283945 0.0045801178 -0.580472 -0.25385323 -0.14167364
-0.13139996 -0.21288198 0.09592751 -0.17729527 -0.36110094 -0.26138756 -0.1680931 -0.5438491
0.050892197 -0.09298162 -0.269266 -0.20472163 0.29573545 0.34046394 0.1548543 -0.2136364
0.3675851 -0.24132109 -0.27366716 0.054964073 0.034670986 0.09704823 0.07714107 -0.09255368
-0.24825317 0.06971903 0.3202376 0.15063584 0.18673241 0.16370638 -0.23542894 -0.52376807
0.13573872 0.008520015 0.18307194 0.30109206 0.07196094 0.012794879 0.07195747 -0.40398794
0.06021338 -0.037456956 0.05760484 0.071569465 0.025201356 -0.32523915 0.11726163 -0.20796265
0.47525382 -0.028114822 -0.15096065 -0.09208428 -0.07113546 0.15434057 0.22430906 -0.15030539
0.13589899 0.20793024 0.05218665 -0.0109363515 -0.07953206 -0.17108762 0.3157801 -0.16707747
0.2259813 0.089409485 0.39814895 0.13836811 0.17881502 0.3138445 0.12249382 0.0748022
0.34757248 0.20615353 0.1564939 0.1345081 0.34926054 0.23776017 0.44843334 0.38485882
0.3412645 -0.10841217 0.23186436 0.05880705 0.54377145 0.08126391 0.5843307 0.35090277
0.36681083 0.46612462 0.70272017 0.2999065 0.5438049 0.5976094 0.5855973 0.13921943
0.53169787 0.42018655 0.4047833 -0.062043864 0.78561795 0.45351377 -0.06220918 0.41567236
-0.13367814 0.23101263 0.29038158 0.02418263 -0.078832634 -0.06297405 0.004982118 -0.20994134
-0.2680564 -0.03675653 -0.15698111 0.13721153 -0.111784406 -0.039051384 -0.44863465 0.04926743
0.08333953 -0.20775229 0.32787457 0.14874306 0.36252356 0.024448274 0.3671547 0.08232276
0.7083832 0.2429877 0.1508102 0.2780001 0.4582462 0.050991453 0.21881092 -0.16283222
0.1850809 0.070064545 -0.10937366 -0.49275476 -0.43742105 -0.391954 -0.77140534 -0.7662702
-0.37538734 -0.6723832 -0.27870926 -0.70689154 -0.6778757 -0.47809386 -0.43083435 -0.6796533
-0.34571066 -0.3784832 -0.70925134 -0.6549096 -0.46032837 -0.29511076 0.38888 -0.060503874
-0.21084575 0.027796429 0.4454224 -0.15132263 0.05935842 -0.2317781 0.0070942864 -0.01938296
0.11716931 -0.29402664 -0.29715666 -0.42500436 0.22027192 -0.22448966 -0.33147192 -0.18768957
-0.44232303 -0.257753 0.07015959 -0.14050655 -0.3099709 -0.12014553 -0.0130107645 -0.10869056
-0.03739288 -0.09233045 -0.33554587 -0.39451206 0.017383045 0.17389274 -0.06116148 -0.020653892
0.08038155 -0.09277061 0.42415947 -0.33702877 0.06466744 0.073405206 0.4973173 -0.48031124
-0.14878526 -0.42350608 0.30915993 -0.10308482 0.5334475 -0.42592922 0.12267698 -0.37523544
0.37794763 -0.13511296 -0.01188812 -0.2687729 -0.350022 -0.20642841 0.05810307 -0.06107734
-0.1909936 0.049626127 -0.08702218 -0.19451678 -0.064776935 0.045373477 -0.23343602 -0.22684123
0.05684246 -0.15872517 -0.2171259 0.08391795 0.22936264 -0.034093335 0.07957421 0.26647782
00000000: 39be 31be 8da4 683d e9f6 97bd 9ed7 bd3d
00000010: a67e 93be 237d 933d 2b30 87bd 7b83 583e
00000020: 7acd f3be 076e fdbd e4fc 293e cab4 243e
00000030: da4f 37be f663 263e e469 643e 94a3 71be
00000040: 3ecf 283e 23ab 9a3e cd04 0dbe 25b5 4fbe
00000050: d014 963b d099 14bf 0df9 81be e512 11be
00000060: b68d 06be bcfd 59be a475 c43d e48c 35be
00000070: 39e2 b8be 97d4 85be 9920 2cbe b239 0bbf
00000080: 5674 503d 266d bebd 3cdd 89be 8ca2 51be
00000090: a36a 973e 4a51 ae3e 2092 1e3e 80c3 5abe
000000a0: 1d34 bc3e e01c 77be 1a1e 8cbe 0222 613d
000000b0: 2a03 0e3d 39c1 c63d 23fc 9d3d c98c bdbd
000000c0: 1436 7ebe dac8 8e3d 2ff6 a33e 4840 1a3e
000000d0: c836 3f3e a5a2 273e 4914 71be aa15 06bf
000000e0: 17ff 0a3e 8897 0b3c 3677 3b3e bd28 9a3e
000000f0: 4260 933d 9da1 513c 705e 933d 82d7 cebe
00000100: 4ea2 763d 776c 19bd 0df3 6b3d 0393 923d
00000110: 1373 ce3c bf85 a6be de26 f03d 29f4 54be
00000120: 7854 f33e 0e51 e6bc 6e95 1abe af96 bcbd
00000130: 78af 91bd 740b 1e3e 46b1 653e a8e9 19be
00000140: 1b29 0b3e aaeb 543e abc1 553d 622e 33bc
00000150: b4e1 a2bd 9831 2fbe eead a13e 5b16 2bbe
00000160: a467 673e 521c b73d 2eda cb3e 5fb0 0d3e
00000170: 491b 373e 3ab0 a03e 0ade fa3d e531 993d
00000180: 05f5 b13e e919 533e f03f 203e 7ebc 093e
00000190: 47d2 b23e 6777 733e 0e99 e53e 370c c53e
000001a0: 38ba ae3e 3307 debd da6d 6d3e a9df 703d
000001b0: 9b34 0b3f b16d a63d b296 153f 87a9 b33e
000001c0: a1ce bb3e e3a7 ee3e 78e5 333f 588d 993e
000001d0: cc36 0b3f eefc 183f b4e9 153f 8a8f 0e3e
000001e0: 5a1d 083f b122 d73e c23f cf3e b521 7ebd
000001f0: 421e 493f f532 e83e 0ecf 7ebd 02d3 d43e
00000200: ece2 08be 938e 6c3e e5ac 943e a71a c63c
00000210: 0173 a1bd 8af8 80bd 0941 a33b ddfa 56be
00000220: b03e 89be 048e 16bd a8bf 20be 2e81 0c3e
00000230: 39ef e4bd 58f4 1fbd 71b3 e5be a5cc 493d
00000240: eaad aa3d 04bd 54be 2ddf a73e 1a50 183e
00000250: b09c b93e bf47 c83c b3fb bb3e d698 a83d
00000260: 9a58 353f c5d1 783e fd6d 1a3e 0756 8e3e
00000270: 3f9f ea3e 6adc 503d f80f 603e 7dbd 26be
00000280: d985 3d3e 007e 8f3d 4cff dfbd 5a4a fcbe
00000290: a7f5 dfbe 32ae c8be d27a 45bf 492a 44bf
000002a0: c532 c0be 4e21 2cbf fbb2 8ebe d8f6 34bf
000002b0: 4389 2dbf b8c8 f4be 5296 dcbe c2fd 2dbf
000002c0: fd00 b1be 8dc8 c1be 7f91 35bf 28a8 27bf
000002d0: 29b0 ebbe c218 97be 481b c73e e9d2 77bd
000002e0: f3e7 57be 56b5 e33c 680e e43e 52f4 1abe
000002f0: d121 733d 3d57 6dbe 3077 e83b 03c9 9ebc
00000300: 77f6 ef3d a98a 96be eb24 98be 2c9a d9be
00000310: f68e 613e 9ee0 65be b0b6 a9be b231 40be
00000320: 2a78 e2be 34f8 83be d5af 8f3d f3e0 0fbe
00000330: 81b4 9ebe dc0e f6bd 1a2b 55bc 2899 debd
00000340: 4729 19bd bf17 bdbd abcc abbe 7cfd c9be
00000350: e366 8e3c f010 323e 7684 7abd 5a32 a9bc
00000360: 159f a43d 84fe bdbd 6e2b d93e 098f acbe
00000370: 5d70 843d 7855 963d 60a0 fe3e 5beb f5be
00000380: 2a5b 18be cad5 d8be 364a 9e3e 221e d3bd
00000390: 0490 083f 6513 dabe 123e fb3d dc1e c0be
000003a0: 5a82 c13e 0d5b 0abe 64c6 42bc 9a9c 89be
000003b0: 1536 b3be f861 53be 7cfd 6d3d 3c2c 7abd
000003c0: d493 43be c444 4b3d af38 b2bd 682f 47be
000003d0: c5a9 84bd 8ad9 393d da09 6fbe 1149 68be
000003e0: a4d3 683d da88 22be 4056 5ebe 2ddd ab3d
000003f0: 0ade 6a3e 74a5 0bbd cef7 a23d c86f 883e

layer2.0.bias f4 [256]
-0.02918988 0.71567816 -0.12256844 0.15332462 0.3384363 -0.068488516 -0.24087644 -0.030348498
-0.27063265 -0.12532963 0.031653237 0.19472016 0.11422399 0.19368641 0.05823408 0.18741257
-0.19722891 -0.29738313 0.2183794 0.026912669 -0.26841503 0.5659651 -0.34600607 0.2541917
-0.6397887 0.50781614 -0.040439233 -0.17521481 -0.039177187 -0.43779036 0.09587561 -0.15312696
0.12775345 -0.50933313 0.22592504 0.439578 0.29233816 0.44254518 -0.017501965 0.19885951
0.24819076 -0.46526232 -0.11785504 -0.35409 0.43691847 -0.12431881 0.086037055 0.09048173
-0.23070665 0.004916601 0.08458975 0.1429434 -0.24071531 -0.31313604 -0.6886595 0.12740737
-0.4941506 -0.1159725 0.1562935 0.054448076 0.25005352 0.035542954 -0.022428984 -0.17946683
0.2136244 0.10177037 -0.1583413 -0.049206875 0.53945684 -0.1803174 0.03149173 -0.029609567
-0.14253491 0.08546914 0.13235092 -0.07298602 0.31589702 -0.49501926 0.022026788 -0.056693386
-0.17999658 0.42354843 -0.027117105 0.3228622 0.0796558 0.068315685 -0.14672105 0.07867364
-0.072189935 -0.23013172 -0.46686247 -0.093716845 -0.2171875 -0.28487575 0.34182307 -0.49814254
-0.016260166 0.26382154 -0.1543917 -0.085205495 0.70503634 0.1038019 -0.090042256 0.039101444
0.0399273 -0.29036584 0.29645154 -0.12962228 0.22247781 -0.08745778 0.49237916 -0.4929686
-0.11214572 0.009162706 -0.074467346 0.46234706 -0.048235875 0.18375531 -0.21159619 0.38713935
0.09073482 -0.20013857 0.24171014 -0.058289293 0.18887495 -0.0092992885 -0.65597624 -0.42430428
-0.16580413 -0.24220404 0.36208963 0.4716929 0.032025337 0.09531115 0.025156595 -0.36827415
-0.053848207 0.29769862 -0.39775807 0.287639 -0.057932347 -0.30143654 -0.4077358 -0.15641034
-0.61292344 0.24036525 0.49787608 -0.31439504 -0.114440925 0.0006172548 -0.03301668 -0.052218538
0.10515118 -0.0969218 0.27945536 0.46246928 -0.026262732 -0.650028 -0.23809005 -0.04527436
-0.15368117 -0.15224113 -0.38635013 -0.4434215 -0.060552333 0.20869593 -0.065937355 -0.050917886
0.3613167 0.47935528 0.22209223 0.1297888 0.64547503 -0.05407412 0.2397738 0.030842733
-0.07738593 0.15726738 -0.023225565 0.00583776 0.7766425 -0.2406432 0.4883138 0.20510498
-0.25848848 -0.02203607 -0.5235305 0.35332167 -0.15985319 -0.19917066 0.09368062 -0.18461953
0.01520469 0.13669701 -0.08085008 -0.19573039 0.081766844 0.0785671 0.15254478 0.14914453
0.27527577 0.26562396 0.55370235 0.008513771 -0.23740104 0.2551135 -0.09563481 0.619731
-0.045673255 -0.56152415 0.5701846 -0.30300894 0.22304808 -0.03827814 -0.24265227 0.5089973
0.05537161 0.41051513 0.15079205 0.1816889 0.09723583 -0.30452552 0.2893879 0.20730107
-0.1819094 0.5430299 -0.27234972 0.102054186 -0.11285051 -0.6942449 0.2938059 0.5952942
-0.538574 -0.02935163 0.19815171 0.56303066 -0.1875272 0.014560702 -0.052215394 -0.23379074
0.25286272 0.33339107 0.22814485 -0.21583883 0.47547132 0.08434901 0.062432356 0.47325796
-0.192301 0.019371785 0.23429856 -0.060790382 0.25025514 0.3378374 -0.6072742 0.11281817
00000000: 9d1f efbc af36 373f 2a05 fbbd 2101 1d3e
00000010: 8647 ad3e b543 8cbd 50a8 76be 6a9d f8bc
00000020: 5d90 8abe 6956 00be d3a6 013d b964 473e
00000030: 44ee e93d bb55 463e dc86 6e3d 15e9 3f3e
00000040: 60f6 49be 9a42 98be d99e 5f3e f577 dc3c
00000050: b26d 89be 17e3 103f b527 b1be 6a25 823e
00000060: 31c9 23bf 3d00 023f 9ca3 25bd 836b 33be
00000070: 4278 20bd 0f26 e0be 6f5a c43d 50cd 1cbe
00000080: cdd1 023e a863 02bf e558 673e 5e10 e13e
00000090: 59ad 953e 4895 e23e 4860 8fbc d4a1 4b3e
000000a0: b825 7e3e dd36 eebe fc5d f1bd 494b b5be
000000b0: c7b3 df3e dc9a febd 3234 b03d 7c4e b93d
000000c0: 5d3e 6cbe 701b a13b 643d ad3d c15f 123e
000000d0: 137e 76be 5e53 a0be fd4b 30bf 1477 023e
000000e0: 4f01 fdbe fd82 edbd 670b 203e f204 5f3d
000000f0: 0407 803e 7d95 113d fdbc b7bc 27c6 37be
00000100: 5bc0 5a3e fc6c d03d 3924 22be 268d 49bd
00000110: d819 0a3f 20a5 38be 79fd 003d c38f f2bc
00000120: acf4 11be 720a af3d 0087 073e b279 95bd
00000130: 41bd a13e 2a73 fdbe 8671 b43c 5337 68bd
00000140: 0651 38be 57db d83e b124 debc 324e a53e
00000150: 9422 a33d 18e9 8b3d 0b3e 16be a51f a13d
00000160: 51d8 93bd a6a7 6bbe 9908 efbe 9eee bfbd
00000170: 6666 5ebe 3cdb 91be 6f03 af3e 8a0c ffbe
00000180: 0a34 85bc 9e13 873e dc18 1ebe 3880 aebd
00000190: 437d 343f 1796 d43d 1368 b8bd d628 203d
000001a0: cf8a 233d d5aa 94be 7fc8 973e b4bb 04be
000001b0: 39d1 633e 111d b3bd 1f19 fc3e 6166 fcbe
000001c0: a8ac e5bd 2d1f 163c 5682 98bd c1b8 ec3e
000001d0: fb92 45bd 5a2a 3c3e acac 58be 2137 c63e
000001e0: 2dd3 b93d 20f1 4cbe dd82 773e c1c0 6ebd
000001f0: 6f68 413e 0b5c 18bc 0fee 27bf 693e d9be
00000200: 8fc8 29be 5604 78be d063 b93e bb81 f13e
00000210: 002d 033d 7e32 c33d 3415 ce3c 6e8e bcbe
00000220: f08f 5cbd f46b 983e f2a6 cbbe 6b45 933e
00000230: 784a 6dbd e455 9abe bfc2 d0be 082a 20be
00000240: 8de8 1cbf 4f22 763e 9de9 fe3e 63f8 a0be
00000250: 0160 eabd 45cf 213a 803c 07bd 1be3 55bd
00000260: 8059 d73d f07e c6bd c614 8f3e c6c8 ec3e
00000270: f124 d7bc 3c68 26bf e1cd 73be 9b71 39bd
00000280: 995e 1dbe 19e5 1bbe afcf c5be 2508 e3be
00000290: b905 78bd 63b4 553e 2a0a 87bd 468f 50bd
000002a0: 81fe b83e 0e6e f53e 256c 633e 5be7 043e
000002b0: da3d 253f d37c 5dbd 4387 753e e6a9 fc3c
000002c0: 847c 9ebd b30a 213e 8a43 bebc ae4a bf3b
000002d0: 0bd2 463f 2c6b 76be 4404 fa3e 0a07 523e
000002e0: 9a58 84be fd84 b4bc 1806 06bf 94e6 b43e
000002f0: 8eb0 23be 65f3 4bbe a0db bf3d e70c 3dbe
00000300: 181d 793c 4dfa 0b3e ba94 a5bd 8c6d 48be
00000310: 6075 a73d cae7 a03d b334 1c3e 58b9 183e
00000320: f2f0 8c3e ddff 873e 70bf 0d3f 587d 0b3c
00000330: 4219 73be 3d9e 823e 2fdc c3bd b1a6 1e3f
00000340: e113 3bbd 0cc0 0fbf 9ef7 113f fd23 9bbe
00000350: b766 643e 8ac9 1cbd d679 78be a64d 023f
00000360: 57cd 623d 0a2f d23e 3b69 1a3e a80c 3a3e
00000370: 9423 c73d c5ea 9bbe a72a 943e bb46 543e
00000380: 7546 3abe 0204 0b3f 6c71 8bbe c901 d13d
00000390: 2b1e e7bd 09ba 31bf ba6d 963e 3365 183f
000003a0: fcdf 09bf d472 f0bc 48e8 4a3e c722 103f
000003b0: 2107 40be 0390 6e3c cfdf 55bd d766 6fbe
000003c0: 3977 813e 3cb2 aa3e ce9e 693e db04 5dbe
000003d0: fa70 f33e 2cbf ac3d 12b9 7f3d de4e f23e
000003e0: 8eea 44be 94b1 9e3c f6eb 6f3e 56ff 78bd
000003f0: 7121 803e 06f9 ac3e 5276 1bbf 360d e73d

layer2.2.weight f4 [256, 256]
-0.1811661 -0.09306165 -0.26013216 0.033088814 0.11881245 0.46519992 -0.05150704 0.01574471
0.05423457 -0.0054177535 0.20545197 0.28637302 0.1379701 0.15162739 -0.3640606 -0.061028518
0.16809939 -0.08906686 0.0529964 0.2691657 -0.062889755 -0.065997764 0.16154005 -0.03920991
-0.4428011 -0.274874 -0.08154639 -0.0013751647 -0.13154717 -0.34790233 0.041724898 0.008982848
0.21505022 0.090608604 0.05734937 -0.20832908 -0.41264063 0.21387519 0.3083965 -0.28565907
-0.1538017 0.05355937 -0.25468582 0.1554936 -0.54466915 -0.10538781 0.29389468 -0.34888804
-0.13486952 -0.11390118 -0.48259887 0.2700897 -0.14383253 -0.1600844 -0.087586716 -0.07496569
-0.42048016 -0.20317712 0.13193794 0.20356874 -0.09029979 -0.42384064 0.41700602 -0.08431299
-0.7345145 -0.38471863 -0.23992765 0.27232167 0.22628501 -0.026938165 0.11593781 -0.04451912
-0.4072957 -0.12472511 -0.14231978 0.15106265 0.454434 0.41145223 -0.09601533 -0.143284
-0.22229004 0.08683364 -0.5070928 0.207329 -0.019510329 -0.63978076 -0.04148441 -0.6143938
-0.11858365 0.18118645 0.017306622 0.31629005 0.1879468 -0.025872935 0.19905928 -0.19555323
-0.25781867 0.15650621 0.09383349 0.20602551 -0.21804413 -0.13165164 -0.39796388 -0.04174668
0.22021732 -0.10918382 -0.02054026 -0.19078638 -0.2837651 0.21805084 0.2657267 -0.07922398
-0.3389363 -0.04040184 0.00953464 0.26339436 -0.048123516 0.105461486 -0.027329646 -0.1679913
-0.074143395 0.43281394 -0.50800645 0.28614822 0.4195908 0.19130549 0.34007245 0.31911278
-0.16632663 0.33805573 0.014619821 0.24901928 -0.14535777 -0.09325561 0.275965 -0.13010128
-0.2414698 0.103215255 0.3641954 0.3676904 -0.054281287 0.04466763 0.19787727 -0.07017154
-0.005372178 -0.31968552 0.18326329 0.46428186 0.40370023 0.3918188 0.031759147 -0.21385475
0.18906505 0.05516958 -0.38419724 -0.044441316 0.40872973 0.09957002 -0.23810166 -0.2782357
0.34306106 0.111671016 -0.19410339 0.17879812 0.48578992 -0.077427834 0.10399874 0.16742153
-0.37959716 0.35103598 0.1041023 -0.52817345 0.06432281 0.18905422 -0.22715439 0.16640995
-0.36125663 -0.21348137 0.50636 0.077813245 0.2508081 -0.06770313 0.081567325 -0.24174297
0.14124185 0.06038768 -0.39026162 0.1987358 0.11611953 0.19787928 0.18360503 -0.25319338
-0.24851324 0.22491014 -0.17614639 0.007938622 0.14224058 0.19235897 -0.14631383 0.24727844
-0.4330348 -0.06580351 -0.28537935 0.27619356 0.35290042 0.0935468 -0.27021185 -0.020608865
-0.24128018 -0.33215132 0.15468207 0.04440791 -0.049707156 -0.50684494 -0.16856605 0.056523442
0.33783323 -0.15729207 0.46200383 0.35808244 0.5177449 -0.104651645 -0.22373581 -0.09315127
0.091798864 0.17241131 -0.22801107 -0.15235904 -0.0043490604 0.13401805 -0.35493022 0.11456779
0.4187401 0.15568309 0.051129285 0.035591234 0.1375869 0.14622627 -0.015542582 0.7963266
-0.42285421 0.5516875 -0.31899464 -0.59144145 0.13885042 -0.2907769 -0.33803502 0.06188347
0.05709753 0.012266436 0.29760456 0.13229632 -0.027060322 0.16225249 0.38930443 0.85414344
00000000: 9b83 39be 1b97 bebd 0b30 85be 2388 073d
00000010: f153 f33d af2e ee3e 0cf9 52bd 0dfb 803c
00000020: 1225 5e3d 6987 b1bb 0062 523e 7c9f 923e
00000030: 0948 0d3e 3644 1b3e 2766 babe 0af9 79bd
00000040: 3f22 2c3e b068 b6bd c112 593d 16d0 893e
00000050: 58cc 80bd d629 87bd c16a 253e 929a 20bd
00000060: d3b6 e2be 49bc 8cbe cb01 a7bd df3e b4ba
00000070: 4db4 06be 4120 b2be bae7 2a3d cc2c 133c
00000080: 2036 5c3e 0191 b93d 2ce7 6a3d 3854 55be
00000090: a245 d3be 1902 5b3e 25e6 9d3e e841 92be
000000a0: 317e 1dbe 1261 5b3d 2e66 82be b739 1f3e
000000b0: 706f 0bbf 90d5 d7bd 5d79 963e 74a1 b2be
000000c0: 3c1b 0abe 0645 e9bd 3317 f7be 3249 8a3e
000000d0: d648 13be 2aed 23be aa60 b3bd 9d87 99bd
000000e0: 2d49 d7be aa0d 50be bd1a 073e 5374 503e
000000f0: 19ef b8bd a401 d9be d081 d53e 4aac acbd
00000100: 2409 3cbf d7f9 c4be 98af 75be bf6d 8b3e
00000110: 42b7 673e 6dad dcbc cd70 ed3d ae59 36bd
00000120: 1089 d0be e16f ffbd 47bc 11be 2bb0 1a3e
00000130: 93ab e83e dea9 d23e afa3 c4bd 0ab9 12be
00000140: 00a0 63be d6d5 b13d d5d0 01bf 0e4e 543e
00000150: 20d4 9fbc acc8 23bf 8feb 29bd e948 1dbf
00000160: fcdb f2bd f188 393e 9ec6 8d3c c5f0 a13e
00000170: 2075 403e 7af3 d3bc 32d6 4b3e 1b3f 48be
00000180: cf00 84be 2a43 203e c62b c03d 5af8 523e
00000190: f646 5fbe b0cf 06be ecc1 cbbe 91fe 2abd
000001a0: a680 613e c49b dfbd 0c44 a8bc 815d 43be
000001b0: a949 91be b848 5f3e 540d 883e 2f40 a2bd
000001c0: 0f89 adbe 667c 25bd 2e37 1c3c a0db 863e
000001d0: 2a1d 45bd 31fc d73d 6ce2 dfbc e905 2cbe
000001e0: 7ed8 97bd ca99 dd3e b60c 02bf 0582 923e
000001f0: 9bd4 d63e 96e5 433e fa1d ae3e c062 a33e
00000200: 8751 2abe a415 ad3e f987 6f3c e9fe 7e3e
00000210: abd8 14be ccfc bebd 494b 8d3e 4539 05be
00000220: dc43 77be 8562 d33d d277 ba3e eb41 bc3e
00000230: 0e56 5ebd 68f5 363d 57a0 4a3e 19b6 8fbd
00000240: 1809 b0bb d2ad a3be 5fa9 3b3e 5ab6 ed3e
00000250: ccb1 ce3e 799c c83e e115 023d bdfc 5abe
00000260: 459a 413e 7ff9 613d 80b5 c4be 1908 36bd
00000270: 0645 d13e 5eeb cb3d ecd0 73be e974 8ebe
00000280: b3a5 af3e c6b3 e43d 0ac3 46be db16 373e
00000290: 75b9 f83e 7c92 9ebd 4bfd d43d 8d70 2b3e
000002a0: 8f5a c2be fdba b33e 9633 d53d 6036 07bf
000002b0: adbb 833d 6e97 413e 299b 68be 5f67 2a3e
000002c0: a1f6 b8be dc9a 5abe cfa0 013f 8d5c 9f3d
000002d0: eb69 803e f0a7 8abd c50c a73d 788b 77be
000002e0: b4a1 103e 1259 773d 5fd0 c7be 6681 4b3e
000002f0: 13d0 ed3d dea0 4a3e f502 3c3e 90a2 81be
00000300: 417a 7ebe d84e 663e b85f 34be fe10 023c
00000310: 84a7 113e c0f9 443e 4bd3 15be 8f36 7d3e
00000320: bdb6 ddbe fec3 86bd 3e1d 92be 3e69 8d3e
00000330: 5daf b43e 7795 bf3d 3559 8abe ecd3 a8bc
00000340: 2712 77be bd0f aabe fa64 1e3e 12e5 353d
00000350: bb99 4bbd 97c0 01bf 949c 2cbe 2085 673d
00000360: 7af8 ac3e 2c11 21be c48b ec3e 9556 b73e
00000370: ee8a 043f 9a53 d6bd 001b 65be 18c6 bebd
00000380: 0b01 bc3d 978c 303e bc7b 69be 0204 1cbe
00000390: 9082 8ebb 073c 093e 6ab9 b5be 84a2 ea3d
000003a0: 1a65 d63e 636b 1f3e f16c 513d 1dc8 113d
000003b0: 95e3 0c3e 57bc 153e 50a6 7ebc 0fdc 4b3f
000003c0: 5980 d8be 643b 0d3f 4453 a3be b568 17bf
000003d0: ce2e 0e3e b6e0 94be ed12 adbe 8579 7d3d
000003e0: 1adf 693d 29f9 483c a05f 983e b078 073e
000003f0: 9cad ddbc 8425 263e e952 c73e 25a9 5a3f

layer2.2.bias f4 [256]
0.17274891 -0.24135052 0.02994338 -0.49967974 0.4531682 0.10958879 0.51112145 0.31382728
-0.15499528 -0.17556311 0.21144183 -0.112307794 0.31290367 -0.0955895 0.009708904 -0.3500346
0.17972665 -0.13176146 -0.22876035 -0.41430494 -0.01875897 -0.31314033 -0.29500327 -0.37707555
-0.3374517 0.017996391 0.1805181 -0.027662747 0.047845766 -0.3425294 -0.15459631 0.04353888
-0.26243564 -0.2031211 0.38986152 -0.15329325 -0.2627461 0.16490364 -0.10326993 -0.3483481
-0.097574905 -0.1583146 0.18048756 -0.0746162 -0.22243671 -0.03284151 0.21514532 -0.382745
-0.001300649 0.4057982 0.070633404 -0.17336752 0.24970092 0.40772805 -0.4165253 -0.37186643
0.060498152 0.13449672 -0.39116457 -0.34640482 0.12167049 0.22888222 -0.26421797 -0.025155084
-0.28695798 0.16843663 -0.2506305 0.111719646 0.28676268 -0.4937625 0.3712224 0.0062588225
0.23494339 0.25674495 0.32791516 0.12408577 0.2854573 -0.2581522 0.531926 0.39885753
-0.15271866 0.24139427 -0.22480674 0.035718847 0.38475305 -0.22504477 0.42940247 -0.2906416
0.09374741 -0.47217467 -0.10131231 -0.2976471 -0.3677028 0.4260014 0.11085935 0.15360855
-0.24522129 -0.30142507 -0.293537 0.38890132 -0.17221035 -0.13909574 -0.19866684 0.29250306
0.3285374 0.064628094 0.3609374 -0.016093777 0.051397663 -0.4788862 -0.2937101 -0.252838
-0.2202567 -0.225544 0.084490426 -0.3242778 -0.24535653 0.0970136 -0.41426677 0.37788755
0.06366648 -0.0070252325 0.06980564 -0.2753984 0.2691914 -0.34884194 -0.40068996 0.08433646
-0.22718288 -0.52825385 -0.23371518 0.05988667 -0.44605678 -0.20416147 0.19282325 -0.10094828
0.25896683 -0.205896 0.150758 -0.45992547 0.06389503 -0.28315118 -0.48164827 0.022404235
-0.24569426 -0.29162985 -0.38452068 -0.105176054 0.07340384 -0.3062783 0.20464085 -0.4324445
0.2939377 -0.10732397 -0.2847443 -0.4124955 0.35679713 0.023375932 -0.14404337 0.22391601
0.27072647 0.12328127 -0.32094502 -0.22611095 0.5524071 -0.25305584 -0.06527726 -0.4794178
-0.16968347 -0.34049305 -0.19791172 0.36229154 0.28226373 -0.16275123 0.36106852 -0.24326812
-0.4818817 -0.03724592 0.22211388 -0.32371002 -0.42441306 -0.27562997 -0.068546526 0.061422933
-0.26340592 -0.3324808 -0.2541656 0.1050568 0.26402152 0.29633775 0.31092593 -0.13915052
-0.0486956 0.40740436 -0.10796208 0.0048319427 -0.095456906 -0.31448987 -0.4596714 0.28154188
0.09278887 -0.13642018 -0.05227933 0.3576823 -0.058548287 -0.397808 0.2827342 0.09459716
-0.13247176 -0.017658636 -0.20860082 0.024257585 0.02942824 -0.20008734 -0.58297414 0.54076785
0.12831643 -0.16753964 -0.4367097 0.12575702 -0.34694636 -0.2550564 -0.37634107 -0.42122355
-0.12699714 -0.026198208 0.37382907 0.3113418 -0.42047486 0.24443568 -0.20891319 0.006020027
-0.3268348 0.093339965 -0.104684465 -0.15395877 -0.33750835 -0.09841427 0.38861135 0.08248784
0.42165413 -0.41662118 0.34242582 -0.015734285 0.11319575 -0.13086544 0.09029222 0.3900168
0.22463343 -0.22499195 0.027870893 -0.16418283 0.40263265 -0.38542503 -0.13582084 0.120611265
00000000: 17e5 303e 9724 77be d24b f53c 06d6 ffbe
00000010: aa05 e83e 1670 e03d dbd8 023f f8ad a03e
00000020: 15b7 1ebe d1c6 33be 3584 583e a101 e6bd
00000030: e934 a03e 6ec4 c3bd 1812 1f3c bc37 b3be
00000040: 430a 383e 7aec 06be 2740 6abe c71f d4be
00000050: 69ac 99bc ee53 a0be ab0a 97be 0c10 c1be
00000060: 78c6 acbe 2b6d 933c bdd9 383e fc9c e2bc
00000070: ecf9 433d 0360 afbe 7f4e 1ebe d355 323d
00000080: f75d 86be fafe 4fbe ee9b c73e e8f8 1cbe
00000090: a886 86be 80dc 283e 2f7f d3bd af5a b2be
000000a0: 5ad5 c7bd 391d 22be bbd1 383e 61d0 98bd
000000b0: 73c6 63be d284 06bd 0e4f 5c3e 27f7 c3be
000000c0: 8a7a aaba c8c4 cf3e 3fa8 903d 4187 31be
000000d0: 99b1 7f3e bbc1 d03e ce42 d5be 4765 bebe
000000e0: e9cc 773d 82b9 093e b946 c8be f95b b1be
000000f0: 612e f93d 1a60 6a3e 9447 87be 0912 cebc
00000100: 28ec 92be a77a 2c3e a452 80be 45cd e43d
00000110: 8fd2 923e 70ce fcbe dd10 be3e cf16 cd3b
00000120: 0095 703e 1374 833e 7fe4 a73e ae20 fe3d
00000130: 7627 923e 862c 84be 4d2c 083f 0e37 cc3e
00000140: 4862 1cbe 0f30 773e bd33 66be ed4d 123d
00000150: 5afe c43e 2372 66be a4da db3e face 94be
00000160: a4fe bf3d e1c0 f1be d47c cfbd 3365 98be
00000170: 8b43 bcbe db1c da3e 3a0a e33d 8f4b 1d3e
00000180: 4a1b 7bbe 6354 9abe 7b4a 96be 131e c73e
00000190: e957 30be 1d6f 0ebe 526f 4bbe f6c2 953e
000001a0: 0e36 a83e bc5b 843d c9cc b83e 19d7 83bc
000001b0: 5b86 523d 9230 f5be 2c61 96be fb73 81be
000001c0: f98a 61be 02f5 66be 5109 ad3d bd07 a6be
000001d0: be3e 7bbe 11af c63d c61a d4be 7a7a c13e
000001e0: 9263 823d ec33 e6bb 42f6 8e3d 0501 8dbe
000001f0: 75d3 893e 699b b2be 3c27 cdbe 98b8 ac3d
00000200: a1a2 68be a53b 07bf 0853 6fbe ba4b 753d
00000210: 8e61 e4be b40f 51be 7573 453e f9bd cebd
00000220: 4d97 843e 67d6 52be 4e60 1a3e 5a7b ebbe
00000230: 66db 823d 31f9 90be 9a9a f6be 1689 b73c
00000240: 4797 7bbe 8250 95be e5df c4be 8b66 d7bd
00000250: c154 963d 82d0 9cbe 5f8d 513e 5e69 ddbe
00000260: 017f 963e abcc dbbd 01ca 91be 9c32 d3be
00000270: 1dae b63e e27e bf3c 1b80 13be 3d4a 653e
00000280: a99c 8a3e e47a fc3d e852 a4be a189 67be
00000290: 8d6a 0d3f 8990 81be 16b0 85bd 4076 f5be
000002a0: 81c1 2dbe 1b55 aebe 5fa9 4abe 477e b93e
000002b0: df84 903e 42a8 26be f9dd b83e 471b 79be
000002c0: 33b9 f6be 2e8f 18bd d271 633e 52bd a5be
000002d0: ab4c d9be 5f1f 8dbe 1f62 8cbd 9d96 7b3d
000002e0: 24dd 86be ec3a aabe fe21 82be 0528 d73d
000002f0: d42d 873e 95b9 973e af31 9f3e 797d 0ebe
00000300: 0a75 47bd 4e97 d03e 391b ddbd 4655 9e3b
00000310: e97e c3bd d104 a1be 0d5a ebbe 4226 903e
00000320: 1708 be3d bbb1 0bbe da22 56bd 2222 b73e
00000330: 54d0 6fbd 7dad cbbe 89c2 903e 28bc c13d
00000340: ada6 07be d8a8 90bc 749b 55be d8b7 c63c
00000350: 7e13 f13c b2e3 4cbe cb3d 15bf c36f 0a3f
00000360: 6265 033e 838f 2bbe 6a98 dfbe 73c6 003e
00000370: f4a2 b1be c196 82be c7af c0be 9daa d7be
00000380: 8a0b 02be a09d d6bc 8666 bf3e 3168 9f3e
00000390: 7b48 d7be 594d 7a3e 57ed 55be a643 c53b
000003a0: e456 a7be 0629 bf3d cf64 d6bd 5ea7 1dbe
000003b0: e5cd acbe 6c8d c9bd 11f8 c63e 62ef a83d
000003c0: 0de3 d73e 5f4f d5be 7052 af3e 30e5 80bc
000003d0: 2cd3 e73d 9701 06be 21eb b83d 48b0 c73e
000003e0: 4e06 663e 4a64 66be 8051 e43c 8b1f 28be
000003f0: de25 ce3e 6e56 c5be 9e14 0bbe 0a03 f73d

layer2.4.weight f4 [10, 256]
0.11698949 -0.2379667 0.08439587 -0.1363355 -0.021309802 -0.34100696 0.23932089 0.35349715
0.051426172 -0.23508795 -0.22907597 0.54978615 0.0028816971 0.2368815 -0.38276696 -0.11422551
0.026507208 -0.039801233 0.17928 0.39307347 0.15395246 -0.20096888 0.13123563 -0.0887789
-0.10525346 0.15511219 0.12176413 -0.2342572 0.34701365 -0.19491135 -0.54341495 0.14807327
-0.13221376 0.4535984 0.32205132 0.13397516 0.09106764 -0.21210547 0.0853357 -0.298416
1.6779871 -0.20424384 0.08160135 0.2516641 0.086665705 0.016777528 -0.4891264 0.024862006
0.2954704 0.08964796 -0.05938646 0.3708147 0.019827824 -0.06685959 -0.0200787 -0.1347485
-0.25020945 -0.03843379 -0.447171 0.11689696 -0.20875095 0.11144331 0.24489401 0.15363613
0.10444297 0.19315909 0.16229771 0.1377867 0.0044281953 -0.11267139 -0.024224669 -0.13626112
-0.18552832 0.3101031 0.175898 -0.16301848 -1.2853031 0.0076263016 0.21358134 0.021183826
0.02537787 0.42340997 0.24725665 -0.28275988 -0.11282469 -0.15913261 -0.52650636 0.12430165
-0.003258748 0.0959243 -0.103722304 -0.09012024 0.15755911 0.059554454 0.057883915 0.16163759
-0.23356591 -0.12090964 0.53152424 -0.4187216 -0.09458858 0.03933501 0.33403936 0.18056087
-0.40140423 0.23187245 -1.0650682 0.46987206 -0.38020694 -0.18274091 -0.13757809 0.058981024
0.42558268 0.9484548 -0.032177806 1.014475 0.34408417 0.1723695 0.1072537 0.11468741
0.1541923 -0.485907 0.026901927 0.008148712 0.092693895 -0.111601576 -0.080576226 -0.013180515
-0.08258636 -0.10826494 -0.35459298 -0.17676432 -0.25510213 -0.0004912 0.32883415 -0.002561691
0.056359395 0.12672617 -0.024596073 -0.123045795 0.041400235 0.5921151 -0.12386085 0.31168827
-0.04642529 0.17961414 -0.21120994 0.104545794 -0.017834218 -0.007222653 0.27445456 -0.14542572
0.17394413 -0.040932238 -0.028068846 -0.0025514846 -0.2803975 -0.020226296 0.023552705 0.026272234
0.18036549 0.53457195 -0.0969253 -0.04310315 0.039314095 -0.046217047 -0.09912911 -0.12088106
-0.29121968 -0.12759274 0.21017294 0.1289379 0.13976304 0.17620589 0.21401481 -0.096490964
-0.169982 0.88748354 0.4470686 -0.28217325 -0.12936558 0.80441314 -0.36669847 -0.17419137
0.28601202 1.7996001 0.073899 -0.79982585 -0.030497238 -0.18632986 0.10718341 -0.060377803
-0.13343097 -0.106418386 0.115100026 0.27680546 -0.06303449 -0.9291251 -0.22040914 0.18047576
-0.06503984 0.16230531 -0.13001443 0.15190165 0.024545405 -0.25802866 0.0032236476 0.09441641
0.035227794 -0.0937761 0.41105953 0.6366934 -0.06378081 0.22410375 -0.22187935 0.16820277
-0.13237481 0.0095940875 -0.48070267 0.02401942 -0.2509629 0.44235954 -0.16728984 -0.085402235
-0.22761647 0.121120326 0.1256534 0.06212933 0.33762655 0.16057833 -0.076768264 -0.17147137
-0.085080475 0.5216302 -0.03932185 -0.0052050715 0.34069476 -0.2532939 -0.19596995 -0.124979705
0.049667753 -0.05991876 0.23172937 -0.4294699 0.12046826 0.027790163 0.8398571 0.087665245
-0.37883618 -0.32773665 0.07122656 0.23612134 0.09676087 -0.185264 0.18128486 0.12734644
00000000: 3098 ef3d 8bad 73be bed7 ac3d 899b 0bbe
00000010: e591 aebc 7798 aebe 8910 753e 94fd b43e
00000020: 40a4 523d e5ba 70be e492 6abe c9be 0c3f
00000030: dbda 3c3b 1091 723e 08fa c3be 10ef e9bd
00000040: a525 d93c 9e06 23bd 2d95 373e ed40 c93e
00000050: b7a5 1d3e c9ca 4dbe a262 063e b6d1 b5bd
00000060: 208f d7bd bbd5 1e3e 795f f93d 1fe1 6fbe
00000070: c6ab b13e d796 47be 3e1d 0bbf 85a0 173e
00000080: 0b63 07be 0d3e e83e e9e3 a43e c930 093e
00000090: ac81 ba3d 2d32 59be 7cc4 ae3d fbc9 98be
000000a0: 48c8 d63f 4c25 51be 9c1e a73d 1eda 803e
000000b0: ca7d b13d 0771 893c c76e fabe 68ab cb3c
000000c0: e547 973e 5a99 b73d 373f 73bd 6ddb bd3e
000000d0: f66d a23c aeed 88bd 167c a4bc 83fb 09be
000000e0: 741b 80be c06c 1dbd 99f3 e4be ac67 ef3d
000000f0: cfc2 55be 643c e43d 7fc5 7a3e ca52 1d3e
00000100: 32e6 d53d 7fcb 453e 5f31 263e f517 0d3e
00000110: 651a 913b 42c0 e6bd d072 c6bc 0988 0bbe
00000120: 23fb 3dbe d5c5 9e3e 9b1e 343e 51ee 26be
00000130: d084 a4bf 0ee6 f93b 11b5 5a3e b489 ad3c
00000140: 40e5 cf3c 31c9 d83e d930 7d3e e7c5 90be
00000150: a210 e7bd a9f3 22be 1fc9 06bf dd91 fe3d
00000160: b890 55bb f673 c43d 5c6c d4bd f690 b8bd
00000170: 2d57 213e 5fef 733d af17 6d3d 5384 253e
00000180: e72b 6fbe 799f f7bd f911 083f ad62 d6be
00000190: a8b7 c1bd bf1d 213d 3507 ab3e f3e4 383e
000001a0: db84 cdbe f96f 6d3e 2854 88bf 1293 f03e
000001b0: 7caa c2be 6f20 3bbe 45e1 0cbe 1696 713d
000001c0: f9e5 d93e efcd 723f e0cc 03bd 51da 813f
000001d0: cd2b b03e a181 303e d4a7 db3d 3ce1 ea3d
000001e0: 96e4 1d3e cdc8 f8be 6e61 dc3c 2d82 053c
000001f0: 4cd6 bd3d 5e8f e4bd 2605 a5bd 16f3 57bc
00000200: 0a23 a9bd 02ba ddbd 368d b5be b501 35be
00000210: bf9c 82be e0c3 00ba f35c a83e 0be2 27bb
00000220: 1cd9 663d 81c4 013e b47d c9bc 6fff fbbd
00000230: 4b93 293d db94 173f c2aa fdbd 9b95 9f3e
00000240: 7228 3ebd c5ec 373e 6b47 58be 1b1c d63d
00000250: 1119 92bc 01ac ecbb 4f85 8c3e 7bea 14be
00000260: 691e 323e 90a8 27bd a3f0 e5bc cf36 27bb
00000270: 4390 8fbe 9eb1 a5bc 9af1 c03c de38 d73c
00000280: bbb1 383e b5d9 083f c680 c6bd ee8c 30bd
00000290: d107 213d 164e 3dbd 3404 cbbd 7d90 f7bd
000002a0: bf1a 95be aca7 02be 9337 573e 4c08 043e
000002b0: 0b1e 0f3e 516f 343e b326 5b3e 0e9d c5bd
000002c0: c30f 2ebe 1f32 633f 2de6 e43e 0379 90be
000002d0: 6978 04be 05ee 4d3f e7bf bbbe 395f 32be
000002e0: 2b70 923e 4c59 e63f 5c58 973d 63c1 4cbf
000002f0: 58d5 f9bc 41cd 3ebe fa82 db3d b74e 77bd
00000300: 21a2 08be e2f1 d9bd 90b9 eb3d 72b9 8d3e
00000310: 3a18 81bd 24db 6dbf efb2 61be a3ce 383e
00000320: 9c33 85bd 5d33 263e 8122 05be 1b8c 1b3e
00000330: 7213 c93c 551c 84be d543 533b 645d c13d
00000340: 054b 103d af0d c0bd 6576 d23e 57fe 223f
00000350: 839f 82bd 747b 653e 5734 63be 593d 2c3e
00000360: 438d 07be 8530 1d3c a91e f6be 60c4 c43c
00000370: 367e 80be f37c e23e 074e 2bbe 5ee7 aebd
00000380: 4b14 69be ef0d f83d 49ab 003e 537b 7e3d
00000390: 63dd ac3e a56e 243e ae38 9dbd 3196 2fbe
000003a0: ac3e aebd 8f89 053f f30f 21bd 4e8f aabb
000003b0: 8b6f ae3e bdaf 81be 59ac 48be 5cf5 ffbd
000003c0: 6a70 4b3d 606d 75bd 774a 6d3e 7be3 dbbe
000003d0: 10b8 f63d 32a8 e33c e000 573f d689 b33d
000003e0: d1f6 c1be 19cd a7be 3bdf 913d cbc9 713e
000003f0: 902a c63d d9b5 3dbe bda2 393e 1b67 023e

layer2.4.bias f4 [10]
0.19328775 -0.42921677 -0.86203694 -0.3539833 -0.42283878 -0.13341157 -0.3901747 0.24851465
-0.1738469 -0.18530053
00000000: 39ed 453e 4dc2 dbbe 74ae 5cbf 4d3d b5be
00000010: 537e d8be 0b9d 08be fac4 c7be a07a 7e3e
00000020: ec04 32be 6cbf 3dbe
