python_files/Results/helpdesk/BackUp/EventPredictor_parameters_helpdesk_laplacianOnBinary_0.001_run0_GATTTT.pt (torch, 296183 bytes, 9 tensors)

layer1.bias f4 [9]
000000 00 00 00 00 00 00 00 00 00 00 00 00 00 00 00 00
       0.0 0.0 0.0 0.0
000010 00 00 00 00 00 00 00 00 00 00 00 00 00 00 00 00
       0.0 0.0 0.0 0.0
000020 00 00 00 00
       0.0

layer1.W f4 [4, 2]
000000 6e 8e f8 bc b9 1c 47 3e be 5c 09 3f fb e2 e6 be
       -0.030341353 0.1944455 0.5365714 -0.45095047
000010 2e fb 3d 3f d1 8e 79 3e 08 5b a8 be 1e fb 04 bf
       0.74211395 0.24370886 -0.3288195 -0.51945674

layer1.a f4 [4, 1]
000000 ab 52 01 3d ba 46 73 ba ab 52 01 3d ba 46 73 ba
       0.03157298 -0.00092802534 0.03157298 -0.00092802534

layer2.0.weight f4 [256, 18]
000000 be cb ff 3d f6 a5 01 3e 5c d9 6b 3e 75 c7 14 3e
       0.124900326 0.12660965 0.23032135 0.14529212
000010 56 49 9d 3d 1e a8 31 3d 2d f2 51 3d 01 f8 00 3e
       0.07680003 0.04337322 0.051256347 0.12594606
000020 8d 06 d9 3d 7a 1d d4 3d df d6 10 3e a3 ad f4 3c
       0.105969526 0.10357185 0.14144467 0.029867953
000030 fa d3 04 be 81 21 7e bd fe a6 31 3b ae bd 73 be
       -0.12971488 -0.06204367 0.0027107592 -0.23802826
000040 01 86 46 3e c9 dd 3f 3e 6f 39 bf bb 6c fc f4 3d
       0.19387056 0.18736948 -0.005835704 0.11962208
000050 ac 0f 73 3d f0 2e 46 be 7b 43 56 3d cd 2a 50 3d
       0.059341118 -0.19353843 0.05231045 0.050822068
000060 98 69 2e be f6 8c ac 3d 96 5a 2f be 26 10 34 be
       -0.17032468 0.08425324 -0.171244 -0.17584285
000070 90 30 4c be 48 0e 18 be 19 f0 70 3c 45 87 2e be
       -0.199404 -0.14849198 0.014705681 -0.17043789
000080 6f 4a 5c bd 85 12 21 be 4a 6b 1e be 94 0a 67 bd
       -0.053781923 -0.15729721 -0.15470615 -0.056406572
000090 c3 ab 06 be 2e 6b 7a 3e 45 4c 15 bc 92 0b ee bd
       -0.1315146 0.24454948 -0.009112422 -0.116233006
0000a0 88 20 02 3e 41 3e 7e 3e 25 5c 50 3e b7 41 4a be
       0.12707722 0.24828435 0.2034765 -0.1975163
0000b0 81 38 3a be 68 84 d8 3d 77 40 9a bd d1 ab 73 3d
       -0.18185617 0.105721295 -0.07531827 0.05949003
0000c0 7b 5c 15 3e 71 d0 19 be 58 ad 36 bd 74 27 4b bd
       0.1458606 -0.1502092 -0.044598907 -0.049598172
0000d0 d1 df 85 bc e0 73 a0 3d dc 1c 64 3e 23 e9 36 be
       -0.016342076 0.078346014 0.22276634 -0.17862372
0000e0 49 d9 03 bd 49 3b 0b be 40 a2 2a be ab fc 4a bd
       -0.03218964 -0.13596834 -0.16663456 -0.04955737
0000f0 f1 d5 de bd cf 46 3d be 62 6f 0c be 42 27 34 3e
       -0.1088065 -0.18484043 -0.13714364 0.175931
000100 a6 0e 14 3d d8 17 25 3d 4c 92 1a be 52 f5 5e 3e
       0.036146782 0.040305942 -0.1509487 0.2177327
000110 81 6c d7 3c 69 a8 1f 3e 9e ef d9 3d db 84 54 be
       0.026296856 0.15591587 0.106414065 -0.20753805
000120 0d eb cd bd 54 49 68 bc 60 aa f6 3c 29 4f 1b be
       -0.10054598 -0.014177639 0.030110538 -0.15166916
000130 a2 a9 1f 3e f0 5e 99 bd 2b f7 50 3d b9 4e 1f 3d
       0.15592054 -0.07488811 0.051016968 0.038893435
000140 0c 5d 99 3d 82 22 cf 3c 4e 4d e0 bd c0 ff a8 bd
       0.074884504 0.02528501 -0.10952245 -0.082519054
000150 66 6f 4e 3d 1f 06 2f be cb da 7e 3e 3a 17 69 bd
       0.050399207 -0.17092179 0.2488815 -0.056906916
000160 69 b0 41 bd c9 63 03 bd 91 94 66 3d d9 7f 5b 3e
       -0.04728738 -0.032077584 0.056294028 0.21435489
000170 11 4f 3e bd fb 0b 40 be dc 90 d4 bd 73 f2 ce 3d
       -0.046462122 -0.1875457 -0.10379192 0.10104837
000180 26 11 3c b9 30 c4 7a bd 85 d1 da 3d cb 11 3b 3e
       -0.00017935465 -0.061222255 0.10684494 0.18268506
000190 54 ef a8 bd 1c eb 71 3e 44 ff 8a 3e 7a e0 2f be
       -0.08248773 0.23624843 0.27147877 -0.17175475
0001a0 16 19 1f 3e 6e fa 33 3e 3b c6 c6 bd 53 58 72 3e
       0.15536913 0.17576 -0.09705778 0.23666506
0001b0 2a 5c bf bb 77 ad e9 bc c2 29 3c 3e 95 32 cf 3d
       -0.0058398442 -0.028525097 0.18375304 0.1011707
0001c0 1b e9 ba 3d 5a 4e 90 bb 8e 5f af 3d d9 a8 06 be
       0.091264926 -0.0044038715 0.085631475 -0.13150348
0001d0 be 39 dc bd 20 72 46 bb 09 96 70 bd a9 8f ce bd
       -0.10753201 -0.0030280426 -0.058736835 -0.10085995
0001e0 64 91 33 be 2b 50 94 3c 08 4a 9f 3c 1f 3a 03 3d
       -0.17535931 0.018104633 0.01944448 0.03203785
0001f0 9b f5 94 bd 37 df 43 3d 97 4b 75 be 6b 33 3f 3e
       -0.07273408 0.047820296 -0.23954616 0.18671958
000200 f3 2e 15 be fd 75 53 be 3c ae 87 be 67 e5 90 be
       -0.14568691 -0.20650478 -0.26500118 -0.2830002
000210 79 6e f1 bd df d6 34 3e 14 b8 ea 3d 8d 38 23 3e
       -0.11788649 0.17660092 0.11460891 0.15939541
000220 61 04 1e 3e 72 59 b6 3b 6a 22 30 bd 53 58 0c 3e
       0.15431358 0.005564862 -0.04300157 0.13705568
000230 53 1c 47 bc 7b df fa bb 97 92 09 3e ce c6 2a 3d
       -0.012152749 -0.0076560355 0.13434826 0.0416935
000240 7f c0 02 be 47 d7 67 be 32 60 8f bc 78 64 12 3d
       -0.12768744 -0.22640716 -0.017501924 0.035740346
000250 78 a2 25 be 3d 10 3c be d7 7a 1c 3e df 90 5a bd
       -0.16175258 -0.1836557 0.15281235 -0.053360816
000260 9b 5e be bc 79 a1 a8 bd 94 85 90 bd 72 bc 85 3d
       -0.02323847 -0.082339235 -0.07056728 0.06530084
000270 bc ca 58 3d eb c1 f7 bd 75 e3 19 be dc e6 fa 3c
       0.052927718 -0.12097534 -0.15028174 0.03062766
000280 e7 bc 1f 3e 59 ff 53 3e ac dd bf bd d6 c1 54 3c
       0.15599404 0.20702876 -0.093684524 0.012985667
000290 b4 d5 0b 3e a5 7d e5 3d cb 0a 11 3e 29 f3 e7 bc
       0.1365574 0.112056054 0.14164273 -0.02831419
0002a0 10 68 f3 bd 0b 2d cc 3b e5 2c de 3d 4b e6 85 be
       -0.11885083 0.0062309555 0.10848407 -0.26152262
0002b0 ee 70 49 bc 30 99 47 3e 35 95 9e 3e d5 a5 38 bb
       -0.012294991 0.1949203 0.3097321 -0.0028175015
0002c0 9f de fb bc 00 8e 16 bc 7a 94 ea 3d 9f 3e 7a bc
       -0.030745802 -0.009189129 0.11454101 -0.015273719
0002d0 37 4f 3b be dc f3 ec 3c 8a 1b 66 bb e7 a1 1f be
       -0.18291937 0.028924875 -0.003511163 -0.15589105
0002e0 21 10 8d 3d 30 ea 67 be 37 ab 72 bc bf d0 39 be
       0.06887842 -0.22647929 -0.014811329 -0.18146037
0002f0 89 2f 94 3d 21 b7 70 bd aa 88 2c be 4f c6 0f be
       0.07235629 -0.058768395 -0.16849008 -0.14040492
000300 4a 99 34 3e d3 0a 7a bd 5c 40 55 3e 69 f7 40 bd
       0.176366 -0.06104548 0.20825332 -0.04711095
000310 b4 da be 3d 18 d5 e4 3d cc d3 ec 3c a0 21 49 be
       0.09319058 0.11173457 0.028909586 -0.19641733
000320 57 25 c6 bd 9c 5a 17 be 01 92 9c bd 9a 6e ad 3d
       -0.09675091 -0.14780658 -0.076450355 0.08468361
000330 75 ba f9 bd 6e 91 30 3e a7 70 a5 bd 31 bb cc bd
       -0.12193767 0.17242977 -0.08078127 -0.099966414
000340 cf e5 10 3e 66 61 89 be fe e0 06 3e 4e 43 7d bd
       0.14150165 -0.26832122 0.13171765 -0.061831765
000350 ae eb f9 3d 28 f5 8b bd 56 a7 2d be 3e b3 28 be
       0.122031555 -0.06833869 -0.16958365 -0.16474625
000360 88 e3 4b bd b0 b1 46 3e 96 dc 27 3d c8 fb b4 bd
       -0.049777538 0.1940372 0.04098185 -0.08837086
000370 bc 7b 8c 3e a2 f3 c4 bd ba c3 86 bd c6 cc 27 3e
       0.27438152 -0.09616782 -0.06580301 0.16386709
000380 bd f1 3d 3e 88 ef 9c 3d 5d ef 65 bd 25 1b 06 bb
       0.18549247 0.076628745 -0.056136478 -0.0020462957
000390 fc 5d c3 3d ce 29 be 3c 8e ac 26 3d 93 dc 2f be
       0.095394105 0.023213293 0.040691905 -0.17173986
0003a0 b7 2c 53 bd ca 1a 39 bd 7d 15 c3 3d b2 fb 43 be
       -0.051556315 -0.045191564 0.09525583 -0.19138983
0003b0 bf 87 a6 3e f9 6d 08 3e bb 91 49 3d fa a2 28 bd
       0.3252544 0.13323201 0.049211245 -0.04117105
0003c0 15 17 95 3d 7f 43 ee bd 76 0c fc 3d 9a 4c 68 be
       0.07279793 -0.116339676 0.12307064 -0.22685471
0003d0 fa b6 ad 3c 99 3b 95 bd b0 21 62 3e f5 ab 16 3e
       0.021205414 -0.07286758 0.22083163 0.14714034
0003e0 84 68 8b bd 33 8d 4e 3e 34 3d 09 be 5f 5a 4b be
       -0.06807044 0.2017105 -0.13402253 -0.19858693
0003f0 38 8a 54 3e 24 86 00 3e 10 7b 00 be c6 30 97 3c
       0.20755851 0.1255117 -0.12546945 0.018455874

layer2.0.bias f4 [256]
000000 2d 82 16 be e5 91 b9 bd 11 ae c9 3d e3 e6 68 3e
       -0.14698096 -0.0906103 0.09847654 0.22744326
000010 81 a8 77 bd 4c 3e 85 bc 7e a8 4c bd f9 ba 56 be
       -0.060463432 -0.016265057 -0.049965374 -0.20969762
000020 86 75 e7 bd 98 1b 26 bd 47 8a ae bd 2c fc ca 3d
       -0.11301713 -0.04055366 -0.08522468 0.09911379
000030 12 ea bd bd fe 5c 1f 3c 1c d6 64 bd 0e 1d cd bd
       -0.09273161 0.009726761 -0.055868253 -0.10015307
000040 68 ac a6 3d f5 06 50 be 02 76 50 3e 57 4b b9 3d
       0.08138353 -0.20315154 0.20357516 0.09047573
000050 dd 2b be 3e 60 be 09 be 13 e6 47 3d 88 25 14 be
       0.3714284 -0.13451529 0.0488034 -0.14467442
000060 b4 06 7a 3e ec 70 97 be 60 6b 70 bd 98 73 6e bd
       0.2441662 -0.2957834 -0.05869615 -0.058215708
000070 18 90 50 3e 15 fd 56 bb 39 32 62 3e 72 ad 51 3d
       0.20367467 -0.0032804657 0.22089471 0.0511908
000080 52 a3 97 be 44 20 41 bd d1 1d 2f 3e 19 b8 ef 3d
       -0.2961679 -0.04714991 0.17101218 0.11705036
000090 8f b1 2c 3e 31 16 0b 3e 71 46 10 3d eb 97 2c 3d
       0.16864608 0.13582684 0.03522343 0.042137068
0000a0 5a 4c 98 bd 98 b1 27 be 12 06 33 bd 20 16 27 be
       -0.07436438 -0.1637634 -0.04370696 -0.16317034
0000b0 6a 7d 20 3e 83 f8 12 be 63 2b 0e 3e 68 47 19 be
       0.15672842 -0.14352612 0.13883738 -0.14968646
0000c0 e4 29 2d 3e 71 26 a9 3e 4b 2a fe bc 94 d4 9c bd
       0.16910511 0.3303714 -0.031026026 -0.076577336
0000d0 a7 21 21 be a4 36 56 3e da b5 84 be f1 7e 37 be
       -0.15735494 0.20919281 -0.25919992 -0.17919518
0000e0 d0 99 de 3d f2 f2 b3 3d 9a f1 24 be 62 66 76 be
       0.10869181 0.087865725 -0.16107789 -0.24062493
0000f0 6a bc 02 3e c7 56 07 3e ef 0c f2 3d e4 1a e3 3d
       0.12767187 0.13216697 0.11818873 0.11089113
000100 6b ad 42 be 56 01 c8 3d 0d eb 9c 3d 86 96 2e bd
       -0.19011466 0.0976588 0.0766202 -0.04262402
000110 ae 51 03 be 72 40 c5 3d 1c 9f bb bd b4 75 8d 3e
       -0.12824127 0.096314326 -0.09161207 0.27628863
000120 4b 0c 93 3d 8b 92 9a bd 1a a9 85 3e d1 8c 9e 3d
       0.07180079 -0.07547482 0.26105577 0.07741702
000130 99 07 d4 bd 16 68 25 bd 9c 85 95 be db 4d 54 bd
       -0.10353012 -0.040382467 -0.29203498 -0.05183206
000140 82 49 20 bd 15 75 2a bd 65 01 da 3d 1d 87 87 3e
       -0.039132603 -0.041615564 0.10644797 0.2647027
000150 dd 12 67 3e d1 8b 1e 3d 1b 89 28 3e 68 e5 d7 bd
       0.2256579 0.038707558 0.16458552 -0.10541803
000160 98 43 b1 bd 38 23 1e 3e 19 65 c9 bd f7 20 37 be
       -0.086554706 0.15443122 -0.09833736 -0.17883669
000170 e9 c1 ea bd 42 17 d7 bc 84 19 47 3e 9b b0 41 be
       -0.11462767 -0.026256207 0.19443327 -0.18915026
000180 94 fa 2d bd 7e 5e 57 be 80 23 fc bc 12 7c 0b be
       -0.042475298 -0.2103214 -0.030778646 -0.13621548
000190 37 98 f3 bd 91 60 76 be 86 de 94 3e 2a c8 05 be
       -0.11894267 -0.24060275 0.29076022 -0.13064638
0001a0 de 0c f4 3d ca 46 bc 3a e1 e2 96 bd 3a 09 98 bd
       0.11916517 0.0014364359 -0.073674925 -0.07423635
0001b0 aa c2 18 be 66 d0 96 bc 15 d4 89 bd 0c 06 ca 3d
       -0.14918008 -0.018409919 -0.067299046 0.098644346
0001c0 7a dd 88 bd f2 7e 39 3e fb 0f 5e 3e f4 81 a3 bd
       -0.06682868 0.18114832 0.21685784 -0.07983771
0001d0 b9 bf 63 bd 56 3c e1 bd 13 b8 4c 3e 47 23 01 be
       -0.055602763 -0.10997836 0.19992094 -0.12611113
0001e0 e4 ae 2b 3e a2 d4 6d bd cc 2d 1b 3d 56 93 89 3e
       0.16765934 -0.05806411 0.037885472 0.2687022
0001f0 aa 98 a6 3e f2 96 98 be 43 78 36 3d 86 17 11 3e
       0.32538348 -0.29802662 0.044548284 0.1416913
000200 20 bd 83 be 7d b5 ca bc 13 61 55 3d aa 68 b2 bd
       -0.25730228 -0.024744743 0.05209453 -0.08711369
000210 2b 63 62 3e b1 cb dc 3d 3e f4 68 be c6 36 5c 3d
       0.22108142 0.107810386 -0.22749421 0.053763174
000220 03 07 d1 bd 51 36 fb 3d 45 ac 48 3e be d9 44 be
       -0.102064155 0.122662194 0.19596966 -0.19223687
000230 93 51 00 be f3 c8 50 bd df cc 31 be da 44 87 be
       -0.12531118 -0.05097289 -0.17363308 -0.26419717
000240 77 66 a1 3d 46 55 d9 bd a0 c3 65 be 45 41 20 3e
       0.07880872 -0.10611968 -0.22437906 0.15649898
000250 82 46 30 be 4e 4a 31 3e d6 57 94 3c 97 00 1e 3d
       -0.17214397 0.17313501 0.01810829 0.03857478
000260 02 2b 31 be a2 ce d9 3d 34 58 7b 3e 1c b3 86 3e
       -0.17301562 0.10635115 0.24545366 0.26308525
000270 70 0e 49 be 7f ba 3c bd 56 16 6b 3e e4 ee 2e be
       -0.19634414 -0.046076294 0.22957739 -0.17083317
000280 af 94 73 3b 59 a7 9d 3c 96 e6 43 3b ef 80 38 3d
       0.003716748 0.019244837 0.0029892079 0.045044836
000290 a3 97 85 3c 27 78 8d 3e 92 2e c0 bd f8 4c 13 bd
       0.016307658 0.2763073 -0.093838826 -0.035962075
0002a0 34 1a f2 3d 73 b1 2e bd ee 0d eb bd 32 31 cf 3d
       0.11821404 -0.042649698 -0.11477266 0.10116805
0002b0 eb 8e d5 3d e0 cb 80 3d 7c 21 dd 3d 77 34 84 be
       0.1042765 0.06288886 0.10797402 -0.25821277
0002c0 2b 2e f8 3d c0 2c 2c 3d 61 0f b4 bd 89 24 62 3e
       0.12118181 0.042034864 -0.08791996 0.2208425
0002d0 82 9e 39 be f4 c8 15 be 7b 48 9d be 8d f3 92 be
       -0.18126872 -0.14627439 -0.3071936 -0.2870144
0002e0 8d 0a a3 3d af c4 20 3e 06 e4 2e 3e ee d0 8a be
       0.07960997 0.15700029 0.17079172 -0.27112526
0002f0 06 ff dc bd 6c 3c 58 bd 3a fe 13 be dc 60 03 be
       -0.10790829 -0.052791998 -0.14452448 -0.12829918
000300 1c e0 9c bd 6a 45 c3 bb f4 3c 87 bd af 53 25 be
       -0.07659933 -0.0059592025 -0.06603423 -0.16145204
000310 5c 83 84 be 16 dd 95 bd 67 9c 15 bc 95 0a bc 3c
       -0.2588147 -0.073175594 -0.0091315275 0.022954265
000320 a1 92 3c 3e 20 79 e0 bd 20 53 98 3c 4c c2 53 3e
       0.1841531 -0.10960603 0.018594325 0.20679587
000330 7d ae 4c bc c1 69 82 3d 37 a1 f4 bd 2a c6 e5 bb
       -0.012492773 0.06367827 -0.11944812 -0.0070121484
000340 ae 60 dd 3d 39 bf 1d be ef 02 8b bd 78 ba 98 bc
       0.10809456 -0.15404977 -0.06787669 -0.018643603
000350 7f d3 91 bc 0c 42 50 be a9 09 bf 3c 14 f6 a2 bd
       -0.017801045 -0.20337695 0.023320036 -0.07957092
000360 96 47 85 3e c1 f1 79 3e 12 ba 01 3e 1e a0 53 3d
       0.26031178 0.24408628 0.12668636 0.05166637
000370 27 a4 b2 be 77 9e 08 3d 4f 12 55 3e 45 3f 14 bc
       -0.34890863 0.03335425 0.20807765 -0.009048288
000380 43 bd b3 3d 6d ce 0f 3e eb 50 41 3d 55 69 35 3d
       0.08776333 0.14043589 0.04719631 0.044289906
000390 1a fc 88 be 4e e5 83 bd 65 b6 6a 3e 91 be 79 be
       -0.26754838 -0.06440221 0.2292114 -0.24389102
0003a0 c6 17 fd 3d 0e 93 a3 3e 33 de 87 3e 27 ae 8f 3d
       0.1235805 0.3194813 0.26536712 0.07015639
0003b0 6c 3a d6 bd 49 a1 b7 bd 6f e6 2d be 7c ca 34 be
       -0.10460362 -0.089663096 -0.16982435 -0.17655367
0003c0 5d dc 62 3d 33 cc 04 be a0 45 29 be 2a 5a 5e 3e
       0.055385936 -0.12968521 -0.16530466 0.21714082
0003d0 2e e1 5a be 49 60 63 3d f0 77 18 bd ef b1 82 3e
       -0.21374962 0.055511747 -0.037223756 0.25526378
0003e0 85 ef e7 bd 6c 9f 8f bc 34 ca 13 be 58 4d a5 bd
       -0.113249816 -0.017532073 -0.14432603 -0.08071393
0003f0 48 36 a5 bd ad 31 86 be 75 3e 2e 3e b3 e4 ce 3b
       -0.08066994 -0.26209775 0.17016013 0.006313884

layer2.2.weight f4 [256, 256]
000000 45 b2 b0 bd de 32 d3 3d 08 db 9b bd c3 e3 ce 3c
       -0.08627752 0.103124365 -0.07610136 0.02525509
000010 bb ca 3b 3d c3 49 65 bc ca 9d 9b 3d 06 04 87 3c
       0.045847636 -0.013994637 0.07598455 0.01648141
000020 d9 67 5e 3c 60 70 28 bc b3 2e d0 3c 8b b5 de bd
       0.013574564 -0.010280699 0.025412893 -0.1087447
000030 69 fa 78 3d 7d cb 06 bd 84 6a 12 3b 4d 15 41 3b
       0.060785685 -0.032908905 0.002234132 0.002946216
000040 92 3c 51 bd 44 76 6d bd 94 eb 16 bd 3c b2 88 3b
       -0.051083155 -0.057974115 -0.03684576 0.004171638
000050 03 2a 9b bd c9 a6 37 bd 37 eb ca 3d ff 3a dd 3c
       -0.075763725 -0.044836793 0.09908145 0.02700567
000060 57 24 9a 3a 03 01 ff ba f7 84 7d 3d 58 23 d1 bd
       0.0011760098 -0.0019455258 0.061894383 -0.102118194
000070 19 c1 e7 3c 7b 87 cc 3c 03 0b 6b bc 9a 3b 0e 3d
       0.028290318 0.024966946 -0.014345887 0.03472481
000080 2a ae 37 bc d4 dd 05 bd 28 54 df 3c 21 32 d7 3d
       -0.011210958 -0.032682255 0.027261809 0.10507608
000090 af 63 51 bd ee 7a 96 3d 18 c0 b8 3c 33 9c eb 3c
       -0.051120456 0.07347666 0.022552535 0.028761005
0000a0 ad 95 8d bc f7 e5 02 3d 98 9b 39 3c 30 a5 2e bd
       -0.017283285 0.031957593 0.0113286 -0.042638004
0000b0 c6 3c 63 bd d6 4e 2d 3c 63 01 eb bd d1 d1 81 bd
       -0.05547788 0.010577878 -0.11474874 -0.063388474
0000c0 df ff 54 3d c3 86 86 3d 31 2a 0e 3d 90 ad 20 bd
       0.05200183 0.065686725 0.034708206 -0.039228022
0000d0 57 d1 42 3c 94 9e ab bb fb ae e9 3b c6 cd 8a 3c
       0.011890731 -0.00523741 0.007131455 0.016943824
0000e0 13 9a fc bc f9 6c b1 3c fe 4c c4 3c 78 2f 74 bd
       -0.030835187 0.021658408 0.023962494 -0.059615582
0000f0 4e de 9b bc 2a 32 ee bc 1c 2a 65 3d 99 c3 83 bd
       -0.019026902 -0.029076654 0.05594836 -0.06433792
000100 6f 1a cb bc 81 f6 1e 3d 31 cc ec bc 2e bf 03 be
       -0.024792878 0.038809303 -0.02890596 -0.12865898
000110 88 3c 54 bd aa b4 ca bd 2f 33 c2 bd e6 60 70 3d
       -0.05181554 -0.0989774 -0.09482419 0.05868616
000120 ee 51 53 3c ba f7 b8 bd f2 28 15 bc 8a 41 cc 3d
       0.0128979515 -0.09031625 -0.009104 0.09973438
000130 22 b8 df 3c 42 5a 96 3c a2 e8 45 bc b5 42 a8 b9
       0.027309481 0.018353585 -0.01207939 -0.00032093158
000140 cd 48 4f 3b 7b 8e 17 3b cf 92 e4 3c 3d 2f a6 bc
       0.0031629086 0.0023125696 0.027902035 -0.020286197
000150 78 4d b2 bc 5d 84 13 3c af 79 df bd 0b fb 63 bd
       -0.021765456 0.009003726 -0.10911881 -0.055659335
000160 15 33 eb bc ac 9d be 3d 0b 54 8c bd 28 4d 55 3d
       -0.028710881 0.09307417 -0.068519674 0.052075535
000170 a4 82 f8 bd 73 21 ae bd c8 3a 3a bc b7 76 c3 bd
       -0.12134293 -0.08502474 -0.011366554 -0.095441274
000180 e6 ee d6 bd be 20 af 3d 2e b8 0b 3e d5 3e 3a bd
       -0.10494785 0.08551167 0.13644478 -0.045470078
000190 33 24 be bd e5 c7 d6 bd c1 6b d3 bc 08 e0 e6 bc
       -0.09284248 -0.104873456 -0.025808217 -0.028182998
0001a0 c2 53 d8 3c 01 5f c3 bd dd 02 36 bd 7e ff d3 bc
       0.026407126 -0.09539605 -0.044436324 -0.025878664
0001b0 c2 fd 34 bd 86 6e 47 3c 30 f7 11 3d b9 ba 71 3c
       -0.044187315 0.012172347 0.035636127 0.014753991
0001c0 89 48 27 bd 46 83 99 3d b9 85 c9 3d 72 c0 1e bd
       -0.04084066 0.074957415 0.09839959 -0.03875775
0001d0 6f 8a dc 3c de a2 db 3b 1e f2 95 bc 48 57 b8 3d
       0.026921479 0.006702765 -0.018303927 0.090010226
0001e0 32 be 67 3d 6f b6 78 3a f3 a8 ed bb 59 b2 a6 3d
       0.05657787 0.0009487634 -0.0072528063 0.08139486
0001f0 3c d9 65 3c 58 82 75 bd ab 14 bb 3d ff 51 a2 3b
       0.0140288435 -0.05993876 0.091348015 0.0049536224
000200 60 88 ba 3d c1 c7 13 3c 45 5a 89 bd a5 58 eb bc
       0.09108043 0.009019793 -0.06706671 -0.028728792
000210 d8 01 a1 3d 55 30 29 bd d2 b6 e3 3c 3c e7 c0 3c
       0.0786168 -0.04130586 0.027797136 0.023547761
000220 40 23 c0 3d 77 82 77 3c 78 b7 f0 bc 1d 1a 94 3d
       0.093817234 0.015106789 -0.02938436 0.07231543
000230 e9 75 e2 3c 52 62 9c bc 73 8c 52 bd b0 77 e5 ba
       0.027644115 -0.019089852 -0.051403474 -0.0017506983
000240 c7 78 6f bd b0 5e f5 3c 5b 62 cd bc b4 73 d5 bc
       -0.05846479 0.029952377 -0.025071314 -0.026056148
000250 b9 ff 5e bc 8a 82 b1 3d 5d 4f f0 bd 1a 14 db 3d
       -0.013610774 0.086674765 -0.11733887 0.106971934
000260 ea d9 19 3d 5f c7 32 bd 8c 3f ac 3d 35 04 d9 3b
       0.037561335 -0.043647166 0.08410558 0.006622816
000270 b2 be 06 bd f9 03 5b bd da 1b 31 3d 4c ad 0d be
       -0.032896705 -0.053470585 0.043239452 -0.13835639
000280 7b 01 d8 3c 30 75 d3 3c 97 f8 e7 3c f6 41 bc 3d
       0.026367893 0.025812715 0.028316779 0.091922686
000290 ba 38 dd bd 7d 40 92 bc 18 0c df bb 70 b2 f6 bc
       -0.10801835 -0.017853016 -0.0068068616 -0.030114383
0002a0 e1 6e f5 3d 60 0e c4 3b 8b 8d 6f 3d 82 a8 6e 3c
       0.11984039 0.005983159 0.058484595 0.014566543
0002b0 f2 12 18 3d 7c bf 74 bc 21 62 9d 3d b5 1b 73 bc
       0.037127443 -0.014938232 0.07684732 -0.014838149
0002c0 84 47 5f bd 54 d6 73 3c 69 14 3f bb b6 34 22 bd
       -0.054511562 0.014882643 -0.0029156453 -0.03960105
0002d0 b4 a4 be bc 8d ba dc bc ad 11 d2 bc a2 12 c5 bd
       -0.023271896 -0.026944423 -0.025643194 -0.096226946
0002e0 8e 79 bb bc d4 db cc 3c 3f 7b bd 3d d6 1e 8e 3c
       -0.02288511 0.025007166 0.09252023 0.017348688
0002f0 5a 02 d7 bd ed e9 a2 3d fd 5a e8 bd e1 44 ad bd
       -0.104984954 0.07954774 -0.1134548 -0.08460403
000300 8e b0 02 bd 7f 2b b3 bc 0b a7 1c 3d 7b b6 46 bd
       -0.031906657 -0.021871326 0.038245242 -0.04851387
000310 bf 38 3e 3b 07 ee 9c 3c c5 ce b1 3c fb 71 2d bd
       0.0029025523 0.019156469 0.02170504 -0.04234503
000320 9f 89 0f bc 94 cb 2b 3d 99 43 c4 bd 6c 75 87 3d
       -0.008760839 0.041942194 -0.09583206 0.06614193
000330 1f 8f 8a bd 28 e5 bd bc 59 31 2d bc 6a 74 8a bd
       -0.067655794 -0.02318056 -0.010570847 -0.067604855
000340 ed 8d df 3c b8 d5 9f bc de 13 48 bd 0f ee 05 3c
       0.027289355 -0.019511089 -0.04884707 0.008174433
000350 90 81 51 bd 7f 44 60 3c 0d d3 a2 bd c7 f4 1f 3d
       -0.05114895 0.013688206 -0.07950411 0.039051797
000360 21 e0 ee 39 9c 1f 57 bc 63 e8 bb bb 5d c3 4c 3c
       0.00045561887 -0.013130095 -0.0057344898 0.01249775
000370 30 f5 4d bc 68 e2 d9 bd 4e 15 4f 3d 72 4b 51 3c
       -0.012570664 -0.10638887 0.050557427 0.012774335
000380 55 35 2d bc bb c1 02 3d 63 4d 68 3d 07 82 1d bd
       -0.010571797 0.031923037 0.056714427 -0.038454082
000390 71 34 58 bc c3 a1 ac 3d 6e e9 81 bc 76 36 65 3d
       -0.013196097 0.08429291 -0.015858378 0.05596014
0003a0 cb b9 22 3d 34 be 93 bd 41 9d 91 3d 3c 98 eb bb
       0.039727967 -0.07214013 0.07110072 -0.0071897786
0003b0 cf 2f cd 3c 9f c8 81 3c 52 51 be bd 2c a9 65 bd
       0.025047211 0.015842734 -0.09292854 -0.056069538
0003c0 79 43 12 3d 14 2f 70 bd 5c 20 a2 bd 0f 96 67 3d
       0.03570888 -0.058638647 -0.07916328 0.05653959
0003d0 5b 4b d5 3d 57 60 4a bd 15 c7 83 ba 7d 12 87 3d
       0.104147635 -0.049408283 -0.0010053838 0.06595323
0003e0 69 88 d7 bc 8e c3 bf bc ec 37 63 bd 75 63 09 3d
       -0.026310163 -0.023408677 -0.055473253 0.033542115
0003f0 61 c2 3b 3d fd eb 13 3d f7 da 60 3d 4b bd 05 bd
       0.04583967 0.036113728 0.05489632 -0.032651227

layer2.2.bias f4 [256]
000000 19 95 d5 bc dd fc 72 3c 55 4c 77 3d 1a 41 cb bc
       -0.026072072 0.014830795 0.06037553 -0.024811316
000010 19 24 d3 bc 61 11 8a ba 35 16 51 bd e6 cc 61 3d
       -0.025774049 -0.0010533744 -0.05104657 0.055127047
000020 da 9e 4b 3d 36 9a 1c 3e ad 58 d2 3c 8a 00 38 3d
       0.04971204 0.15293202 0.02567705 0.04492239
000030 72 9f 7c bd a0 f7 a1 3c aa e2 87 3c e5 25 d4 3d
       -0.061675496 0.019771397 0.016587574 0.1035879
000040 51 67 f2 bc fe 47 9a bd 3d 5d ea bd 0e 41 87 bc
       -0.02959028 -0.07533263 -0.11443565 -0.016510513
000050 fd b8 9a bb 6b 0f 97 bd 00 0c 1d bd b5 f4 6a bd
       -0.0047217594 -0.073759876 -0.038341522 -0.057362277
000060 5c 12 0e 3d 4a f5 98 bd 33 5c 4b 3d d0 39 56 3d
       0.034685478 -0.0746866 0.049648475 0.052301228
000070 6e 9d bb 3c f9 13 33 bd be 2d cd 3d 1a fd 0e bd
       0.022902217 -0.04372022 0.1001849 -0.034909345
000080 76 f7 1d bc f7 17 9d bc 37 d4 91 3d 9d 75 9f 3d
       -0.009641519 -0.019176466 0.07120555 0.07786105
000090 54 dd 9f 3c 38 0e da bb f8 55 6f 3d 49 5a fe bc
       0.019514717 -0.006654527 0.058431596 -0.03104891
0000a0 e4 4d 23 bd 0d 68 51 3d a1 18 8a 3c 4f 36 23 bc
       -0.039869204 0.05112462 0.016857447 -0.009961679
0000b0 a9 ff c2 3b 89 72 46 bc 0d 3f 86 bd 6c 3b 16 bd
       0.005950887 -0.012112268 -0.06554995 -0.036677763
0000c0 f3 ea ae bd fb 15 5c bd 75 31 73 bb 7a 96 8a 3d
       -0.08540907 -0.0537319 -0.0037108336 0.067669824
0000d0 35 89 a2 bc 8e db 0d bc 89 7b ed 3d c7 22 2a 3d
       -0.019840816 -0.008658303 0.11595828 0.041537073
0000e0 1c c6 bd 3c 33 a6 6b 3c 83 38 8b bd 8f 4b f9 bd
       0.023165755 0.014382887 -0.06797888 -0.12172615
0000f0 1b 39 91 3d 44 97 91 3a 44 35 b5 3d d4 c3 54 3d
       0.0709097 0.0011107703 0.0884805 0.05194457
000100 d7 af 29 3d fb ad 55 bd d7 1a 2b bd 2e 44 d3 bd
       0.04142746 -0.052167874 -0.041773643 -0.103157386
000110 8d cf e2 bd 29 ab 5f bd ea f4 ba 3c 12 a2 1e bd
       -0.110747434 -0.05460659 0.022821862 -0.03872878
000120 e5 fc 0f bd e1 f1 49 bd 3b 87 0f 3c 51 27 87 bd
       -0.03515329 -0.04930294 0.008760269 -0.06599296
000130 ef da 1b bb 49 d0 71 bb 01 e4 88 bd 78 22 a6 3d
       -0.0023781618 -0.003689783 -0.06684113 0.08112043
000140 12 b6 1a 3e c6 93 e3 bd f9 6d 27 bd f0 26 3d 3d
       0.15108517 -0.1111217 -0.040876362 0.04617971
000150 e4 65 41 bc 66 b3 75 bd a1 b4 a4 bc 9c 4b 1a 3b
       -0.011804078 -0.05998554 -0.020105662 0.0023543602
000160 e6 dd 86 3c b7 b0 56 3d 13 cb 0b bd 4c 4e 14 3c
       0.016463231 0.052414622 -0.034129214 0.009051871
000170 f3 24 35 bd 86 89 90 bd c8 f3 d2 3c a0 6f 12 bd
       -0.04422469 -0.070574805 0.02575101 -0.035750985
000180 81 b8 07 3e e3 82 8a bd 6c 37 74 3d cd 49 0b bd
       0.13253976 -0.06763246 0.059623167 -0.03400593
000190 37 7e 09 3d bc 30 1d bd 3e a5 40 bc b2 9e 2c bc
       0.033567633 -0.038376555 -0.011758147 -0.010535883
0001a0 e3 0e a5 bc 5a 1f 57 3d 79 10 c7 bd 9c 51 05 3c
       -0.0201487 0.052520134 -0.09719939 0.008137133
0001b0 7b b5 89 3d c1 e9 7e 3d b6 ce be 3d 8d 10 c0 3c
       0.06724068 0.062234644 0.09316771 0.023445392
0001c0 2c 3c 2e 3d 09 b5 85 3c c6 56 9e bd b3 22 81 bc
       0.042537853 0.016321676 -0.077313945 -0.015763616
0001d0 83 28 3f bd eb 63 23 3d bb 44 89 bc 8c 76 27 bd
       -0.046669494 0.03989021 -0.016756406 -0.04088454
0001e0 77 2e 1d bd fc 7c 98 bd 3b e1 65 3d 43 28 ff bb
       -0.03837439 -0.07445714 0.056123 -0.007786782
0001f0 31 0e 2c 3c 9f a5 fe bc 01 b1 cb bd 46 c5 3d 3c
       0.01050143 -0.031084834 -0.0994587 0.011582678
000200 fc ac 80 bd a2 32 b1 bd 95 9b 0e 3d 26 c9 89 3d
       -0.06282994 -0.086522356 0.034816343 0.06727819
000210 83 a2 ce 3d 36 66 14 3d cf cf 89 bd f1 25 8d 3b
       0.100895904 0.03623029 -0.067290895 0.0043075015
000220 08 6e de 3d dd 54 7a bd 26 3f 6d bd 8c 75 f3 3c
       0.108608305 -0.06111609 -0.05792155 0.029719137
000230 89 27 82 bc 44 a5 07 bd 92 f2 e0 bd b9 1a 64 bc
       -0.015887992 -0.033116594 -0.109837666 -0.013922387
000240 69 bc 9f bc d8 73 e7 bb 80 cd 1f bd ce c0 54 3d
       -0.01949902 -0.00706337 -0.03901434 0.051941685
000250 51 fa 47 bd b5 59 99 bd 3c bb 8a 3b f8 6e 9c bc
       -0.048822705 -0.074878134 0.004233746 -0.019095883
000260 4e da 82 bd 8b 89 28 3d 0f b8 d2 bd f9 e4 0f 3d
       -0.063892946 0.041146796 -0.10289013 0.035130475
000270 46 ce d3 3c f1 b3 89 bb a3 34 59 bc 43 ed 8a 3c
       0.025855195 -0.004202359 -0.0132571785 0.016958838
000280 2f cc 50 3d f0 a2 fd 3b 41 7c d0 3c 46 36 83 bd
       0.050975975 0.007740371 0.025449874 -0.06406836
000290 19 8f 87 3c 15 09 6d bd 33 f7 98 3d 34 88 89 3b
       0.016547726 -0.05786999 0.074690245 0.004197145
0002a0 95 d6 46 bd 4e 59 b1 bd 7a e1 b5 bc 7c 8b c1 bc
       -0.048544485 -0.08659612 -0.022202242 -0.023626082
0002b0 82 9c 57 3d d8 e5 bb 3c 07 60 17 bd ae a9 dc bc
       0.05263949 0.022936746 -0.036956813 -0.026936378
0002c0 3e 6c be 3c 40 14 52 bc 03 2d 3f 3d 47 7c 9d bd
       0.023244973 -0.012822211 0.046673786 -0.0768972
0002d0 af 4c fb 3c 23 d0 d1 bd 48 b8 88 bd 31 81 9a 3d
       0.030676214 -0.10244777 -0.06675774 0.075441726
0002e0 ad 18 08 bc 3b 15 d4 3d ba 19 aa bd ae 28 1c 3d
       -0.008306664 0.10355612 -0.08305688 0.038124733
0002f0 7b 9d 0a bd f3 26 9f 3c d1 48 f0 bb 4b 37 4d bd
       -0.03384159 0.019427752 -0.007332899 -0.05010156
000300 34 52 7f 3d 38 23 8a bd b0 1c 4e 3d 28 7b 79 3d
       0.062334254 -0.06744999 0.050320327 0.060908467
000310 c2 1f 0f 3d c5 42 3a bb 7d 7a 20 bd 90 4a ee bc
       0.034942396 -0.0028421145 -0.039179314 -0.029088289
000320 3a 0b 1d 3e 85 0d 02 3b 85 15 ec bd 19 06 b1 bc
       0.15336314 0.0019844484 -0.11527542 -0.021609353
000330 50 5a 57 3d 16 7f 98 bd 46 84 76 bd 78 5b 24 3c
       0.052576363 -0.07446115 -0.06018474 0.0100315735
000340 82 c9 88 3c 54 49 59 ba 0f 64 e3 bd 26 e3 0e bc
       0.016697649 -0.000828882 -0.11103069 -0.008721149
000350 53 46 f4 3c a3 c4 f9 3c a1 b6 02 3d 27 d2 33 3d
       0.02981869 0.030489272 0.03191245 0.04390159
000360 1c 27 fd 3c 04 46 21 bc 66 47 55 ba 1e eb b9 3c
       0.030902438 -0.009843353 -0.00081359444 0.02269512
000370 9e 73 2f 3d 33 e5 3e 3d 88 2c c0 3c 0c 2f b0 bc
       0.04283487 0.0466053 0.023458734 -0.021506809
000380 85 d1 09 bd 90 d4 7f bb a5 ab a2 bc 28 cf 5b 3d
       -0.03364708 -0.003903661 -0.019857237 0.053664356
000390 d2 64 e5 ba d2 15 2c bd 21 fc e6 bc 7e 9b db bc
       -0.001750136 -0.042012997 -0.028196396 -0.026807543
0003a0 00 fd a4 3c e0 bf 99 bd 30 5d e1 ba f1 c5 9e bc
       0.020140171 -0.075073004 -0.001719391 -0.019381495
0003b0 30 26 c5 3d 6c e9 30 3d ab 2c c7 bc 5f 9e d0 3b
       0.09626424 0.04319136 -0.024313292 0.0063665356
0003c0 2a b8 05 bd 51 a5 3e bd 54 00 19 bd f9 8a 80 3d
       -0.032646336 -0.046544377 -0.03735383 0.06276507
0003d0 00 21 d9 3d 96 e9 0f 3d 57 d3 a5 3b 4d 53 81 3c
       0.106019974 0.035134874 0.005060594 0.015786791
0003e0 67 0f ed bd 32 d2 22 bd 8e 28 11 bd a5 e0 9a 3d
       -0.115752034 -0.03975124 -0.035439067 0.07562379
0003f0 02 93 55 bd 44 50 47 3d b0 40 5b 3c 5b 54 6f bd
       -0.05214215 0.04866053 0.013382122 -0.058430057

layer2.4.weight f4 [10, 256]
000000 a2 4d 85 3d 29 5d dc 3b 7e 4c c9 bd ea 03 91 3c
       0.06508948 0.0067249727 -0.09829043 0.017702062
000010 44 50 85 bc 48 63 dc bd 72 aa 85 bd 8c 96 55 bd
       -0.016273625 -0.10761124 -0.065266505 -0.052145526
000020 37 ca 26 3a ca 20 27 3d 8e 4f 01 bd 25 1c 07 3d
       0.000636253 0.040802754 -0.03157001 0.032985825
000030 ca cb 48 3d fc fa 29 bd 99 ca 86 bc a7 4e 1d bd
       0.049022473 -0.041499123 -0.016454028 -0.038405087
000040 54 a5 53 3d b9 c7 93 bd 20 44 2a bc 74 fc a2 3d
       0.05167134 -0.072158284 -0.010392219 0.07958308
000050 d5 9c 5f 3d 30 d2 41 3c 5f 67 01 bd 75 61 ec 3c
       0.054592926 0.011829898 -0.031592723 0.028855065
000060 ab 2e fe bc e6 88 58 3d a2 7b 1c 3b 63 8e 82 bd
       -0.031028112 0.05286493 0.0023877402 -0.06374814
000070 64 6d 8f 3d 18 94 41 bb 16 df bd bd 07 ec ad 3c
       0.070032865 -0.0029537734 -0.09271066 0.02123071
000080 bc f0 0c bc 95 4c 23 bd 34 55 29 bd 62 3a b7 bd
       -0.008602317 -0.039867956 -0.04134102 -0.089466825
000090 62 15 05 bd 9a 16 81 3a a2 ff 11 bd cc 05 38 bd
       -0.032491095 0.0009848655 -0.03564418 -0.044927403
0000a0 64 bb fb 3a 0f 6c 0a 3c 4d c2 9a bc 52 34 99 bd
       0.0019205627 0.008448615 -0.018891478 -0.074806824
0000b0 01 7e 35 bd ac 5e a3 3d 29 2b f4 3c 67 8c 96 3c
       -0.04430962 0.079770416 0.029805737 0.018377496
0000c0 56 b3 ad ba b8 c9 ea 3c c8 6e 89 bb 3f aa 48 3d
       -0.0013252299 0.02866064 -0.0041941144 0.048990484
0000d0 f2 48 88 bd c9 47 99 3c e1 90 8a 3d 46 03 97 3b
       -0.06654538 0.018710988 0.06765915 0.0046085445
0000e0 35 2a f2 3c 86 ce d1 3b 57 f2 31 bc d0 9c 46 3d
       0.029561142 0.0064027933 -0.010861001 0.04848939
0000f0 d0 ae 00 3c 55 cd bc 3d 67 91 ed 3b c4 77 fc bc
       0.007854179 0.092188515 0.0072499993 -0.030818827
000100 2e fc 6b bd 76 0a 97 bd 97 ad 7c bc 95 c2 0c 3d
       -0.057613544 -0.07375042 -0.015422246 0.034365255
000110 de 01 e6 bc 7a 9a d7 3c c9 8c 13 3d 1c 1b 63 bd
       -0.028077062 0.026318777 0.036022935 -0.055445775
000120 4f c5 85 3c 53 3f bb 3c 21 ef b9 3c 1e e8 a6 3c
       0.016329436 0.022857344 0.022697033 0.020374354
000130 1f 12 00 3d a2 6e ba bc 35 ca c7 3c 24 92 10 bd
       0.03126728 -0.022757832 0.024388412 -0.03529562
000140 8b 26 e3 bd c5 dc e4 3c f9 a1 b9 bc 8a 71 47 bb
       -0.11091336 0.027937302 -0.022660242 -0.0030432665
000150 f2 6b 83 bd 86 c2 ac bc cf b6 9a bd 2d ba 0c bd
       -0.06417073 -0.02108885 -0.07554399 -0.03435724
000160 eb 5b 93 bc 15 20 25 3c 95 70 f0 bc ad 47 55 bc
       -0.017988166 0.01007845 -0.029350558 -0.013017577
000170 79 fa 01 3d 46 f4 d2 bc c0 b0 76 bc f3 03 47 bd
       0.03173301 -0.025751244 -0.015056789 -0.04858775
000180 c4 76 92 3c 1d 4d 65 3d fd e1 56 3d 68 0f 86 3d
       0.017878897 0.055981744 0.052461613 0.06545907
000190 60 57 4b 3d e3 79 d3 bc 86 e1 87 bd 32 39 ac 39
       0.049643874 -0.025814956 -0.06634812 0.0003284901
0001a0 82 3a 9f bc 06 1d 6a 3d 73 8e b5 3d 91 c6 6d bd
       -0.019437078 0.057156585 0.08865061 -0.058050696
0001b0 10 a3 1b bd c9 38 a7 ba a9 2f 63 ba 6e 58 1c 3d
       -0.037997305 -0.0012758012 -0.0008666465 0.03817027
0001c0 a1 cb b9 3c 16 a6 00 bd 74 3f bb bc 7e ff 83 bc
       0.022680106 -0.031408392 -0.022857405 -0.01611304
0001d0 a0 9e 62 3d af c5 89 bd 1a 84 0e 3d ba d3 9a bc
       0.055327058 -0.06727158 0.03479395 -0.018899787
0001e0 a2 58 09 bd c8 b4 dd 3d 1c aa 6c 3d 4b a4 db bb
       -0.033531792 0.10825497 0.057779416 -0.006702935
0001f0 71 eb 95 3d f2 ef 11 3c 68 d3 82 39 a3 0e 26 3d
       0.073202975 0.008907305 0.00024953042 0.040541302
000200 26 8b 88 3c ac 2d 56 bc 6c d8 fc bc 32 d3 ff 3c
       0.016667914 -0.013072412 -0.030864917 0.031228635
000210 db d9 c3 bc f9 d7 9f bc 36 ec 7d 3d 0f 04 b7 3c
       -0.023907593 -0.019512163 0.061992846 0.022340802
000220 ae 5d 36 bd ff 72 78 bd b0 f4 19 3e 21 f7 1e bd
       -0.044522934 -0.060656544 0.15034747 -0.0388099
000230 24 9a 81 3d a5 3a 20 3d d0 2b 83 3c b5 84 04 bd
       0.06328228 0.039118428 0.016012102 -0.03235312
000240 b3 ba be bc 9b ec 00 be f9 02 bf 3d 86 ba 23 3c
       -0.023282384 -0.12590258 0.09326739 0.009993201
000250 d8 0a 34 bc 21 c0 2c 3d e2 0d a4 3b 95 da 99 3c
       -0.0109889135 0.042175416 0.005006538 0.018780986
000260 74 85 c7 3b d3 d3 46 3d ae df 8c 3d 1a bf bb 3a
       0.006088907 0.048541855 0.06878601 0.001432392
000270 cb c8 53 bd 32 5b a2 3c c7 63 0c bb 2f 18 1d bd
       -0.051705163 0.019818876 -0.0021421777 -0.03835314
000280 1d aa bc bb 8c 46 09 be 1d 13 d6 bd 59 1a 35 bc
       -0.005757584 -0.13405818 -0.10452864 -0.011053645
000290 5b d9 d8 bc f9 84 b5 3d 96 a0 e0 bb e1 29 58 3a
       -0.02647083 0.08863253 -0.006855081 0.00082459865
0002a0 92 61 b8 39 f1 c9 5c 3c 8e 0b 04 3d 77 00 84 bb
       0.0003516791 0.013475881 0.032237582 -0.0040283757
0002b0 39 fb b5 3c 39 c2 d2 3c ff f4 d9 bc 66 6b 91 3d
       0.022214519 0.025727378 -0.026606081 0.07100563
0002c0 2c 8d dc 3c b0 ab e6 3b 28 c7 d5 bc 56 1b 5f 3d
       0.026922785 0.0070395097 -0.026095942 0.05446943
0002d0 34 88 a8 bc 73 09 22 3d 57 27 d3 3d f7 92 e3 bd
       -0.02057276 0.039559793 0.10310238 -0.11112016
0002e0 f7 8e 93 bc 64 68 e4 bc 07 cb dc 3c 1d ed d0 bc
       -0.018012507 -0.027881809 0.02695228 -0.02550369
0002f0 72 c3 4c bd 32 b1 de 3c 5f 5c 76 3b e2 db fe 3c
       -0.04999108 0.027184103 0.0037591679 0.031110708
000300 d0 8f 80 3d ed a1 b0 3c 3a f0 a4 3c 4c 4f b3 ba
       0.0627743 0.021561587 0.02013408 -0.0013680249
000310 82 a5 83 bc 20 1d b7 bc e1 91 a4 bc fc ab 47 bd
       -0.016070131 -0.022352755 -0.020089092 -0.048748
000320 5a 40 c2 3c 97 b3 76 bc 4e 20 22 3d ec a8 77 3d
       0.023712326 -0.015057466 0.03958159 0.06046383
000330 1c 65 1e 3c f4 5b 54 3d 98 9d da 3c 27 bd 1d 3d
       0.009667661 0.051845506 0.026686475 0.038510468
000340 1c b1 91 bc 95 c4 b4 3c df 56 19 3d 71 fe 64 3c
       -0.017784648 0.022066394 0.037436362 0.013976679
000350 78 d2 70 bc be 69 95 3c f2 a7 92 bc b1 c4 64 3c
       -0.014698617 0.018238898 -0.017902348 0.0139629105
000360 ba e6 a5 3d e8 3c 19 3c a1 5e 47 3d e1 62 52 bd
       0.08100648 0.0093529 0.04867423 -0.05136383
000370 ca 56 5c 3d d2 56 ef 3c 60 8b 72 3c 9c 47 d9 bb
       0.053793706 0.029216204 0.014803737 -0.006630851
000380 2b 47 27 bd d9 13 78 3d 25 5b 67 3d 14 08 fc bd
       -0.040839355 0.060565803 0.056483407 -0.12306228
000390 33 77 d8 bd 85 98 2f 3d 74 14 c6 3c 04 f8 b7 3b
       -0.105696104 0.042870063 0.024179675 0.0056142826
0003a0 3f 70 02 3d d8 52 ab 3c 40 b8 22 3d e1 30 67 bd
       0.031845327 0.020913526 0.039726496 -0.0564431
0003b0 31 dc 03 bd 12 88 0d 3c d0 7a 74 bd 55 d1 04 bc
       -0.032192413 0.008638399 -0.059687436 -0.008106549
0003c0 15 0e 96 3d 22 68 17 bc 63 0a e4 bc 9d 25 59 bc
       0.07326905 -0.009241136 -0.027836984 -0.013253597
0003d0 04 e1 86 3b 40 01 a4 bc 6d 1d 8f 3d 56 98 30 3d
       0.0041161794 -0.020020127 0.069880344 0.04311403
0003e0 b5 25 e5 3c 1a ff e8 3d 27 5c 32 bd 1b 53 83 bb
       0.027972082 0.11376782 -0.043544915 -0.0040077097
0003f0 72 b0 b0 3d 05 02 82 bd 0d cc 57 3c 9c 51 58 3c
       0.08627404 -0.063480414 0.013171208 0.013203051

layer2.4.bias f4 [10]
000000 9e 3d 70 bd e5 e5 ab bd a0 f4 11 be 5b 99 d9 bd
       -0.058652513 -0.08393458 -0.14253473 -0.10624953
000010 62 49 20 be 6b 36 a1 bc 80 f6 18 be d3 63 af 3c
       -0.15652993 -0.019679269 -0.14937782 0.021409905
000020 48 2e 3e bd 26 6d 6e bd
       -0.046430856 -0.05820956
