python_files/Results/helpdesk/BackUp/EventPredictor_parameters_helpdesk_laplacianOnBinary_0.001_run0.pt (torch, 296183 bytes, 9 tensors)

layer1.bias f4 [9]
0.0 0.0 0.0 0.0 0.0 0.0 0.0 0.0
0.0
00000000: 0000 0000 0000 0000 0000 0000 0000 0000
00000010: 0000 0000 0000 0000 0000 0000 0000 0000
00000020: 0000 0000

layer1.W f4 [4, 2]
-1.3364931 0.9542359 -3.3403296 -0.7803802 -0.7506232 -0.054524247 0.28474292 -0.17702365
00000000: 3512 abbf ce48 743f f6c7 55c0 ffc6 47bf
00000010: d828 40bf d154 5fbd d3c9 913e b045 35be

layer1.a f4 [4, 1]
5.133643 -1.2397405 5.133643 -1.2397405
00000000: ce46 a440 d1af 9ebf ce46 a440 d1af 9ebf

layer2.0.weight f4 [256, 18]
-0.40719298 -0.8731943 -0.7776327 -0.7132772 -0.6993416 -0.66422457 -0.8257805 -0.68253064
-0.8616126 -0.7608195 -0.4561592 -0.66575176 -0.8012114 -0.727918 -0.48381034 -0.6568214
-0.529874 -0.64169437 -0.26896703 0.18353118 0.26247486 0.3503944 0.04575047 0.2466637
0.14123945 0.12140795 0.5468101 0.28670397 0.35728717 0.1256663 0.559165 0.4799681
0.8047384 0.62305003 0.13162422 0.50243497 -0.0028130435 0.12396515 0.08633444 0.07375934
0.19844171 0.033406973 0.20119871 0.034996096 0.03290865 -0.081409596 0.14530869 -0.039633747
0.26738074 0.14596719 0.0707255 0.15271473 -0.021942543 0.22951375 0.8428921 -0.45397812
1.1800838 -0.3687316 1.2614772 -0.22401956 0.9695093 -0.5352239 0.93592876 -0.2715426
1.4537287 -0.5762067 0.9853388 -0.4711894 1.289508 -0.62266415 1.2353839 -0.72447914
0.07872647 0.5482944 0.6899168 0.9027319 0.5751616 0.81009007 0.711518 0.89003
0.41088337 0.55824697 0.53377175 0.76749164 0.7247804 0.90238035 1.0456101 1.0757824
0.7378884 0.616424 0.12846673 -0.35194677 0.06937103 -0.093683645 -0.12031041 0.017869823
-0.09394462 0.07395357 0.08631593 -0.20797364 0.03629384 0.28351343 -0.078363284 0.06767757
-0.5540282 -0.08432949 -0.35502005 -0.14425062 0.45114112 0.054331187 0.37268615 -0.3169477
-0.17575422 -0.460488 0.2927095 -0.32543117 -0.038570262 0.017541781 0.11032836 -0.39567846
0.13640195 0.04837175 0.4810213 -0.47452006 0.014654476 -0.18833683 -0.12710294 0.15570346
0.11400311 0.75306803 0.038638834 0.42036903 0.15794699 0.61581963 -0.10333649 0.65376884
0.37408406 1.1976551 0.08783468 0.83704823 -0.35433877 0.4882505 0.019723538 0.3105349
0.4283836 0.2555079 0.35863215 0.36478287 0.5794148 0.5000856 0.4681002 0.33736435
0.6061558 0.3401209 0.5526745 0.3979538 0.65830404 0.19239868 0.4273896 0.13712616
0.44596323 0.46954632 0.060113512 0.6677596 -0.027310608 0.63973266 0.06120434 0.34106413
0.08476535 0.4042731 0.09906239 0.5882681 0.38275146 0.82305104 0.05874852 0.48011935
-0.23122056 0.5323373 0.039300833 0.29675585 -0.018408475 -0.6351753 -0.057891827 0.039783936
-0.13820833 -0.3941427 -0.11219391 -0.37658703 0.07169601 0.010315517 -0.27946064 -0.10031491
0.020092908 -0.22295304 0.06336267 -0.24081689 -0.34217948 -0.052207388 -0.22727689 1.6144564
0.20156594 0.7289708 -0.024698157 0.5734878 0.021064542 0.7169109 0.24292026 0.8677129
0.015055579 0.48865744 -0.07576445 0.57754093 0.46827683 0.7605626 -0.11888039 0.58954245
0.37093312 0.37090483 0.003991569 0.12503149 -0.077699944 -0.0033309392 -0.1032811 -0.03712515
0.14650212 0.009078635 -0.09956828 -0.16003034 -0.13521928 0.08494211 0.24103247 0.07424186
0.20624347 0.02879148 -0.14515147 -0.43990743 0.030301072 0.20241281 0.2956544 0.20917334
0.38829464 -0.0007798321 0.04921844 0.21773225 0.5940703 0.1868345 0.36626446 0.14707135
-0.2442782 0.15472211 -0.04716005 0.09665431 0.5059045 0.39048615 0.0139337005 0.7005277
00000000: 997b d0be a989 5fbf f012 47bf 5699 36bf
00000010: 0d08 33bf 9f0a 2abf 5a66 53bf 54ba 2ebf
00000020: a592 5cbf 11c5 42bf b38d e9be b56e 2abf
00000030: 311c 4dbf d658 3abf fdb5 f7be 7325 28bf
00000040: d3a5 07bf 1546 24bf 0cb6 89be 99ef 3b3e
00000050: 1b63 863e e566 b33e d864 3b3d 6995 7c3e
00000060: 13a1 103e bba4 f83d bffb 0b3f ddca 923e
00000070: 58ee b63e abae 003e 7025 0f3f 61be f53e
00000080: 5603 4e3f 3580 1f3f 80c8 063e 949f 003f
00000090: 0a5b 38bb 71e1 fd3d 1cd0 b03d 230f 973d
000000a0: 4e34 4b3e c0d5 083d 0907 4e3e 1158 0f3d
000000b0: 38cb 063d 13ba a6bd cdcb 143e ff56 22bd
000000c0: 21e6 883e 6c78 153e 88d8 903d 4061 1c3e
000000d0: d9c0 b3bc a705 6b3e c7c7 573f d26f e8be
000000e0: fc0c 973f 63ca bcbe 1678 a13f 6265 65be
000000f0: c331 783f 6f04 09bf 0799 6f3f a207 8bbe
00000100: c813 ba3f 4882 13bf 2a3f 7c3f bd3f f1be
00000110: 990e a53f eb66 1fbf 0f21 9e3f 7777 39bf
00000120: 583b a13d 065d 0c3f 639e 303f 7019 673f
00000130: ca3d 133f 1062 4f3f 0b26 363f 02d9 633f
00000140: 4e5f d23e 46e9 0e3f 44a5 083f 557a 443f
00000150: 358b 393f 6602 673f 8dd6 853f 3db3 893f
00000160: 41e6 3c3f f7cd 1d3f c88c 033e 5e32 b4be
00000170: 6612 8e3d 36dd bfbd 4e65 f6bd bc63 923c
00000180: 0966 c0bd f874 973d 68c6 b03d 0bf7 54be
00000190: d9a8 143d ac28 913e ee7c a0bd 8a9a 8a3d
000001a0: cbd4 0dbf f1b4 acbd 30c5 b5be 6fb6 13be
000001b0: f8fb e63e 618a 5e3d b8d0 be3e f846 a2be
000001c0: eaf8 33be 15c5 ebbe 05de 953e ea9e a6be
000001d0: dafb 1dbd c8b3 8f3c d6f3 e13d 5e96 cabe
000001e0: f4ac 0b3e 7521 463d 6d48 f63e 4bf4 f2be
000001f0: 5419 703c 5fdb 40be 4627 02be ba70 1f3e
00000200: 767a e93d 11c9 403f c143 1e3d 9c3a d73e
00000210: dbbc 213e 5ba6 1d3f 15a2 d3bd 655d 273f
00000220: f287 bf3e c34c 993f abe2 b33d cb48 563f
00000230: e46b b5be f8fb f93e 4293 a13c 6efe 9e3e
00000240: 1855 db3e eed1 823e a29e b73e d2c4 ba3e
00000250: 8754 143f 9c05 003f d4aa ef3e 05bb ac3e
00000260: 072d 1b3f 5424 ae3e 137c 0d3f 9ac0 cb3e
00000270: 9d86 283f 2904 453e cfd2 da3e cd6a 0c3e
00000280: 4b55 e43e 6068 f03e 9639 763d 4bf2 2a3f
00000290: 7fba dfbc 85c5 233f 67b1 7a3d f59f ae3e
000002a0: 7599 ad3d e2fc ce3e 39e1 ca3d bd98 163f
000002b0: 00f8 c33e 79b3 523f 4aa2 703d 34d2 f53e
000002c0: 15c5 6cbe 4247 083f e9f9 203d 62f0 973e
000002d0: 5fcd 96bc d99a 22bf fb1f 6dbd 7bf4 223d
000002e0: 7c86 0dbe 12cd c9be ecc5 e5bd 04d0 c0be
000002f0: 5cd5 923d 6a02 293c 7715 8fbe e771 cdbd
00000300: e299 a43c cd4d 64be 4ac4 813d b498 76be
00000310: 2632 afbe 6ad7 55bd 46bb 68be 82a6 ce3f
00000320: 4d67 4e3e d59d 3a3f ca53 cabc 19d0 123f
00000330: 8c8f ac3c 7987 373f 17c0 783e 6f22 5e3f
00000340: adab 763c 4f31 fa3e 642a 9bbd b9d9 133f
00000350: fbc1 ef3e 3bb4 423f 9077 f3bd 41ec 163f
00000360: f2ea bd3e 3de7 bd3e b5cb 823b 4108 003e
00000370: 2621 9fbd e34b 5abb 0b85 d3bd 8b10 18bd
00000380: a704 163e 8ebe 143c 74ea cbbd fede 23be
00000390: ec76 0abe 21f6 ad3d 37d1 763e 1e0c 983d
000003a0: 7d31 533e 1cdc eb3c 96a2 14be 8c3b e1be
000003b0: f439 f83c 4e45 4f3e 0360 973e 8931 563e
000003c0: 8ece c63e a56d 4cba 4699 493d 34f5 5e3e
000003d0: fe14 183f 8b51 3f3e 0487 bb3e df99 163e
000003e0: 1124 7abe 796f 1e3e e62a 41bd b2f2 c53d
000003f0: f582 013f cded c73e 2d4a 643c c955 333f

layer2.0.bias f4 [256]
0.5749673 -1.5870082 0.31591153 -1.6764263 -1.3329084 -0.13686414 0.24712189 -1.6841933
-0.6044733 -2.2982876 -0.93618345 -1.3005848 0.2991951 -2.4747696 -0.19315079 1.0720482
-2.6780019 1.1890904 -0.4210078 -0.19875968 -0.099475496 1.2875446 -1.4072458 -0.643184
0.69177073 2.2383177 1.3749247 0.8736873 -2.955451 0.6627111 1.2674768 0.34959754
-1.039375 -2.2919054 -0.052956287 -0.85724723 -1.3082812 -0.7379127 0.097307116 -1.0695759
1.5758766 1.0139735 2.5810473 -2.39141 0.41998348 -0.27799475 -0.068712085 -0.7563251
0.29305902 0.6813045 1.483966 -3.6197937 1.0414268 -0.112184964 -0.33625513 -3.4863753
-0.12434807 -1.5449257 2.63679 0.12560193 -1.3162657 -1.9639462 -0.45623165 -0.43858507
-1.1300222 0.23116453 0.10389373 0.937332 -1.2471298 -0.21926074 -1.9665871 1.5668128
0.033055034 0.17582472 0.68246055 1.3954762 -0.4627958 -0.010479093 0.83117324 -0.33101234
-0.36808893 -1.3138334 0.23801789 -1.4514205 0.33538702 1.9238911 1.7234777 -0.15555768
1.0497396 -1.7815137 -0.013876604 0.21317114 -1.6161634 -0.7806599 -0.57836586 -1.7477541
1.2302667 -1.2381736 0.7036378 0.96683466 -1.9037989 -0.6400297 -0.6960334 -0.42086324
-2.0304782 0.14468282 -1.6249522 0.18701497 -1.2173268 -1.2782894 0.9095435 1.6528835
0.5264251 -1.1053883 -1.865252 -0.36715096 2.4735816 -1.0151855 0.22203143 1.4072186
1.0283586 -1.0300469 -2.4919229 -0.7752781 -1.7508665 -1.2551006 -1.8929117 1.1439395
-0.7404003 2.21766 1.3991315 -0.44700164 -1.6598359 -1.9215579 -1.6192309 -0.54713786
-3.152283 -0.5735878 -2.2565148 0.02426912 -0.10789545 -0.31873557 -0.45339182 0.43394524
1.4518241 0.5419386 0.79478246 0.059137456 -1.7181993 -1.0228666 2.8436902 1.1761441
0.13635685 -1.8681482 1.6863725 2.1205041 -2.216193 -0.09795042 -2.6027625 -1.895252
2.1165917 -1.0326122 -0.4785388 1.0147183 1.0552509 0.2513128 -0.13298094 0.1969513
1.0250038 -0.2200973 0.2640621 -1.8629769 0.063201085 -0.120085835 -0.33295256 -0.9790089
-2.216171 -0.77549934 -0.7414903 0.3349575 -1.1340679 0.56520754 0.12672137 -0.4083418
1.587656 1.7871556 -0.4040324 -0.1490974 -0.4943552 -0.21837962 -2.9768844 -0.8534069
0.4935607 1.285865 -0.06739472 0.9993216 0.36390108 -0.3928471 0.2681982 -0.22789183
-0.6476221 0.51263946 -0.4002445 0.7576312 -1.7372215 0.41829875 2.0213397 -0.76613164
-1.3529396 0.6492637 2.5537808 -3.6252592 0.6542359 0.25453493 0.13852821 -1.9494683
-0.6988923 0.5462019 -0.22223893 -0.21059833 0.5938065 -0.7192349 0.48135516 -2.529784
-0.63149506 0.63765925 -1.3558381 -2.549111 0.12539104 -1.7445619 1.3937019 -0.5592121
0.8095682 0.65725625 -0.46427956 -1.6244737 -0.71691966 0.0097100595 -2.858418 0.27290037
0.3703766 0.1183994 -2.5884972 -0.12017455 0.10992568 1.8942987 -1.0625308 1.0845687
1.1326132 0.9235667 -0.87017107 -0.59726125 -1.5653733 -1.4886744 0.88630086 -0.9593494
00000000: 0f31 133f 1623 cbbf 28bf a13e 2395 d6bf
00000010: be9c aabf 1d26 0cbe 850d 7d3e a593 d7bf
00000020: c3be 1abf 2517 13c0 b8a9 6fbf 9079 a6bf
00000030: 1a30 993e a062 1ec0 52c9 45be e038 893f
00000040: 6264 2bc0 1d34 983f 568e d7be a887 4bbe
00000050: cfb9 cbbd 43ce a43f a120 b4bf b5a7 24bf
00000060: e317 313f 9940 0f40 88fd af3f f9a9 5f3f
00000070: 1c26 3dc0 6fa7 293f ae3c a23f 73fe b23e
00000080: 3d0a 85bf 94ae 12c0 b1e8 58bd 8e74 5bbf
00000090: c275 a7bf d9e7 3cbf f448 c73d dde7 88bf
000000a0: 53b6 c93f e2c9 813f e12f 2540 dd0c 19c0
000000b0: 1308 d73e 5455 8ebe ecb8 8cbd 869e 41bf
000000c0: d50b 963e f969 2e3f 99f2 bd3f b3aa 67c0
000000d0: 794d 853f 3bc1 e5bd a229 acbe c620 5fc0
000000e0: 33aa febd 20c0 c5bf 2bc1 2840 cb9d 003e
000000f0: 657b a8bf 9762 fbbf 3297 e9be 398e e0be
00000100: 91a4 90bf 65b6 6c3e 3cc6 d43d fdf4 6f3f
00000110: f3a1 9fbf e385 60be 20b9 fbbf 528d c83f
00000120: b764 073d 650b 343e bcb5 2e3f f79e b23f
00000130: 92f3 ecbe 80b0 2bbc c5c7 543f 737a a9be
00000140: 2776 bcbe b12b a8bf f6ba 733e 26c8 b9bf
00000150: d9b7 ab3e 1042 f63f eb9a dc3f 834a 1fbe
00000160: de5d 863f a408 e4bf b25a 63bc 8949 5a3e
00000170: 71de cebf 54d9 47bf c90f 14bf 68b6 dfbf
00000180: 6179 9d3f 797c 9ebf 9b21 343f 7a82 773f
00000190: afaf f3bf fdd8 23bf 3f2f 32bf 637b d7be
000001a0: 5bf3 01c0 bc27 143e 6ffe cfbf da80 3f3e
000001b0: 5dd1 9bbf fd9e a3bf d8d7 683f b091 d33f
000001c0: ccc3 063f 5d7d 8dbf 94c0 eebf 36fb bbbe
000001d0: 294f 1e40 99f1 81bf 355c 633e bd1f b43f
000001e0: 41a1 833f 94d8 83bf aa7b 1fc0 a078 46bf
000001f0: 651c e0bf 23a7 a0bf ee4a f2bf 9c6c 923f
00000200: e08a 3dbf 24ee 0d40 be16 b33f 66dd e4be
00000210: 8175 d4bf 9cf5 f5bf f542 cfbf 3a11 0cbf
00000220: 01bf 49c0 a6d6 12bf bd6a 10c0 09d0 c63c
00000230: 4af8 dcbd 4f31 a3be f922 e8be 122e de3e
00000240: 5fd5 b93f 7dbc 0a3f dd76 4b3f 1e3a 723d
00000250: f4ed dbbf 4bed 82bf 05ff 3540 e48b 963f
00000260: 21a1 0b3e 7b1f efbf 0edb d73f 57b6 0740
00000270: 1bd6 0dc0 3b9a c8bd a993 26c0 9e97 f2bf
00000280: 3d76 0740 a32c 84bf 0a03 f5be 4ae2 813f
00000290: 7612 873f 12ac 803e 282c 08be 9aad 493e
000002a0: 5333 833f 3061 61be 2633 873e 0776 eebf
000002b0: 926f 813d 90ef f5bd c278 aabe 54a0 7abf
000002c0: bfd5 0dc0 2087 46bf 4fd2 3dbf 8d7f ab3e
000002d0: 2329 91bf 71b1 103f 3fc3 013e 2d12 d1be
000002e0: 5038 cb3f 84c1 e43f 56dd cebe fdac 18be
000002f0: 201c fdbe e89e 5fbe 4685 3ec0 e078 5abf
00000300: fdb3 fc3e 3997 a43f 3e06 8abd 8ad3 7f3f
00000310: 3e51 ba3e 4123 c9be 4651 893e 7a5c 69be
00000320: 90ca 25bf 573c 033f d9ec ccbe 1ef4 413f
00000330: 465d debf 412b d63e a15d 0140 3421 44bf
00000340: 202d adbf 2536 263f 2571 2340 3f04 68c0
00000350: 017c 273f 6752 823e 57da 0d3e 2d88 f9bf
00000360: 9bea 32bf e3d3 0b3f 9a92 63be 17a7 57be
00000370: b403 183f c71f 38bf 2f74 f63e fbe7 21c0
00000380: a9a9 21bf a33d 233f 1a8c adbf a224 23c0
00000390: 8266 003e ce4d dfbf d364 b23f 8628 0fbf
000003a0: dd3f 4f3f f241 283f 0db6 edbe c1ee cfbf
000003b0: 0c88 37bf f116 1f3c 52f0 36c0 99b9 8b3e
000003c0: 00a2 bd3e 627b f23d f0a9 25c0 131e f6bd
000003d0: b720 e13d 6178 f23f 0201 88bf 26d3 8a3f
000003e0: 78f9 903f de6e 6c3f 88c3 5ebf 1de6 18bf
000003f0: 275e c8bf e28c bebf 9de4 623f ec97 75bf

layer2.2.weight f4 [256, 256]
0.067931995 -0.018992107 -0.044566568 0.1922486 -0.2417345 0.39444482 -0.25606513 0.544197
-0.23372544 0.3034565 -0.22960615 -0.016696155 -0.49500751 0.36041716 0.081574716 -0.37626493
-0.29168358 -0.086100206 -0.117349945 -0.17637394 -0.07206318 -0.390619 0.007080662 -0.26329476
-0.5141743 -0.70090264 -0.5331196 -0.28047952 -0.6061973 -0.05135038 0.0532063 -0.38079318
-0.22293964 0.43458578 -0.236023 -0.13805626 -0.32302892 0.002964342 0.12692712 -0.16043466
-0.10948168 -0.603158 -0.45425615 -0.0741144 0.02164095 -0.23058042 -0.117923446 -0.07128455
-0.12634465 -0.14323112 0.0753365 0.18267329 -0.1898084 -0.10878441 -0.26218325 -0.31714115
0.04679406 -0.17790487 -0.4631882 -0.62490195 0.0021440794 0.09431667 -0.030399758 0.041252747
0.10388348 -0.2259425 -0.109975934 0.0027023028 -0.26270753 -0.4405652 -0.14008804 -0.008934453
0.17985106 -0.050222185 -0.18355857 -0.12829752 -0.014641817 -0.27398446 0.21466647 0.009587656
-0.60841376 -0.06098902 0.262682 0.26049095 -0.007943698 0.11599235 0.043663245 0.11321306
-0.20346844 -0.12806526 -0.3400769 -0.014061273 -0.96247494 0.019803872 -0.025307441 -0.09909705
-0.7951043 0.04510588 -0.72560817 -0.20004627 -0.19347617 -0.17464286 -0.18421255 -0.2560805
-0.029199766 -0.23450091 0.1701929 -0.05611421 -0.46863198 -0.05172155 0.035420965 -0.08033184
-0.3647435 -0.33739874 0.26458666 -0.1538655 -0.53584725 0.12753676 -0.18153115 -0.24704541
-0.33704618 -0.27970013 0.0055865655 -0.010976979 -0.117264114 -0.13067782 -0.27038267 -0.1270568
-0.10897556 -0.5845879 -0.48990873 -0.1387087 -0.2713009 0.069726944 -0.5590334 0.20648104
0.08292822 -0.13587257 -0.14651531 -0.3147763 0.10880416 -0.19268532 -0.3869029 -0.16862975
-0.16983397 -0.13586046 -0.63110805 0.052161064 0.20519632 -0.051002096 -0.28164193 -0.53730005
-0.21773669 -1.0660517 -0.2968594 0.24189271 0.10352318 -0.2538028 0.4638906 -0.055477444
-0.418753 -0.09312565 -0.4839614 -0.035201337 -0.11763526 -0.06276794 -0.19046143 0.29120636
-0.122141 -0.19542915 -0.10009716 0.25118372 -0.05762996 0.19962908 -0.054615337 -0.15285791
-0.19593549 -0.16886581 -0.31948546 -0.20072897 -0.17869346 -0.24728544 -0.045406334 0.15679932
-0.048460778 0.06993905 -0.11352785 -0.026652427 -0.33874166 -0.042966936 0.05478111 -0.14058296
0.021857664 -0.75005573 -0.40333042 -0.36694112 -0.19566835 -0.14379427 -0.32666957 0.06984188
0.14456637 -0.26646718 -0.076611966 -0.0920728 -0.10639461 -0.014134419 -0.23204087 0.24974234
0.07940027 -0.33047158 -0.22651227 -0.12387949 -0.48349437 -0.50930333 -0.12874587 -0.38781372
-0.086163044 -0.3593611 -0.35885495 -0.15726022 -0.2735373 -0.033384886 -0.27403983 -0.014835773
-0.15786941 -0.076547675 0.026902396 -0.32853082 -0.037007652 -0.099110775 -0.013702845 -0.4100809
0.055041388 -0.21187602 -0.21458133 -0.34931076 -0.3897653 -0.6938588 0.035921935 -0.07145304
0.0893271 -0.106917396 -0.5102915 -0.20327266 -0.87644583 0.110661015 -0.34010077 -0.3254663
-0.45201603 -0.4075627 -0.33500797 -0.03533426 -0.3085588 -0.05504194 -0.48249304 -0.052952293
00000000: ee1f 8b3d 5695 9bbc 6f8b 36bd d1dc 443e
00000010: 4089 77be acf4 c93e f81a 83be 7f50 0b3f
00000020: b955 6fbe a65e 9b3e e01d 6bbe 60c6 88bc
00000030: a071 fdbe 9988 b83e a510 a73d cca5 c0be
00000040: 8d57 95be 4e55 b0bd 2b55 f0bd 5f9b 34be
00000050: dc95 93bd 37ff c7be e604 e83b 92ce 86be
00000060: eda0 03bf 5b6e 33bf 877a 08bf 039b 8fbe
00000070: bf2f 1bbf c754 52bd d9ee 593d 53f7 c2be
00000080: 4a4a 64be 0782 de3e 03b0 71be 9f5e 0dbe
00000090: 0c64 a5be 6845 423b 2ff9 013e fc48 24be
000000a0: ee37 e0bd 9068 1abf 4394 e8be 4ac9 97bd
000000b0: 5d48 b13c 461d 6cbe d981 f1bd a2fd 91bd
000000c0: 7e60 01be 2eab 12be 064a 9a3d b50e 3b3e
000000d0: 225d 42be 5cca debd e23c 86be 5360 a2be
000000e0: 21ab 3f3d b22c 36be 0127 edbe 93f9 1fbf
000000f0: af83 0c3b 1929 c13d ea08 f9bc a4f8 283d
00000100: ddc0 d43d 795d 67be 103b e1bd 1e19 313b
00000110: 9a81 86be c391 e1be 3d73 0fbe d061 12bc
00000120: e02a 383e c7b5 4dbd c7f6 3bbe 6d60 03be
00000130: 3be4 6fbc b147 8cbe 87d1 5b3e 8b15 1d3c
00000140: 01c1 1bbf 9fcf 79bd 417e 863e 125f 853e
00000150: 4926 02bc 668d ed3d 3bd8 323d 40dc e73d
00000160: 085a 50be 8a23 03be 8f1e aebe 4161 66bc
00000170: c264 76bf bb3b a23c 8d51 cfbc 65f3 cabd
00000180: f58b 4bbf f1c0 383d 75c1 39bf eed8 4cbe
00000190: 9e1e 46be 94d5 32be 37a2 3cbe fc1c 83be
000001a0: 5934 efbc 0221 70be 0c47 2e3e 04d8 65bd
000001b0: 88f0 efbe fad9 53bd 9315 113d 0585 a4bd
000001c0: a9bf babe 87bf acbe e777 873e eb8e 1dbe
000001d0: 492d 09bf ff98 023e 4de3 39be 79f9 7cbe
000001e0: 5191 acbe db34 8fbe 820f b73b c9d8 33bc
000001f0: 2b28 f0bd 68d0 05be 996f 8abe 2e1b 02be
00000200: 942e dfbd 8da7 15bf 51d5 fabe a709 0ebe
00000210: f4e7 8abe 00cd 8e3d d01c 0fbf c46f 533e
00000220: 45d6 a93d 2e22 0bbe 1c08 16be 5c2a a1be
00000230: b7d4 de3d 4d4f 45be 2318 c6be 47ad 2cbe
00000240: f5e8 2dbe 011f 0bbe 4c90 21bf d7a6 553d
00000250: fc1e 523e 93e7 50bd 5f33 90be 7f8c 09bf
00000260: 5ef6 5ebe 6274 88bf f5fd 97be b9b2 773e
00000270: f603 d43d 71f2 81be 1283 ed3e 513c 63bd
00000280: cb66 d6be a9b8 bebd cac9 f7be 472f 10bd
00000290: c1ea f0bd 7a8c 80bd 5208 43be 0019 953e
000002a0: 1025 fabd 941e 48be bdff ccbd 279b 803e
000002b0: 650d 6cbd 916b 4c3e 55b4 5fbd c986 1cbe
000002c0: 50a3 48be 29eb 2cbe 9993 a3be e58b 4dbe
000002d0: 6bfb 36be 6538 7dbe fefb 39bd 0090 203e
000002e0: cf7e 46bd 343c 8f3d 4a81 e8bd 3156 dabc
000002f0: 8c6f adbe 19fe 2fbd 2862 603d fbf4 0fbe
00000300: d80e b33c a703 40bf 5381 cebe b5df bbbe
00000310: 495d 48be ce3e 13be 3c41 a7be 4209 8f3d
00000320: 3509 143e 636e 88be bce6 9cbd aa90 bcbd
00000330: 6be5 d9bd 0d94 67bc 1f9c 6dbe 75bc 7f3e
00000340: 9c9c a23d 9233 a9be d5f2 67be 88b4 fdbd
00000350: 938c f7be b461 02bf f5d5 03be 858f c6be
00000360: 4076 b0bd 2efe b7be d6bb b7be d308 21be
00000370: 150d 8cbe 97be 08bd f34e 8cbe be11 73bc
00000380: 85a8 21be 07c5 9cbd 6a62 dc3c 3135 a8be
00000390: 5695 17bd 97fa cabd e681 60bc 20f6 d1be
000003a0: 1473 613d 07f6 58be 35bb 5bbe dcd8 b2be
000003b0: 518f c7be bba0 31bf e122 133d f955 92bd
000003c0: 20f1 b63d 82f7 dabd 77a2 02bf b526 50be
000003d0: c15e 60bf 3ea2 e23d b021 aebe 85a3 a6be
000003e0: a56e e7be 0fac d0be 2a86 abbe a8ba 10bd
000003f0: 6bfb 9dbe a873 61bd 5409 f7be 81e4 58bd

layer2.2.bias f4 [256]
-0.21475403 -0.35363504 -2.9345763 -0.61270386 -0.37324896 -0.34248826 -0.86931145 0.033976484
-1.6651479 -0.40348732 -1.7733474 -0.3861825 -0.09093244 -0.7204203 -0.37823877 -0.6691782
-1.3249092 -0.34557545 -0.7488376 -0.6198366 -0.41926387 -0.36361942 -1.3638755 -1.5480167
-0.32932103 -0.92469156 -2.774416 -0.35109583 -0.41961384 -0.028985936 -0.37958348 -0.5133101
-0.31990656 -0.654589 -1.7451475 -0.468591 -0.45658872 -0.5197482 -0.44653925 -0.5138979
-1.1087387 -1.3370868 0.00081964297 -0.20510763 -0.37496594 -2.342836 -0.600031 -0.37495428
-0.75126755 -0.3614474 -0.31683648 -0.096591435 -0.7309802 -2.6878178 -0.29403588 -0.7336681
-1.1240921 -2.0026298 -0.4727627 -1.8965192 -0.35755754 -0.27934 -0.39110762 -1.976094
-0.36664292 -0.40165326 -0.20507981 -0.83187884 -0.38841844 -2.288467 -0.3112122 -0.44727772
-0.49155033 -0.41469273 -0.7182493 -0.84166783 -1.6402956 -0.22729933 -2.803241 -0.106359206
0.78993887 -0.69971424 -0.39337775 -0.3208346 -0.6222007 -0.7995995 -0.94731504 -0.5197143
-0.27667373 -2.184375 -0.44776198 -0.33972028 -0.4330343 -0.3087475 -0.9010964 -0.4682352
-0.35712364 -0.21769145 -1.2086271 -0.7445864 0.40100944 -0.7741963 -0.44575384 -0.552944
-0.29409993 -0.37705544 -0.06640971 -0.4638055 -0.7007614 -0.51088536 -0.37721002 -0.6176158
-3.316742 -0.24197848 -1.2185774 -0.39355624 -0.35091293 -0.33997023 -1.6188124 -0.83167887
-0.51285326 0.38115805 -0.37750018 -1.5999514 0.28887135 -0.38111368 -0.68498063 -0.4443844
-0.4741399 -0.33937618 -1.1622244 -1.0122232 -0.96031266 -0.85178953 -1.2273854 -0.6920062
-0.35992295 0.17850932 -0.2698373 0.85999614 -0.76235664 -0.27331412 -2.0016012 -0.3499968
-0.26070926 -0.6498761 -0.4826119 -0.3705762 -1.2566636 -2.0127702 -0.95818484 -0.8812836
-0.76746124 -0.41553062 0.11670241 -0.36974093 -0.94235414 -0.5380727 -0.3995782 -2.8750234
-0.3359827 -0.33365607 -0.38625118 -2.9951308 -1.6063739 -0.6540918 -0.3895175 -0.70717955
-0.6388909 -2.5720248 -0.8703537 -1.161482 -0.8496308 -0.5872752 -0.14299975 -1.3473933
-0.45799807 -0.33628714 -0.94283396 -1.542603 -0.5372921 -0.2829742 -0.31713673 0.44615248
-0.7865494 -0.8026566 -1.791845 -0.20458925 -0.13163799 0.41605657 -0.5946752 -0.8582665
-0.3977099 -0.51971537 -0.91230863 -0.5766857 -0.8647474 -1.7334116 -0.77454674 -2.6036866
-1.8464708 -0.84483767 -0.42209858 -0.59303606 -0.456568 -2.0692623 -1.0680206 -0.27470422
-0.848117 -0.92762005 0.2978971 -0.47270054 -0.8195554 -0.45224953 -0.93100405 -0.43144578
-0.32254478 -0.3311115 -0.73495376 -0.5226205 -0.4815796 -0.8488399 -0.33412305 -0.21632476
-0.71482503 -0.22014321 -0.25279 -0.41721144 0.34750766 -0.43587974 -0.3687651 -2.2131276
-0.55477107 -0.46707612 -1.9637729 -0.46792147 -1.1625223 -0.39934802 -0.4080047 -0.97712576
-0.39121443 -0.9550412 -0.3176423 -1.4017249 -0.845884 0.2207944 -0.31952655 -0.9110168
-0.58513993 -0.48582223 -0.39357024 -0.85056674 -1.9672204 -0.7213169 -1.1748672 -0.34578657
00000000: 7be8 5bbe a70f b5be 19d0 3bc0 29da 1cbf
00000010: 7d1a bfbe 9f5a afbe 328b 5ebf ed2a 0b3d
00000020: 9123 d5bf e495 cebe 0cfd e2bf b6b9 c5be
00000030: c93a babd 776d 38bf 83a8 c1be 434f 2bbf
00000040: a096 a9bf 44ef b0be d2b3 3fbf 9dad 1ebf
00000050: c1a9 d6be 532c babe 7993 aebf 6925 c6bf
00000060: c49c a8be 96b8 6cbf 0890 31c0 d5c2 b3be
00000070: a0d7 d6be ea73 edbc c458 c2be 4a68 03bf
00000080: cbca a3be 2593 27bf fe60 dfbf 29eb efbe
00000090: ffc5 e9be 380e 05bf cba0 e4be d08e 03bf
000000a0: 26eb 8dbf a925 abbf 4fdd 563a bc07 52be
000000b0: 89fb bfbe 06f1 15c0 a29b 19bf 02fa bfbe
000000c0: 1253 40bf a20f b9be 6438 a2be bbd1 c5bd
000000d0: 8521 3bbf 3505 2cc0 df8b 96be acd1 3bbf
000000e0: 40e2 8fbf 162b 00c0 f40d f2be 24c1 f2bf
000000f0: c811 b7be a705 8fbe 423f c8be a6f0 fcbf
00000100: 9fb8 bbbe 7fa5 cdbe 7100 52be 03f6 54bf
00000110: c8de c6be 3e76 12c0 3557 9fbe 9601 e5be
00000120: 7cac fbbe 9b52 d4be 30df 37bf 8b77 57bf
00000130: 35f5 d1bf 28c1 68be 4d68 33c0 dbd2 d9bd
00000140: 6f39 4a3f 7920 33bf cf68 c9be 6f44 a4be
00000150: 8c48 1fbf 8eb2 4cbf 3d83 72bf ff0b 05bf
00000160: 2ea8 8dbe cdcc 0bc0 0f41 e5be d1ef adbe
00000170: acb6 ddbe 2714 9ebe 41ae 66bf 86bc efbe
00000180: e9d8 b6be 82ea 5ebe 4bb4 9abf 379d 3ebf
00000190: 1c51 cd3e bb31 46bf d939 e4be bd8d 0dbf
000001a0: 4494 96be 690d c1be d001 88bd ea77 edbe
000001b0: 1965 33bf 62c9 02bf ac21 c1be 121c 1ebf
000001c0: 8045 54c0 35c9 77be 58fa 9bbf 3480 c9be
000001d0: dcaa b3be 9410 aebe 3f35 cfbf e8e8 54bf
000001e0: 5a4a 03bf 2627 c33e b447 c1be 35cb ccbf
000001f0: f2e6 933e 5521 c3be e45a 2fbf 5a86 e3be
00000200: 77c2 f2be b7c2 adbe c5c3 94bf 8890 81bf
00000210: 0dd7 75bf e10e 5abf f71a 9dbf 5127 31bf
00000220: d247 b8be 26cb 363e 1d28 8abe b528 5c3f
00000230: ce29 43bf d4ef 8bbe 3c1a 00c0 c832 b3be
00000240: af7b 85be 485e 26bf e818 f7be 2abc bdbe
00000250: 5ada a0bf 3ad1 00c0 9a4b 75bf cd9b 61bf
00000260: 5778 44bf 6ec0 d4be ac01 ef3d af4e bdbe
00000270: 1f3e 71bf 22bf 09bf 8495 ccbe 6200 38c0
00000280: ed05 acbe f8d4 aabe b7c2 c5be 39b0 3fc0
00000290: a99d cdbf 8f72 27bf d66e c7be b809 35bf
000002a0: 5b8e 23bf 0e9c 24c0 80cf 5ebf 71ab 94bf
000002b0: 6781 59bf ab57 16bf 876e 12be 6277 acbf
000002c0: b97e eabe d42d acbe 915d 71bf 0474 c5bf
000002d0: fa8b 09bf ffe1 90be bf5f a2be 196e e43e
000002e0: 4d5b 49bf e77a 4dbf 2d5b e5bf d87f 51be
000002f0: 1ccc 06be 5e05 d53e a23c 18bf 5ab7 5bbf
00000300: a2a0 cbbe 110c 05bf 0f8d 69bf ada1 13bf
00000310: 1660 5dbf 6ee0 ddbf b248 46bf cda2 26c0
00000320: 2859 ecbf 4847 58bf 4e1d d8be 36d1 17bf
00000330: 48c3 e9be cb6e 04c0 e6b4 88bf 08a6 8cbe
00000340: 321e 59bf 8278 6dbf f885 983e ce05 f2be
00000350: 62ce 51bf 408d e7be 4856 6ebf 76e6 dcbe
00000360: 9724 a5be 7287 a9be ee25 3cbf 75ca 05bf
00000370: 9a91 f6be 924d 59bf 2d12 abbe 3d84 5dbe
00000380: c6fe 36bf 396d 61be b16d 81be bd9c d5be
00000390: 86ec b13e a12b dfbe c7ce bcbe e2a3 0dc0
000003a0: 7a05 0ebf 9a24 efbe e95c fbbf 6793 efbe
000003b0: 88cd 94bf 5877 ccbe fee5 d0be ea24 7abf
000003c0: 424d c8be 957d 74bf 03a2 a2be b96b b3bf
000003d0: db8b 58bf ed17 623e fc98 a3be 6638 69bf
000003e0: bbcb 15bf b1bd f8be 0a82 c9be bebe 59bf
000003f0: e1cd fbbf 39a8 38bf 0c62 96bf f00a b1be

layer2.4.weight f4 [10, 256]
-0.6673095 -0.040616706 -4.9437947 -0.08533858 -0.19723962 -0.6615731 -1.0247874 0.008833179
-1.4116683 -0.350693 -6.148615 0.16966553 1.2831334 -0.08432381 -0.35522676 -0.50451785
-2.4512422 -0.15156361 -0.08338621 -1.0237451 -0.3913885 -1.0531954 -2.4855306 -3.6700506
-0.56868464 -6.6837306 1.1469839 -0.5427862 0.09904534 -0.2648207 0.008938413 -0.41043243
-0.68446666 -0.11634121 -7.169347 -0.43309656 -2.582613 -0.7308467 -0.12902252 -0.36914197
-2.2390304 -4.926263 3.3399982 -0.6087178 -0.25145987 -3.4079506 -2.137923 0.07281781
-1.6794064 -0.33532867 -0.38595083 0.20513308 -0.37415007 -0.18034618 -0.593933 -0.710884
-7.8096743 -1.0967716 -0.018636 -2.8650477 -0.5537087 -0.7298868 -2.02131 -1.2127558
-0.312473 0.25490475 0.7536875 -3.2307723 -0.15205272 -1.0176394 -0.7222884 0.120693475
-0.34233862 -1.0502498 -0.21866617 -1.5411048 -4.9911466 -0.21594504 -2.9472928 -0.4334001
-3.1464608 -0.72565234 -0.44951963 -0.34964064 -0.77569926 -1.8783629 -0.62763315 -0.58242434
-0.7399926 -2.6637204 -0.7451736 -0.07219337 -0.5715702 -0.30051887 -0.06351933 -2.8931758
-1.3235677 0.95471144 -0.40596318 -2.0828068 2.6033514 -0.8004177 0.035894547 -0.3363722
0.27418754 -0.5228495 -1.276078 -0.0914084 -2.7180445 0.12240789 -0.51253295 -1.710657
-2.192598 -0.7850339 -1.0828843 -2.5251155 -0.22467838 -0.1257249 -0.7794106 -3.0132031
-0.07256108 2.7162464 -0.3510689 -6.6874657 -1.8436934 -0.22561328 -0.43991283 -0.2917385
-1.9215628 -2.4389594 -4.764766 -4.324864 -0.75402725 -1.6025764 -4.65103 0.0096107805
-0.16357407 -0.64197993 -0.2637676 -0.43039307 -0.40550324 -0.81084293 -2.621342 0.07720961
0.5042645 0.010099745 -0.2200256 -0.2407959 -0.26226413 -4.4700575 -0.10487786 -1.2859832
-5.933923 -0.31607684 1.1093012 -0.04716413 -0.9715226 -0.8566919 0.07079575 -2.311732
-0.7337112 0.22710887 -1.582081 -4.2760553 -4.418295 -0.49654108 -0.20797144 -0.9900265
-1.2763288 -3.13704 -0.78923213 -4.951718 -2.0677748 -4.054854 -0.89785933 -2.5706842
-0.70459545 -0.14503674 -3.3879902 -3.0205402 -0.514617 -1.132942 -0.232333 3.9991493
-1.0373498 -0.15413697 -7.566443 -1.1809391 -0.13864045 -0.48062697 -1.0862948 -0.22532955
-0.9614746 -0.53551656 -1.93433 -2.4562747 -0.74561673 -4.4691634 -2.6177483 -1.5218606
-2.2910864 -3.5507975 -10.798356 -1.6813331 -0.7933346 -0.22461055 -4.409551 -0.35956153
-2.9792573 -0.8237183 -0.016902579 -2.4549425 -1.7479434 -0.79536164 -3.9813204 0.01904055
-0.008849048 -0.6204677 -0.015968777 -0.17689063 -0.63450027 -2.502466 -0.9010544 -0.8599706
-1.6241946 -0.71986187 -1.8195174 -0.54671395 -0.14205323 -0.22382112 -0.43069822 -0.44842684
-4.2658825 -0.5718379 -4.8612604 -0.35373548 -0.22646083 -0.014314879 -1.1778016 -4.3491344
-0.021759113 -1.7817589 -0.055950593 -1.5648655 -0.16690204 0.4215369 -0.51613903 -5.412259
-0.6208714 -0.09959802 -0.602465 -5.34741 -3.5860837 -4.155891 -0.7529367 -3.6132023
00000000: ccd4 2abf b45d 26bd 9133 9ec0 fec5 aebd
00000010: 2ff9 49be db5c 29bf 3c2c 83bf 0ab9 103c
00000020: 8cb1 b4bf 088e b3be 74c1 c4c0 cdbc 2d3e
00000030: b73d a43f f6b1 acbd 48e0 b5be 1528 01bf
00000040: 27e1 1cc0 7e33 1bbe 64c6 aabd 140a 83bf
00000050: 1364 c8be 1bcf 86bf ef12 1fc0 1ce2 6ac0
00000060: 5195 11bf 1fe1 d5c0 5ed0 923f 09f4 0abf
00000070: 49d8 ca3d 9496 87be 6c72 123c 3324 d2be
00000080: 3539 2fbf 4d44 eebd 4a6b e5c0 d5be ddbe
00000090: 8849 25c0 c518 3bbf 7b1e 04be 2d00 bdbe
000000a0: 464c 0fc0 f2a3 9dc0 88c2 5540 eed4 1bbf
000000b0: 59bf 80be dd1b 5ac0 bbd3 08c0 8121 953d
000000c0: caf6 d6bf 33b0 abbe 599b c5be 680e 523e
000000d0: 9990 bfbe abac 38be fe0b 18bf 7efc 35bf
000000e0: dae8 f9c0 0363 8cbf 86aa 98bc f15c 37c0
000000f0: dabf 0dbf dcd9 3abf 255d 01c0 953b 9bbf
00000100: 76fc 9fbe e082 823e aaf1 403f f9c4 4ec0
00000110: b5b3 1bbe 0242 82bf e5e7 38bf 242e f73d
00000120: 0247 afbe 966e 86bf 06ea 5fbe ec42 c5bf
00000130: 79b7 9fc0 b220 5dbe 72a0 3cc0 9ee6 ddbe
00000140: 9d5f 49c0 5ac4 39bf 7027 e6be 1904 b3be
00000150: 3a94 46bf 326e f0bf 91ac 20bf c319 15bf
00000160: 2870 3dbf 657a 2ac0 b2c3 3ebf 1eda 93bd
00000170: 6d52 12bf 9cdd 99be 6c16 82bd cb29 39c0
00000180: ab6a a9bf f867 743f 68da cfbe b54c 05c0
00000190: 4f9d 2640 2de8 4cbf 2906 133d fa38 acbe
000001a0: 4f62 8c3e 77d9 05bf 8656 a3bf 5434 bbbd
000001b0: 71f4 2dc0 fdb0 fa3d 5c35 03bf cff6 dabf
000001c0: 8753 0cc0 fbf7 48bf f49b 8abf 7e9b 21c0
000001d0: 1712 66be 07be 00be 7487 47bf 52d8 40c0
000001e0: e79a 94bd fbd6 2d40 4ebf b3be b8ff d5c0
000001f0: 25fe ebbf 2b07 67be 413c e1be c05e 95be
00000200: c5f5 f5bf e917 1cc0 f778 98c0 4965 8ac0
00000210: ee07 41bf 3921 cdbf 3dd5 94c0 8976 1d3c
00000220: f67f 27be cc58 24bf 8c0c 87be 7b5c dcbe
00000230: 1f9e cfbe 6793 4fbf 11c4 27c0 1220 9e3d
00000240: 7a17 013f 6779 253c 644e 61be 3393 76be
00000250: 7c47 86be b60a 8fc0 34ca d6bd 199b a4bf
00000260: b2e2 bdc0 d3d4 a1be 95fd 8d3f 2d2f 41bd
00000270: b5b5 78bf 2950 5bbf 5dfd 903d 6bf3 13c0
00000280: 7fd4 3bbf 3a8f 683e a181 cabf 72d5 88c0
00000290: ac62 8dc0 a23a febe 77f6 54be 6072 7dbf
000002a0: be5e a3bf 43c5 48c0 1e0b 4abf 7974 9ec0
000002b0: 6c56 04c0 5dc1 81c0 1cda 65bf 1786 24c0
000002c0: 5e60 34bf 8384 14be d5d4 58c0 8850 41c0
000002d0: f1bd 03bf 3e04 91bf b4e8 6dbe 10f2 7f40
000002e0: e1c7 84bf 15d6 1dbe 4d20 f2c0 0329 97bf
000002f0: c3f7 0dbe bd14 f6be b50b 8bbf cabc 66be
00000300: 3323 76bf 9d17 09bf 2098 f7bf 9b33 1dc0
00000310: bde0 3ebf 6303 8fc0 3089 27c0 54cc c2bf
00000320: 29a1 12c0 4440 63c0 11c6 2cc1 ec35 d7bf
00000330: fa17 4bbf 4f00 66be 0b1b 8dc0 7318 b8be
00000340: 27ac 3ec0 34df 52bf 4777 8abc c71d 1dc0
00000350: 9cbc dfbf d29c 4bbf f4cd 7ec0 edfa 9b3c
00000360: 99fb 10bc f9d6 1ebf f4d0 82bc d122 35be
00000370: 9c6e 22bf 6728 20c0 80ab 66bf 0927 5cbf
00000380: 9ce5 cfbf de48 38bf f2e5 e8bf 72f5 0bbf
00000390: 6776 11be 5d31 65be 7a84 dcbe 3498 e5be
000003a0: 1c82 88c0 f863 12bf 728f 9bc0 d11c b5be
000003b0: 59e5 67be f488 6abc 34c2 96bf 1c2c 8bc0
000003c0: 2b40 b2bc ad10 e4bf 732c 65bd 834d c8bf
000003d0: 5ee8 2abe afd3 d73e b021 04bf 3a31 adc0
000003e0: 6ef1 1ebf 0cfa cbbd 253b 1abf fc1d abc0
000003f0: 6582 65c0 0ffd 84c0 76c0 40bf b53e 67c0

layer2.4.bias f4 [10]
-0.063924335 1.609208 -4.8330164 2.1307552 2.4265127 -0.7239114 2.11355 -1.0877401
-0.38714427 -1.1564891
00000000: c3ea 82bd 87fa cd3f 12a8 9ac0 4b5e 0840
00000010: fc4b 1b40 4252 39bf 6744 0740 113b 8bbf
00000020: c637 c6be d607 94bf
