python_files/Results/helpdesk/BackUp/TimestampPredictor_parameters_helpdesk_laplacianOnBinary_0.0001_run0.pt (torch, 286967 bytes, 8 tensors)

layer1.bias f4 [9]
0	0x00000000	0.0
1	0x00000000	0.0
2	0x00000000	0.0
3	0x00000000	0.0
4	0x00000000	0.0
5	0x00000000	0.0
6	0x00000000	0.0
7	0x00000000	0.0
8	0x00000000	0.0

layer1.W f4 [4, 2]
0	0x3ea10971	0.31452516
1	0xbd47aab8	-0.048746794
2	0xbf3173ad	-0.6931713
3	0x3dac21dc	0.08404896
4	0xbf1f1aa8	-0.6215005
5	0xbf36a4e3	-0.7134535
6	0x3f1248b1	0.5714217
7	0xc00b77bf	-2.1791837

layer1.a f4 [4, 1]
0	0x3c93ea84	0.018056162
1	0x3c938f17	0.018012566
2	0x3c93ea84	0.018056162
3	0x3c938f17	0.018012566

layer2.0.weight f4 [256, 18]
0	0xbce53617	-0.027979894
1	0xbd99e103	-0.07513621
2	0x3ead4eb8	0.3384912
3	0x3c15f62f	0.009152933
4	0xbde7a926	-0.113115594
5	0xbd9a60e6	-0.07538013
6	0xbbcfd4ba	-0.0063424977
7	0xbe1328b9	-0.14371003
8	0x3d31ba6c	0.043390676
9	0xbe539436	-0.20662007
10	0xbb4984a4	-0.0030749226
11	0x3d0a6ccf	0.033795174
12	0x3a521af4	0.00080148806
13	0x3bff4601	0.0077903275
14	0xbe1ec889	-0.15506186
15	0xbcaf8851	-0.021427305
16	0x3d28cd68	0.041211516
17	0xbd1848e2	-0.03717888
18	0x3e68dbd4	0.22740108
19	0x3dd5a9d9	0.104327865
20	0x3e19b586	0.15010652
21	0xbe2860d5	-0.16443188
22	0x3dc0b0a9	0.09408695
23	0x3d930234	0.071781546
24	0xbbd68fd0	-0.0065479055
25	0xbccb0fbe	-0.02478778
26	0xbe5018c5	-0.20321949
27	0x3e181272	0.14850786
28	0xbd8f06ae	-0.06983696
29	0x3db17674	0.08665171
30	0x3e62e2e7	0.22156869
31	0x3e5b5615	0.21419556
32	0x3e80b10a	0.2513507
33	0xbbe59117	-0.0070058214
34	0xbe052fb6	-0.13006482
35	0x3d41407d	0.04718064
36	0x3e802259	0.25026205
37	0x3e253876	0.1613482
38	0xbe1e3c34	-0.15452653
39	0x3db98d67	0.090601735
40	0x3e2741cd	0.16333695
41	0x3e2b33ac	0.1671893
42	0xbdc9dd88	-0.09856707
43	0xbe7f23d9	-0.24916019
44	0x3dcdc74c	0.100477785
45	0xbe487f1b	-0.19579737
46	0xbe94b856	-0.29046887
47	0x3db731ba	0.089450315
48	0xbe2692b6	-0.16266903
49	0xbd5adc98	-0.05343303
50	0x3e9fc43b	0.312044
51	0xbe44a76b	-0.1920449
52	0xbe0cdb0d	-0.13755436
53	0x3eae865a	0.34086877
54	0xbd9a14bb	-0.07523485
55	0x3de76fce	0.11300622
56	0x3ccf3e8b	0.025298377
57	0x3edc8043	0.43066606
58	0xbd14bf72	-0.03631539
59	0x3e995ce5	0.29953685
60	0xbe5d146d	-0.21589823
61	0x3e10ef2a	0.14153734
62	0xbe10e524	-0.1414991
63	0x3ecd1a36	0.4005906
64	0x3e043dde	0.12914225
65	0x3e2ad13e	0.16681382
66	0xbd58dcaf	-0.052944835
67	0x3eacd8e0	0.33759212
68	0xbe9f3d20	-0.31101322
69	0x3ec09ef8	0.37621284
70	0xbdff4987	-0.12465196
71	0x3ead7b09	0.3388293
72	0xbd399afd	-0.045313824
73	0xbe0d3d8e	-0.13793012
74	0xbd43e6a0	-0.047827363
75	0x3e388175	0.18018134
76	0x3e5a6d83	0.21330838
77	0x3d2f6939	0.042824958
78	0x3d032d0a	0.032025374
79	0xbe0f9bc5	-0.14024265
80	0x3dc7427e	0.09729479
81	0x3e5c15eb	0.21492736
82	0xbc57126c	-0.013126951
83	0xbe4bbd89	-0.1989652
84	0x3a1914e2	0.00058395986
85	0x3d999091	0.07498277
86	0xb977c815	-0.00023630292
87	0x3de69991	0.11259759
88	0x3e77bf73	0.24194126
89	0xbdf9cd9a	-0.121974185
90	0x3cb53394	0.02211932
91	0x3e343a94	0.17600471
92	0x3e203912	0.1564677
93	0x3df5d62f	0.12003743
94	0x3e2b4c01	0.16728212
95	0x3cbca965	0.023029992
96	0x3e321eb9	0.17394532
97	0xbe84d9c0	-0.2594738
98	0xbe55314b	-0.20819585
99	0xbaa4f76d	-0.0012585946
100	0xbe5121fa	-0.20423117
101	0x3be38b7c	0.006944118
102	0xbe846859	-0.2586086
103	0xbe9732e9	-0.2953103
104	0xbdbebf21	-0.09313799
105	0xbcc2509b	-0.023720076
106	0x3e8f73e8	0.28018117
107	0xbe396563	-0.18105082
108	0x3e131a05	0.14365394
109	0x3ccfafd8	0.025352404
110	0x3c906ff9	0.017631518
111	0x3d61a3eb	0.055087965
112	0xbd15a1bd	-0.0365312
113	0xbd3dc740	-0.046332598
114	0xbe5f31fc	-0.21796411
115	0xbe342550	-0.17592359
116	0xbe27330c	-0.16328067
117	0xbe817561	-0.25284865
118	0xbe5b3214	-0.21405822
119	0x3d91d8a6	0.071214005
120	0xbe3c90bb	-0.18414585
121	0xbc4cda8a	-0.012503276
122	0xbe773423	-0.24140982
123	0x3e5a320d	0.21308155
124	0x3e8a31e0	0.26991177
125	0xbe96c9b5	-0.29450765
126	0xbdcf1a21	-0.101124056
127	0xbe17b131	-0.14813687
128	0x3e287d06	0.16453943
129	0x3e8a3d57	0.26999924
130	0x3cd7f07c	0.02635979
131	0x3e0a26d5	0.13491376
132	0xbe1b15d1	-0.15145041
133	0xbdb95c0e	-0.09050761
134	0x3d4333cf	0.04765683
135	0x3acbba86	0.0015543259
136	0xbe2f850d	-0.17140599
137	0x3d8e1ecd	0.069394685
138	0xbe1258f8	-0.14291751
139	0xbe617ecb	-0.22021024
140	0xbe3747fc	-0.17898554
141	0xbe3f99f1	-0.18711068
142	0x3e7d6b74	0.24748021
143	0x3dc457c2	0.09587051
144	0xbd4ad1c3	-0.04951645
145	0x3e517a8d	0.20456906
146	0xbd4b8520	-0.049687505
147	0x3ebb2298	0.3654983
148	0x3e194b00	0.14970016
149	0x3e54d500	0.20784378
150	0x3e3e4f94	0.18585044
151	0x3ed607b5	0.41802755
152	0x3be76a28	0.0070622154
153	0x3ddc2c3d	0.10750625
154	0xbe3df230	-0.18549418
155	0x3cd1a899	0.025593089
156	0x3d69f5a2	0.05711902
157	0x3b94da18	0.0045426004
158	0xbe43acf4	-0.19108945
159	0x3ea71cb1	0.32639077
160	0xbdc6933e	-0.09696053
161	0x3ddd29d2	0.10798992
162	0xbe317ba3	-0.1733232
163	0x3e94f340	0.29091835
164	0xbd0dee04	-0.034650818
165	0x3eecf8d4	0.4628359
166	0xbe30fb0a	-0.17283264
167	0x3ed91e58	0.42405963
168	0xbda0285e	-0.078201994
169	0x3ea8d77b	0.329769
170	0xbc543f0e	-0.0129544865
171	0x3e0409dd	0.12894388
172	0x3dc7bee8	0.09753209
173	0x3ed0fd94	0.40818465
174	0x3e6627c5	0.22476108
175	0x3f085430	0.5325346
176	0xbe20dcf0	-0.15709281
177	0x3e1ff6c4	0.15621477
178	0x3db8583f	0.090012066
179	0x3e72fdca	0.23729625
180	0x3db5f7ef	0.0888518
181	0xbe6177f6	-0.22018418
182	0x3d39d21e	0.0453664
183	0xbe58be53	-0.21166353
184	0xbe301b3a	-0.17197886
185	0xbd944d53	-0.07241311
186	0x3e3c80db	0.1840853
187	0xbe625b4e	-0.22105142
188	0x3e4fc4e5	0.20289953
189	0x3ca8113b	0.020516029
190	0x3c7895c1	0.015172423
191	0xbe1c8cad	-0.15288039
192	0x3de0509d	0.10952876
193	0xbe4ccc96	-0.19999918
194	0x3e870aa0	0.26375294
195	0xbe8d0003	-0.2753907
196	0xbe281a9d	-0.16416402
197	0xbe15a0de	-0.14612147
198	0xbe541178	-0.20709789
199	0x3be10f7d	0.0068683014
200	0x3e8cdab8	0.2751062
201	0xbd987cc4	-0.07445672
202	0xbd57bed3	-0.05267222
203	0x3c901386	0.017587435
204	0x3e615332	0.22004393
205	0x3ca11093	0.019661224
206	0x3e4564ba	0.19276705
207	0xbe6dc749	-0.23220553
208	0xbe872e43	-0.26402482
209	0x3e2a78a7	0.16647588
210	0xbe7bf168	-0.24603808
211	0xbd345786	-0.04402878
212	0x3daf5dc9	0.0856281
213	0x3dfc269c	0.12312052
214	0x3d9028b7	0.07039016
215	0xbd2df5c2	-0.0424707
216	0x3e2ba3f7	0.16761766
217	0x3e13357d	0.14375873
218	0xbe9da137	-0.3078706
219	0x3db2ec50	0.08736479
220	0x3d9eb5af	0.07749497
221	0x3dd6e86a	0.10493548
222	0x3ca49b93	0.020093715
223	0x3e233249	0.15937151
224	0xbda4b2ca	-0.08041914
225	0xbd586023	-0.052826058
226	0x3da1155f	0.07865404
227	0xbd6bdcb5	-0.05758353
228	0x3b650d55	0.0034950573
229	0xbda036ac	-0.07822928
230	0x3de10e62	0.109890714
231	0x3c4472d9	0.011990272
232	0x3ddb6c86	0.107140586
233	0xbe16b171	-0.14716126
234	0x3e3353fe	0.17512509
235	0xbd8688ea	-0.06569083
236	0xbde74a1d	-0.11293433
237	0x3dbe491c	0.09291288
238	0x3e300254	0.17188388
239	0xbe012c95	-0.12614663
240	0x3e150dc4	0.14556032
241	0x3e715560	0.23567724
242	0x3e0c8746	0.13723478
243	0x3e11d7ce	0.14242479
244	0xbaaabe9a	-0.0013026774
245	0x3e18ed44	0.1493426
246	0x3ddc00ac	0.10742316
247	0x3d6540f9	0.055970166
248	0xba8f709b	-0.0010943593
249	0x3e279b28	0.16367781
250	0x3e2e4e00	0.17021942
251	0x3c304ef9	0.010761016
252	0x3e8cb754	0.27483618
253	0x3ddab4f2	0.10679044
254	0x3dccf8f7	0.10008424
255	0x3d59117f	0.0529952

layer2.0.bias f4 [256]
0	0x3f6a6785	0.9156421
1	0xbf08024b	-0.531285
2	0xbd7d6f82	-0.06187392
3	0xbf4adc0d	-0.7924202
4	0x3e3ed3a1	0.18635418
5	0x3fa2f74b	1.2731718
6	0x3fb5295b	1.4153246
7	0x3f362af1	0.71159273
8	0xbf5b216a	-0.8559786
9	0xbf0d912d	-0.55299646
10	0xbf7d77ba	-0.99010813
11	0x3b1a64fa	0.0023558722
12	0x3d9fc99e	0.07802127
13	0x3d8a8638	0.067638814
14	0xbecd7db9	-0.4013498
15	0xbed0bcb8	-0.4076898
16	0x3f7e7525	0.993975
17	0x3fbb8ef6	1.4653003
18	0xbf881071	-1.0630018
19	0xbfabb5d4	-1.3414865
20	0x3f86eea2	1.0541575
21	0x3dad237c	0.08454034
22	0xbf114547	-0.56746334
23	0xbe15cf90	-0.1462996
24	0x3fbf1bca	1.4930356
25	0x3fa819e7	1.3132905
26	0xbf7ab2d4	-0.9792912
27	0xbf20c0c8	-0.6279416
28	0x3f2ddfbe	0.6791953
29	0xbf95c8c7	-1.1701897
30	0x3fd8ae83	1.6928257
31	0xbfb52b7f	-1.4153899
32	0x3f673e61	0.9032956
33	0xbecae7c6	-0.39629954
34	0x3fc31c6a	1.5243046
35	0xbf0696fd	-0.5257414
36	0xbe42ee3c	-0.19036192
37	0xbe6a0ee8	-0.22857249
38	0xbf435c63	-0.76312846
39	0x3f8a9f5b	1.0829881
40	0xbf2f6a0a	-0.6852118
41	0x3ef26543	0.47342882
42	0x3f9057b9	1.1276771
43	0x3eccefe4	0.40026772
44	0xbf7f4070	-0.997077
45	0xbe0fd887	-0.14047442
46	0xbf502005	-0.8129886
47	0x3fa9bb63	1.3260311
48	0xbfa1c431	-1.2637998
49	0x3d2b876f	0.041877206
50	0x3f74c3e3	0.956114
51	0x3e21bb35	0.1579407
52	0xbd57ca20	-0.052682996
53	0x3fb36917	1.4016446
54	0xbf79d485	-0.97589904
55	0xbf775bc0	-0.96624374
56	0x3be6635f	0.007030889
57	0xbc98b5d0	-0.018641382
58	0x3f05d059	0.5227104
59	0x3ed6f315	0.41982332
60	0xbfe39e0d	-1.7782608
61	0xbf3c0d4a	-0.7345778
62	0xbf9053ce	-1.1275575
63	0x3ebe3005	0.3714601
64	0x3f913f60	1.1347466
65	0xbf28b435	-0.65899974
66	0x3f9e7fb0	1.2382717
67	0xbf106812	-0.564088
68	0xbdfd8195	-0.123782314
69	0x3fa75343	1.3072284
70	0xbea7eede	-0.3279943
71	0xbf29e5a2	-0.66366017
72	0x3f87e847	1.061776
73	0xbf0a156c	-0.5393894
74	0xbf8e2974	-1.11064
75	0x3f9ffd0a	1.2499096
76	0xbe415eea	-0.18883863
77	0x3fcdc202	1.6074831
78	0xbf81042b	-1.0079397
79	0xbb9ec7de	-0.0048456034
80	0xbfa7df3f	-1.3115004
81	0x3d61a5af	0.05508965
82	0xbf740e55	-0.9533437
83	0xbf201062	-0.62525
84	0x3f873397	1.0562619
85	0xbfb27d1b	-1.3944429
86	0xbd5dd8d6	-0.05416187
87	0xbf83fb82	-1.0311129
88	0xbef3c7f0	-0.47613478
89	0xbd89f2c0	-0.06735754
90	0x3eed9467	0.46402285
91	0xbf9d4dff	-1.2289428
92	0xbefaada5	-0.48960605
93	0xbee961da	-0.45582467
94	0xbe64f79a	-0.22360078
95	0xbfa46f04	-1.2846379
96	0x3ed024f7	0.40653202
97	0x3efdd1db	0.4957417
98	0xbdec8284	-0.115483314
99	0x3d8089e6	0.06276302
100	0xbd2247c0	-0.039619207
101	0x3fc0d544	1.5065084
102	0x3f9adfa0	1.2099495
103	0xbee4e8a9	-0.44708756
104	0x3f955f98	1.1669798
105	0x3fad711f	1.3550147
106	0x3f77149a	0.9651581
107	0xbf979024	-1.1840863
108	0xbf8ef8fb	-1.1169733
109	0xbf05e527	-0.52302784
110	0x3f97447a	1.1817772
111	0x3faf37ce	1.3688905
112	0x3cdc04e3	0.026857799
113	0xbf241ce1	-0.64106566
114	0xbf251543	-0.6448557
115	0xbf33af30	-0.7018919
116	0xbf084491	-0.53229624
117	0x3eafff18	0.3437431
118	0xbe70eb09	-0.23527159
119	0xbe4c2210	-0.19934869
120	0xbf252aec	-0.6451862
121	0x3f31bfd3	0.69433326
122	0xbf42ce2f	-0.7609586
123	0x3ea1a81c	0.3157357
124	0xbd35011a	-0.044190504
125	0x3f161909	0.5863195
126	0xbe8f5270	-0.27992582
127	0x3f871b55	1.0555216
128	0x3f41a9b1	0.75649554
129	0xbe88d167	-0.2672226
130	0x3fe2138d	1.7662216
131	0x3e36368c	0.17794245
132	0x3faed262	1.3657954
133	0xbf2f5a71	-0.6849738
134	0x3e999841	0.29998973
135	0xbf144f19	-0.57933193
136	0xbf492758	-0.7857566
137	0xbf96e99b	-1.1790041
138	0xbe841399	-0.25796202
139	0xbeedf3fb	-0.46475205
140	0xbf960b10	-1.1722126
141	0x3c5abf67	0.013351298
142	0x3fcbe522	1.5929301
143	0x3f4acda5	0.7922004
144	0xbf8b26e6	-1.0871246
145	0x3fbef013	1.4917015
146	0xbf138544	-0.5762522
147	0x3fc25218	1.5181303
148	0x3fbb0a6f	1.4612559
149	0xbfc255fe	-1.5182493
150	0x3fe3f3c6	1.7808769
151	0x3f11034d	0.5664566
152	0x3f6dbdb8	0.9286761
153	0xbf39597e	-0.7240218
154	0x3eadf98e	0.33979458
155	0x3e85cacc	0.26131284
156	0xbd90ba3b	-0.07066771
157	0xbf7e3866	-0.9930481
158	0x3f875895	1.0573908
159	0xbf0f8e4f	-0.5607652
160	0x3f914e94	1.1352105
161	0xbdd1ccd8	-0.10244149
162	0xbc38c6b3	-0.011277842
163	0x3dc41b2b	0.095754944
164	0xbecf557b	-0.40494904
165	0xbd85d3d2	-0.06534542
166	0xbda9ab28	-0.082845986
167	0x3e23f1e7	0.16010247
168	0xbec4c2f9	-0.38430002
169	0x3e41c1cf	0.18921588
170	0xbf4eba89	-0.8075338
171	0x3fa2b33e	1.271095
172	0xbfa07d9b	-1.2538332
173	0x3ec462cd	0.3835663
174	0xbf99d3ff	-1.2017821
175	0xbfa93859	-1.3220321
176	0xbf7683d0	-0.9629488
177	0xbec4d2ff	-0.38442227
178	0x3f020e61	0.5080319
179	0xbf23a4eb	-0.6392352
180	0x3fd3d981	1.6550752
181	0xbed8d36b	-0.423488
182	0xbf09e853	-0.53870124
183	0xbecbbff4	-0.39794886
184	0x3f8b9066	1.0903442
185	0xbfa2d839	-1.2722236
186	0x3f6e2c81	0.9303666
187	0x3f80bd4f	1.0057772
188	0x3ea09c72	0.31369358
189	0xbe1f1f38	-0.15539253
190	0x3f8e98eb	1.1140417
191	0x3f75ad83	0.9596788
192	0xbf8022be	-1.0010602
193	0xbe113f62	-0.14184335
194	0xbfa51fb5	-1.2900301
195	0x3f864441	1.048958
196	0x3fa897d4	1.3171334
197	0xbf99fa67	-1.2029542
198	0x3e129951	0.14316298
199	0xbf51ce20	-0.81955147
200	0x3f7f5fd1	0.9975558
201	0xbf6ecc41	-0.93280417
202	0x3fb30e46	1.3988731
203	0xbf5c5a5b	-0.8607537
204	0xbee1437d	-0.43996802
205	0xbf333ae6	-0.70011747
206	0x3f1c3f10	0.61033726
207	0xbf4cc8a6	-0.79993665
208	0x3f8e735f	1.1128958
209	0xbefc9b91	-0.49337438
210	0xbe68bf32	-0.22729185
211	0x3d14aed8	0.036299556
212	0xbf28e3d0	-0.65972614
213	0x3f795e0d	0.97409135
214	0xbe96a97d	-0.29426184
215	0xbfc330da	-1.5249283
216	0x3f8b50fa	1.0884087
217	0xbdbd7c88	-0.09252268
218	0x3fb43fc1	1.4081956
219	0x3fbf6daa	1.4955342
220	0xbe1a585b	-0.15072767
221	0x3faa3f43	1.3300556
222	0xbf741d8e	-0.95357597
223	0xbbf25d14	-0.0073963497
224	0x3ef0e980	0.47053146
225	0xbf8cc607	-1.0997933
226	0xbf7d5b6f	-0.9896764
227	0x3f36ad21	0.71357924
228	0xbf8ce44f	-1.1007174
229	0x3fab2cf4	1.3373094
230	0x3ddfbbf3	0.1092452
231	0xbfadd88b	-1.3581709
232	0x3f03fd9b	0.51558846
233	0xbf199adf	-0.6000194
234	0x3fb1e86c	1.3899055
235	0xbf3a7a55	-0.72842914
236	0xbf5da9c0	-0.8658714
237	0xbf83478a	-1.0256207
238	0xbea007cb	-0.31255946
239	0xbed38466	-0.4131195
240	0xbfa3cec8	-1.279748
241	0xbfb9b358	-1.4507856
242	0xbed3040d	-0.41214028
243	0x3f6c806a	0.92383444
244	0xbfb46f20	-1.4096413
245	0x3fbdf371	1.4839917
246	0xbf77d83c	-0.9681432
247	0xbef63a7a	-0.4809149
248	0xbebe77e0	-0.37200832
249	0x3eadb2f6	0.339256
250	0xbf8fc1d2	-1.1231024
251	0x3f5a5085	0.85279113
252	0x3fa9421b	1.3223299
253	0xbe1b741f	-0.15181015
254	0xbf9f4b77	-1.2444905
255	0x3f048000	0.5175781

layer2.2.weight f4 [256, 256]
0	0x3d0337b0	0.03203553
1	0xbbf5a760	-0.0074967593
2	0xbc7b2370	-0.015328273
3	0xbd38e4ef	-0.045140203
4	0xbd344834	-0.04401417
5	0x3d754530	0.059880435
6	0xbd882ce4	-0.06649187
7	0xbbd79041	-0.0065784757
8	0xbd890a87	-0.06691461
9	0xbd8872de	-0.06662534
10	0x3d1cfa5f	0.03832471
11	0x3ccb590d	0.024822736
12	0xbcdc53ac	-0.026895367
13	0xbd5a2938	-0.053261966
14	0xbc517217	-0.012783549
15	0x3d79e2c4	0.061007276
16	0xbd270e4c	-0.04078512
17	0xbd53e14c	-0.05172853
18	0xbd3ccde4	-0.04609479
19	0xbd5f8b8a	-0.054576434
20	0x3d0961f4	0.03354068
21	0xbd7a8cda	-0.061169483
22	0xbd4e587f	-0.050377365
23	0x3cee7dbe	0.029112693
24	0xbc6dd096	-0.014515063
25	0xbba55db7	-0.005046572
26	0xbd86b0fd	-0.065767266
27	0x3b872860	0.004124686
28	0x3d6a88a6	0.057259224
29	0xbc837beb	-0.0160503
30	0x3cf8a5ba	0.030352462
31	0xbc819482	-0.015817884
32	0xbd4e19c9	-0.05031756
33	0x3c4a70ef	0.012356027
34	0xbd36b996	-0.044610582
35	0xbcd4a5c1	-0.025957944
36	0x3d1c46a3	0.038153302
37	0xbcbf9b94	-0.023389615
38	0x3ced972e	0.029002752
39	0xbd315fe4	-0.04330434
40	0xbd6123e4	-0.05496587
41	0x3d542cf4	0.051800683
42	0xbc0cbfa7	-0.008590615
43	0x3d7d0aba	0.061777808
44	0x3d1f7e8e	0.03893905
45	0x3bc81324	0.0061057974
46	0x3a8c925b	0.001072477
47	0x3cfc5d03	0.03080607
48	0xbd1ca251	-0.038240734
49	0xbd5842f3	-0.052798223
50	0xbd2ec159	-0.04266486
51	0x3bdc7bc4	0.006728621
52	0x3d0556f2	0.03255362
53	0xbd2aee49	-0.041731153
54	0xbc12de4f	-0.008964135
55	0xbd3b07bb	-0.04566167
56	0x3c1cb289	0.0095640505
57	0x3d452a30	0.048135936
58	0xbd1bee9b	-0.03806935
59	0x3ca59dce	0.020216849
60	0xbd672378	-0.05643031
61	0xbd010ded	-0.03150742
62	0x3c9c6110	0.019089252
63	0x3c8ed1a0	0.017433941
64	0xbc51c991	-0.012804405
65	0xbcae4246	-0.021271836
66	0x3beba104	0.0071908254
67	0xbc6f5e75	-0.014609923
68	0xbcc8f620	-0.024531424
69	0x3b879d35	0.0041386136
70	0xbb9ccf28	-0.004785437
71	0xbd2dc513	-0.042424273
72	0xbd0f7b68	-0.0350298
73	0xbc266337	-0.010155491
74	0x3d4a85a9	0.049443875
75	0xbd46a07f	-0.048492905
76	0xbd83af5d	-0.06429932
77	0xbd0c2844	-0.034218088
78	0xbcf35f5f	-0.029708562
79	0x3c5147b8	0.012773447
80	0xbc256100	-0.010093927
81	0xbd0e907c	-0.03480576
82	0x3cea67a0	0.028613865
83	0xbd7be8d2	-0.06150133
84	0x3b93a90d	0.0045062364
85	0x3d36c9fa	0.044626214
86	0xbd21eb03	-0.039530765
87	0x3cb1575a	0.021648098
88	0x3b58d237	0.0033084282
89	0x3d07c0cd	0.033142854
90	0xbd1118f0	-0.035424173
91	0xbd93204d	-0.07183895
92	0x3cc0bffc	0.023529045
93	0xbc87a3ed	-0.016557658
94	0xbd10bc54	-0.035335854
95	0x3cc2247a	0.023699034
96	0x3b7571cb	0.003745186
97	0x3d33526f	0.043779787
98	0x3abe10c4	0.0014500846
99	0xbca9adfc	-0.020712845
100	0x3d7260c5	0.059174318
101	0xbc5e40e4	-0.013565276
102	0x3d09cb88	0.03364137
103	0x3ceb1b1c	0.02869945
104	0x3c373b92	0.011183636
105	0xbcc0a9cd	-0.023518467
106	0x3ad70e40	0.0016407445
107	0x3b8b9640	0.0042598546
108	0x3cb98fea	0.022651631
109	0x3d793a04	0.060846344
110	0xbd8ae981	-0.067828186
111	0xbd7763cb	-0.060397904
112	0x3d766198	0.060151666
113	0xbbe7d758	-0.0070752315
114	0x3c477dfc	0.012176033
115	0xbd31a6d4	-0.04337199
116	0x3cec00dc	0.028809004
117	0x3abcbd8f	0.0014399755
118	0xbcf300a1	-0.029663386
119	0xbbb6fc20	-0.005584255
120	0xbd17e4c8	-0.037083417
121	0x3d531de6	0.051542185
122	0x3d2b49a3	0.041818272
123	0xbbd76cd6	-0.0065742536
124	0x3b28d9ca	0.0025764578
125	0xbd5f0777	-0.05445048
126	0x3d55244b	0.052036565
127	0x3cd1a028	0.025589064
128	0xbb6f3ee0	-0.0036505982
129	0xbc1f06d3	-0.009706217
130	0x3c173df0	0.009231076
131	0xbb2c0202	-0.0026246314
132	0x3c3a1a39	0.011358791
133	0xbcb95698	-0.022624299
134	0x3d6611d0	0.05616933
135	0x3d29730d	0.041369487
136	0x3cc7e95e	0.02440327
137	0x3cbdaa8c	0.023152612
138	0x3b1ccd00	0.00239259
139	0xb9a8eaa3	-0.00032218275
140	0xbd6ca5f5	-0.057775456
141	0x3d47efb3	0.04881258
142	0x3c50b036	0.012737324
143	0xbd6d5d5f	-0.057950374
144	0xbc128835	-0.008943607
145	0xbd007f22	-0.031371243
146	0xbd177cd9	-0.0369843
147	0x3bab5f41	0.005229861
148	0xbb02845d	-0.001991532
149	0xbcd5e8dd	-0.026112014
150	0x3c380bda	0.011233294
151	0xbce40ffc	-0.027839653
152	0xbc696a58	-0.014246546
153	0xbd7f1402	-0.06227494
154	0xbcf71a92	-0.030164037
155	0x3d7cec32	0.06174869
156	0xbcf5b4f3	-0.02999351
157	0xbc9c440c	-0.019075416
158	0xbc961e8e	-0.018325116
159	0x3c979fd4	0.01850883
160	0x3d0538d3	0.032524895
161	0x3d1ff7e2	0.03905476
162	0xbd4f19ee	-0.050561838
163	0x3d62f7da	0.05541215
164	0x3c6ba390	0.014382258
165	0x3c2bc8ad	0.010484857
166	0xbd44391d	-0.04790603
167	0x3d42ac60	0.04752767
168	0x3d5919b3	0.053003024
169	0x3cf38880	0.029728174
170	0xbcc77df6	-0.024352055
171	0x3b324d63	0.002720677
172	0x3c55f2e5	0.013058399
173	0xbd6cfca4	-0.057858124
174	0xbd96a6aa	-0.073560074
175	0xbc24ab37	-0.010050586
176	0x3bb70144	0.0055848677
177	0xbcade56e	-0.021227565
178	0x3d0a0c96	0.03370341
179	0x3d1ba6c0	0.038000822
180	0x3d042512	0.032261916
181	0xbcafd34c	-0.021463059
182	0x3bed7f7b	0.007247863
183	0x39d5ca44	0.00040777226
184	0xbd539717	-0.051657762
185	0xbd16f3be	-0.036853544
186	0x3c99c29b	0.018769553
187	0xbd7e7364	-0.062121764
188	0x3bff3a74	0.0077889506
189	0x3cc4d607	0.024027837
190	0xbd3ba91d	-0.045815576
191	0xbc29eac8	-0.010370918
192	0xbd6d5384	-0.057940975
193	0xbd3aae43	-0.045576345
194	0x38f397c2	0.0001161541
195	0xbc2db094	-0.010601182
196	0xbca7ccfc	-0.020483486
197	0xbd7dc3dc	-0.061954364
198	0x3d5cfeb0	0.053953826
199	0xbd8293b5	-0.06375829
200	0x39934521	0.0002808953
201	0x3c8aa394	0.016923703
202	0xbcfddd11	-0.030989202
203	0xbc630764	-0.0138567425
204	0x3c4bec63	0.012446496
205	0xbd805f42	-0.06268169
206	0xbd0a64ce	-0.03378754
207	0xbd207c94	-0.039181307
208	0xbd4b0fb7	-0.049575534
209	0x3d271ba6	0.040797852
210	0x3d33e620	0.043920636
211	0xba40615e	-0.00073387276
212	0xbd28c2bc	-0.04120134
213	0xbd0da4c7	-0.034580972
214	0x3d5465ba	0.051854827
215	0x3d267af3	0.040644597
216	0x3d19875b	0.0374826
217	0xbd469c96	-0.048489176
218	0xbd0b122c	-0.033952877
219	0x3cb41dfd	0.021986956
220	0xbd08ea4e	-0.033426575
221	0xbc816796	-0.015796464
222	0x39cd8bb6	0.0003920474
223	0xbd82449b	-0.06360742
224	0x3d72fe1a	0.05932436
225	0xbace99f7	-0.0015762438
226	0x3d34e02c	0.0441591
227	0x3d4649c0	0.048410177
228	0x3d4d3ac0	0.050104856
229	0xbc0e7c10	-0.008696571
230	0xbd3eef24	-0.04661478
231	0xbca34000	-0.019927979
232	0x3d54ee24	0.05198492
233	0x3d4bfca5	0.049801487
234	0xbd2f95a3	-0.042867314
235	0x3c21b277	0.0098692095
236	0xbd922c26	-0.07137327
237	0x3d417dea	0.04723922
238	0xbc458e6f	-0.012057885
239	0xbba6dd60	-0.005092308
240	0xbd13b526	-0.03606143
241	0x3c85548f	0.016275672
242	0xbcaa8640	-0.020815969
243	0x3bbf7380	0.005842626
244	0x3d542843	0.05179621
245	0x3b676b40	0.0035311729
246	0xbd3c6464	-0.045994177
247	0xbd331fe3	-0.04373158
248	0xbb823830	-0.003973983
249	0x3d42c757	0.047553387
250	0xbb8c0b66	-0.0042738197
251	0x3ccfe336	0.025376897
252	0xbc212e20	-0.009837657
253	0x3c5635c0	0.013074338
254	0xbd7736f9	-0.06035516
255	0xbc8416e9	-0.016124206

layer2.2.bias f4 [256]
0	0xbcd9106b	-0.026497087
1	0xbc8a0e0f	-0.016852407
2	0x3fb94d5a	1.4476731
3	0xbeae7d75	-0.3408009
4	0xbe20c87c	-0.15701479
5	0x3f92076a	1.1408513
6	0xbe14fa4e	-0.14548609
7	0xbe8861d8	-0.2663715
8	0x3f8219a8	1.016408
9	0x3fb596ef	1.4186686
10	0xbeca3f33	-0.39501342
11	0xbd580499	-0.05273876
12	0xbe0d94ed	-0.13826342
13	0xbdd063c1	-0.101752765
14	0xbec46363	-0.38357076
15	0x3f9fd1a4	1.2485852
16	0x3d04cc83	0.0324216
17	0xbc4498d6	-0.01199933
18	0xbde728b6	-0.11287062
19	0x3fb449ef	1.4085063
20	0xbdba2821	-0.09089685
21	0x3f10e299	0.5659576
22	0x3fa6cdbc	1.3031535
23	0x3e9ec0b0	0.31006384
24	0x3ebe6deb	0.37193236
25	0xbea9b49a	-0.331456
26	0xbe30b310	-0.17255807
27	0x3f9f8f4c	1.2465606
28	0x3fd1ec9d	1.6400334
29	0xbedff4bb	-0.43741402
30	0x3f98fbf5	1.1951891
31	0xbc5c2e0c	-0.013438713
32	0x3d8d75cb	0.06907233
33	0x3fb4d9cf	1.412897
34	0x3f9c66a0	1.2218819
35	0xbdbbc750	-0.09168875
36	0x3fa3e8fc	1.2805476
37	0xbd632740	-0.055457354
38	0xbe62c99f	-0.22147225
39	0x3ca5be02	0.020232204
40	0x3fa95ec0	1.323204
41	0xbda1d2c1	-0.07901526
42	0xbd891f18	-0.06695384
43	0xbd22f670	-0.039785802
44	0xbeb313ec	-0.34976137
45	0x3f56c539	0.8389469
46	0x3fa645c9	1.2990047
47	0x3c93ee24	0.01805789
48	0xbe662ae3	-0.22477297
49	0x3f9f5896	1.2448909
50	0x3fa91a06	1.3211067
51	0x3fa91ac2	1.3211291
52	0x3fb48c0c	1.4105239
53	0xbd2308b1	-0.03980321
54	0x3fa14eb9	1.2602149
55	0x3b910ea0	0.0044267923
56	0x3f4d88d1	0.8028689
57	0x3fbe0257	1.4844464
58	0xbc142e0d	-0.0090441825
59	0x3fb49e6d	1.4110848
60	0xbe48c0af	-0.19604753
61	0xbda54b68	-0.08071023
62	0xbe5f7ff9	-0.21826161
63	0x3f1547ee	0.5831288
64	0x3faeab16	1.3645961
65	0x3f9a9bb7	1.207877
66	0x3da47a66	0.08031158
67	0xbd5ec943	-0.054391157
68	0x3f9ac400	1.2091064
69	0x3faaa2a2	1.3330882
70	0x3da6a333	0.081365965
71	0x3faf41f2	1.3692
72	0x3c8c5cd1	0.017134102
73	0x3f9e30a9	1.23586
74	0x3cc84175	0.024445275
75	0x3fad06d2	1.3517706
76	0x3fa8d4bb	1.318992
77	0x3faacee4	1.3344388
78	0xbe854189	-0.26026562
79	0xbe42f956	-0.19040427
80	0xbe7bc234	-0.24585801
81	0x3fade2c7	1.3584832
82	0x3c711d5a	0.014716471
83	0xbef5937e	-0.4796409
84	0x3da86fff	0.082244866
85	0x3c92be7a	0.017913092
86	0xbe7dad1b	-0.24773066
87	0x3ed63c46	0.4184286
88	0x3bb02c01	0.0053763394
89	0xbd2545d5	-0.0403498
90	0x3e85743f	0.2606525
91	0xbe940fba	-0.28918248
92	0x3facb0c3	1.3491443
93	0x3e02b201	0.12763216
94	0x3f06949e	0.5257052
95	0x3fa9c26a	1.3262455
96	0xbe0f9b09	-0.14023985
97	0xbe56f495	-0.20991738
98	0x3fa821bf	1.3135298
99	0x3d67a8a6	0.05655732
100	0x3fa44d5d	1.2836109
101	0xbe800d92	-0.25010353
102	0x3f915402	1.1353762
103	0xbe07391a	-0.13205376
104	0xbe11371e	-0.14181182
105	0xbdd531b3	-0.1040987
106	0xbd99cb38	-0.07509464
107	0xbc1c75fc	-0.009549614
108	0xbd415934	-0.04720421
109	0x3fa79eef	1.3095378
110	0x3f844d87	1.033616
111	0x3fac3628	1.3454027
112	0x3facc6d7	1.3498181
113	0xbcf4f6a0	-0.029902756
114	0xbdd3ffb8	-0.10351509
115	0x3cd484e5	0.025942275
116	0xbd6bd489	-0.057575736
117	0xbd26754e	-0.040639214
118	0x3fa15708	1.2604685
119	0x3d28e069	0.04122964
120	0x3f869fc9	1.0517513
121	0xbe9b71b0	-0.30360174
122	0x3c74b11e	0.014934806
123	0x3fa4fd8d	1.2889878
124	0x3cffb636	0.031214815
125	0x3f8ad4dd	1.0846211
126	0xbe8abe11	-0.27098134
127	0x3a4407a3	0.00074779446
128	0xbdb1a23b	-0.08673521
129	0xbd7d5a16	-0.06185349
130	0x3fa5fbcd	1.2967469
131	0x3f92dfad	1.147451
132	0xbe7654b4	-0.24055749
133	0xbc01d67b	-0.007924671
134	0xbc91a4f0	-0.017778844
135	0xbdb3b145	-0.08774046
136	0x3fab2750	1.3371372
137	0xbee3ca7c	-0.4449042
138	0x3fac18f8	1.344512
139	0xbe800860	-0.2500639
140	0x3fa0175d	1.250713
141	0x3fae5575	1.361983
142	0x3fa56806	1.292237
143	0x3fa7fa9f	1.3123358
144	0xbbb636c3	-0.0055607273
145	0x3f536e9c	0.8259065
146	0xbe2aa72c	-0.16665334
147	0x3d6fb69f	0.05852377
148	0xbeae1e5f	-0.34007546
149	0xbec05244	-0.37562764
150	0xbceadc92	-0.02866963
151	0x3bd0e0aa	0.0063744383
152	0x3fbc5fee	1.4716775
153	0x3fabbecb	1.34176
154	0xbe8642f4	-0.26222956
155	0x3e93f117	0.28894874
156	0x3c374abd	0.011187253
157	0x3fa81add	1.3133198
158	0x3f8eb941	1.1150285
159	0xbe8da4ff	-0.27664945
160	0xbd7c211e	-0.06155502
161	0x3fb3504d	1.4008881
162	0x3cdbe7e5	0.026843974
163	0x3be4f4a8	0.006987173
164	0x3f8d3891	1.1032888
165	0x3e831541	0.25602153
166	0xbdf73936	-0.12071459
167	0x3fb244e1	1.392727
168	0xbe4f4b57	-0.20243584
169	0xbd826135	-0.06366197
170	0x3f963ef0	1.1737957
171	0xbd893d4c	-0.067011446
172	0x3eaf3512	0.34220177
173	0xba96dfa6	-0.0011510744
174	0x3f73e526	0.9527153
175	0x3f8c96c6	1.0983512
176	0x3f17f100	0.5935211
177	0x3f67fe63	0.9062254
178	0x3fa60cb9	1.2972633
179	0x3ed85727	0.42253992
180	0xbd8064d6	-0.06269233
181	0x3f4ac69f	0.7920932
182	0x3faefa4d	1.3670136
183	0xbc3df36e	-0.011593683
184	0x3f8c7a48	1.0974817
185	0x3ebaf867	0.3651764
186	0xbe9b24d6	-0.3030154
187	0x3f9f7087	1.2456216
188	0x3e87309f	0.26404282
189	0x3f90ed43	1.1322407
190	0x3f297d77	0.6620707
191	0xbc95e786	-0.018298876
192	0x3ce79773	0.028270459
193	0x3fa2bf11	1.2714559
194	0x3fa74941	1.306923
195	0x3c89619b	0.016770175
196	0x3dc629da	0.09675951
197	0xbdd1d93b	-0.102465115
198	0x3faabb90	1.333849
199	0x3fae0c0d	1.3597428
200	0x3fa4b257	1.2866925
201	0x3f9cba23	1.2244304
202	0x3fbae1a0	1.4600105
203	0xbc821959	-0.015881227
204	0xbec7e6c4	-0.39043248
205	0x3f00f6d6	0.5037664
206	0x3fa84914	1.3147302
207	0xbeb7ac64	-0.3587371
208	0xbe09d086	-0.13458452
209	0x3f875cc6	1.0575187
210	0x3f9cfeb7	1.2265233
211	0xbf0ed56c	-0.55794406
212	0xbe1cd464	-0.15315396
213	0xbe80ab0b	-0.25130495
214	0xbd91ea55	-0.071247734
215	0x3fae2647	1.3605431
216	0x3f18d27c	0.59696174
217	0x3d436d40	0.04771161
218	0xbdaa001d	-0.08300803
219	0x3fa639c8	1.2986383
220	0xbf00d969	-0.5033174
221	0x3fa4f9c5	1.2888724
222	0xbdb4035d	-0.08789704
223	0xbc22dc0e	-0.00994016
224	0xbe3f0c43	-0.18657021
225	0x3f9faac6	1.2473991
226	0x3d36b1d9	0.044603202
227	0x3f04022b	0.5156581
228	0x3ae56a50	0.0017502997
229	0xbd82e0c8	-0.0639053
230	0x3ba24902	0.004952551
231	0x3f9fcf66	1.2485168
232	0xbcfd3209	-0.030907648
233	0x3f8e5468	1.1119509
234	0xbe9f48c8	-0.31110215
235	0x3ee40fa7	0.44543192
236	0x3d721309	0.059100185
237	0xbd88d2b0	-0.066808105
238	0x3f8ab5ed	1.0836769
239	0x3f9fc8aa	1.2483113
240	0xbe13b6ad	-0.14425154
241	0x3eb7ddf7	0.35911533
242	0x3fa63b34	1.2986817
243	0x3e18f2b7	0.14936338
244	0x3e0f8348	0.14014924
245	0x3fb6f136	1.4292362
246	0xbc6d6e3e	-0.014491616
247	0xbcf2a1a3	-0.02961809
248	0xbe83057f	-0.2559013
249	0xbdf1a029	-0.11798126
250	0xbd9828c3	-0.0742965
251	0xbd4277b8	-0.047477454
252	0x3f9c39eb	1.2205175
253	0xbd513a5b	-0.051081043
254	0xbebc6224	-0.36793625
255	0x3f9d30cf	1.228052

layer2.4.weight f4 [1, 256]
0	0xbd4ca025	-0.049957413
1	0xbbecee25	-0.0072305375
2	0x3e3153ba	0.17317095
3	0xbc8a5a6b	-0.016888818
4	0xbad0036b	-0.0015870159
5	0x3ee7868a	0.45219833
6	0xbd022583	-0.031774055
7	0xbb2b3bdc	-0.0026128208
8	0x3edca514	0.43094695
9	0x3e9a437d	0.30129614
10	0x3b0b8945	0.0021291536
11	0xbd04cd58	-0.032422394
12	0xba35de36	-0.0006937714
13	0xbca6bf7b	-0.020354977
14	0xbb59f6b0	-0.003325861
15	0x3ec99732	0.39373165
16	0x3cfc8494	0.030824937
17	0x3a72368d	0.0009239696
18	0xbca9fcf8	-0.020750508
19	0x3ed0fc8e	0.40817684
20	0xbb36226f	-0.002779152
21	0x3e84b8e5	0.25922313
22	0x3e5c587c	0.21518129
23	0x3e27ca27	0.16385709
24	0x3ea74647	0.32670805
25	0x3b13b860	0.0022540316
26	0xbc09fd90	-0.00842227
27	0x3ef8b6cb	0.4857696
28	0x3f145ac7	0.57951015
29	0xb80d1bbd	-3.3642853e-05
30	0x3f03b881	0.51453406
31	0xbcf6510b	-0.030067941
32	0x3d8945be	0.067027554
33	0x3e8ff19f	0.2811403
34	0x3f0116e9	0.50425583
35	0x3dadc4d0	0.08484805
36	0x3ee45c1e	0.4460153
37	0xbb472200	-0.0030385256
38	0x3b1d9342	0.0024044071
39	0x3e0ec498	0.13942182
40	0x3e8bb045	0.2728292
41	0x3c09932c	0.008396905
42	0xbcd97326	-0.026544165
43	0xbc648257	-0.013947091
44	0x3aa8fe2a	0.001289313
45	0x3e565c74	0.20933706
46	0x3e9ec972	0.31013066
47	0x3e78dadb	0.24302237
48	0xbd270d4c	-0.040784165
49	0x3e743bdb	0.23850958
50	0x3e9255db	0.28581128
51	0x3e9ff745	0.3124334
52	0x3eb5b94b	0.3549293
53	0xbcf29254	-0.02961079
54	0x3e9b8dca	0.30381614
55	0x3c9770f9	0.018486487
56	0x3e8a9d8d	0.27073327
57	0x3ed48928	0.41510892
58	0xbc0f9851	-0.008764342
59	0x3e2d0d40	0.16899586
60	0x3b33e1a5	0.0027447727
61	0xbcd181ac	-0.025574528
62	0x3b22faf1	0.002486881
63	0x3c0723b4	0.008248258
64	0x3eea8b9c	0.45809639
65	0x3ef943ae	0.48684448
66	0x3b4295c5	0.002969132
67	0xbc9bd4ab	-0.019022306
68	0x3eb09335	0.3448731
69	0x3e8a2a87	0.2698557
70	0xbb1e1752	-0.0024122787
71	0x3eec0ad5	0.46102014
72	0xbc5dfe3b	-0.013549383
73	0x3eebe699	0.4607437
74	0xbbfbcc29	-0.00768425
75	0x3ec89e0f	0.3918309
76	0x3e7d9e9e	0.24767539
77	0x3e6bdc3f	0.23033236
78	0xbac6c746	-0.0015165589
79	0xbd08408e	-0.03326469
80	0xbcf25ee5	-0.029586265
81	0x3e8f284e	0.27960438
82	0xbd065c9f	-0.032803174
83	0x3b2a9def	0.0026034077
84	0x3e48b4cb	0.19600217
85	0xbb0b3f0a	-0.002124729
86	0x3c2dd395	0.010609527
87	0x3e2b2a04	0.16715246
88	0x3cc6d6f9	0.024272429
89	0xbcee4148	-0.029083863
90	0x3e1d8f08	0.15386593
91	0x39a5dd09	0.00031635936
92	0x3eb21089	0.3477824
93	0x3e762ac4	0.24039751
94	0x3ead4eb6	0.33849114
95	0x3ef0ac98	0.4700668
96	0x3accc5fd	0.001562297
97	0x3a2d974c	0.0006621971
98	0x3e90f119	0.28308943
99	0x3d332110	0.043732703
100	0x3eaa9dfb	0.33323655
101	0xbaf82daf	-0.0018934513
102	0x3e9dc824	0.30816758
103	0xb90c1d7e	-0.00013362427
104	0xb9ada819	-0.00033122374
105	0xb931862c	-0.00016930018
106	0xbb89506b	-0.004190495
107	0xbc980a69	-0.018559651
108	0x3d1ae959	0.037820194
109	0x3eb4293c	0.3518771
110	0x3ebcf261	0.3690367
111	0x3e9b6c33	0.30355987
112	0x3e9f9a98	0.31172633
113	0xba017038	-0.00049376814
114	0x3b2ac68e	0.002605829
115	0xbc868f74	-0.016425826
116	0xbbca3689	-0.006171052
117	0xbcc2bceb	-0.023771724
118	0x3e907713	0.28215846
119	0x3dec9767	0.11552315
120	0x3ebedf2f	0.3727965
121	0xbae86e00	-0.0017732978
122	0x3b2684f6	0.002540884
123	0x3e9b85ab	0.30375418
124	0x3e1a3265	0.15058286
125	0x3eac4bd1	0.33651593
126	0xbccc926a	-0.02497216
127	0xba658d7b	-0.0008756739
128	0xbb1d423f	-0.0023995785
129	0x3b01ad1e	0.0019787024
130	0x3e5786e1	0.21047546
131	0x3ef26dd6	0.47349423
132	0x38e5c4d0	0.0001095623
133	0x3a9d2a4b	0.0011990754
134	0xbcbc499d	-0.02298432
135	0xbca64418	-0.020296142
136	0x3eae9ee0	0.34105587
137	0xbc7014dd	-0.014653412
138	0x3eacd3bb	0.33755288
139	0xbcfd0e6b	-0.030890664
140	0x3e5ccfe7	0.21563683
141	0x3e8f00db	0.2793034
142	0x3eee5b2d	0.46553937
143	0x3ec05512	0.37564903
144	0xbd0ab067	-0.033859637
145	0x3eb56018	0.35424876
146	0xbd0f3381	-0.034961227
147	0x3b34004b	0.0027465995
148	0xbd0a5ee3	-0.033781897
149	0x3a650f3e	0.0008737928
150	0xbc53f6e6	-0.012937283
151	0xbcfe1645	-0.031016478
152	0x3ed44804	0.41461194
153	0x3ebbccb7	0.36679623
154	0xbd365ba3	-0.044520985
155	0x3d681592	0.056661196
156	0xba9dbd78	-0.0012034616
157	0x3ea7892c	0.3272184
158	0x3ea0c54e	0.31400532
159	0x383f6b4a	4.563787e-05
160	0xbce60704	-0.028079517
161	0x3e9f26c1	0.31084254
162	0xbb0dfd5b	-0.0021665904
163	0xbd1aba7e	-0.03777551
164	0x3ec686e5	0.3877479
165	0x3e0a8ba4	0.13529831
166	0xbd6bf48f	-0.057606276
167	0x3ee08b17	0.43856117
168	0xbc4f265d	-0.012643424
169	0xbc9a3b04	-0.018826969
170	0x3ea9c625	0.33158985
171	0xbd353acd	-0.04424553
172	0x3e260c72	0.16215685
173	0x3ce7f8e8	0.02831693
174	0x3c44c416	0.012009641
175	0x3e25b8d3	0.16183786
176	0x3e33f9ae	0.17575714
177	0x3dab16a7	0.0835393
178	0x3eecd288	0.46254373
179	0x3e7b06c4	0.245143
180	0xbd038f79	-0.032119248
181	0x3e1bc65c	0.15212387
182	0x3ec08f5c	0.37609375
183	0xbb99d619	-0.004694712
184	0x3eb5c1dc	0.35499465
185	0x3e373630	0.17891765
186	0xb9bf643c	-0.0003650504
187	0x3dfd914f	0.12381231
188	0x3d581dd1	0.05276281
189	0x3eeae787	0.45879766
190	0x3e1c9123	0.1528974
191	0x3a3653f8	0.00069552613
192	0xbc8ec69f	-0.017428694
193	0x3e908693	0.28227672
194	0x3ec9ec54	0.39438117
195	0x3d36f621	0.04466832
196	0x3e4b25e0	0.19838667
197	0xbb06a7c0	-0.0020546764
198	0x3ee39773	0.44451484
199	0x3ef98bb2	0.48739392
200	0x3ef91d92	0.48655373
201	0x3ee24379	0.44192103
202	0x3eb9fa3a	0.3632372
203	0x3cd59b95	0.026075164
204	0xbd7c87cc	-0.061652943
205	0x3eabbe93	0.33543834
206	0x3ed6ebfc	0.41976917
207	0xbc4cb6e0	-0.012494773
208	0xbba3c86c	-0.0049982574
209	0x3eb0ae4c	0.34507978
210	0x3e5ebcf6	0.2175177
211	0xbc9d2124	-0.019180842
212	0x3a8aa1ad	0.0010576748
213	0x3b3858de	0.002812914
214	0x3a960cab	0.0011447867
215	0x3ebadd48	0.3649695
216	0x3e5eb558	0.21748865
217	0x3d09ac0f	0.033611353
218	0x3b9142b2	0.0044329995
219	0x3eee8197	0.46583244
220	0xbd2b4335	-0.04181214
221	0x3e9eea5b	0.31038174
222	0x3b99149c	0.0046716463
223	0xbd20beca	-0.03924445
224	0x3c7bc134	0.015365887
225	0x3eddf16c	0.43348253
226	0x3daff89e	0.08592342
227	0x3d66af20	0.056319356
228	0xbb6b7991	-0.0035930614
229	0xbbbbc019	-0.005729687
230	0x36c7187d	5.933513e-06
231	0x3ee8d230	0.4547286
232	0xbcf8caa6	-0.030370068
233	0x3ea272b3	0.31728134
234	0x39b15c8f	0.00033829032
235	0x3e4434bf	0.19160746
236	0xba2abc20	-0.0006513018
237	0xbd235218	-0.039873213
238	0x3ee15bbc	0.440153
239	0x3ec0aab1	0.37630227
240	0xbc46782e	-0.012113614
241	0x3e19d611	0.15023066
242	0x3ea337cd	0.3187851
243	0x3c1b2fe4	0.009471867
244	0x3da45224	0.080234796
245	0x3f0303f4	0.51177907
246	0xbbb8fd0b	-0.0056453994
247	0x3d2be399	0.0419651
248	0xbbd311c7	-0.006441328
249	0xbd9d40a0	-0.07678342
250	0xbe16a084	-0.1470967
251	0xbb3a9218	-0.0028468426
252	0x3e33ac08	0.17546093
253	0x3b75920a	0.003747108
254	0xbcd02435	-0.02540789
255	0x3ecaaa8a	0.39583236
