Evaluate_Models/Event_Quartiles/EventPredictor_parameters.pt (torch, 286639 bytes, 8 tensors)

layer1.weight f4 [4, 1]
00000000: ec83 05bf 4603 69be 05f6 17bf 0322 c1bd
-0.5215442 -0.22755155 -0.5935977 -0.09430315

layer1.bias f4 [9]
00000000: 5f4f 32bd aa38 c23c 3814 0fbd 9d41 853c
00000010: 2e99 97bb efab a33d 2fe5 2fbd 0343 8d3d
00000020: 20e9 51bd
-0.043532725 0.02370866 -0.03493139 0.016266638 -0.0046264147 0.07991778 -0.042943176 0.06897547
-0.051247716

layer2.0.weight f4 [256, 9]
00000000: 0790 393d 1901 e8bb 0b38 203e adc5 1e3e
00000010: d6fc 7c3e b5ef 1a3d ee10 dcbd cd8c 033e
00000020: ed4d debd 59d8 4e3e 1609 b23c 7876 823d
00000030: 9dd9 fbbd 0fed 00be c1bd 4ebe 5a3e 03be
00000040: c136 86bc ccf5 cdbd c9b0 a63d 208d 96be
00000050: 2f75 a8be 8f76 6d3e d26b b73d 6e42 793c
00000060: a3d4 3fbd 7c86 3f3c 3a68 19be 8777 bd3d
00000070: 3dd8 9d3e 6571 22be 840c 95be d66e 123d
00000080: bf9d eebd caaf 5d3e 0c23 0f3e 4e04 76be
00000090: c0a1 92be 3e6e 35bd 0957 26bd 4565 6d3e
000000a0: f551 8a3e da86 8dbe 6a4c ccbc a58a ae3e
000000b0: 38ea 8b3e 083e 5e3e 3ef8 1d3e aab7 853e
000000c0: 9ab8 88be 9c1b 7f3e f09b 6bbe a7c4 4f3e
000000d0: bf6d bebe 365d 843e 02e0 d03d aa80 aabe
000000e0: c7a4 a1bd c837 8a3e ed46 99be 1962 63be
000000f0: b749 8b3e 1037 86be 7de2 4ebe 68a4 6bbe
00000100: 1329 8d3e 699c 723e 38cb 1c3c d759 82be
00000110: 87cb 02bd 1554 a03a 09ca 283d 64dc 003e
00000120: e25f 29be 6faf a03e 30bb fd3d e786 35be
00000130: d411 143d 0787 543e a602 58be 053b 6a3e
00000140: b549 5bbe 3f84 c3bd 3168 50bd 06ac 5e3e
00000150: 30bd 08bd ba58 453e cf26 a8bd 6d9f a3be
00000160: 7ce9 1fbe 5800 853e 23c3 96bd 7190 43bd
00000170: c738 933e a2d4 c6bd bace 7b3e a8f5 3a3e
00000180: 2f16 653d 9afb c23d dde3 9b3e 9570 433e
00000190: 8632 983e e9b0 ef3c 6824 d7bd 7f29 1e3d
000001a0: d414 7ebe 679d 493e 7b6e 6c3e af3d a0be
000001b0: 6b27 803e c217 383e 3ed2 a63d 5db2 883e
000001c0: 864d 903e 5b38 d13b 0ab9 81be 633a 893e
000001d0: 524b ca3d 2838 77be 704d 8e3e d334 63be
000001e0: 13cd 8bbd 763a 27be fb7e 6fbe 6e7b 7d3e
000001f0: ffae 693e fea0 e6bd d640 7c3e 1a7e 8b3e
00000200: 49b6 a53e d3ae 5cbe 90c2 62bc e1d3 5ebe
00000210: fc35 d23d 2a14 70be 955f 6c3a 046b 8a3e
00000220: 3cac cebc ac8e dcbd 5a3e 543e bf15 903e
00000230: 2823 26be 29bb 093d 7270 873e f25b 673e
00000240: 7b3c 8fbe 6485 97be 4e90 8cbe 9074 8f3e
00000250: 0a9f 86be b220 ab3e bc5d c4be 178b bc3e
00000260: cd60 18be b76c 4dbe 223b 03be 04dc 6b3e
00000270: 310b 2d3d 7789 9cbe 37f8 8a3e c2b4 96be
00000280: 85a2 a1be 182b 76be 9ec7 5ebd 3a8b 6bbe
00000290: 2e6b 1bbe 8f1f 95be eb20 8b3e e0a8 a13e
000002a0: a42c 94be d5f0 38be 7598 373e c917 a33d
000002b0: 2464 523e c289 1cbe 41e3 aebc bae6 743e
000002c0: ff36 96bd 3f5f 89be e0c4 083e 5081 7d3e
000002d0: e2e2 603d 3cdd a9be acd8 7c3e 3cb6 a7be
000002e0: 1f4c da3d 497a 943e 35ad 57bd 7947 463e
000002f0: 1914 aebe fb0f 90be 5cb9 9b3e ad49 67be
00000300: bd19 25be 7bc7 92be c136 873e 73b0 2ebe
00000310: ceba 6cbe be7d d2bc 3098 963e 219e 373e
00000320: c678 54be e528 15be 907c 873d 52d0 77be
00000330: e200 383e c7bc 9d3e 7d72 883d 5fc6 c8ba
00000340: 57a6 ac3e 003f 9d3e 8c1a c839 f097 673d
00000350: 03f3 c7bd a33f 9bbe 1a86 3e3e 6696 d1bd
00000360: 0d27 afbd 4ea7 153e ca51 7d3e 93a5 823e
00000370: 4001 573e 8c24 62be ac9e f63d cc08 7dbe
00000380: 1b31 7dbe 1ba1 5abe 1c8e 6a3e 77fb c4bd
00000390: 6afb 693e 0dc7 79be 7f1f 31be 8d49 25be
000003a0: 9c13 223d 5327 803d b61a 403e 73ff 95be
000003b0: 86e7 443d 6da1 383e c2b9 84bd 367e 7fbe
000003c0: 72c2 7b3d efe7 793e 8805 9aba 6eb2 a13d
000003d0: 5402 173e 5d1d e7bc 7b72 3bbe d597 403e
000003e0: 1122 00bd a996 433e 6376 9abe f4e1 16be
000003f0: ab3e 243e 24ad cdbd 8463 77be 4cb0 ecbb
0.04530337 -0.007080209 0.15646379 0.15505095 0.24705824 0.03782626 -0.107454166 0.1284668
-0.10854707 0.20199718 0.021732848 0.06370252 -0.12297366 -0.1259043 -0.20189573 -0.12816754
-0.01638353 -0.10056648 0.08139188 -0.29404545 -0.32901904 0.23189758 0.08956112 0.015213592
-0.046833646 0.011689778 -0.14981166 0.09251314 0.3082904 -0.15863569 -0.2911111 0.035750233
-0.116511814 0.2164909 0.13978213 -0.2402508 -0.2863903 -0.04429459 -0.040610347 0.23183163
0.27015653 -0.27641946 -0.02493878 0.34090152 0.27327132 0.2170335 0.15426728 0.26116687
-0.2670334 0.24912876 -0.23008704 0.2028986 -0.37193105 0.25852364 0.10198976 -0.33301288
-0.07892757 0.26995683 -0.29936925 -0.2220539 0.27204677 -0.26213884 -0.20203586 -0.23011935
0.275704 0.23692478 0.0095699355 -0.25459167 -0.03193238 0.001223209 0.0412083 0.12584072
-0.16540483 0.31383845 0.12389219 -0.17727242 0.036149815 0.20754634 -0.2109476 0.22874077
-0.21414836 -0.09546708 -0.050880615 0.21745309 -0.03338355 0.19272128 -0.08210527 -0.3195757
-0.15616411 0.25976825 -0.07361438 -0.047745172 0.28754255 -0.09708525 0.24590579 0.18257773
0.05592936 0.095206454 0.30447283 0.19085915 0.29726046 0.029259162 -0.10504991 0.038613793
-0.24812633 0.1968895 0.2308902 -0.3129706 0.25030074 0.17977813 0.08145569 0.2669858
0.28184146 0.006384892 -0.25336486 0.26802358 0.098776475 -0.24142516 0.27793455 -0.2218812
-0.06826224 -0.16330895 -0.23388283 0.24754116 0.22820662 -0.112611756 0.24634108 0.27244645
0.32365635 -0.21551065 -0.013840333 -0.21760513 0.10264203 -0.23445192 0.00090169284 0.2703477
-0.025228612 -0.107694 0.2072691 0.2814159 -0.16224349 0.033625755 0.26452976 0.22593668
-0.2797583 -0.29593956 -0.27453846 0.28018618 -0.26293212 0.33423382 -0.38352764 0.36824867
-0.14880677 -0.20061003 -0.12815526 0.23033148 0.042247 -0.30573627 0.27142498 -0.29434782
-0.31569305 -0.24039876 -0.05438959 -0.2300233 -0.15177605 -0.2912564 0.27173552 0.31574154
-0.28940308 -0.1806062 0.17929251 0.07963521 0.20546013 -0.15286925 -0.021348597 0.2391614
-0.073347084 -0.2683048 0.13356352 0.2475636 0.054903872 -0.331766 0.24692029 -0.3275622
0.1065905 0.28999546 -0.052655417 0.19363202 -0.33999708 -0.28137192 0.30414855 -0.22586699
-0.161231 -0.28667817 0.2640896 -0.17059498 -0.23118135 -0.025694724 0.29412985 0.17931415
-0.20749196 -0.14566381 0.06615555 -0.24200562 0.17969087 0.30808088 0.06662462 -0.0015317908
0.33720657 0.30712128 0.00038166752 0.056541383 -0.09763148 -0.30321988 0.18605843 -0.10233764
-0.0855237 0.14614603 0.24738231 0.25516948 0.2099657 -0.22084254 0.12041983 -0.24710387
-0.24725763 -0.2135052 0.22905773 -0.096182756 0.22849813 -0.24392338 -0.17297171 -0.16141339
0.039569482 0.062575005 0.1876019 -0.29296455 0.04807236 0.18030329 -0.06480743 -0.2495049
0.061464734 0.24404882 -0.0011750916 0.07895361 0.14746982 -0.028212244 -0.1830539 0.1880792
-0.03128249 0.19100441 -0.30168447 -0.14734632 0.16039531 -0.100427896 -0.24159056 -0.0072231647

layer2.0.bias f4 [256]
00000000: 36f1 943e 9459 1a3e 6575 6b3e a524 b13d
00000010: d136 8e3e 7545 743e 370d 643e 56b2 883e
00000020: 64cc 06bd 7c12 90bb 70cc 71be 7116 01be
00000030: 2dc7 f23c b084 313e 896d c3be 8087 a63d
00000040: db18 76be b363 cfbd 74c8 b7be 54b9 823e
00000050: 4d8d b03e 9fca 81be 15d9 50be a2ab 263e
00000060: 7067 9fbe 99d0 7ebe 6ec4 06be 6bec 223e
00000070: 9f0b babd 5838 4e3e 81df ad3b b3db 22be
00000080: fe26 eebd 6e2a 2c3e 13b9 5fbe a8f0 c83d
00000090: cbe4 7dbe 49c7 ae3e 6438 33bd 9950 8fbe
000000a0: 50df 743e 0ede 93be b990 793e 7651 22bc
000000b0: 30d0 223d 1f38 af3d e5e4 373e 8f87 76be
000000c0: 6f34 8cba a8bd 8a3e 5058 173d 0e5b c43d
000000d0: 9609 8a3e 66c5 9cbe d098 463e 58cd 893c
000000e0: 5504 8dbe 4c75 7dbe 6d24 4ebe 0721 9dbe
000000f0: 837d 8dbd c076 9c3e 7763 913e 7017 e8bd
00000100: 9665 68be ef52 94be e81e 1e3e 33c2 38be
00000110: db16 80be 2070 4b3d ecdf 0bbc 199c 203e
00000120: 8538 75be fcc3 39be b3c0 ba3d d576 3c3e
00000130: ecff 3dbe 026c bebe ce3d ab3d 1ef9 75be
00000140: 14f4 aabe d4ef 1bbe 21c6 623e 3bd7 6bbe
00000150: 9bff cbbd 3ea3 a6bd 3033 04bd 5a8f 9a3e
00000160: fe5d 8cbe 33d6 8fbe f26b 95be 8263 723e
00000170: c0a8 173e aebf 5fbe 9892 2dbe 1d3d 143e
00000180: e842 913e f351 c3be 21a8 83be 1c3e 77be
00000190: 4539 48be e460 ddbd 904c ab3d 681d 573e
000001a0: 704b ef3c 5409 0b3e a146 6e3e 5058 8b3e
000001b0: e22d bcbc b76e 1dbe 542d 2c3d 314f 683b
000001c0: 2fc8 5cbe 685c 9ebe f20d b83d c002 47be
000001d0: 9400 ebbd 4cde febc 69e5 ee3d 087d 353e
000001e0: 9b5b 09be fea9 a33c 86fa a33e 08c6 86be
000001f0: 1f9e 643e 97de 8a3e c8d3 983e e724 52bc
00000200: 76a8 633d 1a33 bbbe 5361 8fbe 2a90 843d
00000210: 47f2 1dbd 6451 9bbe 2bcd 9b3e 69aa 2fbd
00000220: ba80 063d d4d3 86be 3ff1 a53e ebe7 11be
00000230: 4f80 d8bc 769a 67bc 108a 293d b821 c53d
00000240: 3a52 0f3e 6d3a 66be 891c 95be f7f2 303e
00000250: bf48 913e d112 98bd 3c59 5e3e 7428 87be
00000260: d695 99be a748 993e cc2b 703e 750b 9c3e
00000270: ad13 bdbe 6f21 cabe 8b60 6abd 3fa2 ddbd
00000280: ecc4 bebd 6cdc a73e 3182 283e 75d6 aa3e
00000290: 162f 343e c569 6abe 3fbc d03d f1c9 fbbd
000002a0: d692 20be c3f8 953d 8d8b 263e 8a6d 10be
000002b0: c586 823e 880b 30be 2ecd 883e 93c7 b3bd
000002c0: f36e cb3d d8a6 88be b785 6e3e 226d 553e
000002d0: 5323 01bd 563f 05bd 34a3 263d 4e15 c6bc
000002e0: 2975 993d 3af8 fdbd 5e1a 81be 39e1 54be
000002f0: 3624 a3bd f25f 54bd b8b6 c43d d001 b83e
00000300: 2d53 9ebe 11b7 703d 1990 413e 595c 043d
00000310: 0d2d f33c 8704 49be 2f12 713e b65b a63e
00000320: 871a 783e 5853 ad3e b8be 69bd b972 0a3e
00000330: 3689 ac3e 93a8 8ebe b9be 8a3e 142f 813e
00000340: 0bd5 9dbe e2b2 da3c ce6d 5c3e 0677 9e3e
00000350: 9870 693e 02fb c33e fcd2 28bc 2de9 a8bc
00000360: 1138 c0be a96a 7b3e 1ef1 273e ed1d 54be
00000370: d51c 38be 689a 6b3c 2b9f 033e bd70 ab3e
00000380: b789 23bb e26e 0cbd 3d62 4ebe d7db 0cbe
00000390: cbcd dabd 2a3d 673d ed5b b03e 88e0 89bd
000003a0: fb6e a33e c893 52bc 6ef2 e43b 354a 973e
000003b0: db29 79be 4707 6abd fc05 9dbe 2f02 9fbe
000003c0: 8d4a cfbd ef9d cbbd cb35 f6bd f19b 003e
000003d0: 09ff 103e 313b cbbd 7651 48be 4326 3cbe
000003e0: cea5 833e 36a8 493e 6d39 90be 353e b4bd
000003f0: 0307 1f3e a08b 4c3d d522 553e 0cba 4f3e
0.2909028 0.15073234 0.22994001 0.086495675 0.27776197 0.23854621 0.22270666 0.2669856
-0.032909766 -0.0043967348 -0.23613143 -0.12606217 0.02963599 0.17335773 -0.38169506 0.08131313
-0.24032919 -0.10126438 -0.3589512 0.2553202 0.34482804 -0.253499 -0.2039531 0.1627641
-0.31133604 -0.24884261 -0.1316087 0.15910499 -0.09084248 0.20138681 0.0053061848 -0.15904121
-0.11628531 0.1681306 -0.21847944 0.098115265 -0.24794309 0.34136418 -0.04375495 -0.2799118
0.23913312 -0.28880352 0.24371614 -0.009907117 0.039749324 0.08555626 0.1795841 -0.24075149
-0.0010696779 0.2709782 0.036949456 0.0958768 0.26960438 -0.30619353 0.19394231 0.016821548
-0.27542368 -0.24751776 -0.20131083 -0.3068926 -0.06908705 0.3055935 0.28396198 -0.11332595
-0.22695002 -0.28969523 0.15441477 -0.18042831 -0.25017437 0.049667478 -0.008537274 0.15684547
-0.23947342 -0.18141168 0.09118786 0.18404706 -0.18554658 -0.37191778 0.08361398 -0.24020812
-0.33389342 -0.15228206 0.22145893 -0.23031323 -0.09960862 -0.08136605 -0.03227538 0.30187494
-0.2741546 -0.2809311 -0.29183918 0.23670772 0.14810467 -0.21850464 -0.16950452 0.14476438
0.28371358 -0.3814846 -0.2571421 -0.24144787 -0.19553097 -0.10809496 0.083642125 0.21007311
0.029210776 0.13577777 0.2326913 0.27215815 -0.022971097 -0.15374266 0.042035416 0.0035447592
-0.21560739 -0.30929875 0.08987035 -0.19434643 -0.1147472 -0.031111859 0.1166485 0.17723477
-0.13413851 0.01997852 0.32027072 -0.2632296 0.22325943 0.27122948 0.29849076 -0.012826181
0.05558058 -0.36562425 -0.2800394 0.064728096 -0.03856113 -0.30335534 0.30429968 -0.042887125
0.032837607 -0.26333487 0.3241062 -0.14248626 -0.02642837 -0.014135947 0.041391432 0.09625572
0.1399621 -0.22483225 -0.29123333 0.17280184 0.28375813 -0.07425464 0.21713728 -0.2639805
-0.29997128 0.29938242 0.23454207 0.3047749 -0.36929074 -0.39478633 -0.057220977 -0.108219616
-0.093149036 0.32785356 0.16455914 0.33366743 0.17596087 -0.2289191 0.10192155 -0.12294377
-0.15681013 0.07322838 0.16264172 -0.14104286 0.25493446 -0.17191899 0.2671904 -0.087783
0.09933271 -0.26689792 0.23293196 0.20842412 -0.03152783 -0.032531105 0.040682986 -0.02418008
0.0749305 -0.12400861 -0.2521543 -0.2078904 -0.07965891 -0.051849313 0.09605163 0.35938883
-0.30922833 0.058768336 0.18902625 0.032314632 0.029684568 -0.19630633 0.23542093 0.32491845
0.2422887 0.3385265 -0.05706665 0.13520326 0.33698434 -0.27862987 0.27098635 0.2523123
-0.308266 0.026696626 0.21526262 0.30950183 0.22796857 0.3827744 -0.010304209 -0.020619
-0.37542775 0.24552406 0.16400573 -0.20714541 -0.17979749 0.014380075 0.12853687 0.3348445
-0.002495391 -0.034285434 -0.20154662 -0.13755737 -0.10683783 0.056454815 0.34445134 -0.06732279
0.3192061 -0.012852617 0.0069869077 0.29548803 -0.24332373 -0.057135846 -0.30668628 -0.31056353
-0.10121641 -0.09942233 -0.12021979 0.12559487 0.14159788 -0.09923399 -0.19562325 -0.1837397
0.25712436 0.19693074 -0.28168812 -0.088009275 0.15530019 0.049937844 0.20814069 0.20285815

layer2.2.weight f4 [256, 256]
00000000: 606e ce3b 4b21 133e 9410 bd3b ba4a 153d
00000010: a60d 953c 9108 673d 200a 4b3b 7991 20bc
00000020: 6024 bbbc b84c 403d 02ad 4f3b 2a82 1e3c
00000030: 923c 8b3d 217b 8f3d f01b a03d dc37 6fbd
00000040: 13ec d1bd 9a75 48bd 83db f63b 0cbe 19bd
00000050: 70f3 f6bb 330f d4bd ee8e 6f3c f3d8 3c3d
00000060: eacc 9c3c 4c31 4ebc 3321 e93a 7aa4 7d3d
00000070: aec2 6fbd 6b9f 2fbb 12bd 733c 9acd e7bd
00000080: adb1 d63c d4ee 47bc 15ef d6bc 66cd 6dbd
00000090: 7f6f 223d d102 e4bb 1787 8fbc e134 52bd
000000a0: 306d c43d c318 8ebc a66a 3a3d d74a d2bc
000000b0: c4fe 31bc d338 f2bb d3d6 bbba f5c3 7dbc
000000c0: 7124 0c3c 8a76 0fbe 1eaf 73bc c06f 0bbd
000000d0: f649 72bc ce5c 97bd d87a 74bb 72e8 87bb
000000e0: 3f7c b23b df37 5f3c fb7b b63d ffa9 8cbc
000000f0: b743 cc3c 6de8 bcbc 0ca7 e63c b669 693d
00000100: e509 07bd fb5c 5b3d daf5 353c 6535 2e3d
00000110: 5fec 023d d4c3 013b 8809 9dbd 55fd a63d
00000120: 67b5 19bd b0b6 3abd 6db1 e9bc f1ca 2ebe
00000130: d287 2d3b 7c81 bf3b e758 4f3d afba 293d
00000140: be5e 023d a739 57bc 3190 29bd d422 9c3c
00000150: 87d4 dfbc 3c0b 49bc 47b5 32bd 312d 82bc
00000160: e777 0b3e d658 04bd 7a3a 9bbc 007f b13d
00000170: 33c4 ca3d ced7 4bbd d9a7 bcbd a323 af3c
00000180: 15a8 8ebc ae05 7a3b e1a0 233c 280a 903b
00000190: 91f1 2ebd 244e 3d3d d734 c83c 84c1 8e3d
000001a0: 28d2 7c3d 9406 5abd 0854 093c e9c4 043d
000001b0: 9ce0 b03d 6e3d a4bd 59e1 1e3d 35a9 18bb
000001c0: 005c 0e3d 98aa 613d bc30 f8bd f392 00bc
000001d0: bdbb aa3d ee6b f6bc 1864 0dbd aa60 0fbb
000001e0: a072 67bd 7cf2 3e3d c5fc 61bc fcfd bcbc
000001f0: dc02 293d db5d 60bd 944d 49bd f00f 283d
00000200: 1bea 01be 031a 22bd 2fa3 173d 91a4 3d3d
00000210: 11f0 00bd c0bf c43d 762b afbd 2e55 aabd
00000220: 2a78 84bd f851 42bd d07b 10bd b468 a9bd
00000230: 90f7 183d b8d8 e6bb 27d1 eabc f6c0 24bc
00000240: 736a a03d 4a19 903d a113 b2bc 6013 0dbd
00000250: cefa 99bd 9770 0e3d 44ca 443d fe10 df3d
00000260: e163 9a3c 0b54 91bc c119 973d e877 a8bc
00000270: 8cfc e43c 4609 4c3d 15ed 1f3d 5dfc ccbc
00000280: a443 f03c e911 5bbb dd2f 8b39 4457 343b
00000290: bbe1 b7bc d5b0 09bd 6b8b 0f3d 44d9 8ebd
000002a0: 66b4 fbbb 7e30 5ebd 21c6 93bd 32ab 26bd
000002b0: ad7b 0abd a6b0 e23b ad91 093b 9e5c 95bc
000002c0: 3eed d2bd 76a5 903d 4654 24bd e892 af3d
000002d0: 6476 223c 6594 abbc f24b b3bc afe7 32bc
000002e0: 6ade c63c d7dd 10bd 3be3 4a3e bb8e f13c
000002f0: e476 2a3b 90fd 1dbd 1904 c3bd 950c c4bd
00000300: cb7f 893d e85c 2dbd 147d d6bb 7227 323d
00000310: 1b70 babc 9b00 11bd bade 49bd 2489 74bc
00000320: 879b 213d 2cdc c13c e75d 133d 985b 733d
00000330: ed91 1dbd da3a 8ebc 26f7 2b3c 4e53 173d
00000340: 18d5 19bc 8b24 2dbc 7634 263c cc73 a0bc
00000350: 8f98 933b 19f6 263d 7167 ecbc 4102 8d3d
00000360: 2660 77bc 3068 d43c c8aa bdbc 16ee e5bd
00000370: 4c3b d23d 07f1 0abe ab0e 623c 660b 033d
00000380: 4a03 943c cd1c 843c 2c7d c73c 2f64 02bd
00000390: 4cc0 73bd c383 edbc e25e ac3c 2ddf 7c3d
000003a0: 4521 e3bc 7486 4fbd b00f 9e3d f463 1abc
000003b0: b31c 96bd 7af4 f33c 75dd 9d3d b343 ae3d
000003c0: da66 043b 9e09 69bd 88a8 a53a dcf2 58bd
000003d0: d109 15bd 7d53 033d 4dc9 1ebc f1ab 5ebd
000003e0: c314 bb3d c9ea f03b c6a1 2d3d a253 a23d
000003f0: 0a42 61bd 405c a83c ed96 eebb 57d0 873d
0.006299779 0.14368169 0.0057697985 0.036448218 0.018194985 0.056404654 0.0030981377 -0.009800308
-0.022844493 0.046948165 0.0031688814 0.009674588 0.06798662 0.07005907 0.07817829 -0.05840288
-0.10250106 -0.04894028 0.007533492 -0.03753476 -0.007536344 -0.103544615 0.014621479 0.046105336
0.01914068 -0.0125849955 0.0017786383 0.061924435 -0.05853527 -0.0026797901 0.014876621 -0.11318512
0.02620777 -0.012202937 -0.02623705 -0.05805721 0.039657112 -0.0069583436 -0.01752047 -0.05131996
0.09591138 -0.017345792 0.045511864 -0.025670452 -0.0108639635 -0.007392028 -0.001433099 -0.015488614
0.00855361 -0.14010063 -0.014873294 -0.03404212 -0.0147881415 -0.07390748 -0.0037304666 -0.0041475827
0.00544694 0.013624161 0.08910366 -0.017170904 0.024934633 -0.023060048 0.028155826 0.05698558
-0.03296842 0.05355547 0.011105979 0.04253139 0.031963702 0.001980056 -0.076678336 0.08153788
-0.037526514 -0.04558438 -0.028526986 -0.17069604 0.002647866 0.005844293 0.050621893 0.0414378
0.031828634 -0.013136304 -0.041397277 0.019059576 -0.02732302 -0.012270745 -0.04362991 -0.01589069
0.13619958 -0.032311283 -0.018948782 0.086668015 0.09900703 -0.049766354 -0.09211702 0.021379298
-0.017414132 0.0038150358 0.009987087 0.004395742 -0.042710844 0.0462171 0.024439259 0.06970504
0.061723858 -0.05322893 0.008381851 0.03241435 0.08636591 -0.08019529 0.038789127 -0.0023294215
0.034755707 0.05509433 -0.1211867 -0.007847535 0.083365895 -0.030080762 -0.034519285 -0.0021877685
-0.0565058 0.04661797 -0.013793175 -0.023070328 0.041262493 -0.054777008 -0.04914625 0.041030824
-0.1268696 -0.039575588 0.03702086 0.04629952 -0.031478945 0.09606886 -0.085532114 -0.08317028
-0.06468232 -0.047441453 -0.035274327 -0.08271924 0.03734547 -0.007044878 -0.028664185 -0.010055771
0.078328036 0.070360735 -0.021737875 -0.034442306 -0.0751854 0.034775343 0.048044458 0.10891913
0.018846454 -0.01774027 0.07377959 -0.020564988 0.027952455 0.04981353 0.03904446 -0.02502268
0.029329129 -0.0033427423 0.00026547807 0.0027517835 -0.022446504 -0.033615906 0.03504507 -0.06975034
-0.0076814173 -0.054245465 -0.072155245 -0.04069061 -0.033809353 0.006918031 0.002099137 -0.01823264
-0.102991566 0.07062809 -0.040119432 0.08572942 0.009915922 -0.020944783 -0.0218868 -0.0109194955
0.024275977 -0.035367813 0.19813244 0.029487005 0.0026010806 -0.038571894 -0.09522266 -0.09572712
0.06713828 -0.04232493 -0.006545672 0.04349465 -0.022758534 -0.035400968 -0.049284674 -0.014925275
0.039454963 0.023664556 0.035978224 0.059413522 -0.038469244 -0.017362047 0.0104959365 0.03694468
-0.009389184 -0.010567795 0.010144344 -0.019586466 0.0045042704 0.04076204 -0.028857918 0.068851955
-0.015098607 0.025928587 -0.023152724 -0.11227052 0.10265216 -0.13568507 0.013797442 0.031993292
0.018067975 0.016127015 0.024351679 -0.031833824 -0.05950956 -0.028993493 0.021041337 0.061736275
-0.027725825 -0.050665334 0.07717836 -0.009423245 -0.07329693 0.029779661 0.07708255 0.08509006
0.0020202906 -0.056893937 0.0012638727 -0.052965984 -0.036386315 0.032062043 -0.0096915485 -0.054363195
0.09134819 0.0073522073 0.042390607 0.07926108 -0.05499462 0.0205518 -0.0072811753 0.066315345

layer2.2.bias f4 [256]
00000000: 0edd 0abd 6fb5 f6bc f3ab 08bd 45a2 f93c
00000010: 7e3c 003d 5db3 433c 8e02 db3b 144f 82bd
00000020: 3300 69bd 6313 24bc 8466 f53b 1e39 35bb
00000030: 167a 043d 9d5d 2e3d a9db 52bc b1e0 933b
00000040: 92be d33b 7931 aabc 89d0 6dbc 5dad 9b3c
00000050: 1474 683d d6ed 8f3c 1cbe 52bd 3d64 8b3c
00000060: 4549 d1bc b95d 233d 7a45 933c 8d17 163d
00000070: efd0 443d ff80 d1bc b262 0a3c cca7 ecbc
00000080: d49c f33c 775d 4cbd 8d92 72bc b780 e23b
00000090: 0466 b53c e76e 0b3d c535 813c ed27 153d
000000a0: 4cfa e03c e3c0 193d 6a39 bd3a 64e7 2fbd
000000b0: 5baa f53c 87ef 62bd 87ab 66bd 0684 0d3d
000000c0: 9dcd 823d c48a 2dbd 6ef6 1b3d 625d a9bc
000000d0: c961 60bd 554e dc3c 3f31 2bbc 27b6 ed3b
000000e0: 3512 4e3d c96c 013d 0473 153d 1173 30bb
000000f0: 5143 b6bc 2d5c e2bc 87c1 13bd cdb4 6b3d
00000100: 1bef 0c3d f315 f03a 27fc 36bd 45a7 44bd
00000110: df67 e13c f97f 8abc b912 9e3c 02c9 433d
00000120: 368f 83bd 1fa0 e6bc e7e3 343c 3776 cc3c
00000130: 3736 853b 5106 f23b de3b 853d 164b 39bd
00000140: 1921 613d e5d9 2dbc 4982 653d 9ca8 49bc
00000150: 5b9b 62bc 837f 473c a444 8ebd 4688 42bd
00000160: 5d28 a8bb f90c 99bc 4492 92bb 2129 e83c
00000170: 1e23 74bd c641 1ebd 4c13 cabc 72d6 11bd
00000180: b598 94bc 874f 0b3d fbbe 03bd 8b20 5dbd
00000190: b2eb 43bc 344c 64bd 7a61 71bc 7f39 27bd
000001a0: 5912 b93c d51d 443d 3503 223c 17d3 a9bc
000001b0: 6e55 fa3c e15f 473d 1540 b2bc 9742 0abc
000001c0: c183 97bd 0b8b 1cbd f260 fabc c9be d6bc
000001d0: 3afe 4d3d e2e9 603d a59e 76bc 964c 1cbc
000001e0: cf55 fabb 06cd aa3c 804c 09bd 9aca 88bd
000001f0: 145c 5e3d 8e45 97bc 8bff 883c 9bf8 68bd
00000200: e558 4f3d 21af 873c 6f06 a5bb 2171 a2bc
00000210: f3df 9b3c 03c4 35bd bfc1 123d 2d06 ab3c
00000220: d619 cc3c 5a69 8abd cd67 6f3d c282 4cbd
00000230: f1b3 c53c d719 533d ebba 033b 1dc7 263d
00000240: c104 593b b739 2c3d 92fa af3b 2893 d9bc
00000250: 77f8 73bd ed3a 583a a3c5 813c 4fd2 813d
00000260: 6f9d 1ebd f04e 273d 1322 43bb d817 1dbc
00000270: 45ee a23b be61 ed3c d173 203d 0fec 7b3b
00000280: c60b 37bd d745 fabc 6e70 ddbc b0ac 4fbd
00000290: bf29 93bd 94b1 243d a8db 22bd 79b3 5e3d
000002a0: 16d4 23bc e772 123d 026a 93bd 8dba 56bc
000002b0: 81b9 37bd bdef 64bd 2330 52bd ad30 dcbc
000002c0: 2da1 963c c676 0cbc 89bb f8bb 442d 753c
000002d0: 9663 c43c 5bcf d53c fa75 20bd 748f 1ebd
000002e0: f59b 03bb f5d8 8d3d 374d 3d3b 0d72 033d
000002f0: 4d58 353c 74c2 0dbd 133c 06bd d57a 17bd
00000300: 5646 9b3c 1135 88bb 79af 213d 726d de3c
00000310: 3a3f 2a3d e4fc 873c d970 82bd dbee 36bd
00000320: e01d 333d 54dc 4d3d f018 e73c c60e 193c
00000330: 6101 ffbc 4fd5 3e3d d879 913b c4a4 263b
00000340: 8da7 e53c 8f53 463c 052c 073d e85e 1bbd
00000350: fe28 7ebd b32a c3bb c792 723d ba6d 28bd
00000360: fbda ee3c 9d1c 81bc abf0 db3c 210c 793d
00000370: 1801 6f3d 3c3b b8bb 6966 85bc c793 b1bc
00000380: 4c88 533d 59f6 98bd affa babb 7df2 84bd
00000390: c8b9 87bd 9b91 c03c baaf cc3b c597 e939
000003a0: e37a 173d c729 233b c564 a63c 0ce2 953c
000003b0: 889f 3d3a 00b5 2dbc 82b6 d6bc 1da1 073c
000003c0: b998 f5bb f678 32bc 5bb0 b1bc 50ec a33c
000003d0: 6bd6 8bbd 708a 56bd 15dc 2a3d 821f 36bd
000003e0: 1f15 9cbd 3582 4a3d 8b84 403d a359 ad3b
000003f0: 2be3 c83c 930a 2dbd c10d 293b 797f fbbc
-0.03390222 -0.030115811 -0.03336711 0.030472884 0.03130769 0.011944619 0.006683654 -0.06362739
-0.056884956 -0.010014388 0.0074890275 -0.0027652453 0.032342993 0.042569745 -0.012869754 0.0045128693
0.0064619267 -0.020775544 -0.014515051 0.019003564 0.056751326 0.017569464 -0.051450834 0.01701557
-0.025547633 0.039884303 0.017977465 0.036643554 0.048050817 -0.025574205 0.008446382 -0.028888606
0.029737867 -0.049893823 -0.014805448 0.0069123167 0.022143371 0.03404131 0.01577271 0.03641503
0.0274631 0.037537467 0.0014436666 -0.04294528 0.029988458 -0.055404212 -0.056315925 0.034549735
0.06386874 -0.042368665 0.03807681 -0.020674411 -0.054780755 0.02689282 -0.010448753 0.0072543803
0.050310332 0.031597886 0.03648664 -0.0026924054 -0.022248896 -0.027631843 -0.036073234 0.057545472
0.034407716 0.0018317088 -0.044674065 -0.048011083 0.02751535 -0.016906725 0.019296037 0.047799118
-0.064238 -0.028152524 0.011040664 0.024958713 0.004065301 0.007386007 0.065055594 -0.045237623
0.054963205 -0.010611032 0.056032453 -0.012308266 -0.013830985 0.012176397 -0.06946686 -0.04749324
-0.005131765 -0.018682944 -0.0044730026 0.028339924 -0.059603803 -0.038636945 -0.024667405 -0.0356049
-0.018139223 0.03401139 -0.032164555 -0.053986114 -0.01195805 -0.055736735 -0.014732713 -0.040826317
0.022591757 0.047880013 0.00988846 -0.020730538 0.030558314 0.04867542 -0.021759072 -0.008438728
-0.07398177 -0.03821854 -0.030563805 -0.02621402 0.050291277 0.054910548 -0.015052472 -0.009539744
-0.0076396237 0.020849716 -0.03352022 -0.06679268 0.05428703 -0.018465783 0.016723415 -0.056877714
0.050621886 0.016563 -0.0050361673 -0.019829335 0.019027686 -0.044376384 0.035829302 0.020876968
0.024914663 -0.067583755 0.0584486 -0.049929388 0.024133654 0.051538315 0.0020100425 0.040717233
0.0033114406 0.04204723 0.0053704465 -0.026559427 -0.059563126 0.0008248527 0.01584131 0.06338941
-0.03872436 0.040846765 -0.0029774948 -0.009588204 0.0049722516 0.028977271 0.03917295 0.0038440262
-0.044688962 -0.03055088 -0.02703115 -0.050701797 -0.07185697 0.040208414 -0.03976026 0.054370377
-0.009999296 0.03575411 -0.07197954 -0.013106001 -0.044854645 -0.055892695 -0.051315438 -0.02687868
0.018387401 -0.00857324 -0.0075907153 0.014964405 0.023973268 0.026099851 -0.03917501 -0.038711026
-0.0020081971 0.06926147 0.0028885135 0.03209119 0.011068416 -0.034609273 -0.032772135 -0.036982376
0.018954437 -0.0041567166 0.039473984 0.027151797 0.041564204 0.01660008 -0.0636918 -0.044661384
0.043729663 0.05025895 0.028210133 0.009341901 -0.031128587 0.046590146 0.0044395737 0.0025427798
0.028033996 0.012104883 0.033000965 -0.037932307 -0.062050812 -0.005956018 0.05922201 -0.04112027
0.029157152 -0.015760714 0.026848158 0.060802583 0.058350652 -0.0056222957 -0.016284185 -0.021676911
0.051643655 -0.07468862 -0.0057061533 -0.064915635 -0.06627232 0.02350693 0.006246534 0.000445543
0.03698243 0.0024896727 0.020311723 0.018296264 0.000723355 -0.010602236 -0.026210073 0.0082781585
-0.0074950126 -0.010893097 -0.021690538 0.020010144 -0.06828006 -0.052378118 0.041713793 -0.044463642
-0.07621216 0.04944058 0.047001403 0.0052902265 0.024522385 -0.042246412 0.0025795551 -0.030700432

layer2.4.weight f4 [10, 256]
00000000: 1a0f c8bd b2d6 14be c162 1ebe b5bb af3b
00000010: aba4 903d 8ab8 25be 371c 793d df0b 173d
00000020: 958c 2abc e76a 8ebd 8974 c33b 17a6 4d3d
00000030: d5f3 f33c d359 203c de27 6dbd 73b5 99bc
00000040: a9c9 c83c 4126 8b3d 4760 1fbe 9481 1b3e
00000050: d3b9 333c a6cc a93d 2e17 30bc ad89 98ba
00000060: ed49 60bc 93a7 d8bd 5233 513d 396b 0dbe
00000070: f331 d83d 1c32 5b3c 4b4d 8c3b 38c9 493d
00000080: 1748 5b3d 189a abbd 98eb cdbd bd91 cdbc
00000090: db0a 813d 7c77 ef3c 77a6 f1bd 2bef 4d3d
000000a0: e307 73bd 7e83 a63d f5aa e139 d41c fbbc
000000b0: 696c 383d f3e8 533d 1553 c53d 980b 8cbd
000000c0: 11b8 1abe cb0b bcbd f53a 383d ebb0 6bbd
000000d0: 9cb0 c4bd 2c81 ad3c a78b 30bd f739 0d3d
000000e0: 1bdd 933d 748c 933d 0bfa 763c 2842 87bd
000000f0: a1e2 1bbe 24fd fbbd ff54 7d3c 1927 febd
00000100: 4f11 d8bd a850 8e3d 6e09 b2bd f17e 703c
00000110: 1d51 c03d 48ae 633b 1c8f 06be 5507 ce3b
00000120: 74ee 853d fe7c 9cbd 46df 803d ac5b 833d
00000130: e118 313d 94ca 4b3d 64c7 c33c 55b0 933a
00000140: 12fb aabd 56d6 76bd b41b a4bd 6912 1abd
00000150: 9f72 2d3d 41a6 b93d fb26 ebbd 7bbb e53c
00000160: fe4a 8d3d a3b7 4abd a8f4 e2bd 236f 373d
00000170: bcfe c9bc ad2b 233d ac76 45bc 8501 a43c
00000180: abb8 8bbd 72c1 fabc df83 033e 273b 2fbd
00000190: a68c 4f3d 58c6 a5ba 99d0 28ba 706e 89bd
000001a0: 66ae 7d3d a678 6ebd 2bff 473d 8077 b9bb
000001b0: 2831 40bd 7727 16bc 34c7 c3bd 6646 503d
000001c0: aa96 533d b716 b3bc c435 e9bd f606 dbbd
000001d0: a90a 9e3c 45db 04be f9fb 0e3d 3648 8fbd
000001e0: f28e 883c e4e7 483d 9a6d 14be ade5 9cbd
000001f0: 387d 0ebe b81b 0ebd b316 6bbc 7b1f 80bc
00000200: b11d 38bc c052 943c 00a5 90bd b15c 9fbd
00000210: 0caa 31be db14 98bd 211b acbd 0c21 c03b
00000220: b5cb fc3c 08c8 7d3d 1478 0bbb a781 5ebd
00000230: ad1b 913d a996 bcbd cda0 14bd 7c0c f13c
00000240: 8439 32bd 3b37 863d 4185 22bd d950 c43d
00000250: 5687 2c3d d055 833d 9c90 babc 0382 e83c
00000260: b552 2b3d 3c7e 9c3d 0c0d 323d 9ddc b0bd
00000270: 18d1 f5bd a90b cfba 1a9c 303d b48a 19be
00000280: 3e52 1a3d d631 cfbc 130a 773b 22be e43c
00000290: 9ba1 aabb dea5 39bd 0b69 143c cba2 0abe
000002a0: 7ebb 1abe d701 6a3d 1c61 083c 2787 233d
000002b0: 0f85 873d 17d5 a3bd 9aa9 983d a68e 093d
000002c0: a30d cd3d f855 08be 28d8 5bbc 87bb dbbd
000002d0: 4d83 71bd 4914 6c3c a190 9dbc e1af b8bd
000002e0: 151d e8bd f73b 96bd 8773 2bbd bc71 553d
000002f0: 21f7 8e3d 0ae2 163d e039 a0bd 4aa8 0a3d
00000300: 42ed f7bd 1163 1c3d f217 f8bd e966 d8bd
00000310: 6312 8d3d 3d4a 00be 5379 f9bc 9816 0cbe
00000320: 0482 8c3d caa6 30bd 4716 913c e686 563c
00000330: 6e2e 43bc 2df6 66bc b742 b33d 4085 d8bd
00000340: e6ef 9ebd 81dd 4abd 5ea7 d9bd 60d8 8f3d
00000350: f521 c23c d043 8abc dae4 6f3d 26d3 c53d
00000360: b519 df3b 0d38 e3bd d4c4 f1bc 38b0 28bd
00000370: 300d 28bd 9e7e ab3d caa7 cabc db89 c93c
00000380: b70f afbb cead 433d 004c cbbd 368c 173d
00000390: 4bb9 843c e43e 5bbc 0caa b73c c5c1 a6bd
000003a0: f3b5 73bc 81a9 98bd 1a07 7bbd a88f a4bd
000003b0: 29e7 95bc 98c9 ab3d 025c 06be c25d 9a3c
000003c0: 8ca8 83bd 399f 3f3c ab4f b23d 01d5 bb3c
000003d0: 6b69 863d 58c3 95bd 44d5 dbbd b39a 8c3d
000003e0: 22a0 bb3c 4e04 8fbd 9697 883a ebbe bebd
000003f0: 7375 4fbd cf06 ad3d 2810 8c3d cc97 4cbd
-0.097685054 -0.14535025 -0.15467359 0.0053629526 0.07062658 -0.16183677 0.060817923 0.036876556
-0.010409494 -0.06953984 0.00596482 0.050207224 0.029779354 0.009787041 -0.05789935 -0.01876328
0.024510222 0.06794406 -0.1556407 0.15186149 0.010969597 0.08290987 -0.010747714 -0.001163771
-0.0136895 -0.10578837 0.051074333 -0.13810433 0.10556402 0.013378646 0.004281675 0.049264163
0.053535547 -0.083790004 -0.100547016 -0.025093907 0.06300899 0.02923178 -0.11799329 0.050276916
-0.059333693 0.08130549 0.00043042717 -0.030653395 0.045025263 0.05173583 0.09634987 -0.06838149
-0.15109278 -0.09181937 0.0449781 -0.05754177 -0.09603998 0.021179758 -0.043101933 0.034479108
0.07219907 0.07204524 0.015074263 -0.06604415 -0.15223171 -0.12304142 0.015462159 -0.12409801
-0.10550176 0.06948978 -0.08693205 0.014678703 0.09390471 0.003474133 -0.1314053 0.006287495
0.06539622 -0.07641028 0.06292586 0.064139694 0.043236617 0.04975374 0.023898788 0.0011267761
-0.08348669 -0.060263 -0.080130965 -0.037615214 0.04234564 0.090649135 -0.11482044 0.0280435
0.06899069 -0.049491536 -0.11081821 0.044783723 -0.0246576 0.039836574 -0.012052219 0.020020256
-0.06822332 -0.03060982 0.12843274 -0.04278102 0.050671242 -0.0012647612 -0.0006439775 -0.067105174
0.061933897 -0.058220528 0.04882733 -0.0056599975 -0.04692188 -0.009164683 -0.09559479 0.050848387
0.051657356 -0.021861417 -0.11387208 -0.10694687 0.019292193 -0.1297427 0.03490827 -0.06996195
0.016669724 0.049049273 -0.14494935 -0.07660995 -0.13914955 -0.034694403 -0.014348674 -0.015640011
-0.011237548 0.018105865 -0.07062721 -0.07781351 -0.17350024 -0.07425853 -0.08403612 0.0058633145
0.030858854 0.061958343 -0.002128129 -0.054322865 0.07085357 -0.09208424 -0.036286164 0.029424898
-0.043511882 0.06553503 -0.039677862 0.09585733 0.042121254 0.06412852 -0.022774033 0.028382307
0.041826922 0.07641265 0.043469474 -0.08635829 -0.12002772 -0.0015796322 0.04311762 -0.14994317
0.03767609 -0.025292318 0.0037695214 0.027922694 -0.005207253 -0.0453242 0.009058247 -0.13538663
-0.15110585 0.05713066 0.008323934 0.039923813 0.06617176 -0.07999628 0.07454224 0.033583306
0.100123666 -0.13314044 -0.013418235 -0.107291274 -0.05896311 0.014409133 -0.019234003 -0.09017921
-0.11333672 -0.07335656 -0.041858222 0.05211042 0.0698073 0.03683666 -0.07823539 0.0338519
-0.121058 0.038180415 -0.12113942 -0.105665036 0.068882726 -0.1252832 -0.03045336 -0.13680494
0.06860736 -0.043127812 0.017710818 0.013093686 -0.011912925 -0.014096779 0.08752959 -0.105722904
-0.07760601 -0.04952765 -0.10627626 0.07023692 0.023697833 -0.016878039 0.05856786 0.09659414
0.0068084844 -0.11094675 -0.0295128 -0.04118368 -0.0410282 0.0837376 -0.024738211 0.024601867
-0.0053424495 0.047773175 -0.09926605 0.03699895 0.016201636 -0.0133816935 0.022419952 -0.08142427
-0.014874923 -0.07454205 -0.06128607 -0.08035213 -0.018298702 0.0838806 -0.13121036 0.018843535
-0.06428632 0.0116956765 0.08706602 0.022928717 0.06563076 -0.073126495 -0.107340366 0.06865444
0.022903506 -0.06983243 0.0010421153 -0.093137585 -0.050649118 0.08448564 0.06839019 -0.049949452

layer2.4.bias f4 [10]
00000000: 0145 bc3b 5a7c 063c 9187 78be 2b54 8abc
00000010: a2ff 62bd 5498 acbc 17d7 c5bd 4ec1 193d
00000020: 4eee 623d 07a7 203d
0.0057455306 0.008208359 -0.24270464 -0.016885838 -0.05541957 -0.02106873 -0.09660166 0.037537865
0.055403046 0.03922179
