MyZipTobeUploaded/bpi_Neighbour_embedding/BackUp/EventPredictor_parameters_BPI_weighted_0.0001_run0_GATTTT.pt (torch, 286967 bytes, 9 tensors)

layer1.bias f4 [6]
000000 00 00 00 00 00 00 00 00 00 00 00 00 00 00 00 00
       0.0 0.0 0.0 0.0
000010 00 00 00 00 00 00 00 00
       0.0 0.0

layer1.W f4 [4, 2]
000000 01 fb 2b bf cd 50 07 bf e7 e5 68 3f e2 46 4b 3d
       -0.67179877 -0.5285767 0.90975803 0.049628146
000010 bb 9f 3d bf c9 27 18 bf e0 92 d4 bd f9 61 14 bd
       -0.74071854 -0.5943571 -0.10379577 -0.036226247

layer1.a f4 [4, 1]
000000 54 56 16 be 55 17 e8 3d be 93 bd 3d 5a 8a 77 3d
       -0.14681369 0.11332575 0.09256695 0.060434677

layer2.0.weight f4 [256, 12]
000000 80 be d9 3e 53 5e 59 3e 3e 21 97 3d ed e6 85 be
       0.42528152 0.21227388 0.07379387 -0.26152745
000010 3b 08 1c 3e 1b 34 1c be c5 4c 17 3d fb da 4a 3e
       0.15237515 -0.15254252 0.036938448 0.19810097
000020 64 ab b5 bd d5 bf 99 bd 4b d3 09 3d e8 49 10 3b
       -0.08870581 -0.07507292 0.03364877 0.0022016708
000030 1b b0 c3 3d 06 eb 6c 3e 9c 0b af 3e 42 cd 6a 3d
       0.09555074 0.2313653 0.34188545 0.057324655
000040 3d f9 2b 3e 2d d9 9d 3e a5 15 ed 3e 6b d0 19 3d
       0.16794296 0.30829754 0.46305576 0.03755228
000050 95 bb 17 3c e5 4b 8e bb 70 bb af 3e e0 61 c9 bd
       0.009261032 -0.0043425434 0.3432269 -0.09833121
000060 4f 79 84 3e 81 47 0f 3e 18 42 03 3e 84 89 1a 3e
       0.258738 0.1399212 0.12818182 0.1509152
000070 54 a1 e2 be b9 ff c2 bc dd a5 15 3d 27 55 2a be
       -0.4426371 -0.023803579 0.036535133 -0.16634046
000080 23 4e 67 be 6c 61 06 bf 8b 34 81 bd 44 a5 6f be
       -0.225884 -0.52492404 -0.0630885 -0.23402888
000090 3f 10 37 be 10 b7 63 3c 1d 62 20 bd 73 36 08 bd
       -0.17877291 0.013898626 -0.039156068 -0.03325505
0000a0 b1 fc 9f 3d 7f 30 98 3e c6 6a 33 be 6b 3a 25 3e
       0.07811869 0.297245 -0.175212 0.16135566
0000b0 cf 0d 3d be d6 27 af 3e ac 90 94 3c 39 17 84 bc
       -0.18462299 0.3421008 0.018135391 -0.016124355
0000c0 5f 10 6f bc af 52 6f bd dd 94 36 3e 7e 20 a3 3d
       -0.0145913055 -0.058428463 0.17830224 0.07965182
0000d0 7c 93 da be 7f b0 a2 be fb d0 1f be 27 98 52 3e
       -0.42690647 -0.3177528 -0.15607063 0.20565854
0000e0 ac 3c 0e 3e 18 01 66 be 1f 4b 71 bd 67 09 23 3e
       0.13890332 -0.22461355 -0.05890953 0.15921555
0000f0 f3 96 91 3e 89 d0 b1 3d 07 49 27 be 35 82 f6 bd
       0.28435478 0.08682353 -0.16336451 -0.12036554
000100 ba 45 94 bb 21 45 20 bd 77 f1 14 bc fb 9f 98 be
       -0.0045249136 -0.039128426 -0.009090773 -0.29809555
000110 43 00 f8 3d f1 9b 0e be ef 5b aa bc 06 60 54 bd
       0.12109425 -0.13926674 -0.02079579 -0.051849388
000120 e5 63 74 3b bf 9e 13 bd a8 73 38 bc a7 5e 02 bd
       0.0037290987 -0.036040064 -0.011258043 -0.03182855
000130 78 de 5d 3e 22 ef 38 3e 65 fa 59 3e e5 54 90 3e
       0.21666896 0.18059972 0.21286924 0.2818977
000140 16 9d c2 bd e2 29 7a 3e 2d 11 23 3e 1b 80 4f 3d
       -0.09502618 0.2443004 0.15924521 0.05065928
000150 e4 8f c0 bd 51 9c 48 be 6b 1f 12 bc 50 89 e2 3c
       -0.09402445 -0.1959088 -0.008918623 0.027653366
000160 39 2d 7c be 60 59 97 3e 26 16 a3 bd 6f 22 b1 3d
       -0.24626626 0.29560375 -0.07963209 0.08649146
000170 b6 bc 67 3d 3a 64 54 3e cd 2b 2a 3c ca c1 95 be
       0.056576453 0.20741358 0.0103864195 -0.29249412
000180 b8 06 60 be a5 de 14 3e 56 8d 16 be 0d c1 81 3e
       -0.21877563 0.14538057 -0.14702353 0.253426
000190 48 2a d9 3d 0d ba 52 be c6 ad b1 be 4d 3b 6f be
       0.10603768 -0.20578785 -0.3470289 -0.23362465
0001a0 a5 32 86 be d0 ee 60 3e f5 81 7c 3d f0 cf 2b 3e
       -0.26210514 0.219661 0.061647374 0.1677854
0001b0 6e 42 5d bd bc ca a0 be 14 42 a6 be 77 7f 29 3e
       -0.05401843 -0.31404674 -0.3247229 0.1655253
0001c0 53 7e e9 3d 91 99 08 be 92 ea 2b be 2c 34 3a 3e
       0.114010476 -0.13339831 -0.167887 0.18183964
0001d0 ea 78 e6 be 95 8a a0 bd 94 a5 25 be db be 74 be
       -0.45014125 -0.078389324 -0.16176444 -0.2390093
0001e0 7f 9b 1a 3e ce 10 4a 3d e4 ac 0e 3e 04 37 c5 3d
       0.1509838 0.049332432 0.1393314 0.09629634
0001f0 73 20 84 be 90 3f 5e 3e 92 29 e0 3d 69 de 53 3e
       -0.25806007 0.21703935 0.10945429 0.20690311
000200 d6 1a 8b bd d9 10 e1 3d a7 3b bd bd ac 3a 41 3e
       -0.06792228 0.109895416 -0.092398934 0.18870038
000210 5d 1c 32 be 87 65 75 3d 88 a5 33 3c 02 50 4f 3e
       -0.17393632 0.059911277 0.010964759 0.20245364
000220 84 63 17 be 6b 09 d3 be 15 44 7d 3e b4 0f 61 be
       -0.14784056 -0.41218123 0.24733002 -0.21978647
000230 9b dd 2e 3e 15 a1 f7 3d 9c 7b a9 be b0 e2 cd 3d
       0.17076723 0.12091271 -0.3310212 0.10053003
000240 4d 84 d8 be 22 85 fb bd 8b aa 77 be d0 99 60 be
       -0.42288437 -0.122812524 -0.2418615 -0.21933675
000250 98 9a bd bd a0 cd 7b be 0e 27 5e be 20 fa 92 be
       -0.09258002 -0.24590158 -0.21694586 -0.28706455
000260 53 be 38 be 11 34 1c 3e fc f0 86 bc 7c 9f 28 be
       -0.18041353 0.15254237 -0.016472332 -0.16467088
000270 33 d7 c5 3d 77 33 4a 3e e7 54 12 bd 30 22 cd bd
       0.096601866 0.19746195 -0.0357255 -0.100162864
000280 5c 8f 7e 3d 81 2a f9 3d 7d 2a fa 3d 6a ff 33 be
       0.062148437 0.1216631 0.12215135 -0.17577901
000290 8e 14 0e 3e d2 05 29 bd 24 b3 f1 bd f4 97 4f be
       0.13875028 -0.041265316 -0.118017465 -0.2027281
0002a0 32 40 0f 3e ee 4e 0a be be 61 ba 3e 06 71 a1 bc
       0.13989332 -0.13506672 0.36402696 -0.019707214
0002b0 66 dc 58 3e d1 52 a9 3e 08 8e 0e 3d b9 ad b2 be
       0.21177825 0.33070996 0.03480342 -0.34898165
0002c0 76 41 5a 3e a2 8e dd bd ca 2a 8d bd ad c2 b7 3d
       0.21314034 -0.10818221 -0.06892927 0.08972678
0002d0 79 6b 90 3d 9f fa ad 3c e4 d0 c7 be b5 de e0 b8
       0.07051749 0.02123767 -0.39026558 -0.00010722635
0002e0 0a b9 98 bd fe 7c bb be fb 91 ec 3d 7b 0d 92 be
       -0.074571684 -0.366188 0.11551281 -0.2852591
0002f0 d8 f5 aa bc b8 8a da be 4f 41 49 bc 25 2e d0 bd
       -0.02086918 -0.4268396 -0.012283637 -0.10165051
000300 06 13 60 3e 10 37 96 be 37 53 d5 3e f2 9f 2b be
       0.21882257 -0.29338884 0.4166505 -0.16760233
000310 c1 9a 0f 3e 5a 1b ed bd 87 e8 5d 3e 14 a8 89 be
       0.14023878 -0.115774825 0.21670733 -0.26886046
000320 b0 86 94 3d b5 a7 88 3b 34 f1 33 be b8 33 83 3e
       0.07252252 0.004170383 -0.1757248 0.25625396
000330 5f ff a5 3d 07 5f 80 3e 81 05 24 3e 6a f8 42 bc
       0.08105349 0.250725 0.16017725 -0.011900047
000340 81 74 c6 3d e6 ed 87 bd 88 09 bd 3e e9 e3 1e 3c
       0.0969019 -0.066371724 0.36921334 0.009697893
000350 da ce 88 bd b2 3d 8e bd 37 fd e2 3d 66 27 82 3d
       -0.06680079 -0.06945361 0.11083453 0.06355171
000360 9e 3b ac 3d 92 24 07 bd eb e4 81 be 23 5e 93 bd
       0.084098086 -0.03299386 -0.25369963 -0.071956895
000370 c5 d5 28 3e ec 9a d4 3c aa aa 21 3e 32 8e 70 3d
       0.16487797 0.025952779 0.1578776 0.058729358
000380 04 9f 17 bd be 3e a9 be da 75 7e bd cc 95 86 3e
       -0.037016883 -0.3305568 -0.06212411 0.2628616
000390 53 f2 80 bc 77 e7 6d 3d f5 c1 fa 3d 03 15 13 bd
       -0.01574055 0.05808207 0.122440256 -0.03590871
0003a0 b7 8c 39 be db c1 68 3e 11 78 61 be 68 7f c0 3e
       -0.18120085 0.227302 -0.22018458 0.37597203
0003b0 81 a9 30 3e 63 f9 e8 bd 12 af b3 3c 11 38 01 3e
       0.1725216 -0.11375692 0.021934066 0.12619044
0003c0 ee 43 65 bd 38 24 50 be 3f 76 eb 3d 13 ac d1 3d
       -0.055972986 -0.20326316 0.11497163 0.10237899
0003d0 12 8a ef bd 50 6e ae 3e 79 71 9b bc 65 ae e4 bd
       -0.11696257 0.34068537 -0.018975006 -0.111660756
0003e0 97 f2 ed 38 c0 46 34 3d 90 d1 17 3e 47 da 65 be
       0.000113462265 0.044012785 0.14826035 -0.22446547
0003f0 75 0d 3b 3e 29 7c 43 bd c8 4f 5d be 3b 87 8a 3e
       0.18266852 -0.04772583 -0.21612465 0.27056298

layer2.0.bias f4 [256]
000000 47 41 41 bc 9c be d7 be 20 e5 65 bc a8 8e e6 be
       -0.0117953485 -0.4213761 -0.014031678 -0.45030713
000010 01 eb c0 3d 01 82 1a 3f 89 6a 24 3e a8 8b 02 3f
       0.094198234 0.6035462 0.16056265 0.5099435
000020 05 12 24 3e ac 8e de bd 16 68 e3 be c0 93 6e 3e
       0.16022499 -0.10867056 -0.4441535 0.2329855
000030 77 f7 a5 3d 32 12 b7 be 52 33 ca 3e f5 61 2e 3e
       0.08103841 -0.3575607 0.3949228 0.17029555
000040 2a 0d c8 be 08 a9 b8 bd 92 63 05 3e ef 6b 86 be
       -0.39072543 -0.09016615 0.13026264 -0.26254222
000050 bf 38 70 bd 7d d6 40 3d 61 8e 8d be 07 ba d8 be
       -0.058647867 0.047079552 -0.2764769 -0.42329428
000060 ba 5a 02 bf 7f da d4 be a6 bb 72 be 0e 3b 97 3d
       -0.5091969 -0.4157295 -0.23704395 0.07384311
000070 7b 8b df bc 22 1b 87 be a4 a4 04 3e 23 80 53 3e
       -0.02728819 -0.26387888 0.1295343 0.20654349
000080 63 cd 9b bd a8 00 ab bd 7b d4 a9 bd 31 27 7f 3e
       -0.07607534 -0.083497345 -0.082924806 0.24917294
000090 f7 47 be bc dc 8b 8e be b4 9f 82 3d da 02 80 bd
       -0.023227675 -0.2784108 0.06378117 -0.06250544
0000a0 2f b5 87 3e 1f 1d 07 3e fb c7 1b bf c4 43 a1 3e
       0.2650542 0.13194703 -0.6085202 0.31497014
0000b0 91 7b 41 3e 45 78 b1 be 12 d4 40 be cf b6 1a 3e
       0.18894793 -0.3466207 -0.18830898 0.15108798
0000c0 1b bd 13 3c 06 2e c1 3e d1 df f5 be 94 18 9a 3e
       0.009017254 0.37730426 -0.4802232 0.30096877
0000d0 28 35 35 3e 9c 1f 78 bc ba c2 69 be d0 b6 fe 3e
       0.17696059 -0.015144255 -0.22828189 0.4974885
0000e0 d0 32 6b be ef 0b 5b 3e d1 6f 80 3e c8 a8 a6 3e
       -0.22968602 0.21391271 0.2508531 0.32550645
0000f0 ee 8c 38 bd d0 bf 53 3c 65 ba 01 bd 10 ba 56 bc
       -0.045056276 0.01292415 -0.0316719 -0.013105884
000100 7c 0d 42 be 4f cc c4 bd 93 45 1c bf 61 bc 89 be
       -0.18950456 -0.09609281 -0.6104366 -0.26901534
000110 e4 f2 4b 3e d8 a6 62 3d c0 79 9a bd 48 4d 6e 3e
       0.19916874 0.055334896 -0.07542753 0.23271668
000120 ef f9 ed 3d cf 9b 0c 3d 5a 3c 8a 3d 2a f9 52 bd
       0.11619937 0.03432828 0.067497924 -0.051507153
000130 d3 8e 4c 3b f8 20 82 3e a9 cc 0d 3e b2 d3 43 be
       0.003121306 0.25415778 0.13847603 -0.19123724
000140 66 87 b9 3e 5b 32 fb bd 96 76 41 3f ee 68 7f be
       0.36236113 -0.12265464 0.7557157 -0.24942371
000150 27 13 90 be 81 0a 80 3d 2c 3f 09 be 0a cc b7 bc
       -0.28139612 0.062520035 -0.13403004 -0.02243616
000160 64 6c 33 3d af 8a bc be 55 55 4a be 4e 06 cc 3e
       0.04380454 -0.36824557 -0.19759114 0.3984856
000170 98 11 4f 3d 8d 70 fb be b7 b6 8a 3e 7c eb c4 3e
       0.050553888 -0.49109307 0.27092525 0.3846091
000180 a9 91 1b bc d7 5d 4d be f4 3f e8 3c 24 e8 d0 be
       -0.009495177 -0.20055328 0.028350808 -0.4080211
000190 7e 52 1d 3f fa 7f f0 bd 3f d8 b7 be 27 e1 ec 3d
       0.61454 -0.117431596 -0.3590717 0.11566382
0001a0 e0 fb 15 be ec 16 db 3c b1 b6 0a 3e 9d b3 a6 bd
       -0.14646864 0.026744328 0.13546254 -0.08139727
0001b0 49 1d 92 be 2b 96 f1 be d8 75 54 be e0 f4 ad 3d
       -0.28537968 -0.47184882 -0.20748079 0.08493972
0001c0 97 ab 45 bb 50 f9 a0 be 9c 9b 06 3e 5b 1a df 3d
       -0.003016209 -0.3144021 0.13145298 0.10893699
0001d0 1b 43 77 3e c6 e4 a0 bd 0f 04 bb be 19 db 43 be
       0.24146692 -0.07856135 -0.36526534 -0.19126548
0001e0 68 ea eb bd a4 55 4f 3d 98 cb a1 3e d8 7e 1f 3d
       -0.11519319 0.050618783 0.31600642 0.038939327
0001f0 e0 4c 85 be 7c 03 92 be 0d 54 c0 bd f4 ad 8c bd
       -0.26035213 -0.28518283 -0.093910314 -0.068691164
000200 14 6b cf 3e fc 5c 92 bd 20 0e d7 be 6d 72 9a 3e
       0.40511382 -0.071466416 -0.42002964 0.30165425
000210 ea be 62 3e 29 0d d4 bc df 08 8b 3e 1a 88 2c 3e
       0.2214314 -0.025885182 0.27155206 0.16848794
000220 ee af eb 3d e6 b9 28 be 7d d7 2a 3e 0f 49 be be
       0.11508165 -0.16477165 0.16683765 -0.37165114
000230 07 4e c5 3e da 57 81 3e e5 5b 25 be 80 d3 94 3d
       0.38536093 0.25262338 -0.16148336 0.07266903
000240 38 f7 3d be c1 49 87 be 00 ff 2d 3f a8 e4 dd 3b
       -0.18551338 -0.26423457 0.67967224 0.0067716427
000250 43 0e 52 be d4 41 6c 3e 2e 40 03 3f 81 96 fb be
       -0.20513253 0.23071986 0.51269805 -0.49138263
000260 7e 7e a9 bd 3c ad 31 be fe e1 a4 be 5d 76 7d 3d
       -0.082760796 -0.1735124 -0.32203668 0.06188046
000270 66 22 e8 bd cc 3e b0 be fa ef 7b bd ba 16 54 be
       -0.11334686 -0.3442291 -0.061508156 -0.20711794
000280 72 d9 77 3e e2 47 19 bd c2 c3 e8 3d bb a6 3e be
       0.24204043 -0.03742207 0.11365463 -0.1861829
000290 8d 8d b6 bc 10 b9 e5 bc 10 66 24 3e a8 2f 37 3e
       -0.022284294 -0.028042346 0.16054559 0.17889273
0002a0 cb 3e 1d ba 09 5a fe 3d 4a fa 91 3e ec 5b 22 bf
       -0.00059984316 0.124195166 0.28511268 -0.6342151
0002b0 46 37 18 3d c2 b3 83 be eb e3 4a be 6f 3b c5 3e
       0.037162088 -0.25723082 -0.19813506 0.38521907
0002c0 67 c7 1b be a6 47 d3 3d 0f 36 7f be 73 4b 70 3e
       -0.15212785 0.103164 -0.24922965 0.23466282
0002d0 1f c4 83 bc fb 2d a3 be 60 f8 51 be d5 12 95 be
       -0.016084729 -0.31871018 -0.20504904 -0.2911593
0002e0 22 18 76 be a0 94 05 3f 00 2b da 3d e1 04 c8 bd
       -0.24032643 0.5217991 0.10652733 -0.097665556
0002f0 96 80 16 be d7 a5 2e 3e 59 ac 9b bc ae 72 7d 3e
       -0.14697489 0.1705545 -0.01900308 0.24750778
000300 d4 97 d8 be dd a1 e3 3d de 8d 0f be de 12 22 be
       -0.42303336 0.11114857 -0.14018962 -0.1582751
000310 5e b2 1d bd 03 1f 3c 3c f6 ae 28 be 0f a7 1a 3f
       -0.038500182 0.011482003 -0.16472992 0.6041116
000320 57 dc 68 bd c3 d1 68 be c4 da d1 bd 07 4d 5e bd
       -0.056850757 -0.22736268 -0.10246804 -0.054272678
000330 78 9f b1 be 63 d7 18 be dd 5b 9a 3e e7 57 2e be
       -0.34691978 -0.14925914 0.3014821 -0.1702572
000340 c4 91 29 be ff fb 0c 3f d8 c6 00 bf b6 8d 81 3e
       -0.16559511 0.55072016 -0.5030341 0.2530343
000350 50 84 20 3f c1 64 fd bc 8c 93 cb 3e 34 6e 52 be
       0.6270189 -0.030931832 0.39761007 -0.20549852
000360 06 8d 8c 3e 7a b3 e7 3c 39 9a 77 bc 18 27 ee 3d
       0.27451342 0.028283823 -0.015112453 0.1162855
000370 9e 2d 16 3e e5 6e 03 bf dd aa f3 be 8e 3a ea 3e
       0.14665839 -0.51341087 -0.47591296 0.457478
000380 ce b5 3b be d7 71 d0 3c b5 b6 e6 3e 05 31 1b be
       -0.18331072 0.025444908 0.4506127 -0.15155418
000390 7e 36 31 3d 56 c3 b9 3e ca 9c 5f be 9f f9 b4 bd
       0.04326486 0.36281842 -0.21837154 -0.08836674
0003a0 f3 3e 36 3d cf 68 d7 bd 5f 4b 80 3e 34 5a 8b be
       0.044493627 -0.105180375 0.25057504 -0.27217257
0003b0 78 d7 0a 3e 4d b8 c1 be 60 11 4c 3d 75 d4 28 3e
       0.13558757 -0.37835923 0.049821258 0.16487296
0003c0 b8 e0 f9 bd 50 ff a2 3d 51 74 26 3e 9f 44 92 3e
       -0.12201065 0.07958853 0.16255309 0.2856798
0003d0 f0 83 46 be eb 0e 99 3e 16 a7 b5 3e 0b 08 b6 bd
       -0.19386268 0.29894194 0.3547904 -0.08888253
0003e0 3d 45 12 3e a7 2e b1 3e 95 0b ab 3e 98 5e 44 3e
       0.14284225 0.34605905 0.33407274 0.1917671
0003f0 d6 8d a3 3d 30 00 ca 3e 08 07 c7 3e ef 3f 06 3e
       0.079860374 0.39453268 0.38872552 0.13110326

layer2.2.weight f4 [256, 256]
000000 bd 7e e1 3d a1 e6 21 3d 77 d0 70 3e 62 3a e0 3d
       0.110105015 0.039526585 0.23517023 0.10948636
000010 6a ad a4 bd 7b 92 8e be d7 11 cd be fd 09 5a 3e
       -0.080408886 -0.2784613 -0.40052673 0.21292873
000020 eb 3c 07 3e 69 e1 28 3e 8d fb 9c 3d bb a5 a9 be
       0.13206832 0.16492237 0.07665167 -0.33134255
000030 66 f1 35 3e 0f a1 2f 3e 77 49 95 be 0f c2 4e 3d
       0.17767867 0.17151283 -0.29157612 0.050478037
000040 0e da 96 3e c1 9f 5b be 59 58 ca be aa c8 63 be
       0.29463238 -0.2144766 -0.3952053 -0.22244516
000050 17 c7 5c bd 55 2f 1d 3e 08 5c e4 be 2b c8 81 3d
       -0.053900804 0.15350087 -0.44601464 0.06337007
000060 ed f2 4f bb 60 93 0c 3e a7 41 48 3e d6 75 d1 3d
       -0.0031730488 0.13728094 0.19556294 0.102275535
000070 26 1f 48 3e 9d e2 a3 3c 0a f1 4e bc 8b d4 8e bd
       0.19543132 0.020005519 -0.01263071 -0.06974133
000080 ec 67 46 bd 6f ea c3 3e b1 fc 01 3e 17 83 86 3c
       -0.04843895 0.38264796 0.1269405 0.01641993
000090 3a 8e c2 3d 51 27 c2 be ea e4 b1 3e 5c b8 9e 3d
       0.09499784 -0.3792062 0.3474496 0.077500075
0000a0 81 aa f6 3d 7d a8 0b 3e 53 89 aa bd e7 79 1a 3e
       0.1204424 0.13638492 -0.08326974 0.15085565
0000b0 b9 4e c2 bd 81 68 84 3e 2d 64 9f 3d 6a e3 3b be
       -0.094876714 0.2586098 0.07782779 -0.1834847
0000c0 bb 1a 53 3e 88 ba ab be e8 5d 55 3e de 3a 35 3e
       0.20615666 -0.3354075 0.20836604 0.17698237
0000d0 1f 32 12 3e 7f cf aa 3d 67 44 1b be b4 b1 90 3c
       0.14276932 0.08340358 -0.15162812 0.01766286
0000e0 b8 21 d4 3d 7b 22 c1 3d a0 18 3f be d7 2a a4 3e
       0.10357994 0.09430405 -0.18661737 0.32063934
0000f0 49 46 00 be 56 60 44 be 11 d2 da 3e 33 bf af bd
       -0.12526812 -0.19177374 0.42738393 -0.0858139
000100 92 46 ae 3c 98 1e 03 3e 3b 9b f1 bd 80 3a 6c be
       0.021273885 0.1280464 -0.11797186 -0.23069191
000110 c9 08 27 bc 30 8d 8f be 64 e4 a2 be f7 ca ae 3e
       -0.010194966 -0.28037405 -0.31814873 0.34139225
000120 f8 db c5 3d 06 04 85 3d 0d 94 ae bd 5e 67 87 3d
       0.09661096 0.06494908 -0.08524332 0.066115126
000130 45 a7 ae bd 00 28 b0 3d fa 5e 99 3e e2 99 e6 3d
       -0.08527998 0.086013794 0.29955274 0.112598196
000140 9a 51 5c 3e cb 1b 53 be 0c 70 9d bd 2b 95 15 3b
       0.21515504 -0.20616071 -0.07687387 0.0022824507
000150 70 82 97 3c d9 8f 03 3e 87 f2 b8 3d 83 da ce 3d
       0.018494815 0.12847842 0.090306334 0.101002716
000160 4b 10 4c be df 9a 4f 3e bd 53 19 be 3a 04 a1 3e
       -0.1992809 0.20273922 -0.1497335 0.31448537
000170 4d 2f 49 be 88 f7 97 be bb 70 5a 3e f4 0b ce 3b
       -0.1964695 -0.2968104 0.21332066 0.006288046
000180 62 d8 24 3d f1 07 74 ba 69 8b 66 be 96 52 75 3d
       0.04024542 -0.00093090447 -0.22514118 0.059893213
000190 9e 9c e7 bd a8 d5 15 3e 82 f4 33 be a7 87 92 be
       -0.11309169 0.14632285 -0.17573741 -0.2861912
0001a0 91 1a 0a 3f 38 82 07 3e 71 fb 13 bd 85 41 0e bd
       0.5394679 0.13233268 -0.036128465 -0.034730453
0001b0 38 9e 8f 3d c9 3d 60 be a5 4a 79 3e a1 b9 e6 3c
       0.070126 -0.21898569 0.24344881 0.028164687
0001c0 b4 a8 0d be 00 a2 21 bd 30 a9 75 bc 23 4d 2e bb
       -0.13833886 -0.039461136 -0.014993951 -0.002659627
0001d0 ba 05 5d 3e 21 49 d1 3d 03 be e1 3c b4 69 8a bc
       0.21584216 0.10219026 0.027556425 -0.016896106
0001e0 f6 68 30 be 81 52 48 3e 0f 02 e5 3b 77 67 b1 bd
       -0.1722754 0.19562723 0.006988771 -0.086623125
0001f0 06 c0 fe 3c 85 32 63 bd c3 b7 7a 3e c2 60 13 be
       0.031097423 -0.0554681 0.24484162 -0.14392379
000200 c6 28 3e bc 35 ef 07 be a7 bc c9 3d 18 73 2d be
       -0.011606401 -0.13274844 0.09850436 -0.16938436
000210 c1 73 70 be 21 ac b1 be 31 44 76 3e 0b 96 88 be
       -0.23481657 -0.34701636 0.2404945 -0.26676974
000220 e1 ab 83 be 63 db 26 3e 99 49 64 be 5a 41 70 3e
       -0.2571707 0.16294627 -0.222937 0.2346243
000230 1a 5c 42 bd 33 db 32 3e a3 63 86 3e 46 d9 19 be
       -0.047451116 0.1746643 0.26247892 -0.1502429
000240 44 13 e9 3c 25 ac 07 be 50 97 3f be ba b5 92 3e
       0.02845157 -0.13249262 -0.18710065 0.2865427
000250 95 b3 91 3e 80 32 9d be 98 11 17 3e 78 b7 e0 be
       0.28457323 -0.3070259 0.14752805 -0.43889976
000260 33 db 4a be 2b 7f 1a 3d 2d 9a 84 bb 56 b9 2f 3d
       -0.1981018 0.037718933 -0.0040466995 0.04290136
000270 11 5e 4e bd 08 9e b7 be 6a 56 ca bd 6c de 3a be
       -0.050382677 -0.35862756 -0.098797634 -0.1824891
000280 c2 f1 08 bd 35 3b 8e 3e d8 7b cb 3c 38 4a 23 bd
       -0.033433683 0.27779546 0.024839327 -0.039865702
000290 52 ba 76 be 1f 6c 32 be 41 a5 46 3e b3 3f d0 bd
       -0.24094513 -0.17424057 0.19398977 -0.101684
0002a0 d5 5e a3 bd 4c 70 e2 3d 46 5c 48 3e a1 5e 47 be
       -0.07977072 0.11056575 0.1956645 -0.19469692
0002b0 15 ea b5 be ca be 88 3e 5a 8e ab 3d 52 45 50 bd
       -0.35530153 0.2670806 0.08376761 -0.05084736
0002c0 94 72 76 3c 10 87 19 3e 74 49 d2 3e 2e 27 13 3e
       0.015041966 0.14992929 0.41071665 0.14370415
0002d0 1f 00 ae be d9 62 03 bf 8b 4a 84 3e 29 63 a5 3e
       -0.33984467 -0.51322705 0.25838122 0.32302216
0002e0 6b ad 32 be 58 a4 1e bd 4b 67 33 3e 22 b2 79 3c
       -0.17448966 -0.03873095 0.17519872 0.015240224
0002f0 07 29 48 be fc 9c 5b be ef 5a 64 be d6 73 30 3e
       -0.195469 -0.21446604 -0.22300313 0.17231688
000300 dc 89 16 3d b8 fb 5c 3e 20 45 ae 3c a7 a4 01 be
       0.036752567 0.21580398 0.021273196 -0.12660466
000310 9c 81 c0 3c 61 65 9d 3d f4 76 cb bc c7 fc cc bd
       0.023499303 0.07685352 -0.024836995 -0.10009151
000320 4d 89 38 3e c3 43 07 3e 6d fd 85 be 90 0c f0 bc
       0.18021126 0.13209443 -0.2616991 -0.029302865
000330 99 5f 6e be 17 2a b7 be f2 ec 83 bd b0 79 99 bc
       -0.23278655 -0.357743 -0.06441678 -0.018734783
000340 fa f6 40 3b ab b0 9b bd 60 36 84 bc 76 f1 3e 3e
       0.0029444085 -0.07602056 -0.01613921 0.18646798
000350 06 99 9d 3e fb 26 e0 3d ec 63 36 3e 4d 81 32 be
       0.3078081 0.10944935 0.17811555 -0.17432137
000360 2f e9 ce 3d 21 16 ee bd 66 df 9b 3e 61 99 85 3d
       0.1010307 -0.116253145 0.30443877 0.06523395
000370 e0 a6 5d 3e d9 54 fb 3e 5b f1 8d be e6 a2 2f bc
       0.21645689 0.4908817 -0.27723202 -0.01071999
000380 32 c7 a3 3d f1 53 31 3e e0 8c f9 bd b4 a7 99 bd
       0.07996978 0.17317177 -0.12185073 -0.0750269
000390 49 fc 5d bc e3 21 9e be 8f 78 1a 3e e8 f3 10 be
       -0.013548919 -0.3088523 0.15085052 -0.14155543
0003a0 8f 02 d8 3e f6 8c d3 bc 51 7d c0 3e 9d 10 46 3e
       0.42189452 -0.025824051 0.3759561 0.19342275
0003b0 95 95 20 3e 80 0a b0 bd 89 de 4c 3e ea 72 42 3c
       0.15682061 -0.08595753 0.20006765 0.011868218
0003c0 13 89 29 3e f2 e3 29 bd 8a d2 33 be 08 f2 6f 3d
       0.16556196 -0.04147715 -0.17560783 0.05858043
0003d0 f3 a7 43 3e cc 93 25 be 44 ab f7 3d c1 56 0e bc
       0.19107036 -0.16169661 0.12093213 -0.008687676
0003e0 a8 48 45 3e 9b 11 de 3e 9a f4 9b 3d a1 ff 8b 3e
       0.19265997 0.43372807 0.076150134 0.27343467
0003f0 41 40 80 be 23 5a e1 3d 5a 64 c8 3d cf a5 57 be
       -0.25049022 0.1100352 0.097847655 -0.21059345

layer2.2.bias f4 [256]
000000 3d 9a 7c be b4 fb a4 3e c3 f4 8c 3d 40 2d 9c be
       -0.24668212 0.32223284 0.06882622 -0.30503273
000010 05 21 0f 3e 44 2e 1f be 19 bb 38 3e 5a 83 79 be
       0.1397744 -0.15544993 0.18040122 -0.24366513
000020 2b 04 1f 3e 53 45 dd 3c 94 7b c0 3e fc 3d 56 be
       0.15528934 0.027010595 0.37594283 -0.20922083
000030 d7 eb 09 3e ef 3d 05 bd 61 39 83 3e c6 22 ea 3e
       0.13468872 -0.032529768 0.25629714 0.45729655
000040 e5 a6 94 3e 0b bc ad 3a ad fd 0d bd 60 aa 27 be
       0.2903358 0.0013254894 -0.034665752 -0.16373587
000050 88 59 ac bd 31 9d af 3d 50 cc f0 3d 05 96 85 3e
       -0.08415514 0.08574904 0.117577195 0.26091018
000060 24 fb f1 3e 1e 95 41 3e 4e 19 a5 be 2e 45 88 3e
       0.47261918 0.1890454 -0.32245868 0.2661528
000070 0f 0c 08 3f cd 2d 54 3c 22 44 82 3d 0b 02 b5 be
       0.531434 0.012950373 0.063606516 -0.3535312
000080 a6 c9 93 3d 6a 89 44 be 64 50 7e 3d 29 56 12 3e
       0.07216196 -0.19193044 0.062088385 0.1429068
000090 20 52 5c 3d f0 fc 68 3e 30 80 84 3d 74 27 bb 3d
       0.053789258 0.22752738 0.06469762 0.091383845
0000a0 6f 3e d4 3e 56 12 2f 3e 8b 4d d1 3e b0 ff 60 3e
       0.41453883 0.17096838 0.40879473 0.21972537
0000b0 20 89 47 3d 61 c7 14 3f 93 4b ca 3e 05 9b f9 be
       0.048714757 0.5811673 0.39510784 -0.48751083
0000c0 a1 5b 8f 3e 16 00 91 be e3 69 58 3c 97 1b 88 3d
       0.27999595 -0.28320378 0.013208839 0.06645887
0000d0 07 a5 00 3e d2 70 b0 3d 36 20 1a be 4b bc 49 be
       0.12562953 0.08615269 -0.1505135 -0.19700734
0000e0 0e 48 6c 3e b0 a9 44 be 18 c9 f4 3e d2 97 0c 3d
       0.23074362 -0.19205356 0.47809672 0.034324475
0000f0 74 ce c1 bd c5 bd c0 bd 82 90 a3 bd 6d f8 8b bd
       -0.09463206 -0.09411196 -0.07986547 -0.06834493
000100 92 34 ab bd 1e ec 25 3d 97 ad 04 3f 43 a6 1c be
       -0.08359636 0.040508382 0.5182738 -0.15297799
000110 89 eb e0 be ff a8 1d be ec 04 f2 be 50 8a af bd
       -0.439297 -0.15396498 -0.4726938 -0.08571303
000120 d4 0a b7 3c 4d 96 77 be 26 3b cd 3e e3 b7 24 be
       0.02234403 -0.24178429 0.4008419 -0.16085772
000130 8a 4e bb 3d 99 cc d8 bd c2 05 98 bd bc 27 b1 3e
       0.091458395 -0.10585899 -0.07422973 0.34600627
000140 ff 59 e5 3e 3b 09 83 bc 28 c3 38 be 83 1e f8 bc
       0.44795224 -0.015995612 -0.18043196 -0.030287987
000150 8d a7 11 3e b4 71 af bc 38 b7 ac 3e 55 e1 97 be
       0.14224072 -0.021416523 0.33733535 -0.29664102
000160 65 c8 c4 3d 94 13 82 3d af 03 45 3d 7d 0d df 3e
       0.09608535 0.063513905 0.048099216 0.43564978
000170 fb eb 06 bd c3 5b 43 3e c6 ba a4 be dc 8b e6 bd
       -0.032939892 0.19077973 -0.32173747 -0.11257145
000180 73 d6 51 3e fa 5f a2 be 59 97 aa bd c8 37 90 3e
       0.20491962 -0.3171385 -0.083296485 0.28167558
000190 f1 7a dd 3c 99 5f a6 3d 8f c1 32 be f5 e8 18 be
       0.027036162 0.081237026 -0.17456649 -0.14932616
0001a0 d4 85 e4 be dc 0b d6 be a4 82 90 3e de 1a e9 3e
       -0.44633353 -0.41805923 0.2822467 0.4552831
0001b0 66 f7 21 be 8b a2 e4 bd 5d 10 0f 3f 70 0a 48 bd
       -0.15817031 -0.11163815 0.55884343 -0.04883808
0001c0 0d db d9 3c 62 d8 51 3e 8a 41 a3 bd 7d 7a 86 3e
       0.02659371 0.204927 -0.07971485 0.26265326
0001d0 8b c6 2c bd a1 c5 8c be 0e 67 86 3e bf f0 63 3e
       -0.042181533 -0.2749453 0.262505 0.22259806
0001e0 29 fe 63 3e 22 9f 0b 3d d9 fd 9d be ee a8 d8 bd
       0.22264923 0.034087308 -0.30857733 -0.10579096
0001f0 37 8e a6 3e 9c c3 fc 3e 1e e9 8b 3e d8 5a fd ba
       0.32530376 0.49367988 0.27326292 -0.0019329442
000200 17 61 4f be 73 8f 9a 3e b0 e3 02 be a9 20 e5 be
       -0.2025188 0.30187568 -0.12782168 -0.4475148
000210 e1 58 9b be 97 57 e1 be e9 4e 56 3e 84 75 ab be
       -0.30341247 -0.44012138 0.2092854 -0.33488095
000220 65 23 a9 3e fa b3 b9 be d3 24 ce 3d c1 6b 64 3e
       0.33034816 -0.36270124 0.100656174 0.2230673
000230 f2 1e c8 3e 7d bd 21 bf 62 a7 2e be c8 e9 40 3e
       0.3908611 -0.6317976 -0.17056039 0.1883918
000240 5f 1c 8e 3e 8a 3a 50 be 98 99 40 3e 3d 71 9f bd
       0.2775602 -0.20334831 0.18808591 -0.0778527
000250 ad cc 8c 3c d9 b7 b5 3e ae 55 3b be ef f3 d4 bc
       0.01718744 0.35491827 -0.18294403 -0.025995223
000260 ae 92 cd 3e 82 6f 9a bc ae 49 cc bd 77 f9 da be
       0.4015097 -0.018852 -0.09974991 -0.42768452
000270 20 c9 2d be c6 1b b1 be 98 1f 98 3e 53 f0 03 3d
       -0.16971254 -0.34591502 0.29711604 0.032211613
000280 6b d5 57 bd cb 61 30 3d f8 96 44 be f1 f4 44 bc
       -0.052693766 0.043062013 -0.19198215 -0.012021289
000290 be 21 df 3d 4c ac c0 3d e4 bf 70 bd da a5 da be
       0.10895108 0.09407863 -0.05877675 -0.4270466
0002a0 a1 c4 d4 3e 9e b5 f8 be ab f5 65 be f7 fa 0e be
       0.41556266 -0.48576063 -0.22456996 -0.13962923
0002b0 e0 df 48 be 2b 16 46 be f1 66 c8 3e 75 41 2f 3d
       -0.19616652 -0.19344394 0.39141038 0.042787034
0002c0 8a 9c 70 be ac 8f 4f bd 66 77 56 3d 7b ba 85 3d
       -0.23497215 -0.050674126 0.05235996 0.06529709
0002d0 c4 2b 6b 3e ed 62 5f 3c 59 90 c3 3e b1 7f 72 3e
       0.22965914 0.013634426 0.38196066 0.23681523
0002e0 d8 6e 0f be d5 e0 c8 3d 36 fd e7 3e 2f a7 a0 be
       -0.14007127 0.09808508 0.45310372 -0.3137755
0002f0 d6 74 ce bb 79 36 bc be 42 6e 22 bf 90 5f 67 be
       -0.006300549 -0.3676031 -0.6344949 -0.22595048
000300 98 5d 1e 3c 54 31 4e be 2b 54 d3 3e b9 10 93 3d
       0.009665869 -0.20136005 0.41275153 0.07180924
000310 e7 cf cd be 31 03 00 be f6 91 b9 3e f9 57 ca 3e
       -0.4019768 -0.12501217 0.36244172 0.39520243
000320 42 22 10 be da 9b 9e 3e 2d dc b6 3e 24 22 b9 3d
       -0.14075568 0.3097828 0.35714856 0.09039715
000330 55 4c 7e 3e 3a 99 12 be 62 b7 15 3c 19 b2 0b 3c
       0.24833806 -0.14316264 0.00913796 0.0085263485
000340 5d af 81 3e 22 60 95 3e 27 35 5f be 2e 27 6b 3c
       0.25329104 0.29174906 -0.2179762 0.014352603
000350 b8 8a bf 3e c8 c3 32 3d 42 79 b8 3e cf 0d 40 be
       0.37410522 0.043643743 0.36030012 -0.18755268
000360 70 cf 16 3f 60 9d 35 3d 56 71 a5 3c b4 c4 0d 3e
       0.58910275 0.044339538 0.020195644 0.13844568
000370 2d 80 8f 3e 0f a0 5b bc 02 dc 93 be ec 9d 0a 3d
       0.28027478 -0.01340486 -0.2887879 0.033842012
000380 2a bf 3a bd fb 30 e6 be da 00 cc 3d 67 a8 7a 3e
       -0.045592465 -0.44959244 0.099611 0.24478303
000390 7d 72 9a 3e 02 56 af be 54 05 32 be b7 71 3a be
       0.30165473 -0.34245306 -0.17384845 -0.18207441
0003a0 fe 6d dc 3e 18 95 a5 3e de 1b 7a be e2 a5 a4 3d
       0.43052667 0.32340312 -0.24424693 0.08039452
0003b0 20 b7 8c 3e 5f f2 3e 3e 95 8b f1 bd 3e e2 fb ba
       0.27483463 0.18647145 -0.11794201 -0.0019217206
0003c0 2f 60 08 be 05 a9 4f bb 5e 47 1d be 0d cd be bd
       -0.13317941 -0.0031686437 -0.15359256 -0.09316454
0003d0 42 15 24 bd 1d 71 ff be ac b8 11 3d 42 a5 35 be
       -0.040059336 -0.49890986 0.035576507 -0.17738822
0003e0 ca 39 af bc 9a 3f 96 3e b6 e2 8e 3d 60 ce be 3e
       -0.02138986 0.293454 0.069768354 0.37266827
0003f0 65 00 6f 3d 1a fe 48 3e d2 9f 45 3e b7 05 f1 bd
       0.058349986 0.19628182 0.19299248 -0.11768668

layer2.4.weight f4 [7, 256]
000000 ec 43 9d 3d 47 f7 27 bd e9 d8 c1 bd 88 ca 33 3e
       0.07678971 -0.041007306 -0.094652005 0.17557728
000010 c1 0e 37 bd 38 08 2a bd 33 e5 3c 3d d4 59 84 3c
       -0.044691805 -0.041511744 0.04611702 0.016156115
000020 c7 48 a4 bc 89 53 8f bd 2e 3a c5 bd 42 9d 58 be
       -0.020054234 -0.06998355 -0.096302375 -0.21153739
000030 73 82 c5 3d ce 60 00 3c 55 43 1b 3c 0d c3 20 3e
       0.09644022 0.00783558 0.009476502 0.15699406
000040 c8 8b a3 bb 11 f0 09 3c 61 2e ae 3b 6b 51 1b be
       -0.0049910285 0.008419053 0.0053155874 -0.15167777
000050 18 f0 19 3e a2 84 8c be e4 68 68 3d b6 59 d7 bd
       0.15032995 -0.2744494 0.056740656 -0.10515158
000060 8d 89 65 3d 58 cc 47 be 9d 6b 01 3e b5 8c 5b be
       0.05603938 -0.19511545 0.12638707 -0.21440394
000070 2e 6e 97 be b3 ae ca 3d 00 97 a0 bc 92 00 f3 3d
       -0.29576248 0.098966025 -0.019603252 0.11865343
000080 32 9e a0 3d 8f 20 58 be 4b 82 47 bd e0 4b 78 bd
       0.07842673 -0.2110617 -0.04870824 -0.060619235
000090 bf e7 8f bd 04 e6 21 be 0f 8f 83 bd da 5e f4 bc
       -0.07026624 -0.158104 -0.06423771 -0.029830385
0000a0 f5 e2 e3 3d 40 c5 65 bc ed 00 e7 be 16 81 44 be
       0.11127273 -0.014024079 -0.45117894 -0.19189867
0000b0 07 4e c3 bd a4 64 19 be ac f7 0e be bf e2 9c 3c
       -0.09536367 -0.14979798 -0.13961667 0.01915109
0000c0 74 93 95 bd 70 8c 66 3d 7d 08 b2 bd da 5d d2 3c
       -0.07303515 0.056286275 -0.08693025 0.025679518
0000d0 ee 5e c5 3c 14 3f e2 bd d4 08 1a ba c9 0a 8c 3e
       0.024093118 -0.110471874 -0.0005875949 0.27351978
0000e0 19 86 3d be 7b b9 4f 3e a5 bc bc bd 21 0e a8 3d
       -0.18508185 0.20285599 -0.092156686 0.0820582
0000f0 c3 0a 64 3d f2 fa 81 bd aa 76 32 bd 69 45 ab bd
       0.055674326 -0.06346692 -0.043570198 -0.08362848
000100 9f 53 24 3c 23 81 40 bd 1b 69 2d be 10 07 61 bd
       0.010029702 -0.046998154 -0.16934626 -0.054938376
000110 4f d6 c2 3d b5 b8 d0 bd df 19 99 bd ed 1f 65 bd
       0.09513532 -0.1019148 -0.07475638 -0.05593865
000120 75 d3 a3 3c e4 6e f3 3d 0d 6b f5 bc 69 b0 c2 bd
       0.019998292 0.11886385 -0.029958272 -0.09506304
000130 e7 f6 fc bd 69 39 d3 bd f3 9e ba bd 5d ec fd bd
       -0.123517804 -0.103136845 -0.091123484 -0.12398598
000140 fc d3 54 be 27 47 d9 3d 14 32 9e bc 2e 43 33 be
       -0.2078399 0.10609274 -0.019310988 -0.17506096
000150 75 b9 a7 bd c2 1a 60 3e f3 4e 80 3d 35 a4 1a bc
       -0.0818967 0.21885207 0.06265058 -0.009438564
000160 fd 28 59 bd 8d 5d 4b 3e a3 8d 30 be 1f fe d2 bd
       -0.053017605 0.19859906 -0.1724153 -0.10302376
000170 b7 84 d9 3d 35 09 0e be 2c 9b 78 3e 4f 1d 63 bd
       0.106210165 -0.138707 0.24277943 -0.055447873
000180 c6 89 1b be 59 2a 80 3e 0f 1b ae bd be a2 ea bc
       -0.15189275 0.2503231 -0.08501255 -0.028642055
000190 e2 a2 94 3e 4b d4 e1 bc ca da 9b 3c b7 bd 9e 3c
       0.2903052 -0.02756705 0.019025225 0.019377572
0001a0 29 b6 78 bd 70 41 8c 3e 0c 6d 59 be 96 b1 3c 3e
       -0.060720596 0.27393675 -0.21233004 0.18427119
0001b0 98 15 83 3d 8c f7 1b bd 0e 0d 1a bc 8d 3c dd 3d
       0.06400603 -0.038077876 -0.009402527 0.10802565
0001c0 99 14 cd 3d c2 2f 18 be c8 d8 48 3e cc 06 69 bd
       0.10013694 -0.14861968 0.19613945 -0.056891248
0001d0 91 25 16 3d 3c ca 6b 3a 9e 23 ed b9 bf e7 1d 3d
       0.03665692 0.0008994674 -0.000452307 0.03855109
0001e0 5b 33 79 bc 6e a0 39 3d 81 82 8e 3e 85 83 c3 bd
       -0.015209998 0.045319013 0.27833942 -0.0954657
0001f0 2b a0 7b be b5 22 87 be 5e a7 00 be 67 b9 d6 bd
       -0.24572818 -0.26393667 -0.12563846 -0.104845814
000200 32 ea 86 bd e3 9c 91 bd 8d de dc 3c bf 55 a2 3e
       -0.06587638 -0.07110002 0.02696159 0.31706044
000210 cb c7 8c 3e a6 a3 2d 3e d0 2d 97 be 2c 43 95 3d
       0.2749618 0.16956958 -0.2952714 0.07288203
000220 df 67 e4 bb 11 3d 0b 3e e1 90 b7 3d 94 79 3c 3e
       -0.00697039 0.13597514 0.0896318 0.18405753
000230 cd 70 63 be 22 e1 e6 3e 0e f1 14 bc 57 f2 67 bd
       -0.22210999 0.45093638 -0.009090675 -0.056627598
000240 59 44 f3 3c f5 90 55 bc 89 c0 80 bd 44 ec 6f 3e
       0.029695677 -0.013035049 -0.06286723 0.23429972
000250 0d e5 57 bd c8 02 f1 bd e7 4b a9 3d 37 4a 9f 3d
       -0.052708674 -0.117681086 0.0826643 0.07777827
000260 fa 5f 4c be ac a9 c7 bd 2c 26 95 3d 95 34 85 3c
       -0.19958487 -0.09749159 0.07282671 0.016260425
000270 4f 37 6b bd 39 40 9c 3d b5 6a 7c be ac 63 8c be
       -0.057425793 0.07629437 -0.2465008 -0.27419794
000280 e4 32 f2 3c fd 5b 8d bd 9e 8f 0f 3e d9 13 f8 3d
       0.029565282 -0.06902311 0.1401963 0.12113161
000290 42 fa 9d be 16 07 fe 3c ae f3 2f be 52 f0 fb 3d
       -0.30854994 0.031009238 -0.171828 0.12301697
0002a0 7b 9c ab 3c ef 79 a7 3d aa ba 94 bc ab 71 15 3e
       0.02094864 0.08177554 -0.018155415 0.14594142
0002b0 a6 6f b7 be 30 6c 34 3d 70 b3 e4 bd 31 29 14 be
       -0.35827368 0.04404849 -0.111670375 -0.14468838
0002c0 cd 2f 4e bd 30 b2 5e 3d 73 61 04 be 9d 5f 95 bd
       -0.050338555 0.05436915 -0.12927799 -0.072936274
0002d0 a7 f8 b8 be 9b 97 69 bd 55 e6 1f be f3 21 00 3e
       -0.36127207 -0.057029348 -0.15615208 0.1251295
0002e0 54 36 c5 bd de fb 5e be 51 cd 54 be 9e 74 71 3e
       -0.09629503 -0.21775767 -0.20781447 0.23579642
0002f0 0d ce 49 bb e1 b2 58 3e 2a 30 e8 3d ed f6 20 3e
       -0.0030792982 0.21161987 0.113373116 0.15719195
000300 bd 2f 0f be d3 07 9b bd 3b 87 21 bd 32 d7 83 be
       -0.13983054 -0.07569852 -0.039435606 -0.25750118
000310 e5 5c 3e 3e ab 46 b3 bb cd 6e f5 bd ea 34 3f be
       0.18590124 -0.0054710708 -0.11984024 -0.18672529
000320 b3 5a 73 bc 6d c6 9d 3c 10 12 95 bd dd 31 c4 bd
       -0.014853167 0.019259656 -0.07278836 -0.09579823
000330 33 81 f4 bd 5a 48 80 3e 91 66 17 be d5 3e 01 3e
       -0.11938705 0.250552 -0.1478522 0.12621625
000340 38 fe 0d bd 5e 7b 49 bd 3d 86 b6 bc fd ce 5e 3c
       -0.03466627 -0.049189918 -0.022280807 0.013599155
000350 f4 21 84 3d b7 50 37 be 0b 02 f9 bc 3a e9 53 3e
       0.064517885 -0.17901884 -0.030396482 0.20694438
000360 04 bd 1a be 2d b2 e6 bd 7b 6d f1 bd 81 c6 38 bb
       -0.15111166 -0.11264453 -0.1178846 -0.002819449
000370 1b cb 6a be a6 13 8d 3e 94 51 f2 3d 63 ff f0 3d
       -0.22929041 0.27554053 0.11831966 0.11767461
000380 95 81 f5 3d 4c db c2 3e ce ae 5d 3d 55 11 19 bd
       0.119876064 0.38057935 0.054121785 -0.037370045
000390 c9 68 28 be 25 09 e9 3d 8a f3 94 bc 46 a4 92 3d
       -0.16446222 0.11378697 -0.018182535 0.07160239
0003a0 6e fa e2 3a bd db 26 be 3c c2 a2 3d 3b ea 76 be
       0.0017317066 -0.16294761 0.079472035 -0.2411279
0003b0 cb 87 78 be 02 1e d4 3c 46 a1 b5 bd 02 7f a6 3d
       -0.24270551 0.025893215 -0.08868651 0.081296936
0003c0 da 2c ed bb 3c 6c ab 3e 59 04 5d 3e 36 46 02 be
       -0.0072380127 0.33481014 0.2158369 -0.12722096
0003d0 76 95 1d 3e 44 df ef bb d5 8f 91 bd ec 7c b0 3d
       0.15389046 -0.0073203165 -0.07107512 0.08617577
0003e0 fe ca 8f bc e4 e8 57 bd bc 56 70 be 37 76 08 be
       -0.017552849 -0.052712336 -0.23470587 -0.13326345
0003f0 8e f3 00 be 86 f1 cb bd c0 a4 52 be 73 e0 bc 3d
       -0.12592909 -0.09958176 -0.2057066 0.09222498

layer2.4.bias f4 [7]
000000 16 a6 f1 be 1b 63 98 be 4f 31 d0 be 34 e8 40 bd
       -0.47197026 -0.2976311 -0.4066262 -0.047096446
000010 9c fc 39 be 63 40 1e 3d b7 c0 ad 3e
       -0.18162769 0.038635623 0.33936092
