MyZipTobeUploaded/bpi_Neighbour_embedding/BackUp/EventPredictor_parameters_BPI_binary_0.0001_run0_GATTTT.pt (torch, 286967 bytes, 9 tensors)

layer1.bias f4 [6]
000000 00 00 00 00 00 00 00 00 00 00 00 00 00 00 00 00
       0.0 0.0 0.0 0.0
000010 00 00 00 00 00 00 00 00
       0.0 0.0

layer1.W f4 [4, 2]
000000 de 93 ab bc 49 ab b9 be fa ec 7d bf 16 44 35 3f
       -0.020944532 -0.36263493 -0.9918972 0.70807016
000010 aa ff 05 3e cd f3 79 3f 23 f0 9a 3f 6a 0a f7 3e
       0.1308581 0.97637635 1.2104534 0.48250133

layer1.a f4 [4, 1]
000000 1a 89 26 bd e4 e2 38 be e1 a1 c1 3a 20 b1 1e 3d
       -0.040658094 -0.18055302 0.0014772975 0.03874314

layer2.0.weight f4 [256, 12]
000000 cb 51 6d be f1 80 61 be c9 32 15 be af 89 37 bf
       -0.23175733 -0.22021843 -0.14570154 -0.71694463
000010 8c c0 07 bf 31 07 c4 be 0e ee 3b be 48 56 c1 be
       -0.5302818 -0.38286737 -0.1835253 -0.3776114
000020 d9 c1 b5 bd 1c 7d dc be 3b e1 13 be b9 ba f0 be
       -0.08874864 -0.430642 -0.14441387 -0.47017458
000030 5e 5c 0e 3e 11 8d 8e 3c 2d be 45 3e 06 91 90 3e
       0.13902423 0.01740125 0.19310828 0.28235644
000040 1d 3f 12 3e 86 85 0e 3e eb a0 29 bd 42 9a a6 bd
       0.14281888 0.13918123 -0.04141323 -0.08134891
000050 3e a5 7d be f9 ab 28 3d b3 92 52 3e 3e 55 5b 3d
       -0.24770066 0.04117963 0.20563774 0.05354809
000060 12 36 0a bd 3c c4 8b bd ff 29 13 3e 49 9d aa 3e
       -0.03374297 -0.06824538 0.14371489 0.33323124
000070 bb 09 c7 bd 75 fa 3e 3e de 5b 8e 3e 34 e9 9c 3e
       -0.09718653 0.1865023 0.27804464 0.3064667
000080 e0 2c 35 3d 41 89 5c be b4 99 9b 3e b1 c7 fb 3d
       0.04423225 -0.21536733 0.30390704 0.122939475
000090 1f b7 8c bd 7d 21 2f 3e 30 da 92 3e e4 83 2d 3e
       -0.06870865 0.17102619 0.2868209 0.16944844
0000a0 b5 3e 23 3d 87 a2 2d 3d e9 f4 ca 3b 05 59 7f be
       0.039854724 0.042391326 0.0061937463 -0.24936302
0000b0 a8 9f 3a 3e f6 0e df 3c 89 64 a5 3d 84 0b de 3d
       0.18224967 0.027228814 0.08075816 0.1084204
0000c0 99 04 a1 3e b3 af 14 3e 44 b8 e8 3c b5 ab 91 be
       0.3144882 0.14520149 0.028408177 -0.28451315
0000d0 d6 0a 53 3e a6 a9 a4 3d 4e 38 ed bc 4e 84 e9 3d
       0.20609602 0.0804017 -0.028957512 0.11402188
0000e0 81 ad e6 bd d0 ec de 3c b6 9d 2c 3e 87 48 fa bb
       -0.11263562 0.02721253 0.16857037 -0.0076380405
0000f0 71 5f b2 3d 30 ad 7c bd c0 0b a4 be 2d 51 df bd
       0.0870961 -0.061688602 -0.32040215 -0.10904155
000100 58 09 21 3e 15 19 96 be 9e 24 3f 3c 28 a5 58 bc
       0.1572622 -0.2931601 0.011666445 -0.01322297
000110 10 2f a9 be b6 9a d8 3c 22 d2 3d bd 58 28 01 be
       -0.33043718 0.02644096 -0.046342976 -0.12613046
000120 ac 40 a6 3d 02 8f 6c 3d a3 7c 53 bc 0b a4 98 be
       0.08117804 0.05775357 -0.012908134 -0.29812655
000130 c3 c0 77 bd 67 73 4c 3e dd b0 fd bd 2e 31 08 3e
       -0.060486566 0.19965898 -0.123872496 0.1330001
000140 93 f5 8b 3c 6d ed 97 be a4 b5 9c 3d 12 4f 6b 3d
       0.017084872 -0.2967333 0.07651833 0.057448454
000150 b0 47 88 3e df d8 58 3e 67 5f 14 3e e9 5e ab bd
       0.26617193 0.2117648 0.14489518 -0.08367712
000160 29 67 b2 3e 6c 99 ae bd de 43 8c 3e ac 92 49 bd
       0.3484433 -0.08525357 0.2739553 -0.049212143
000170 ea f4 0c 3e 66 62 69 3c 06 3d d4 3e f4 16 10 3e
       0.13765302 0.014244651 0.41452807 0.14071256
000180 93 c3 8d bc 65 a9 b2 3e 55 66 17 3e 90 db c4 3e
       -0.017305171 0.34894863 0.1478513 0.38448763
000190 c9 f4 15 3e d9 96 35 3c a1 dd 59 3e 84 8c fb 3b
       0.1464416 0.011083328 0.21275951 0.007676663
0001a0 10 44 9e 3e fc 2d 4d bd 15 d9 3b be 8f 7a b4 3e
       0.30911303 -0.050092682 -0.18344529 0.35249755
0001b0 61 11 89 be d2 73 82 3e d2 d4 4b bd 77 77 86 be
       -0.26771072 0.2547899 -0.04976351 -0.2626302
0001c0 0a 23 d3 be 07 07 99 be d0 b9 97 3d 22 1e ab 3d
       -0.4123767 -0.29888174 0.07408488 0.08355357
0001d0 b2 20 64 bd 7f 32 09 3d 25 77 05 be 07 f0 85 bd
       -0.055695243 0.033495422 -0.13033731 -0.06539922
0001e0 87 f1 21 be 0e 93 50 be 56 0d 64 bd 6e f5 c1 bd
       -0.15814792 -0.20368597 -0.05567678 -0.0947064
0001f0 c7 bf 18 3e 05 bb 01 3e 08 49 b4 3d f3 f1 95 3e
       0.14916907 0.12668999 0.08802992 0.29286155
000200 d8 a4 ba 3c e5 1c c5 bd 3e 58 25 be 9a 8e 40 be
       0.022783682 -0.09624652 -0.16146943 -0.18804398
000210 03 f0 6e 3c f0 81 f3 3d 6d 5c a0 bd a8 44 c0 3c
       0.01458359 0.11890018 -0.07830129 0.023470238
000220 ed 3c 00 bd c9 c1 ac 3c 6d e6 33 be 86 ce 03 bd
       -0.031308103 0.021088498 -0.17568369 -0.032179378
000230 d5 38 83 be ab f5 fe 3d 61 1d 51 3e 25 84 a5 be
       -0.25629297 0.12449201 0.20421363 -0.3232738
000240 6d c5 f3 3c 2c 61 bb bd 9e 00 89 bd d2 c8 af 3e
       0.029757226 -0.091493934 -0.06689571 0.343329
000250 73 2d f7 bd bb 6a b1 3e a7 4f 52 be f3 0e 41 3d
       -0.120692156 0.3465174 -0.20538197 0.047133397
000260 fe a0 b1 3e e8 06 ac bd a1 95 88 3e fa 9a 67 bc
       0.3469314 -0.08399755 0.26676658 -0.01413607
000270 88 42 59 3d dd d6 af 3e e4 19 87 bc f3 40 2d 3e
       0.053041965 0.34343615 -0.016491838 0.16919307
000280 7d ba f6 3d 3e 97 54 be 91 99 9d 3d 4e cd ab 3e
       0.120472886 -0.2076082 0.07695306 0.33555073
000290 ec 44 41 3e 10 79 11 3e 74 0e 60 3e 55 b5 cc 3e
       0.18873948 0.14206338 0.21880513 0.39982095
0002a0 c6 28 6c 3d c7 0b 42 be 12 c4 d9 3d 9a bf 8a 3c
       0.057656072 -0.18949805 0.106331006 0.016937066
0002b0 98 d8 e5 3d 5c 42 e5 3c da 9a f0 bd 2e af 89 3e
       0.112229526 0.027985744 -0.117482856 0.26891464
0002c0 e5 6b 36 bd 0d b6 7e be 2b 1a 00 3e a9 36 e5 bd
       -0.04453649 -0.24874134 0.12509982 -0.11192066
0002d0 0f 4f 57 be 3e f1 0c 3e 88 a4 3b 3d 67 79 45 3d
       -0.21026252 0.13763902 0.045811206 0.04821148
0002e0 85 e9 a9 bd e6 d4 06 3e 94 5e ec bd 68 a2 f9 3d
       -0.082964934 0.13167152 -0.11541477 0.1218918
0002f0 3d 03 84 be 38 71 5e 3e d0 7d ad 3d b8 c8 05 3c
       -0.2578372 0.21722877 0.084712625 0.008165531
000300 0c 67 28 bd 17 0f 49 3d 75 7f 22 3e 2b b5 f1 bd
       -0.0411139 0.049086656 0.15868933 -0.11802133
000310 c1 50 ab 3e b6 7c 90 3e c8 2c a7 3e e5 13 68 be
       0.33460048 0.28220147 0.32651353 -0.22663839
000320 52 8c 16 3c 50 87 26 be cf 9c 35 bd 29 0c 3b 3d
       0.009188728 -0.16262555 -0.044338997 0.045665894
000330 d1 2a 15 be 44 60 88 be a4 71 94 3d 03 08 0e be
       -0.14567114 -0.26635945 0.07248238 -0.13870244
000340 c4 db 0d be 83 3b 15 3e 97 5b ad be fe 82 b2 3d
       -0.13853365 0.14573483 -0.3385894 0.08716391
000350 cc 93 3a be 33 3b 39 be 68 54 38 3d f7 37 05 be
       -0.18220443 -0.18088989 0.04500237 -0.1300963
000360 c3 6c 2b bd 5a 2a 88 ba 57 82 dd be df 45 bb 3d
       -0.04185177 -0.0010388598 -0.43263504 0.09144186
000370 88 b0 c8 be 8e fb c0 bd 81 62 8c be 2b e8 a9 bb
       -0.39197183 -0.0942298 -0.27418903 -0.0051851473
000380 5e 41 0f bf b8 38 df be c3 91 eb be 7c f0 18 be
       -0.5595912 -0.4359796 -0.46009645 -0.14935488
000390 06 0b 66 bd 95 c1 d2 be 25 2d 3b be ef d6 a6 be
       -0.056162857 -0.41163316 -0.1827894 -0.32585856
0003a0 b9 78 2b 3e a2 45 9f bc 17 bb 75 3d 12 f9 06 bc
       0.16745271 -0.019442383 0.059992876 -0.008238094
0003b0 66 8d ee bd 35 11 19 be 87 29 ac bd 1b 52 1c 3e
       -0.11648063 -0.1494797 -0.08406358 0.15265696
0003c0 6e e9 f5 3c 16 b6 93 be a6 a1 95 3d a5 eb ba be
       0.030018535 -0.28849858 0.073062226 -0.36507908
0003d0 3b fb b0 3c 11 fb 75 be f2 02 1a 3e 54 7c bb 3d
       0.021604171 -0.24021555 0.15040186 0.09154573
0003e0 d8 e9 d9 3c d5 80 88 be 67 f0 ac 3c f0 1b 1d be
       0.026600763 -0.2666079 0.021110727 -0.15342689
0003f0 09 04 f3 bd 28 2d ee bd 1d c2 2a 3e 77 c2 94 3e
       -0.11866004 -0.116297066 0.16675611 0.29054615

layer2.0.bias f4 [256]
000000 e7 4f fd be 15 17 96 bc fe 41 57 3e 02 89 1a 3f
       -0.49475023 -0.018321553 0.21021268 0.6036531
000010 64 79 98 bd 00 9e d3 be e9 89 61 38 98 2d 2b 3e
       -0.074450284 -0.41331482 5.377262e-05 0.16716611
000020 c3 9d c3 3e af c9 f1 bd 74 f8 8b 3e 1f 4b 9e 3e
       0.382063 -0.11806046 0.27337992 0.30916688
000030 c7 7c 7b 3e ea cf 55 be 6d 8f 84 3e b3 18 3e 3e
       0.24559318 -0.20880094 0.25890675 0.1856411
000040 ad f2 e4 3d 68 34 b1 bd db a2 88 be a3 19 39 3c
       0.11179099 -0.08652574 -0.2668675 0.011297616
000050 fb 7e 9e be b7 39 98 3e 77 b8 27 3d 2a 03 76 3e
       -0.30956253 0.29731533 0.040947404 0.24024644
000060 3e e0 ce bd 81 7a 94 be 62 47 42 3e 5b 73 d1 3e
       -0.101013646 -0.28999713 0.18972543 0.40908322
000070 d7 89 e5 3d 24 b0 c5 3e 62 48 c4 3e 1e 4e a5 be
       0.112079315 0.38610947 0.38336474 -0.3228616
000080 71 f4 e7 be 37 6e f2 bd c7 a6 fa bd 7e af 7c be
       -0.45303681 -0.11837428 -0.122388415 -0.2467632
000090 32 74 0d 3f c3 34 ec be 18 0f 47 bd 3a d6 a7 3e
       0.55255425 -0.46134004 -0.04859838 0.3278063
0000a0 33 5b 01 3e 78 dc e2 bd 8d 54 dd 3d e5 b1 29 be
       0.12632446 -0.11077207 0.108071424 -0.16571768
0000b0 24 ff 81 be 23 28 71 be 65 6d 47 bd dc e0 5d 3e
       -0.2538997 -0.23550467 -0.04868831 0.21667808
0000c0 c1 f4 99 3e 2c d2 04 3f 8a ac a0 3e 20 f7 db 3e
       0.30069545 0.51883197 0.31381637 0.4296198
0000d0 e0 ad 16 be 6f 81 48 3e b1 b2 90 be d0 e8 51 3d
       -0.14714766 0.19580625 -0.2826133 0.051247418
0000e0 9a 42 eb bd 61 59 b1 3a e6 ae 99 be 15 36 25 3e
       -0.114873126 0.0013530665 -0.3001625 0.16133912
0000f0 55 a7 f6 3e c6 d7 94 3b 55 3b bb 3d 82 2b e2 be
       0.4817454 0.0045423238 0.09142176 -0.4417382
000100 b2 2a a1 3e 70 e3 0b be 59 65 dd 3e 11 a5 02 3f
       0.31477886 -0.1366098 0.43241385 0.5103312
000110 8a 9c 22 3d d4 d2 b3 3e c7 7e ab 3d d0 3c f5 bc
       0.03970007 0.35121787 0.0837379 -0.029936224
000120 ec 7b 26 be b3 8d 96 3e 07 9d 3e 3e 89 f0 1f bf
       -0.1625821 0.29404983 0.18614589 -0.624764
000130 70 38 ea 3c 80 df a9 3e 74 84 87 3e 4d 82 58 be
       0.028591365 0.3317833 0.2646824 -0.21143456
000140 f7 cf 7e 3e 90 13 e7 3d e8 54 79 3e 88 ee c5 3e
       0.2488402 0.11283028 0.24348795 0.38658547
000150 1a 8b 15 bf b7 6c 0b bd 63 d1 bd 3c 8c 83 cb 3e
       -0.5841538 -0.034039225 0.023171132 0.397488
000160 24 90 1d 3e 0d 96 fc bd 56 e3 a5 3e 9e e0 ac 3d
       0.15387017 -0.123333074 0.32400006 0.0844128
000170 82 13 01 bc 89 2e 69 bd 73 09 07 bf cf 67 86 3d
       -0.007878186 -0.056929145 -0.52748793 0.06562769
000180 d0 8c 3b 3e 97 67 02 3f 1a 90 20 3d 0f dd bf bc
       0.18315434 0.50939316 0.039199926 -0.023420839
000190 1e 42 48 be f1 27 af 3d 86 cf 41 3e 91 fd 61 38
       -0.19556472 0.0855254 0.1892682 5.3880332e-05
0001a0 d6 e6 13 bf c4 b0 94 bd bc 1d ba 3d 07 2f d2 be
       -0.577741 -0.07260278 0.09087703 -0.41051504
0001b0 6c e0 24 be 15 eb 09 bd a4 18 e1 bc 55 89 fe 3d
       -0.16101235 -0.033671457 -0.02747757 0.12428538
0001c0 16 13 fc 3e ac 84 d0 be 38 b5 a0 be 8e 17 86 3e
       0.4923331 -0.4072622 -0.3138826 0.26189846
0001d0 c7 a5 82 3e e6 e0 ca 3e 2f bc 74 3e 0a 60 bb bd
       0.25517103 0.3962471 0.23899911 -0.09149177
0001e0 b9 ea 92 bd d8 63 86 bd bd ba 32 3d b8 21 9f 3e
       -0.07173676 -0.065620124 0.04363512 0.31080413
0001f0 52 63 71 be b3 79 c8 bd a2 a5 bc be 32 61 22 3e
       -0.23573044 -0.09788837 -0.36845118 0.1585739
000200 ca 02 94 bd 13 c3 e8 be d7 76 fd be 68 e7 d8 bd
       -0.072270945 -0.4546133 -0.4950473 -0.10591012
000210 87 70 0a be 24 cf 27 3e e9 eb b1 3e a0 56 57 be
       -0.13519488 0.16387612 0.34750298 -0.21029139
000220 72 4a d8 3e 63 b6 af be 1b e2 16 be ff cb fd 3e
       0.42244297 -0.34318838 -0.1473469 0.495697
000230 0c 4e 8d 3c 1c 79 9c 3e ff df db be 28 bc 35 3e
       0.01724913 0.3056115 -0.42944333 0.17747557
000240 2c 10 6c 3e 8d 7f e0 3d 82 c5 f2 be 27 98 17 be
       0.23053044 0.109618284 -0.47416312 -0.14804135
000250 dc a8 4a be 5f fd 79 3d d1 9d 48 3e e7 38 0e 3d
       -0.19790977 0.06103265 0.19591452 0.034722235
000260 e6 74 18 bf ef 28 ae 3e c6 9a b6 bc f7 df af 3e
       -0.5955337 0.34015605 -0.022290599 0.3435056
000270 ee 99 f0 be cc 34 78 3c 28 30 d9 3d b8 99 dc 3d
       -0.4699244 0.0151493065 0.10604888 0.10771507
000280 ac 1a d0 be 5d 4d 38 3f 80 6c 3e 3e c4 75 0d be
       -0.4064535 0.71993047 0.18596077 -0.13814455
000290 7d 19 52 bb fd bf e8 3e 39 1e e3 be ae 11 ab be
       -0.003205865 0.45458975 -0.44358996 -0.33411926
0002a0 d9 96 21 3c bb 14 06 be 6a 34 7d be ad 68 62 3e
       0.009862625 -0.13093846 -0.24727026 0.22110243
0002b0 41 bf 78 bd aa 5e a7 3c 63 d9 ac 3c ec e4 56 3d
       -0.06072927 0.020430882 0.021099752 0.05246441
0002c0 c6 3a 02 3f 26 31 70 3e d1 2d 67 3e c3 97 8b bd
       0.5087093 0.23456249 0.22576071 -0.068160556
0002d0 23 6d 6a be 3c 95 87 3d d4 84 f5 3d 4f 54 bc be
       -0.22893195 0.06620261 0.119882256 -0.36783072
0002e0 b0 cc 5a 3e 2e 8a a9 be 09 e7 9c be 92 de 70 3e
       0.21367145 -0.33113235 -0.30645016 0.23522404
0002f0 a4 ae bb be 3d 9a fe 3e 02 1b 97 bd 33 f0 7c be
       -0.36656678 0.4972705 -0.07378198 -0.24701004
000300 a5 f0 d2 3c 2b 6e 25 3e 6d ea 93 bc 6e 1b 90 bc
       0.025749514 0.16155307 -0.018056119 -0.017591204
000310 8c 82 92 bd 14 a6 b9 bd ea df 16 be a6 69 e2 3e
       -0.07153806 -0.0906488 -0.14733854 0.44221228
000320 e6 9f 0d be 79 18 ab 3e f1 7b ea be 08 e3 a2 3e
       -0.13830528 0.3341711 -0.45797685 0.31813836
000330 4b 0c d9 3e bf 9d 0d be 95 74 fb 3e 3e de 58 3e
       0.4239219 -0.13829707 0.49112383 0.21178529
000340 89 d7 4d be 3b 0d 80 3e a4 6c e4 3e 45 82 46 3d
       -0.20101751 0.25010094 0.44614136 0.04846408
000350 ff 64 1f bd bd 23 c4 3e 4c dd de 3c e8 e8 55 be
       -0.038914677 0.38308516 0.027205132 -0.20889628
000360 40 69 ba 3e 56 ce 9f 3d e3 3a 74 3d 29 48 32 3e
       0.36408424 0.07803027 0.05962647 0.1741034
000370 2a 85 68 3e e4 fe 3e be de b3 70 3e a8 fc 24 3e
       0.22707048 -0.1865192 0.23506114 0.16112006
000380 4e 08 15 bd 83 b5 68 3e 16 00 ef 3e f4 b7 9e bd
       -0.036384873 0.22725491 0.46679753 -0.0774993
000390 be c3 9c be bd 9b 7c be 17 75 7e 3e ee 22 0b bf
       -0.3061809 -0.24668784 0.24849354 -0.54350173
0003a0 64 13 b0 3d e5 c6 00 be 6d 73 00 3e 7e b5 10 3f
       0.085974485 -0.12575872 0.12544031 0.56526935
0003b0 ff ff df be d6 3c 3a be 6a 77 03 3e 98 0c 18 3e
       -0.43749997 -0.1818727 0.12838522 0.14848554
0003c0 f9 94 e9 be 0c e9 db 3d 94 35 73 3e 68 90 ed bc
       -0.4562147 0.107378095 0.23750907 -0.028999522
0003d0 2f c8 1c 3e c4 ee 4b be c2 7c 2f 3e 27 b6 9d be
       0.15310739 -0.199153 0.17137435 -0.30803034
0003e0 4b 4d 34 3e 14 67 a4 3c 00 bc d5 bd 6f a3 97 be
       0.1760761 0.020068683 -0.10436249 -0.29616877
0003f0 f9 3a 3e bd 48 62 91 bd 32 71 ea be 4d 5d d7 3e
       -0.04644296 -0.07098824 -0.45789486 0.4206337

layer2.2.weight f4 [256, 256]
000000 88 3d a0 be 6f a0 32 3e ab fb 8e be f4 3e 52 3e
       -0.31296945 0.17444013 -0.27926382 0.20531827
000010 6b e9 09 3d ef e7 d6 3d 08 c8 e3 bd a5 51 c5 bd
       0.03366987 0.104934566 -0.11122137 -0.09634713
000020 d6 a1 c8 3d 7b e8 4a 3e 2c e1 81 be 20 35 41 3e
       0.09796493 0.19815247 -0.25367105 0.18867922
000030 4c f9 83 be b7 86 3d 3e a7 6e da bd a9 a1 25 3e
       -0.25776136 0.18508421 -0.106656365 0.1617495
000040 a4 ad a1 bd c8 dd 8d bd 42 66 7e 3d 22 95 b3 3e
       -0.078944474 -0.06927067 0.06210924 0.35074717
000050 cf 9d 81 3d ad d8 2e be dc 74 d0 3c 86 50 b8 bd
       0.06328928 -0.17074843 0.025446348 -0.089997336
000060 c7 f5 fc be 23 aa ef bc a4 4d 9d be c8 b6 bc bc
       -0.49406263 -0.029255932 -0.30723298 -0.023036376
000070 cb 99 7d bd af 5d 41 bd a1 82 48 3d 3a 4c 7d 3e
       -0.061914247 -0.047208484 0.048952702 0.2473611
000080 56 dd 21 3d 90 3c 16 bd d7 9c fd 3e e8 76 f3 be
       0.039517723 -0.03667885 0.49533722 -0.47551656
000090 3d 15 00 be fd 0c e6 3d 82 7f 5e 3d f1 13 d3 3c
       -0.12508102 0.11232946 0.05432082 0.025766345
0000a0 b7 f0 fe 3d 64 c5 ae bd c1 44 79 bd 4d d1 c1 3b
       0.124482565 -0.08533743 -0.060856584 0.005914843
0000b0 c9 ed d3 3d 5b 5e ad 3d 57 6e 39 3c 37 49 20 3f
       0.10348088 0.084652625 0.011317811 0.62611717
0000c0 fe 06 02 bf 59 b9 c6 be 81 6f af 3e a6 33 8d 3d
       -0.5079192 -0.38813284 0.34264758 0.06894617
0000d0 bf 9f d3 3d 87 dd f6 bd a3 e9 cf be 92 11 16 3e
       0.103332035 -0.12053972 -0.40607938 0.1465514
0000e0 c8 37 d0 3b b5 ca ce 3b 25 68 c4 bc 03 0e 01 3f
       0.006354306 0.0063107857 -0.023975441 0.50412005
0000f0 cd ea da bd 22 19 2f be c4 64 3e bb 2c c5 06 be
       -0.10689316 -0.17099431 -0.002905176 -0.13161153
000100 fc ee 38 3d 50 59 98 3e bd e7 02 3d ac 93 eb 3d
       0.04514979 0.2975564 0.031959284 0.115027755
000110 61 7d 0e be 44 5e 12 be fb e3 d8 3d b5 0f 4a bd
       -0.13915016 -0.14293772 0.10590359 -0.049331386
000120 75 fc cc bb 7f ef 74 be 7b 81 d5 3d 67 0a 1c 3d
       -0.006255681 -0.23919486 0.10425087 0.038095858
000130 e5 83 b4 ba 12 e2 ff 3d f8 a5 21 3d 52 13 c0 3e
       -0.0013772218 0.12494291 0.03946492 0.3751474
000140 ce 6f 12 be 07 51 43 3a 72 ac da bd 8a 24 bc bd
       -0.14300463 0.00074507337 -0.106774226 -0.09186657
000150 c8 7f 1f be 78 a9 e3 3d 38 70 9e bd 6b ed 8f bd
       -0.15576088 0.11116308 -0.07736248 -0.07027706
000160 5a 3c 16 bb e2 18 bf bd 81 18 0c 3e fe f0 14 be
       -0.0022924156 -0.09330918 0.13681222 -0.14545056
000170 f1 ce 45 bf 8f 2b 9e bd ae 59 12 38 a4 95 b2 ba
       -0.7726889 -0.07723152 3.4892633e-05 -0.0013624919
000180 15 0a 30 be 3e 1a cb 3e 5b a7 8a be 7b 35 9a 3d
       -0.17191346 0.3966846 -0.27080807 0.07529732
000190 24 3e e2 3e 4b f5 ed 3c c2 ff 69 3e 3b 3c 1a be
       0.44188035 0.029047629 0.2285147 -0.15062039
0001a0 42 86 2a bd eb 08 a4 be 0f 45 e0 3e 16 ef b8 3d
       -0.041631944 -0.32038054 0.43802688 0.09029977
0001b0 64 d1 11 be 67 2c 64 3e 1e ac 97 bd c7 87 bb bd
       -0.14240032 0.22282563 -0.074058756 -0.09156757
0001c0 95 bb 01 be 02 a8 f2 3d ce d3 16 bd 1f f2 20 3f
       -0.12669213 0.11848451 -0.036823086 0.6286945
0001d0 8c 56 98 be 0f 81 3a be fa cb 67 3e 82 ed 0c 3e
       -0.2975353 -0.18213294 0.22636405 0.13762477
0001e0 5c 59 94 3d cf ce 86 bd 24 36 bb 3d 86 b7 bf 3c
       0.072436064 -0.06582414 0.09141186 0.02340294
0001f0 25 d0 df bc 0c 23 64 3f 3d fc ee bc ce e2 30 3e
       -0.02732093 0.8911598 -0.029173011 0.17274019
000200 c0 55 9e 3d 8d f5 08 be 59 22 83 3e e2 70 55 be
       0.07731199 -0.1337492 0.25612143 -0.20843843
000210 84 68 77 be 58 d1 96 3e 61 b4 ac bc 85 8e c2 bd
       -0.24160963 0.29456592 -0.021082105 -0.0949984
000220 9c 13 eb 3c 77 be ee 3d 3b e0 0c 3d b9 b3 ab 3e
       0.028695874 0.11657422 0.03439353 0.33535555
000230 b1 0a ca bd 63 54 1e be 9b 62 57 be f0 45 81 bb
       -0.098653205 -0.15461878 -0.21033709 -0.003945105
000240 41 0e 8b bd 64 b6 25 be 48 f5 bd bd b8 59 03 3f
       -0.06789828 -0.16182858 -0.09275299 0.51308775
000250 b8 a4 2e be 60 1a a9 3d 95 1a 07 be 4b d0 11 3e
       -0.17055023 0.08256984 -0.13193734 0.14239614
000260 93 b2 93 3b 10 b0 29 3e ad 75 0a be 89 9f b1 be
       0.0045073717 0.16571069 -0.13521452 -0.34692028
000270 c3 89 06 3e 7e 9d 94 be 49 7c 15 3e f0 f8 12 3c
       0.1313849 -0.29026407 0.14598192 0.008970484
000280 47 6d 08 3e c4 ac f0 3c ee fe a9 3b 51 57 8b be
       0.13322936 0.029379256 0.0051878607 -0.27215055
000290 0c 98 d9 3d 8a 24 d3 3e c3 ce d4 3e 31 52 7a 3d
       0.10624704 0.41238815 0.41563997 0.06111354
0002a0 31 7b 11 3f da 99 8b bd e5 e9 a7 bd a0 16 f4 bd
       0.568286 -0.06816454 -0.08198909 -0.11918378
0002b0 de 24 e0 bd fe 9e 2f 3d 2e 7e 8e bd 90 e4 3a bd
       -0.10944532 0.042876236 -0.069576606 -0.04562813
0002c0 60 5a ac 3c 18 30 6c 3e 0e 11 5d be 0e 74 60 bb
       0.021039188 0.23065221 -0.21588537 -0.0034248861
0002d0 09 a4 6b bd 6e b9 f9 bc ff 45 04 bf f3 21 8a 3d
       -0.057529483 -0.030483928 -0.51669306 0.067447565
0002e0 99 d6 bc 3e 97 aa 37 3c a9 90 f2 3d 33 5c 22 bd
       0.36882475 0.011210105 0.11843998 -0.03963871
0002f0 bb 3d 08 be 08 15 f0 3d 08 82 1f 3d d7 9d 66 3d
       -0.13304798 0.117227614 0.038942367 0.05630287
000300 c0 4f 4b 3d ad c6 08 3e f5 fd 14 3e 09 f7 25 3e
       0.049636602 0.13357039 0.14550002 0.16207518
000310 cc 33 a0 be 0a c6 7c bd 62 04 31 be 1f db 0f 3e
       -0.31289518 -0.061712302 -0.17286828 0.14048432
000320 85 d1 8b 3e 02 0d 94 bc af c6 ca bc 59 56 b5 be
       0.27308288 -0.018072609 -0.024752943 -0.3541744
000330 39 37 19 3e 02 66 7a 3e 46 d1 cf bd ab 60 6f 3e
       0.14962472 0.24452975 -0.101473376 0.2337672
000340 d4 3a 2b be 58 24 9f 3d ff 2e 2b be 24 da 4c 3d
       -0.1672166 0.07770604 -0.16717146 0.050012723
000350 de 9b 24 3e b5 09 32 3e b5 f0 1f 3e 19 c9 3d be
       0.16075084 0.17386515 0.15619166 -0.18533744
000360 9d 85 11 3e aa 46 38 be 07 3a f9 bd 7e a3 1c 3e
       0.14211126 -0.17995706 -0.12169271 0.15296742
000370 b5 0a a5 3e 7f e7 1c 3e 84 75 ec bd 2e b0 4e 3d
       0.3223473 0.15322684 -0.11545852 0.050460987
000380 0a 3a 98 be 36 3a 97 3d 83 1e 53 be 1f 92 28 3e
       -0.2973178 0.0738415 -0.20617108 0.16461991
000390 b3 09 d0 3d 05 1c 17 be 5e 64 2c 3d 27 71 af bd
       0.101581 -0.14756782 0.042087905 -0.08566504
0003a0 70 86 bf bd a2 df 1a bd 30 0d c0 be c7 45 e9 bd
       -0.09351814 -0.03781093 -0.3751006 -0.11390262
0003b0 6b e2 7c 3e 9f 5c 40 3c 12 45 4a 3f db 8f 12 3e
       0.24695747 0.011740833 0.7901164 0.14312689
0003c0 c2 2e 09 3e e7 b5 e7 3d e2 d1 b7 bd 21 7a a1 3e
       0.13396743 0.11313992 -0.08975579 0.3153849
0003d0 47 36 ab 3e 71 0a d1 3d 30 ec 00 3c 45 74 5f be
       0.33439848 0.1020707 0.0078688115 -0.21821697
0003e0 d6 90 45 be 61 a8 29 be cb cc 27 3e ed 52 56 be
       -0.19293532 -0.16568138 0.16386716 -0.20930071
0003f0 8d e8 7f 3e 47 96 3e 3d ba 01 bc 3e 29 0c 20 be
       0.24991055 0.046530034 0.36720067 -0.15629639

layer2.2.bias f4 [256]
000000 1b 69 ab bc b9 d6 0d bd 10 51 63 be 55 4f 9d 3d
       -0.020924142 -0.034628604 -0.22198892 0.07681147
000010 47 c8 ba bd 67 fc 81 3d 5e 68 06 3e f0 20 85 3c
       -0.09120231 0.0634697 0.1312575 0.016251057
000020 e9 bd 22 3e ec 3a 94 3d 3f be c0 3d d9 6b da 3d
       0.15892757 0.07237801 0.094112866 0.106651016
000030 80 50 c6 bd 05 0f 29 bd 21 f3 a6 3d d3 83 a7 3c
       -0.09683323 -0.04127409 0.08151842 0.0204486
000040 6e 39 94 3c b1 63 90 3e 3a 9f 3d bc ce 31 42 be
       0.01809379 0.28201059 -0.011573607 -0.18964311
000050 02 f6 cc 3d bf cc 50 bd f8 84 12 be f7 0b 87 3d
       0.1000786 -0.05097651 -0.14308536 0.06594079
000060 ef a9 d4 bc f5 2e 86 3d ff d3 e6 bc e4 e9 44 bd
       -0.025959937 0.06551925 -0.02817726 -0.048074618
000070 49 c2 1e 3e de 64 4f 3c ef 03 ed bb d2 64 f6 bd
       0.15503801 0.012658326 -0.007233135 -0.12030949
000080 dd fc b2 bb 68 d5 e5 3c 32 8b 92 bb e6 44 c5 3c
       -0.0054622726 0.028055862 -0.00447216 0.024080705
000090 6b f4 d1 3c 77 ab 0b be 9f 98 ef bd 2b 30 84 3e
       0.025629243 -0.13639627 -0.11699032 0.25818
0000a0 4d cb 8a ba 11 65 0a 3d 19 4e b0 bd b3 53 2d be
       -0.0010589153 0.03378779 -0.08608646 -0.1692646
0000b0 14 b2 04 3e 66 ce e2 bd 60 db ce bc 30 2b b3 3d
       0.12958556 -0.11074524 -0.02525109 0.08748472
0000c0 3d aa d0 3d cf d6 ff 3c 8d 80 ed bd 34 ce f0 bd
       0.101887204 0.031230358 -0.11596785 -0.1175808
0000d0 88 61 18 3e f8 5c d2 bd 6f 4b da 3d 4e c9 65 be
       0.14880955 -0.10271639 0.10658919 -0.22440073
0000e0 f0 e4 d8 3d 64 15 01 3d d3 dc 4b 3d a9 f8 00 be
       0.10590541 0.03151454 0.04977114 -0.12594856
0000f0 24 74 dd bc 6d ca 2f 3e 51 60 8f 3d f3 39 e5 bd
       -0.02703292 0.17167063 0.07000793 -0.111926936
000100 8e 59 63 be 0d 24 cc 3d 6d cc 38 3e e7 86 e7 bd
       -0.22202131 0.09967814 0.18046732 -0.113050275
000110 12 76 2d bd 70 c6 34 3c 9a 54 44 3e 21 07 7c ba
       -0.04234893 0.011033639 0.19172898 -0.00096140994
000120 d0 9b 8a 3e b3 b3 92 bd 58 df 86 be 0b aa c0 bd
       0.27072 -0.07163181 -0.26342273 -0.09407433
000130 6b 18 38 be 0e bb 0f bc e0 0e dc 3d 70 38 20 3d
       -0.17978065 -0.008772625 0.10745025 0.039116323
000140 46 8b 97 be e9 ac 1b be 16 ea 6b bd 41 1b 6e 3e
       -0.29598445 -0.15202679 -0.05759629 0.23252584
000150 81 7c 7d bd 0c 5c d5 3c d8 54 96 3d 75 9a 45 be
       -0.061886314 0.026044868 0.073404014 -0.19297202
000160 da 53 83 3c 0c fa 0a 3b ee 69 b5 bd b4 62 68 3d
       0.016031194 0.0021206168 -0.08858095 0.056734756
000170 f4 6d ae bd cc 53 81 3d bc c6 38 be e8 f7 31 be
       -0.08517066 0.06314811 -0.18044561 -0.17379725
000180 27 c5 1b 3d 22 2f 35 bd 5b e2 4a be e9 b4 79 3d
       0.038029816 -0.044234402 -0.1981291 0.060963545
000190 54 97 ef 3c 6a 1e 2d 3d 36 f7 3c bd c8 d2 09 bd
       0.029246964 0.042265333 -0.046134196 -0.033648282
0001a0 e1 ac f2 bc 59 73 2a 3e 8e 31 84 3d 19 81 fe 3b
       -0.02962345 0.16645564 0.06454764 0.0077668545
0001b0 db 30 07 be c3 dd d6 bd ab 76 bd bd 95 83 61 3d
       -0.1320223 -0.104915164 -0.0925115 0.055057127
0001c0 37 10 a1 bd bc dd 13 bd 78 d4 1f bc ac 2b 75 3e
       -0.07864421 -0.036100134 -0.009755246 0.23942441
0001d0 65 d5 01 3e 4e 5f 6e 3d e4 6c 34 3d 39 6c 0d be
       0.1267906 0.05819636 0.04404916 -0.13810815
0001e0 1d e5 e4 bd fb 54 e0 3d a9 bc 24 bd 12 64 05 bd
       -0.111765124 0.10953709 -0.040218983 -0.032566138
0001f0 5c 9a a5 bd 7d 4a d7 3d b5 a6 e1 bb a1 7e 2e 3d
       -0.08086082 0.105122544 -0.006886328 0.04260123
000200 1c 1a 91 3e 6f c9 41 3b 15 e2 a0 bd 23 a9 d6 bd
       0.28340232 0.0029569527 -0.07855622 -0.10481479
000210 9b 4d 7c 3d f6 2b 7e bd 75 60 1b be 3e 6d 8c 3e
       0.061597448 -0.062053643 -0.15173514 0.27427095
000220 08 28 b6 3d e4 d9 3a bd fd 82 20 be c2 6e 84 3e
       0.08894354 -0.045617953 -0.15674968 0.25865752
000230 2a 70 01 3c 48 02 4c bc 6e cb 7b 3d 2b ce a0 3c
       0.007900277 -0.012451716 0.061473303 0.019629559
000240 e9 03 82 3e 75 3d a5 bc d5 2f 39 bd 61 06 27 3d
       0.25393608 -0.020170907 -0.04521163 0.040777568
000250 df 78 37 3e 45 f2 30 bd a3 a9 28 be 84 22 99 bd
       0.17917202 -0.043199796 -0.16470961 -0.074772865
000260 9f b5 19 3d e1 e1 19 3e 15 87 3b 3e 25 61 8a bd
       0.037526723 0.15027572 0.18313248 -0.0675681
000270 12 de e1 3d 00 f8 2c 3e b7 43 01 be 37 63 fe bd
       0.11028685 0.1689148 -0.12623487 -0.124212675
000280 fd dd b0 3d 52 ce c1 bd 1a 64 2e 3d 1c 5f 2a bd
       0.08636091 -0.094631806 0.042575933 -0.04159461
000290 2f 1e 0b 3d 3d 81 a5 3d d5 61 4c 3b da ad fe bd
       0.033964332 0.08081291 0.0031186242 -0.12435503
0002a0 2d bf 1c be ce 9e 5a 3e 73 93 a0 bd 7e 17 76 bd
       -0.15307303 0.21349642 -0.07840624 -0.060080998
0002b0 23 23 f5 bd 45 4c 41 be 46 67 4a 3e 07 6b 9c 3d
       -0.119695924 -0.18876751 0.19765958 0.07637601
0002c0 fc 97 f6 bc 08 1f 0d be 5f f4 6d 3e be d6 16 3d
       -0.030101769 -0.13781369 0.23237751 0.036825888
0002d0 6e 3e ba 3d fb 52 a1 3c 3f bd 08 3e 5a 22 07 bd
       0.09093939 0.019692888 0.13353442 -0.032991745
0002e0 05 e9 ee 3c 1a cc 19 be a2 75 5f be fe b4 c5 3d
       0.029163847 -0.15019265 -0.21822217 0.09653662
0002f0 ce 36 f9 bd cb 2b 07 bd 01 ab 86 3d 7b a0 ff bd
       -0.12168656 -0.03300075 0.06575585 -0.12481781
000300 4c 3c a0 bd 03 1b e4 3d c8 df c4 bd 03 c1 01 bc
       -0.07824001 0.111379646 -0.096129954 -0.007919553
000310 24 c7 06 3e 25 40 b1 ba 42 b1 b8 bd 5a db c0 3e
       0.13161904 -0.0013523145 -0.09018184 0.37667352
000320 e4 55 8e be 49 91 df bc 3e 66 46 3e 59 f5 32 bd
       -0.27799904 -0.027290957 0.1937494 -0.043691013
000330 e2 c0 ce 3d aa fc 29 be 5e da 9c 3d 9b f7 db 3d
       0.10095383 -0.1660029 0.07658838 0.10740586
000340 1b e3 1b 3e ed 14 8a be e3 0b 1f bd 3d 4c f3 bd
       0.15223353 -0.2696909 -0.038829695 -0.11879776
000350 5f b4 c8 bd 80 17 2c bd 47 22 13 3e a5 ac 35 be
       -0.09800028 -0.0420146 0.14368545 -0.1774164
000360 e4 df 77 be 31 6e 01 bd bb 0c 2d 3d 75 f6 8f bd
       -0.24206501 -0.031599227 0.04224847 -0.0702943
000370 dc 87 8a bd b7 b7 d3 bd 86 1e eb 3d 07 50 b4 bd
       -0.06764194 -0.10337775 0.11480431 -0.088043265
000380 ca 28 89 3d 53 f2 91 3d 08 96 cd bd 98 21 00 bd
       0.06697233 0.07126298 -0.10038382 -0.031282037
000390 77 6c 1e be 50 c7 97 3e 0e 32 5f 3d cf 51 1a 3e
       -0.15471064 0.2964425 0.054491095 0.1507027
0003a0 35 41 ac 3d 87 41 61 bd 44 25 91 3d b0 c2 ac bd
       0.08410875 -0.054994132 0.07087186 -0.08435571
0003b0 c3 a8 52 be 7c b9 a5 bc 74 2b a8 bd 93 dc a5 3d
       -0.2057219 -0.020230047 -0.08211413 0.08098712
0003c0 0d b1 73 be 22 33 23 bd f6 1f 71 bb aa 2a 8f bd
       -0.23798008 -0.039843686 -0.0036792732 -0.069905594
0003d0 b5 a0 ea bd 21 fb 80 be 76 0b 06 bd a3 1e 95 3d
       -0.11456434 -0.25191596 -0.032725774 0.07281234
0003e0 cd 46 88 bd 11 05 72 3e 07 44 83 bb 9e eb 87 be
       -0.06654129 0.23634745 -0.004005912 -0.2654695
0003f0 45 a3 00 3d 8a c6 44 3d 13 2f 9c bd 27 06 0c 3e
       0.031405706 0.048040904 -0.07626166 0.13674222

layer2.4.weight f4 [7, 256]
000000 2e 7e 93 3d da a7 8e be 18 54 dd 3d a4 1f 15 be
       0.07201801 -0.27862436 0.10807055 -0.14562851
000010 fa 86 62 bc 5a f1 9c bb e5 b0 03 be 90 b1 15 3d
       -0.013826126 -0.0047895135 -0.12860449 0.03654629
000020 23 bf 46 be cc 58 51 bc 3c 3a 31 bc 55 91 bc bc
       -0.1940885 -0.0127775185 -0.010817107 -0.023018518
000030 6e ff 27 3d ee 0f 0a 3c 60 e1 0f 3d d9 c6 40 be
       0.04101508 0.0084266495 0.035127044 -0.18825854
000040 38 c7 fe ba 9a 7b 83 be 07 65 1b 3d 4e 59 16 3e
       -0.0019438034 -0.25680238 0.037938144 0.14682505
000050 e4 3c 81 3d 02 11 0b bd 34 ae 4c 3e 54 21 cc bd
       0.06310442 -0.033951767 0.19988328 -0.09967294
000060 8c 9d 86 3b e0 47 88 bb 0d 95 a6 3d 60 d7 a5 3d
       0.0041081365 -0.004158959 0.08133898 0.0809772
000070 cd a0 88 be 94 49 04 be a3 e6 90 bd eb 5c d5 3e
       -0.2668518 -0.12918693 -0.070752405 0.41672453
000080 77 69 2b 3e e3 73 5b bd 20 af 10 be 2d d8 17 be
       0.1673945 -0.053577315 -0.14129305 -0.14828558
000090 d7 45 e3 be 6a e9 3d be 07 54 f0 bb 9d c6 e6 bd
       -0.4438922 -0.18546072 -0.0073342356 -0.11268351
0000a0 4f 92 02 bd 74 0a 05 be 3d 9c 87 3d 05 3a 6c 3d
       -0.031877812 -0.12992269 0.06621597 0.05767252
0000b0 91 62 23 bd 93 29 34 3e 6f 8c 88 bd 64 b1 08 bc
       -0.039888922 0.17593984 -0.066674106 -0.0083430745
0000c0 66 d1 a0 bd cb a0 04 bc 5f 32 21 bd e9 d7 87 3d
       -0.078524396 -0.008094977 -0.03935468 0.066329785
0000d0 e3 7f 09 be c6 1a e9 3d f9 09 f2 be bb fb 8a 3e
       -0.13427691 0.1138206 -0.47273234 0.2714518
0000e0 de be 98 be 69 fd 3d 3d d1 fd bb 3d 3e 1f 91 3b
       -0.2983312 0.04638425 0.09179271 0.004428773
0000f0 4a ce a1 3d 71 9a 53 be b6 62 3c 3d b6 d8 1c be
       0.07900675 -0.20664383 0.045992576 -0.15317044
000100 24 6f 4a 3e ed 73 7c b9 3d 08 a2 be 38 98 8c 3c
       0.1976896 -0.00024075778 -0.3164691 0.017162427
000110 99 2f 8b 3e c3 6b bc 3d ac c1 27 be e2 8d a0 bd
       0.27184752 0.092002414 -0.16382474 -0.07839562
000120 71 73 4a be 64 f2 e3 3d 5e 8c 45 3e f3 f7 e0 3d
       -0.197706 0.11130217 0.19291827 0.109847926
000130 ef 68 65 3c dc 3a 11 be 80 c4 30 bd cb e7 87 bd
       0.014002069 -0.1418261 -0.043156147 -0.06636008
000140 e9 a9 5b 3e 2a e2 f0 3d bb f2 80 3d 10 6c 6c be
       0.21451534 0.11761887 0.06296297 -0.23088098
000150 78 83 84 be 98 c0 2d 3d b0 cc ae 3c 7f 51 ed bc
       -0.25881553 0.04242 0.021337837 -0.028969524
000160 25 07 81 3e 7f f6 73 bd d5 9a 75 3d c4 69 43 3e
       0.25200763 -0.05956125 0.059962112 0.19083315
000170 a6 ba 9d bc 87 6b 11 3d 30 29 46 3e 5a fd 8b 3e
       -0.01925404 0.035502937 0.1935165 0.2734173
000180 52 b3 4e 3d 4c 5b f9 3d b3 53 5f 3e 89 60 3f bd
       0.050463982 0.121756166 0.21809272 -0.046722922
000190 09 e7 0f be 56 0d 54 be 83 f3 27 be 7a d4 44 3d
       -0.14052977 -0.20708212 -0.16401486 0.048054196
0001a0 3e 1e 99 3d b1 9e 54 be 0a e0 db bd 8c 19 f4 3c
       0.07476471 -0.20763661 -0.107360914 0.029797338
0001b0 c5 55 01 3d 92 45 9e 3d b5 a9 c6 3a 4a fb 4b 3d
       0.031575937 0.07728113 0.0015156778 0.049800195
0001c0 98 56 c8 bd 99 21 28 3d a6 ac a2 be fb c5 b1 be
       -0.097821414 0.041047666 -0.31772345 -0.3472136
0001d0 ee c3 00 3d ad 83 87 bd 8e 43 54 bb 19 8f 55 3e
       0.031436853 -0.06616912 -0.0032388899 0.20855369
0001e0 03 dd 6e bd aa ed 9f be 75 e5 e5 3d 81 62 6e 3d
       -0.058316242 -0.3123601 0.11225406 0.05819941
0001f0 5c ac 97 bd a0 a7 68 3d 75 f8 9c bd 33 2e 0b bd
       -0.07405922 0.056800485 -0.07664577 -0.033979606
000200 35 f7 f4 3d 62 f2 37 bd 50 56 f2 3d 5c 2d 92 3e
       0.119612135 -0.04490889 0.11832869 0.2855023
000210 66 cc 5c 3d 35 e7 10 3e 70 1f 06 be 7a aa 02 3d
       0.053905867 0.14150698 -0.1309793 0.03190086
000220 2e f7 a9 be fe a0 a7 3d 74 75 76 be 0f 64 1d be
       -0.33196396 0.08185004 -0.24068242 -0.153702
000230 60 d1 1a 3b 61 5f 43 bd 74 b1 69 3d d2 ec ac be
       0.0023623332 -0.047698382 0.057053998 -0.3377443
000240 49 61 0a be c5 18 b2 3e 32 ed 20 3e 55 11 12 be
       -0.13513674 0.34784523 0.15715483 -0.14264424
000250 01 1e 23 be d9 ca 4d 3d 05 66 f7 3b 7a f4 01 bc
       -0.15929414 0.05024228 0.0075500035 -0.007931823
000260 65 cd 31 3d 29 6d ab 3c 50 cd ef 3c 7f 9e bb 3c
       0.04340877 0.020926075 0.029272705 0.022902725
000270 1c 82 a8 be 84 ee 8c bd 5f fc c9 3c 67 b8 a9 3e
       -0.32911766 -0.06881431 0.024656473 0.331485
000280 b1 68 0e be 21 6c 77 3c 11 a5 90 bd 63 26 99 bd
       -0.13907124 0.0151014635 -0.07062734 -0.07478025
000290 f9 26 bc bd 8c cd 2d be 5a 3c cd bc fc ad 36 3e
       -0.09187121 -0.16972941 -0.025053192 0.17839807
0002a0 25 54 ac 3d b0 55 cd bd 02 f0 de 3d f8 58 bd 3c
       0.08414487 -0.10026109 0.108856216 0.023113713
0002b0 07 fb c7 3a d1 da 86 3e 54 d2 e4 3d 9d ad 85 3b
       0.0015257307 0.2633882 0.111729294 0.004079534
0002c0 5d c2 16 be 06 81 18 bd c7 03 7b bc df 0a fc bc
       -0.14722581 -0.03723242 -0.015320725 -0.030766902
0002d0 17 d2 16 be 4c 6c 31 3c 53 a3 ce 3d 52 0d 21 3e
       -0.1472858 0.010829043 0.100897454 0.15727738
0002e0 6c 35 c6 3d fa 50 1c 3e a5 30 55 3e 32 b8 5e bd
       0.09678158 0.15265265 0.20819338 -0.05437488
0002f0 43 28 9f bd 25 24 13 bb 5b 5c f0 3d df 66 b4 bb
       -0.07771351 -0.0022451964 0.117363654 -0.0055054273
000300 0b 29 95 3d 30 0b 89 be 44 e7 4b 3d f1 b1 fb 3c
       0.07283219 -0.26766348 0.0497811 0.030724498
000310 02 4a b9 3d 2e 22 10 be 8e be ea 3d 35 30 88 bd
       0.09047319 -0.14075539 0.11462127 -0.0664982
000320 d5 35 14 3e 85 e1 e9 bd 19 fb dc bd b7 d9 7c bc
       0.1447366 -0.114199676 -0.107900806 -0.015432767
000330 ce c9 17 b9 46 16 b7 bc 84 06 ca bd 19 d5 5e bd
       -0.0001447566 -0.022349488 -0.09864524 -0.054402445
000340 42 f8 25 be 1d 18 39 3e 2d ca c2 bc 6a db 98 bb
       -0.16207984 0.18075605 -0.023778046 -0.004664828
000350 a3 b3 cc bc cc 97 2c be ad f6 d0 bc 20 d4 9e 3c
       -0.024988001 -0.16854781 -0.02550825 0.019388258
000360 22 aa 93 3e 94 1a b3 3d 87 1f b3 bd 9a 43 90 3c
       0.2884074 0.08745304 -0.08746248 0.01761036
000370 30 3c 2d 3e 02 98 ed 3c 93 2e b5 bd 56 cf 38 3d
       0.16917491 0.029003147 -0.08846774 0.045119606
000380 23 bb 0c 3e de e0 24 be 1c 74 8b 3d bc da af bd
       0.13743262 -0.16101405 0.068092555 -0.08586642
000390 b3 d7 8b 3d 51 5f 1c be 44 bd af bc 37 27 cb bd
       0.06828251 -0.15270735 -0.021452554 -0.09919589
0003a0 e5 ec 54 bd 77 2e ec bc d7 36 cb 3d e7 16 dc bb
       -0.051983733 -0.02883075 0.09922569 -0.0067165974
0003b0 38 9b e9 3d fa 37 0c 3d db f4 23 3e 0d dd 0c bd
       0.11406559 0.03423307 0.16011374 -0.034390498
0003c0 dd dd 22 3d 12 c9 02 3d 76 70 47 be 77 74 ba 3d
       0.039762367 0.031930037 -0.19476494 0.09104245
0003d0 ef 00 b1 bd c0 35 79 3e a7 95 01 bc 48 a1 fc bd
       -0.08642756 0.2433691 -0.007909215 -0.123354495
0003e0 b0 91 f9 bb ba 98 c8 3c 17 f9 76 3c 95 4c 87 3e
       -0.0076162443 0.024486888 0.015074036 0.26425615
0003f0 12 04 e7 bd 5a a5 02 3e c2 66 de 3d 7f a3 6c bd
       -0.11280073 0.12758389 0.10859443 -0.05777311

layer2.4.bias f4 [7]
000000 d8 51 a5 be ca 73 55 be aa 35 9a be db c4 16 be
       -0.32289004 -0.20844951 -0.30119067 -0.14723532
000010 88 b3 3a be 9a 5c d3 3d 8f f2 97 3e
       -0.18232548 0.10320397 0.29677245
