MyZipTobeUploaded/bpi_Neighbour_embedding/EventPredictor_parameters_BPI_Laplasianbinary_0.0001_run0_GATTTT.pt (torch, 286967 bytes, 9 tensors)

layer1.bias f4 [6]
000000 00 00 00 00 00 00 00 00 00 00 00 00 00 00 00 00
       0.0 0.0 0.0 0.0
000010 00 00 00 00 00 00 00 00
       0.0 0.0

layer1.W f4 [4, 2]
000000 d3 98 cf 3e 79 fe 96 be c3 a4 d8 3d e4 7b 93 be
       0.40546283 -0.29491022 0.10578301 -0.2880546
000010 a4 24 25 3e ee c2 7e 3c a0 64 44 3e 7c cc b0 be
       0.16127259 0.015549405 0.1917901 -0.3453101

layer1.a f4 [4, 1]
000000 67 24 8d 3c a4 2e a6 bd 67 24 8d 3c a4 2e a6 bd
       0.017229272 -0.08114365 0.017229272 -0.08114365

layer2.0.weight f4 [256, 12]
000000 71 fb d5 bc 58 c9 31 3e d4 7e 22 3e 0c f4 e7 bd
       -0.026120873 0.17361963 0.15868694 -0.11325845
000010 0a c1 f3 bd 74 e2 e9 3e dd 7a 38 3e 04 1f c8 3e
       -0.11902054 0.45680583 0.18015619 0.39086163
000020 ac bc 8d be 40 f8 89 3e 5b fa b8 bd c4 0f e0 3e
       -0.27683008 0.26947212 -0.090321265 0.43762028
000030 7f ef 02 bd 1b 07 f9 3b 75 09 a3 3e eb f7 1f be
       -0.031966683 0.007599724 0.31843153 -0.15621917
000040 b5 c1 2d 3e 6b 8e 87 3e f5 66 50 be d1 d1 2a be
       0.16968425 0.26475844 -0.20351775 -0.16681601
000050 e5 60 58 be 96 89 c9 bd c5 5d ef bd d2 a4 e7 bc
       -0.21130712 -0.098406956 -0.11687807 -0.028276835
000060 d7 2e c1 bc 54 13 32 be 51 8f d3 bd 1e bd a2 bd
       -0.023581905 -0.17390186 -0.1033007 -0.079462275
000070 76 d9 eb bd 43 14 aa be 50 c0 d7 bd db 68 7b be
       -0.11516087 -0.33218583 -0.105347276 -0.24551718
000080 d6 07 c9 3d 8f 57 ac be e4 fe 28 be ca 74 f7 bd
       0.09815948 -0.33660552 -0.16503483 -0.120828226
000090 8c b2 c1 3d 81 5f 95 bb 72 60 8f 3e d2 47 84 bc
       0.09457883 -0.004558504 0.2800327 -0.016147528
0000a0 13 4c df bd 20 de 60 be ee 57 68 3d 81 05 80 3d
       -0.10903182 -0.21959734 0.05672448 0.0625105
0000b0 22 2f c6 3d 42 48 39 bd d8 a1 58 be c2 33 18 be
       0.096769586 -0.045234926 -0.21155488 -0.14863494
0000c0 49 d6 5e bd 4f 0d 9a be 4b fb 47 be 6f 8d c1 bd
       -0.054403577 -0.3008828 -0.19529454 -0.094508044
0000d0 78 bc a2 3d 68 8f 81 3e 8e fe bd 3d 02 b5 5a 3e
       0.07946104 0.25304723 0.09277068 0.21358112
0000e0 2c 82 76 3a 00 69 45 be 98 0f 30 3e 5d e5 5c 3e
       0.00094035524 -0.19278336 0.17193449 0.2157187
0000f0 ab 9a 66 be 8f 9f 83 3e bf 5c f8 bd f7 95 c1 3d
       -0.22519939 0.2570767 -0.12127065 0.09452432
000100 f6 6c f4 bd 73 eb 5c 3e 51 8c 9c 3d 06 0e 71 be
       -0.11934845 0.21574192 0.07643951 -0.23540506
000110 7b 3d a2 3c 56 38 a0 3e 2a 96 ef 3d d4 66 58 3e
       0.019804707 0.3129298 0.116985634 0.21132976
000120 fe b8 b9 bd 8e b8 d8 bd 9e d1 d8 3c a5 53 8f 3e
       -0.090684876 -0.10582076 0.02646714 0.27993503
000130 08 4b b4 3d ae f1 10 3e 25 5c f1 bd 3f d9 77 3e
       0.088033736 0.14154693 -0.11785153 0.24203967
000140 28 c8 88 3d a1 d1 aa 3e 7e 1e 00 3e ba 65 04 3e
       0.06678802 0.3336306 0.12511632 0.1292943
000150 10 58 ca bc 8b 83 ed 3d f1 ad 47 be 3b 13 80 3e
       -0.024700195 0.115973555 -0.19499947 0.25014672
000160 be 80 03 3e 72 d3 53 3e 49 3e bd 3d 45 6b 4e 3b
       0.1284208 0.20686129 0.092403956 0.0031497043
000170 6d 71 a3 bd 52 67 06 be b5 c5 81 be 70 31 3d be
       -0.079806186 -0.13125351 -0.2534615 -0.1847589
000180 58 1c 7b bd 76 fd 6c be b5 67 94 be 5e 67 15 be
       -0.061306328 -0.23143563 -0.28985372 -0.14590213
000190 a0 f1 08 3e 11 99 21 be 2f 06 f9 bd ce ea 7b be
       0.13373423 -0.15781046 -0.121593826 -0.2460129
0001a0 e0 36 1d 3d 25 6c a8 be d7 3e f4 3d 6f da 8c 3d
       0.03838241 -0.32895008 0.11926048 0.068776004
0001b0 f2 ea 00 be 2b 09 27 bd 98 1d ac be 82 bb 37 be
       -0.12589625 -0.040780228 -0.33616328 -0.17942622
0001c0 d6 d4 a8 be 71 fb 35 3d 55 69 4c bd a1 41 98 3d
       -0.3297488 0.044429246 -0.04990514 0.07434393
0001d0 7a f9 0c 3e 57 77 10 3e 9d 9a 44 3e ed b3 6f be
       0.13767043 0.14108025 0.19199605 -0.2340848
0001e0 99 a1 56 3e 69 47 92 bd 0d 65 13 be 4c 51 ba bd
       0.20960082 -0.07142527 -0.14394017 -0.090975374
0001f0 0d d4 b1 3e 9f 80 01 3e 5a 8a 87 3e 7d 2f 7c be
       0.34732094 0.12646721 0.2647274 -0.2462749
000200 ad b3 c1 bc ce 4b 6b 3e 12 87 49 3d ba 85 8e be
       -0.023645246 0.22978136 0.04920108 -0.278364
000210 2c c5 43 3e 4f 73 2a be dc a4 ce bd e9 d6 84 be
       0.19118184 -0.16645549 -0.10090038 -0.25945213
000220 25 3a 92 3e f4 f0 3d be 34 1f 6d 3e 26 49 57 ba
       0.28559986 -0.18548948 0.23156434 -0.0008212499
000230 4a 7b 56 be d3 59 ed 3b da 35 eb 3d c7 5f 7c be
       -0.20945469 0.007243374 0.11484881 -0.24645911
000240 42 f4 50 be ef 1e 64 3e 61 f9 6d 3d bf 87 a9 3e
       -0.20405677 0.22277425 0.058099154 0.3311138
000250 dc 15 47 bd ed 89 54 3b a8 81 19 be cf ff 23 3e
       -0.04860483 0.0032430843 -0.14990866 0.16015552
000260 d0 7b 3d 3e 96 1e 37 3e 42 82 80 be 11 42 03 be
       0.18504262 0.17882761 -0.2509938 -0.12818171
000270 1b 04 46 be 3e df b1 3d d6 12 e6 bd 64 f0 e5 3d
       -0.19337504 0.08685158 -0.112340614 0.112274915
000280 f0 b1 88 be fb b0 3c 3e c3 e5 17 3e 5c 55 59 3e
       -0.26698256 0.18426888 0.14833741 0.21223968
000290 59 f8 8e bd 07 3d 80 be 3c 30 27 be da b5 80 bd
       -0.06980962 -0.2504656 -0.16326994 -0.062846854
0002a0 ea 14 4d 3e ba 16 8c be a9 87 53 3d 18 ca 4c 3e
       0.2002751 -0.2736109 0.051643047 0.19998968
0002b0 8e 26 10 bd 2d d7 70 be 9a 3b 84 3d 45 9d 16 3e
       -0.03519302 -0.23519583 0.064566806 0.14708431
0002c0 fc c3 e4 3e 45 09 17 3e 90 bb 76 3d 71 c2 86 3e
       0.44680774 0.1474963 0.060237467 0.26320222
0002d0 50 2e b1 3d 6b 76 e7 bd 76 85 b2 be 50 96 a0 3e
       0.086514115 -0.11301883 -0.34867448 0.3136468
0002e0 1f 29 b4 bc d6 5a 0e 3e f3 26 38 bd 34 0d a4 3e
       -0.021992264 0.13901839 -0.04495902 0.32041323
0002f0 0f 7d 2a bc a1 8f 3f bd 72 bc 1f 3e af 7f 5e 3e
       -0.010405793 -0.046767835 0.1559923 0.21728395
000300 f8 66 e5 bd 8c 03 85 3e 07 12 fb bd 91 8a 9c be
       -0.1120128 0.2597927 -0.12259298 -0.30574468
000310 5f 6a 91 3e 20 31 e6 bd e2 01 13 be cf cc 24 bd
       0.28401467 -0.112398386 -0.14356187 -0.040234383
000320 57 6b c2 3d 45 cc c0 bd 08 f5 3e 3e 5e d0 36 3e
       0.0949313 -0.09413961 0.1864816 0.17852923
000330 1c 64 26 3e b5 d9 dd 3c 7a 9f 25 3e 7a 6e 08 3e
       0.16249126 0.02708135 0.16174117 0.13323393
000340 99 4d dd be bb 29 25 bd 98 93 e5 3d f1 0b 36 be
       -0.43223265 -0.040323 0.11209792 -0.17777993
000350 d7 d2 ef bc a0 c3 d3 3c 18 d8 37 3e df ed 43 3e
       -0.029275341 0.025850117 0.17953527 0.1913371
000360 a2 af 00 3e f0 aa 57 3e 8e 3f 2c 3e 58 97 ad bd
       0.12566999 0.21061301 0.16821119 -0.08476132
000370 20 d3 bf 3d d9 f6 85 3e 34 37 27 be 6c 9f 6b 3d
       0.09366441 0.26164892 -0.16329652 0.057525083
000380 45 7f 08 bc 07 79 5d be 3c 63 11 be 54 9d 95 3e
       -0.008331125 -0.216282 -0.14198011 0.29221594
000390 4d 46 b7 3e 77 50 ad bd 63 78 08 3e 8c 2c 2f 3d
       0.35795823 -0.08462613 0.13327174 0.042767093
0003a0 19 10 a5 3d f9 60 df 3e 52 16 c3 bd 95 4c d8 3d
       0.08059711 0.43628672 -0.09525742 0.10561482
0003b0 e2 78 6e bd 9a 25 10 3e 95 fd 1e 3e 4b 35 2a 3d
       -0.05822075 0.14076844 0.15526421 0.04155473
0003c0 f8 1f d2 bd e5 1c 39 3e 18 8b 09 3e 9d 35 87 be
       -0.10260004 0.18077429 0.13431966 -0.2640809
0003d0 f6 9c 2f be 6b 36 1f be 4c e8 9a 3e 93 75 76 be
       -0.1714972 -0.15548103 0.30255353 -0.24068289
0003e0 62 46 2c 3d 84 3d 97 3e a6 e3 07 bd 9f 5f 8c bd
       0.04205931 0.2953912 -0.033176087 -0.06854176
0003f0 ee 23 a5 be 74 50 36 3e 0b 0d d0 be ea 50 a3 3c
       -0.32253975 0.17804128 -0.4063495 0.019936044

layer2.0.bias f4 [256]
000000 31 91 95 be c2 9c f9 3d 78 bd a5 3e c3 4a 11 3e
       -0.29212335 0.12188102 0.32371116 0.14188676
000010 ec 2c 40 be 03 80 1b 3e ff 60 64 bd 2d f8 90 be
       -0.18767136 0.15185551 -0.055756565 -0.28314343
000020 58 08 b6 bd 33 14 3b 3e 99 21 15 be 54 10 69 be
       -0.0888831 0.18269424 -0.14563598 -0.22760135
000030 8c 8e b2 be 85 de d3 3d 33 3a 8d bc 12 38 cc be
       -0.3487438 0.103451766 -0.017239666 -0.39886528
000040 7a 66 0a 3e d9 5b 72 bc c9 6a 03 bf 13 51 f4 3d
       0.13515654 -0.014792406 -0.51334816 0.11929526
000050 b0 d9 9a 3d ff 58 1f be ee 8f cf 3d 30 97 a5 3e
       0.07561052 -0.15561293 0.10134874 0.3234191
000060 bc 67 ac 3d 4d 9c 92 be 9f 56 d4 3d 5f da ee 3e
       0.08418223 -0.28634873 0.10368084 0.4665098
000070 24 99 93 3e f9 22 13 3e 43 4a fe bc c0 85 4f 3e
       0.28827775 0.1436881 -0.03104127 0.20265865
000080 aa a4 03 3e 74 29 0a 3f d6 c2 96 bd 3f 46 65 3e
       0.12855783 0.539695 -0.07361381 0.22390078
000090 07 d5 48 be 37 28 d0 bd 51 e2 c9 bd 17 06 44 3d
       -0.19612513 -0.101639204 -0.098576196 0.04785737
0000a0 a6 15 61 3e 73 93 01 bf f6 fc af 3e b2 6b 0f bb
       0.21980914 -0.50615615 0.3437268 -0.002188426
0000b0 06 1a 74 3e f5 1c 03 3e 7a 0e 9d be 82 cd 05 3e
       0.23838052 0.12804015 -0.30675107 0.13066676
0000c0 f6 95 74 3e 26 b2 0d 3d 84 b6 09 3e 66 e7 15 3e
       0.2388533 0.034593724 0.1344853 0.14639053
0000d0 d4 9d 6a 3e b5 14 2b 3d 7e 59 95 be 7a ef 55 be
       0.22911769 0.041767795 -0.2916984 -0.20892134
0000e0 ef 84 4c bc 1b 46 68 3e 3b c4 cd bc 48 cc 26 3d
       -0.012482866 0.22682993 -0.025117984 0.04072216
0000f0 1c e9 48 3b 22 8d 6d 3e 8f e8 ac 3e f0 9f cf 3d
       0.0030656522 0.23198369 0.33771178 0.101379275
000100 81 f0 a6 bd 93 c5 8c 3d 42 5a 44 be 8c 50 a8 bd
       -0.08151341 0.06873622 -0.19175056 -0.08218488
000110 31 50 83 3e 8b 65 14 3f 96 81 01 3e 31 7f 73 3d
       0.2564712 0.5796744 0.1264709 0.05944747
000120 d5 da 92 3e 3d 88 4b be 18 e6 cd bc 58 a4 7a 3d
       0.2868258 -0.1987619 -0.025134131 0.061191887
000130 78 fe 60 3e 6d 4d 22 be 10 1b 66 be b5 99 4d be
       0.21972072 -0.15849848 -0.22471261 -0.20078166
000140 3c a8 b7 bd 48 a6 fe 3d 18 25 78 3e 98 9a 8a 3e
       -0.08967635 0.124340594 0.242329 0.2707107
000150 bc ad 33 bb 9a f9 b3 bc b5 05 05 3f 46 0c b8 bc
       -0.0027416786 -0.021969605 0.51961833 -0.02246679
000160 92 2d 0e 3e 3f e8 22 3e 6c 11 92 3e 3f 36 f3 be
       0.13884571 0.15908907 0.28528917 -0.47502324
000170 22 a7 95 3c 2f b4 ef 3e 21 84 17 3e 06 ae 4c be
       0.018268172 0.46817157 0.14796497 -0.1998826
000180 0b 5c 3a bc 81 4f a4 3d e7 5b 94 be 25 ef bc 3c
       -0.011374484 0.08022977 -0.28976366 0.023063252
000190 de ab 9c be ac 27 85 bd a0 da 42 be 43 c9 7e be
       -0.30599874 -0.065017074 -0.19028711 -0.24881463
0001a0 6d 38 ab bd e4 66 1d 3e c9 39 67 bd 34 75 9e be
       -0.08360372 0.15371281 -0.056451593 -0.30948794
0001b0 78 96 92 3e 4c 94 49 be 39 5b 07 bb ac d6 a2 3d
       0.28630424 -0.19685477 -0.0020653738 0.07951102
0001c0 00 2a eb bd 69 d9 bd bc 21 09 04 bc 78 7a fa be
       -0.1148262 -0.023174958 -0.008058817 -0.4892156
0001d0 cf d5 8e be fb 4b c6 bd 9a 56 4a 3d bf a3 41 3e
       -0.27897498 -0.09682461 0.049398996 0.1891012
0001e0 64 e3 10 bc 4c e9 99 3e a2 37 48 be 97 68 95 be
       -0.008843277 0.30060804 -0.19552472 -0.29181358
0001f0 0f 89 c2 3c cb d9 96 bc 84 82 b9 3d ae 70 a7 be
       0.023746995 -0.018414399 0.09058097 -0.32703155
000200 ad d2 13 3e 7c 43 1a 3e c9 2a 95 3e 5e 08 85 3e
       0.14435835 0.15064806 0.29134205 0.25982946
000210 42 34 db be d8 72 2d 3d a4 a0 c0 3e 28 48 66 3e
       -0.42813307 0.04234585 0.3762256 0.22488463
000220 7d a5 b0 3e 38 28 ab be 96 7e 2e 3d 47 fb c1 3e
       0.34501258 -0.33429122 0.04260119 0.37887022
000230 10 f8 28 be 15 19 cc bd 07 cb 46 be 77 4e da bd
       -0.16500878 -0.099657215 -0.19413386 -0.10659497
000240 6e f8 b3 3e 3b c1 f8 bb 52 e2 94 be e5 c1 5e bd
       0.35150474 -0.0075913942 -0.2907892 -0.05438413
000250 cf 64 6e 3e 8c 01 8e bd 04 92 20 be 6d 10 a6 be
       0.23280643 -0.06933889 -0.156807 -0.32434407
000260 c7 62 8c 3e 6c e3 d9 bd b3 49 ac bd f7 3b 30 3e
       0.2741911 -0.106390804 -0.084124945 0.17210375
000270 8d 70 25 3d 05 ab 19 bc d9 93 53 3e a5 c0 eb 3e
       0.04039054 -0.009379153 0.20661868 0.46045414
000280 ae 2a 93 3e 77 a8 bf be 97 54 3e be 66 be 1b 3e
       0.287435 -0.37433216 -0.18586956 0.1520935
000290 64 d0 16 3e 81 ba 57 be 6a ff 08 3e 93 69 a5 bd
       0.14727932 -0.2106724 0.13378683 -0.08076777
0002a0 ea 35 0d 3e 0e 49 53 be f1 d1 aa be 62 5e 88 bb
       0.13790098 -0.20633337 -0.33363298 -0.004161642
0002b0 10 40 19 3e 2e 44 21 3e 94 f4 ba 3d fc aa 9d 3d
       0.14965844 0.15748665 0.09128681 0.07698628
0002c0 6c 19 43 3e df 26 82 3e 90 3e a9 3e 56 de 62 3c
       0.19052666 0.2542028 0.33055544 0.013846954
0002d0 d9 46 91 3e 3e 70 35 3e cc 5c 4b bd 1d 48 b4 3e
       0.28374365 0.17718598 -0.049649045 0.35211268
0002e0 eb b5 d5 be 3f 49 e0 bd 85 e1 0f 3e e2 2d 27 3e
       -0.41740355 -0.109514706 0.14050873 0.16326097
0002f0 81 48 bf 3d 1f d7 26 bd 2e e7 ef 3d f5 1d be 3e
       0.09340001 -0.0407325 0.11714016 0.3713223
000300 df 36 d4 3e f3 4f 64 bb 1c 43 b1 3c 03 bc 3b 3d
       0.41448113 -0.0034837693 0.021638446 0.0458336
000310 9f e0 45 be cb a4 31 bd 8c b9 e1 be 51 23 3c 3d
       -0.19323967 -0.04337005 -0.44086874 0.045932118
000320 12 9d b2 3d 72 33 99 3d c1 90 3f be 8e 2e 55 be
       0.08721365 0.074805155 -0.18707563 -0.2081854
000330 39 40 98 3e d4 b0 0e 3d ad fd 94 be 1a 30 08 bf
       0.29736498 0.034836605 -0.2909979 -0.531984
000340 50 ac a3 bd 48 ea 24 be 18 2d 7a 3e 7d 08 2a be
       -0.079918504 -0.16104996 0.24431264 -0.166048
000350 bb ed 9f be a2 5f b7 3e b7 ad 91 bd d2 88 0c 3f
       -0.3123606 0.3581515 -0.071132116 0.5489627
000360 05 5f 80 3e ea e2 f9 3c 42 c3 ba bd 62 24 01 be
       0.25072494 0.030503709 -0.09119274 -0.12611535
000370 a9 6b f1 3d c1 3e 62 bd 53 5b ba 3d c7 57 54 be
       0.11788113 -0.055235628 0.0909945 -0.2073661
000380 99 80 7c be 6a 10 eb 3c fa bf 3d be 89 e0 43 be
       -0.24658431 0.02869435 -0.18530264 -0.19128622
000390 e4 b4 d8 bd 66 2c b1 3e 69 66 80 3c 95 fa dd be
       -0.10581377 0.34604186 0.015673833 -0.4335524
0003a0 c7 44 b1 3e 44 bc 90 be ad 8e 41 3e a2 b9 9c 3a
       0.34622785 -0.28268635 0.18902083 0.0011957178
0003b0 31 0e c9 bd 1e 25 8a be 1d 1f d0 bd 38 10 ee 3d
       -0.0981716 -0.26981443 -0.101621844 0.11624187
0003c0 01 b0 2d be 9b 56 8d be 12 81 78 3e 2d 58 e8 3e
       -0.16961671 -0.27605137 0.24267986 0.45379773
0003d0 ca 76 e3 3e d1 8e a7 3d c9 b6 51 3e 67 28 1c be
       0.44426566 0.08181537 0.20479883 -0.15249787
0003e0 18 34 6c bd dc 77 bb be 4c 34 39 3e d2 fc 14 be
       -0.057666868 -0.36614883 0.18086356 -0.14549568
0003f0 e9 8c 9a 3e b0 04 34 bc ba 30 5b 3e ef ea f8 3d
       0.3018563 -0.010987446 0.21405306 0.12154185

layer2.2.weight f4 [256, 256]
000000 4e 5c 95 3d 25 0b e3 3d 3f 7e e5 bd 1b 18 f0 bd
       0.07292996 0.1108611 -0.1120572 -0.11723348
000010 22 76 31 bb af 39 02 3e 10 17 7d 3a 32 71 35 be
       -0.002707847 0.12717317 0.00096546207 -0.17718962
000020 ec 4f 63 bd 03 82 d6 bb b8 5f d9 bd 07 84 8f bc
       -0.05549614 -0.0065462603 -0.1061396 -0.01751901
000030 c2 78 0c 3e 50 8e ca bc a6 67 d4 3c 66 e4 9a bd
       0.1371794 -0.024726063 0.02592833 -0.07563095
000040 2a 4b 90 3e 2d ae 83 3e 23 8a d0 3d 92 9f b2 3d
       0.28182346 0.25718823 0.101825975 0.08721842
000050 c9 1c 65 3e 5a 6c f3 3c 05 b1 9f 3d 08 ce 08 3e
       0.22374262 0.029714752 0.07797436 0.13359845
000060 f3 51 83 3d b0 b0 9c bd ac a6 f5 3d c0 95 b1 3d
       0.06412115 -0.07650888 0.11994681 0.08671141
000070 06 06 91 bd a2 4a 68 3e 9c d0 a0 3d e1 e5 c1 bd
       -0.07081227 0.2268472 0.07852289 -0.09467674
000080 a0 a8 d5 bd 4b c5 bf bd 4e 39 b7 bd 55 75 67 3d
       -0.10432553 -0.093638025 -0.08946477 0.05650838
000090 a2 96 ad 3d b6 a6 0f 3c 15 d1 19 3e ac 36 a8 bd
       0.084759966 0.008767774 0.15021165 -0.08213553
0000a0 d2 61 fb bd ff 7b d6 3d 99 eb 3e bd b4 62 02 be
       -0.12274517 0.10472869 -0.046611402 -0.12732965
0000b0 ba 99 95 bd 94 c1 a8 bc 73 c1 89 3d e2 fc a9 3c
       -0.07304712 -0.020600118 0.06726351 0.020750467
0000c0 5e 64 bb bb ee 07 32 bd 9f a9 09 bd 86 ca 86 3e
       -0.005718752 -0.043464594 -0.03360903 0.26326388
0000d0 5e 57 7d be 7d 10 3b 3e 34 0b 54 bd 8a 84 65 3d
       -0.24740359 0.18268009 -0.051768497 0.056034602
0000e0 22 10 66 3d cb a0 e3 bd 24 89 45 3e 23 1f bf 3c
       0.05616773 -0.11114653 0.19290596 0.023330277
0000f0 17 8c 6a 39 07 79 e5 3c df 55 e8 bc 18 66 05 3e
       0.00022368167 0.028011812 -0.028361259 0.13027227
000100 b2 e1 e1 3d 72 d4 9c bd 12 33 03 bd db 93 aa bd
       0.11029376 -0.07657708 -0.032031126 -0.083289824
000110 c2 ee 60 3d 9f 2b 93 be 83 3f f8 3c bc 0d 49 bd
       0.054915197 -0.28744218 0.030303722 -0.049085364
000120 b3 83 89 3d 39 6c 93 bd 26 3e 91 bd ff fa f0 3d
       0.06714573 -0.07198376 -0.07091932 0.11766624
000130 10 ef 16 3c 72 f5 e5 bd ac a0 f1 3a ec f0 00 be
       0.00921227 -0.112284556 0.0018434725 -0.12591904
000140 a2 22 fd bd 2f 47 62 bd 3d 4d 82 3d 6d e0 01 3e
       -0.12360121 -0.055243667 0.06362388 0.12683268
000150 8e 31 6b bd 4a 0a 91 bc 54 d2 13 bd 29 e3 b9 bd
       -0.057420306 -0.017705102 -0.036089256 -0.090765305
000160 ac b7 d9 bd dc a0 a8 bd 8f ba 2a 3c c6 df c2 bd
       -0.10630736 -0.082338065 0.010420456 -0.09515338
000170 7e 83 a5 3e df cd 63 3c ba 24 af 3c 3b c2 06 3d
       0.32326883 0.013904064 0.021379817 0.032900076
000180 31 3a e4 3d 99 55 0d 3d 98 b0 ff 3d ba f1 0f be
       0.11143912 0.03450546 0.124848545 -0.14057055
000190 ff 63 41 be c1 e9 f9 bc 05 af 2c be 1e 89 db bd
       -0.18885802 -0.03050697 -0.1686364 -0.107195124
0001a0 e2 0e ca 3d e9 57 f2 bd 8a 50 29 be d9 98 b3 bd
       0.0986612 -0.11833174 -0.1653463 -0.08769388
0001b0 db ae 9d 3d 55 7b b4 bd 0a 86 8e 3d e1 05 2a 3d
       0.07699367 -0.08812586 0.0695916 0.041509513
0001c0 a3 46 6e bd 36 0f 39 3d 3b ed 1e 3d c3 7b 9c 3d
       -0.058172833 0.045180522 0.03880046 0.07640793
0001d0 ad 88 4b 3e ba 4c 26 be fe 38 a9 3e 8b d8 07 3e
       0.19876356 -0.16240206 0.33051294 0.13266198
0001e0 3b b1 30 3b 1c 72 4c 3c 21 d0 59 be ea fc 14 3e
       0.0026961106 0.012478378 -0.21270801 0.14549604
0001f0 61 fc 0c be b2 cc c1 3d cf 13 84 bc 75 2e b5 3d
       -0.1376815 0.09462871 -0.016122727 0.088467516
000200 c0 a6 99 3d 1c de 0a 3d c8 08 20 3e 4f 58 fb bc
       0.07502508 0.033903226 0.1562835 -0.030681757
000210 6d a6 26 bb 61 34 52 3d 2f 7c 9b 3d 49 94 ce 3d
       -0.0025428787 0.051319484 0.075920455 0.10086877
000220 9a 76 40 3e e1 86 02 be 60 c9 d4 3e 69 e4 a0 3d
       0.18795243 -0.12746765 0.41559887 0.07856066
000230 32 4b 0b 3d 7c d5 fd bc 6c 4c 8c bd c6 1c ba 3d
       0.03400726 -0.030985586 -0.06850514 0.09087519
000240 1a 70 5a 3d e1 9d e9 bb dc 6c 12 3c c7 0d 2a 3b
       0.053329565 -0.0071294163 0.008937087 0.0025948153
000250 4f 56 0d be 05 d1 f2 bd 9b d5 f5 3b db 44 cd 3c
       -0.13802455 -0.118562736 0.0075022704 0.025057247
000260 c4 16 8c 3e 2a 58 aa bd 60 78 00 be d3 7e ff 3c
       0.2736112 -0.08317597 -0.1254592 0.031188404
000270 14 c7 93 38 09 84 91 bd 57 90 33 be e0 16 af bb
       7.0465874e-05 -0.07105262 -0.1753553 -0.005343303
000280 da 81 06 be 92 f7 9b 3e 15 b4 e9 bc e5 a5 ec 3c
       -0.13135472 0.3046232 -0.028528253 0.028887698
000290 91 42 e7 3d 4a b4 34 be d5 ae 8d 3d f8 ae bd 3d
       0.112919934 -0.176469 0.06918112 0.09261888
0002a0 55 88 c8 3d 64 56 f8 3d 7e 31 0e 3d 72 33 11 bd
       0.09791628 0.12125853 0.03471517 -0.035449453
0002b0 94 bc 29 3e 03 7d fa bd 8d 2e 43 be a3 57 3f bd
       0.16575843 -0.12230875 -0.19060726 -0.046714436
0002c0 ce 9c 48 3d 76 5e 89 bd 25 85 ed bc 38 0e 7c 3a
       0.048977666 -0.0670747 -0.028994152 0.0009615156
0002d0 58 4d 42 3e 97 1b 98 bd 22 df 2a be 22 47 a5 3c
       0.18974817 -0.07427137 -0.16686681 0.02017552
0002e0 0a 8c ea 3d a0 56 1a bd 0c 24 9e 3c f7 2d aa 3d
       0.114524916 -0.03768027 0.019304298 0.08309548
0002f0 63 6a 93 be 5f 83 2f 3d e5 f6 0f bd c3 1c 88 3d
       -0.28792104 0.042849895 -0.035147566 0.06646111
000300 7c 56 4a be b3 c0 bf bd c9 c3 dd 3b 49 44 3a 3d
       -0.19759554 -0.09362926 0.006767724 0.045475278
000310 d2 4f d3 bb 34 d8 f3 3d cd 5d 7a be f1 6f fb 3d
       -0.0064487243 0.11906472 -0.24449845 0.122772105
000320 84 82 0c be d1 e7 b4 bc b4 5f 90 be 38 93 e3 3c
       -0.13721663 -0.022083195 -0.28198016 0.02778016
000330 ca 63 e4 bc b3 f8 0d 3d 1f 29 a8 3d ab 44 26 be
       -0.027879614 0.034661006 0.08210968 -0.16237132
000340 5d 92 92 3e 1d b9 69 3e b7 d6 21 3d c5 69 91 3b
       0.2862729 0.22824521 0.03951141 0.0044376575
000350 47 c1 9a 3d b5 84 51 3d d6 e3 cf bd 56 27 1d 3d
       0.07556396 0.05115195 -0.10150878 0.03836759
000360 05 98 a6 bc 8d aa a2 bd c0 b4 cb bc 36 e3 9a bd
       -0.02033616 -0.07942686 -0.024866462 -0.07562868
000370 84 af 82 be 32 5b 4c bd 76 b5 19 bd 92 51 79 3d
       -0.25524533 -0.049891658 -0.03752657 0.060868807
000380 4c 6f 08 be b3 6f 65 be 49 95 2a 3e d3 cb 71 be
       -0.13323706 -0.22405891 0.1665851 -0.23612909
000390 9b 84 10 3d 4e 31 4b 3e 7e 30 c3 bd 9e 2e 0b be
       0.035282712 0.19843027 -0.095307335 -0.13592002
0003a0 bf d8 bf 3e 8a b0 16 3e 1d dc 51 be ee 3c 40 be
       0.37470052 0.14715782 -0.20494123 -0.18773243
0003b0 16 d3 33 3b c1 54 9c 3d 69 c8 94 bc 1d 9d d8 3d
       0.002743905 0.07633353 -0.01816197 0.10576842
0003c0 6e 1b d8 3c c8 a8 9c bd 9b 73 61 3d f6 65 46 be
       0.026380267 -0.0764938 0.05504189 -0.19374833
0003d0 f2 be d5 bd 3b 3e 62 bd d4 8a 8e bd 41 63 a3 bd
       -0.104368106 -0.05523513 -0.06960073 -0.079779156
0003e0 f5 53 31 3e 51 14 5d bc b4 09 ee bd 74 c8 d1 bd
       0.17317183 -0.013493613 -0.116229445 -0.102433115
0003f0 d2 69 63 3e ed be c7 bd c2 5d 79 bd 5b 6e 47 be
       0.22208336 -0.09753213 -0.06088043 -0.19475691

layer2.2.bias f4 [256]
000000 47 cc 3c be 87 ab f0 bc 9e 43 91 bd 3b d7 15 3e
       -0.184373 -0.029378666 -0.07092975 0.14632885
000010 0f f3 d7 3d cf a8 1f 3e 37 cb 18 3d 71 94 f2 3c
       0.105444066 0.15591739 0.037303176 0.029611798
000020 b6 12 30 be 15 1b ec 3d 64 ab 70 3d 28 5f b6 3d
       -0.17194638 0.11528603 0.0587572 0.08904868
000030 e9 64 7e 3a 99 60 a3 3b a6 63 c2 3c d7 93 85 3d
       0.0009704368 0.0049858806 0.023729157 0.06522339
000040 9d fb 9c 3d 74 1f c0 3d ce a8 1d bd 3b b6 d9 3d
       0.07665179 0.09380999 -0.038491063 0.10630461
000050 eb 84 fc 3d be 30 0e 3d 64 c6 f4 bc 19 9d 72 bb
       0.123300396 0.034714453 -0.029879756 -0.0037019907
000060 27 5e 34 bd 4a 1d 49 3d c1 23 e5 3d 45 6e 7b 3d
       -0.044035103 0.049100198 0.1118846 0.061384458
000070 a2 30 37 bc e3 8a 10 3d 27 bb ef 3d ac 15 b4 bc
       -0.011181029 0.035288703 0.11705618 -0.02198299
000080 67 fd d9 3c 2a 1f 11 be 2e 16 68 bd 82 77 0f be
       0.02661009 -0.14172044 -0.056661777 -0.14010432
000090 da 6e 95 bd 37 eb 5c bd fe 5f e3 bc e0 80 5e bd
       -0.07296534 -0.053935256 -0.027755734 -0.054322124
0000a0 cb 17 02 3d d9 39 21 3e 07 0c 54 bd 40 11 85 bd
       0.031760972 0.15744723 -0.051769283 -0.06497431
0000b0 86 56 fa 3c 03 9f 6b 3c 04 20 3f be 88 ed b1 bd
       0.030558836 0.014381173 -0.18664557 -0.086878836
0000c0 9e 3c 34 bd 2b 02 8e bd e5 84 4e bd 4b d8 f6 3d
       -0.04400312 -0.06934007 -0.050419707 0.12052973
0000d0 df fd a7 b9 c9 cf 0c 3d 8d 51 5c bc f6 d9 16 be
       -0.0003204187 0.034377847 -0.013447178 -0.14731583
0000e0 cd 5c e0 bd 9a 2d 1f 3d 45 5c 97 bc 73 09 56 3d
       -0.109552 0.03886185 -0.018476615 0.052255105
0000f0 08 fe 10 be e8 a9 41 3c 31 00 32 bd 66 61 06 3e
       -0.14159405 0.011820294 -0.043457214 0.13123092
000100 7d 80 25 3e 22 41 a4 3d d2 2d c1 39 7a 21 04 be
       0.16162296 0.080202356 0.00036845967 -0.12903395
000110 9e f2 3e be b9 3d af bd 89 f8 be 3b e9 97 93 3d
       -0.18647239 -0.085566945 0.0058279675 0.07206709
000120 2c 5a a1 bd fa 59 3d 3a c7 78 be bd 35 0f 04 3e
       -0.07878527 0.00072231854 -0.0930038 0.12896426
000130 a3 96 5c bd 0c 6c 4e bd 92 23 f6 39 84 1e 10 bd
       -0.053854596 -0.05039601 0.00046947278 -0.035185352
000140 6c 48 af 3c 4f cb 84 bb bd 4e ce bc d8 d7 16 be
       0.021396838 -0.0040525566 -0.02518403 -0.14730775
000150 91 62 22 be 0e 02 93 bd 50 09 06 3d 94 0c 2b be
       -0.15857913 -0.07178126 0.032723725 -0.16704017
000160 a1 68 89 bc 31 a9 9b 3d c2 18 1a bd 57 50 10 3d
       -0.016773524 0.0760063 -0.037621267 0.035232868
000170 3e 41 04 3e 58 01 d6 bb 4a db b0 3d 12 93 7c 3c
       0.12915513 -0.006530922 0.08635576 0.015415924
000180 b3 d3 ac 3d ac af fb bc a0 19 c2 bd ed a3 45 be
       0.08438816 -0.030723415 -0.09477544 -0.19300814
000190 30 25 ec 3d e8 75 fe 3c e6 0e 88 bc ec 89 3f be
       0.115305305 0.031062081 -0.016608667 -0.18704957
0001a0 fb c3 0e 3e 06 30 1d 3e 7b 59 2c be c2 ec 0a 3e
       0.13941948 0.1535035 -0.16831009 0.13566878
0001b0 c9 7b ab bc 67 16 b7 3d ee 97 9d bd a1 0c 35 bc
       -0.020933049 0.0893982 -0.07694994 -0.011050374
0001c0 61 af 26 bd 40 39 40 be f2 1e 72 3b 15 3a 3e bd
       -0.040694598 -0.18771839 0.0036944714 -0.04644211
0001d0 ab eb 6a bb ff 4c a3 bd af 15 2a be 65 3f 3e bc
       -0.0035846035 -0.0797367 -0.16609834 -0.011611794
0001e0 4f d4 10 3d 31 30 85 bd 04 54 e7 3c c4 3b 17 3e
       0.035358723 -0.065033324 0.028238304 0.14768893
0001f0 35 2c a1 b9 c2 03 86 3d fb 25 06 be d0 d1 9c bc
       -0.0003074125 0.065436855 -0.13100426 -0.019143015
000200 61 c6 ff bc 9d 42 95 3d 9f 41 41 bd af 8c 2a bd
       -0.031222524 0.07288096 -0.04718172 -0.041638073
000210 7f 19 2c bd 8a 4d 95 3d 04 6f 80 3d bb 55 d3 3d
       -0.042016502 0.0729018 0.062711746 0.10319086
000220 22 43 33 3c e4 f2 dd 3d 61 68 4b 3d 78 b3 10 be
       0.010941299 0.10837343 0.04966009 -0.14130962
000230 72 61 fc bc 4b ff 07 3e f5 bd e7 bc a3 7b 41 3d
       -0.030808184 0.1328098 -0.02828882 0.04723705
000240 3e d4 2d 3e 9c 49 37 3d 93 64 06 3e e0 76 62 bd
       0.16975495 0.044747934 0.13124304 -0.05528915
000250 b5 29 6c 3d 4c 62 1a bd 58 17 08 3d 48 5c f6 bc
       0.057656962 -0.0376914 0.033225387 -0.0300733
000260 5f c6 6c 3d c8 d7 d6 bd 0e 58 8b bd 93 bf 95 3c
       0.05780637 -0.10490376 -0.068039045 0.018279826
000270 f0 33 23 be 67 28 a0 3c e4 c2 fd 3d be 60 83 3d
       -0.15937781 0.019550515 0.12390688 0.064149365
000280 09 05 d8 bc 17 95 33 3d 44 42 0f be 39 5e bf 3c
       -0.026369588 0.043843355 -0.13990122 0.023360359
000290 59 97 4e be 2d 21 98 bc f1 a3 08 bd c6 44 b3 3d
       -0.20174922 -0.018570507 -0.03335947 0.08753352
0002a0 6f ee 83 3c 69 ec be bd 80 15 75 3d 92 49 b7 3d
       0.016104905 -0.093224354 0.059834957 0.08949579
0002b0 4f 9d 0e bc 84 46 9c 3d 54 84 97 bd a5 2e 3a 3c
       -0.0087044975 0.07630637 -0.073982865 0.01136366
0002c0 72 90 4d 3d ae 81 26 bd 16 d4 95 3d c6 62 b3 3d
       0.050186582 -0.040651016 0.07315843 0.08759074
0002d0 54 45 38 bd 40 70 92 bd ef 75 47 bd 16 51 9a bd
       -0.04498799 -0.07150316 -0.048696455 -0.07534997
0002e0 49 a6 5e 3d a4 ab 13 3d 8a ca d0 bd 5a c2 53 3d
       0.0543578 0.03605236 -0.10194881 0.05169902
0002f0 e3 42 cf 3c 45 7d 45 3d f0 23 98 3d f6 d2 8f 3d
       0.025300449 0.04821517 0.074287295 0.070226595
000300 72 6f 2d 3d 70 c8 fa bd eb 96 3a 3d a6 63 82 bd
       0.04234261 -0.12245262 0.045554083 -0.06366663
000310 64 9b 10 3e 94 0d ca bc 5d a3 00 3d 88 23 db 3d
       0.14121777 -0.024664678 0.031405795 0.107001364
000320 07 67 81 bd e3 57 1f 3b 57 12 85 3d 0e 8a ba bd
       -0.06318479 0.002431386 0.06497639 -0.09108363
000330 a4 58 e6 3d 2d e7 c8 3c 8d a8 90 bd d7 86 1d 3d
       0.112473756 0.024524296 -0.070633985 0.03845867
000340 57 3e 3b bb d7 86 70 bd 7f 31 b2 3c da ac 58 bc
       -0.0028571093 -0.058722343 0.021752117 -0.013224805
000350 36 03 a6 bd f4 27 d4 3c ec 5b 1e 3e 76 7a 44 3d
       -0.08106081 0.025897957 0.15464753 0.04796835
000360 f8 b7 a7 3d 03 92 86 3d 03 b5 4a 3d 6d 01 d5 3d
       0.08189386 0.06570818 0.049489032 0.104006626
000370 97 4d a1 bd 37 28 1b 3d e4 fc db 3c 27 08 a7 3c
       -0.07876127 0.03788015 0.026853986 0.02038963
000380 95 42 7f bc 2a e9 e1 bb 34 a1 b0 3d 52 0a 55 3d
       -0.015579839 -0.0068942504 0.08624497 0.052011795
000390 aa a3 dd bc e8 b9 0e bd 78 6a 3f 3d 93 ea 8b 3b
       -0.02705558 -0.034845263 0.046732396 0.004269907
0003a0 ca 9f fb 3c 96 d8 82 bc e7 b6 51 3d 1d 7b 39 3d
       0.030715842 -0.015972417 0.05119982 0.045283426
0003b0 1b 31 9b 3d 0f 3b 36 3d 80 81 18 bd 73 a8 22 be
       0.075777255 0.044489916 -0.037232876 -0.15884571
0003c0 86 ef 68 bd e4 bc 34 3c b2 ca 14 bd d1 b8 c4 bc
       -0.056869052 0.011031363 -0.036326118 -0.024013909
0003d0 ce d2 67 3d 8b 6b 3e 3b 1c e9 27 bd d4 18 bc 3c
       0.056597523 0.00290558 -0.040993795 0.022961058
0003e0 fc f4 f2 3d 58 d6 60 3c 8e 8e 65 bd c0 d0 18 bd
       0.11863133 0.0137229785 -0.056044154 -0.037308455
0003f0 ae da 4f bd c9 6f 3f bd 9f 15 a1 3d 4a 6d c7 3c
       -0.05074566 -0.046737466 0.07865452 0.024344105

layer2.4.weight f4 [7, 256]
000000 58 43 18 3e bb c7 3b 3c 71 20 58 3c 4f 1d da 3c
       0.1486944 0.011461194 0.013191328 0.026625304
000010 3a cc 3d be c3 7a 0f be e8 ee 8a bd 89 a3 33 3d
       -0.18534938 -0.14011674 -0.06783849 0.04385713
000020 93 19 a4 3d 61 2d 9e 3d 09 7e a4 3d c9 86 cd 3b
       0.080126904 0.07723499 0.08031852 0.006272171
000030 08 6f 9f 3b 5d 88 eb 3c 0d 01 fc bc 8e 64 2c 3b
       0.004865531 0.028751547 -0.03076222 0.0026305052
000040 e1 e6 c3 bd 3d f1 8c bc ea 7c 4d bc ca 45 86 bd
       -0.09565521 -0.017204875 -0.012541989 -0.0655628
000050 85 d3 92 bd 54 f2 d8 bc 1a 2e a8 bb bb a6 89 bd
       -0.071692504 -0.026482739 -0.005132449 -0.067212544
000060 f9 90 f1 3d 19 92 e2 bd b1 e2 57 3c 68 6e 26 bd
       0.117952295 -0.11063022 0.013176606 -0.040632635
000070 df a8 ea bc f7 49 8b bd 4a c4 aa bc ae 8d 62 3d
       -0.028644977 -0.06801217 -0.020845551 0.055310898
000080 8b 0f c9 bd 2a b3 66 bd 48 9f db 3d fa 96 d2 3d
       -0.09817418 -0.056323208 0.1072374 0.10282703
000090 04 37 68 3c 93 01 8a 3d 68 43 02 3e 2f 2e d2 bc
       0.014173273 0.067385815 0.12721026 -0.025656788
0000a0 93 7e e4 3c d8 79 03 be 23 10 78 bd 55 8c 88 bd
       0.027892387 -0.12839448 -0.060562264 -0.06667391
0000b0 d0 70 fd 3d 03 ad bc 3d 44 36 c6 bc ff 43 65 bd
       0.12375033 0.09212687 -0.024195798 -0.05597305
0000c0 73 e1 bd 3b 4a 65 51 bd 2b 02 7d 3d e5 18 e0 3d
       0.005794698 -0.051121987 0.061769646 0.10942248
0000d0 f5 f7 34 3d d1 87 71 3d db 95 2c bd 45 f6 ce 3d
       0.044181783 0.058967415 -0.0421351 0.10105566
0000e0 44 8f 9f 3c 5b 06 90 3c 23 2a 73 bb 8d 98 84 bd
       0.019477494 0.017581156 -0.0037103973 -0.06474409
0000f0 3d 71 f6 3c e4 76 07 3d e3 96 dc bc 6d 08 ba bc
       0.030083293 0.033072367 -0.026927417 -0.022709096
000100 72 62 08 be 1f 0a 19 3d 90 ed 26 bd da a5 76 bd
       -0.13318804 0.037363168 -0.0407539 -0.060216762
000110 41 85 f2 3d 87 03 3a bd 14 12 1c 3b fc 88 21 be
       0.118418224 -0.04541352 0.0023814486 -0.15774912
000120 78 dd 21 3c e7 d2 8c bd a9 b7 f9 3d bc 95 1d be
       0.009879462 -0.06876164 0.121932335 -0.1538915
000130 d9 aa ec bd 5e 42 4c 3d e8 95 77 bc bc ea 36 bd
       -0.11556024 0.04986798 -0.015111424 -0.044657454
000140 6c 44 0e bc 90 78 f5 3c a1 ed da bc 06 64 e3 3d
       -0.008683305 0.029964715 -0.026724638 0.11103062
000150 e0 dc 88 3d 2f e4 0b 3e 0b e1 5f 3c f5 4d 7a bc
       0.066827536 0.13661264 0.013664494 -0.0152773755
000160 6c a4 d6 3c f5 4e 30 bc 0a 02 f6 bb e8 98 bc bc
       0.02620145 -0.010761012 -0.0075075673 -0.02302213
000170 24 1d fc 3c a7 b3 a6 3c a0 f3 00 be 16 9e df bb
       0.030775614 0.020349337 -0.12592936 -0.0068242652
000180 cd 12 07 be 96 a0 51 3d 88 40 cc bd 1e e1 8e bb
       -0.13190766 0.051178537 -0.09973246 -0.004360332
000190 6f 03 e1 3c 56 56 37 bc 05 df 80 3c d4 37 fb 3d
       0.027467458 -0.011190018 0.015731344 0.12266508
0001a0 67 a8 0f be ed 27 61 3c bf fb b2 3d 91 c2 91 3d
       -0.14029084 0.013742429 0.08739423 0.07117189
0001b0 d4 5f b1 bc 87 ae 85 bd df 45 fd bc 96 18 79 3d
       -0.02165214 -0.06527429 -0.030917106 0.060814463
0001c0 31 3c 4d bd 49 13 30 bc b4 9e 21 3d b7 8e bd 3d
       -0.05010623 -0.010746785 0.03945799 0.09255736
0001d0 7a 2f 9f bc 79 09 94 b9 ef e7 cb 3c 8d 7e 35 bd
       -0.019431818 -0.00028235817 0.024890868 -0.04431014
0001e0 58 ad 12 bc b2 10 0a 3e 4d 25 a1 bd aa 78 a2 3c
       -0.008952461 0.13482931 -0.07868443 0.019832928
0001f0 e3 43 72 bd b0 5c ce bd bd b4 66 3d 65 67 2e bd
       -0.059146773 -0.100762725 0.05632471 -0.042579073
000200 ec 2f 4d ba f8 98 04 be 4c da ed 3d 71 c6 62 3b
       -0.00078272703 -0.12948978 0.116139024 0.0034603144
000210 b4 f5 01 bd f6 5d 10 be ea de 31 3d 10 28 70 3c
       -0.03172846 -0.14098343 0.043425478 0.014657989
000220 71 ee 60 3c 73 19 b1 3c eb 63 07 3d 3b 1f 61 3c
       0.013728724 0.02161858 0.033054274 0.013740356
000230 da 23 8f bc f5 83 30 be d8 36 fb bc 76 03 60 3c
       -0.01747315 -0.17237838 -0.0306658 0.0136727
000240 cd 9d cb bd 8a 3d 84 bc 12 34 f7 3c c1 82 15 bd
       -0.099422075 -0.016142625 0.030176196 -0.03650165
000250 65 2e cb bc 23 ef 1a bd ae 6c bc 3c 5a cb 8a 3d
       -0.024802396 -0.037825715 0.023001041 0.067770675
000260 28 f3 d4 ba 6c 4e cb bc 21 5d 92 bc e6 b6 18 3c
       -0.0016246783 -0.024817668 -0.017866673 0.00932095
000270 27 a1 2b 3d 58 f8 05 bd 93 01 bc 3d 95 07 28 bc
       0.041901734 -0.032707542 0.09179988 -0.010255714
000280 8a df 86 3c e4 ca 26 be 23 66 35 3e e3 ef 9b bd
       0.016464014 -0.16288334 0.17714743 -0.07614114
000290 9b bc 90 bd 7f 83 d7 3d 8f 39 c7 3c a7 12 97 bd
       -0.07067224 0.10523128 0.024319438 -0.073766045
0002a0 a3 54 4a bc 27 51 1c 3e 61 42 1f bd 12 8d e2 3c
       -0.0123492805 0.15265332 -0.038881663 0.027655158
0002b0 6b 9d 30 be b9 9c e8 bd d1 c1 5d bd 0d 28 02 be
       -0.1724755 -0.113580175 -0.054139916 -0.1271059
0002c0 0a 70 a2 3c 80 5a 1f 3d 76 01 08 3c a0 4d 8f 3d
       0.019828815 0.038904667 0.00830113 0.06997228
0002d0 88 e5 23 bd 94 ec 8d 3d 09 e1 aa 3b b3 65 96 3d
       -0.04001382 0.06929889 0.0052148146 0.07343616
0002e0 c4 91 9b bc 68 b6 e3 3b 31 10 b4 bc 4f fb b8 3d
       -0.018990405 0.0069492348 -0.021980377 0.09032308
0002f0 83 14 12 bd 96 a2 90 3c 78 7b c3 bc d6 7a 3b 3d
       -0.035664093 0.017655652 -0.023862585 0.045771442
000300 09 1d 18 be fa dc 56 3c 61 4d 39 bd dc 75 19 bd
       -0.14854826 0.013114208 -0.04523981 -0.037465915
000310 32 f5 dd bb 4d f6 93 bd 00 bc a3 bb 9d 7e 72 bd
       -0.0067736143 -0.072247125 -0.0049967766 -0.05920278
000320 93 60 e7 bd 36 c6 08 3d e9 f2 71 bd ad dc 69 bd
       -0.11297717 0.033392154 -0.059069548 -0.05709522
000330 7d fc 1a be a7 96 1d 3d 98 68 0d bd 4b 1a 5a bc
       -0.15135379 0.03847375 -0.034523576 -0.013311933
000340 3c bf 94 3d 84 88 4c 3d b5 32 b6 3d e1 51 bf 3c
       0.072630376 0.04993488 0.0889639 0.023354473
000350 eb d5 64 bd a3 d1 cf bd e7 d3 1d bd 24 a8 a0 36
       -0.05586807 -0.10147407 -0.038532164 4.7879457e-06
000360 2d 4f e0 bd 26 3b d6 bc 41 28 e7 3c 88 e4 66 bd
       -0.109526016 -0.026151251 0.028217437 -0.056370288
000370 53 c5 25 3e 67 26 0e bd f3 c7 35 bd 19 b5 1d bc
       0.16188554 -0.034704592 -0.04438014 -0.009625697
000380 8e 28 d6 3d 2d 4b 63 3d 99 98 ee bd 4d 16 74 3c
       0.10456954 0.055491615 -0.116501994 0.014897895
000390 70 d4 3e 3d a3 9b d9 3c 69 45 05 3c e9 14 72 bc
       0.046589315 0.026563471 0.008134224 -0.014775493
0003a0 d4 2c 43 3d 2b 42 99 3d 13 f2 98 3b af 4d 24 bd
       0.047650173 0.07483324 0.0046675294 -0.040113147
0003b0 0c 69 cc bc 2d 88 a5 bd ee 0c 5a 3d 06 cb bd 3d
       -0.024952434 -0.08082614 0.053234987 0.09267239
0003c0 04 0b 60 bd b2 f2 bb bd 17 92 ac 3d 9d d9 09 bd
       -0.054698005 -0.0917715 0.08426302 -0.033654798
0003d0 c1 6a 6a bd ef f2 c1 bd b6 b2 f3 3d 7a e9 1a 3d
       -0.057230715 -0.09470164 0.11899321 0.037820317
0003e0 41 78 b4 3d 9e e4 f5 bc b3 cd 4f bd a7 c7 87 3d
       0.08811999 -0.03001624 -0.05073328 0.066298775
0003f0 fd 2f 28 3d 09 76 03 3c 69 ef 17 3d eb 02 8c bd
       0.04106139 0.008023747 0.037093554 -0.06836494

layer2.4.bias f4 [7]
000000 40 66 ab bd c9 06 ed bd 17 ab 1f bc c3 2f d3 bd
       -0.08369112 -0.1157356 -0.009745381 -0.10311844
000010 27 b8 8f bd 07 ff ea bc b9 93 39 3e
       -0.07017546 -0.02868606 0.18122758
