MyZipTobeUploaded/bpi_Neighbour_embedding/EventPredictor_parameters_BPI_laplacianOnWeighted_0.0001_run0_GATTTT.pt (torch, 286967 bytes, 9 tensors)

layer1.bias f4 [6]
0	0x00000000	0.0
1	0x00000000	0.0
2	0x00000000	0.0
3	0x00000000	0.0
4	0x00000000	0.0
5	0x00000000	0.0

layer1.W f4 [4, 2]
0	0xbe5f5d2b	-0.21812885
1	0x3ed55895	0.41669145
2	0x3e26389c	0.16232532
3	0xbe102d7b	-0.1407985
4	0x3f366508	0.7124791
5	0x3f193c63	0.5985777
6	0x3ef803c8	0.48440385
7	0x3dc46e59	0.0959136

layer1.a f4 [4, 1]
0	0xbfb3cc4b	-1.404672
1	0xbf994c13	-1.1976341
2	0xbfb3cc4b	-1.404672
3	0xbf994c13	-1.1976341

layer2.0.weight f4 [256, 12]
0	0x3de61d2a	0.11236031
1	0xbe36d901	-0.17856218
2	0x3e382094	0.17981178
3	0x3dca93d6	0.09891479
4	0xbd041afa	-0.03225229
5	0xbe798850	-0.24368405
6	0x3cadf53c	0.0212351
7	0x3e3428a4	0.17593628
8	0xbe00e96f	-0.12589048
9	0x3e8b2d5b	0.2718304
10	0xbe7a8547	-0.24464904
11	0x3e027458	0.12739694
12	0xbdb47bcd	-0.088126756
13	0xbdf301bf	-0.118655674
14	0x3da6ed9d	0.0815079
15	0xbea90d4d	-0.3301796
16	0xbc9353d9	-0.017984318
17	0x3db1585f	0.086594336
18	0x3e83e6ce	0.25762028
19	0xbeab461f	-0.33451936
20	0x3e9bc6c1	0.30425075
21	0x3e837c7c	0.25680912
22	0xbddf91fe	-0.10916518
23	0x3e0f091d	0.1396832
24	0x3e8f0f58	0.27941394
25	0x3e0db4fb	0.1383857
26	0xbd282dfd	-0.041059483
27	0xbe56c342	-0.20972922
28	0xbe4f708f	-0.20257781
29	0xbe2f89f6	-0.17142472
30	0x3e0b6885	0.1361409
31	0x3d308f10	0.043105185
32	0x3d0c08b6	0.034187995
33	0x3e33e43d	0.17567535
34	0x3e27f14c	0.16400641
35	0xbe300480	-0.17189217
36	0xbd14bf4e	-0.036315255
37	0xbe6c51da	-0.23078099
38	0xbea8ab00	-0.32942963
39	0xbd4820fe	-0.04885959
40	0x3e923796	0.28558034
41	0xbe2dce9e	-0.1697335
42	0x3e5da2ad	0.21644087
43	0xbd52f466	-0.051502608
44	0x3e42c916	0.1902202
45	0x3b821a34	0.003970409
46	0xbe8334f7	-0.25626346
47	0x3cfe5bb3	0.031049585
48	0xba5ce01a	-0.0008425728
49	0x3dc79520	0.0974524
50	0xbc695e96	-0.014243742
51	0xbecfdb85	-0.40597168
52	0xbd01d8bf	-0.031700846
53	0xbdf1fefe	-0.11816214
54	0xbdcb1fad	-0.09918151
55	0xbeacfab0	-0.3378501
56	0x3e037cfd	0.12840648
57	0x3e5099f0	0.20371222
58	0x3df1d756	0.1180865
59	0x3d39656d	0.045262743
60	0x3e34465b	0.17604963
61	0xbe44945e	-0.19197223
62	0x3d8ba005	0.06817631
63	0xbdb78598	-0.08961028
64	0x3e60517a	0.21906081
65	0xbe224085	-0.15844925
66	0x3e8671b2	0.26258618
67	0x3e52560b	0.20540635
68	0x3e9b9e1b	0.30394062
69	0x3e94c5ff	0.2905731
70	0x3ed05c5c	0.40695465
71	0xbdd15ea8	-0.10223132
72	0xbe089806	-0.13339242
73	0x3e040b12	0.12894848
74	0xbe07eb87	-0.1327344
75	0x3d0038fa	0.031304337
76	0xbe18af3c	-0.14910597
77	0x3eb2f786	0.3495447
78	0x3ea95875	0.330753
79	0x3cf5bc08	0.029996887
80	0xbc44ba01	-0.012007237
81	0xbde9f531	-0.1142372
82	0x3e8d5a13	0.27607784
83	0x387c58ea	6.016429e-05
84	0xbe281cae	-0.1641719
85	0xbe27b915	-0.16379197
86	0xbdd2ecb1	-0.102990516
87	0x3e622cce	0.22087404
88	0x3de0ab51	0.10970176
89	0xbe007442	-0.12544349
90	0x3d9dc7a5	0.07704095
91	0x3e570a0a	0.20999923
92	0xbe5093e4	-0.20368916
93	0xbd312f1b	-0.043257814
94	0x3d76d2f3	0.06025977
95	0x3e5552ae	0.20832321
96	0x3e5c169e	0.21493003
97	0xbc94be93	-0.01815728
98	0xbeaaa44d	-0.33328477
99	0x3e1b4b5a	0.15165463
100	0x3dc674f8	0.09690279
101	0xbe94a638	-0.29033065
102	0x3c854ee2	0.016272966
103	0xbe557220	-0.20844316
104	0x3d848758	0.06471127
105	0x3e688c24	0.2270971
106	0xbe34c7ba	-0.17654315
107	0xbe9bf685	-0.30461517
108	0xbca78577	-0.020449383
109	0x3d9380aa	0.07202275
110	0x3c5f5e68	0.013633348
111	0x3b08fa2d	0.002090107
112	0xbe78c1a1	-0.24292614
113	0x3e307d71	0.17235352
114	0xbd7f96fa	-0.06239984
115	0x3cc23684	0.023707636
116	0xbe294d17	-0.16533314
117	0xbe1c2d1f	-0.15251587
118	0x3e3ffc52	0.18748596
119	0x3be5da85	0.007014575
120	0xbd2b7f1d	-0.04186927
121	0x3da45130	0.08023298
122	0xbd6b9adc	-0.057520732
123	0x3cd604ce	0.026125338
124	0x3dbd8a33	0.09254875
125	0x3e98aded	0.29820195
126	0xbe5d15a3	-0.21590285
127	0xbe9723e1	-0.2951956
128	0xbe986071	-0.2976108
129	0x3c036519	0.008019709
130	0x3e22ad68	0.15886462
131	0xbe3cb459	-0.18428172
132	0xbcae2dc9	-0.021262066
133	0x3e07c4d3	0.13258676
134	0xbd74c0a7	-0.05975404
135	0xbd065c50	-0.03280288
136	0xbe3a3d9a	-0.18187562
137	0xbd008479	-0.031376336
138	0xbe64f951	-0.22360732
139	0xbdaee7f4	-0.08540335
140	0xbe5afdaa	-0.21385828
141	0xbe4a9b6c	-0.19785851
142	0xbe7c52ee	-0.2464101
143	0x3e015dc3	0.12633424
144	0x3d52d0b4	0.051468566
145	0x3d7bea4b	0.061502736
146	0xbe1cf5b2	-0.153281
147	0xbeadd6ee	-0.3395304
148	0x3da17ca7	0.07885104
149	0x3df548d8	0.119767845
150	0x3dcf8ae0	0.1013391
151	0x3ddad6dd	0.10685513
152	0x3d551945	0.052026052
153	0x3d9db41a	0.07700367
154	0xbe8fb062	-0.28064257
155	0x3dffc22f	0.124882095
156	0xbea9525b	-0.33070645
157	0xbe4f57af	-0.20248292
158	0xbdd3b1f6	-0.10336678
159	0xbe079503	-0.13240437
160	0x3e8eac27	0.27865717
161	0x3e659c3c	0.2242288
162	0x3e90b682	0.28264242
163	0x3dd16f59	0.10226316
164	0xbe2dd2c6	-0.16974935
165	0xbd8dc414	-0.069221646
166	0xbe7f7db7	-0.249503
167	0x3dd7d517	0.105386905
168	0x3e45ae7a	0.19304839
169	0x3e8ffec5	0.2812406
170	0xbe8a6727	-0.27031824
171	0xbdab91a2	-0.08377387
172	0x3d558f01	0.052138332
173	0xbe991643	-0.29899797
174	0x3e4020a5	0.18762453
175	0xbda1914f	-0.078890435
176	0xbcd6bc33	-0.026212787
177	0x3eb7f8a8	0.35931897
178	0x3e5f82e5	0.21827276
179	0xbe0198b1	-0.12655903
180	0xbd424c9a	-0.047436334
181	0x3e07e756	0.13271841
182	0x3e672671	0.22573258
183	0xbd20b3dc	-0.039234027
184	0xbead2cd4	-0.33823264
185	0x3eb5ba54	0.3549372
186	0x3e54b336	0.20771489
187	0x3e3ebf3d	0.18627639
188	0x3e7279e8	0.23679316
189	0xbec1df6f	-0.3786578
190	0xbd9bead6	-0.07613151
191	0x3cd44b8f	0.025914935
192	0xbea99d7e	-0.3312797
193	0xbe3d574f	-0.18490337
194	0xbc5cd98d	-0.0134796025
195	0xbdbed06c	-0.09317097
196	0x3c7b4846	0.015337056
197	0x3e919664	0.2843505
198	0xbe37f51a	-0.17964593
199	0xbde159e0	-0.110034704
200	0x3e32f812	0.17477444
201	0x3e025444	0.12727457
202	0x3e5102b3	0.20411186
203	0x3e637319	0.22211875
204	0xbdc8bc80	-0.098015785
205	0x3e25df34	0.16198426
206	0x3cd75d69	0.026289659
207	0x3e3f2d2c	0.18669575
208	0xbe8c8c95	-0.27451006
209	0xbe4cb4c8	-0.19990838
210	0xbc97956b	-0.018503865
211	0x3d8e199d	0.06938479
212	0x3e7a0db2	0.24419287
213	0xbde2e323	-0.11078479
214	0x3dbb3178	0.09140295
215	0x3e007dde	0.12548015
216	0x3d2ed9df	0.042688247
217	0xbdbbd0da	-0.09170695
218	0xbe735196	-0.23761591
219	0xbc025d1a	-0.007956767
220	0x3e73c4e7	0.23805581
221	0x3e3d690d	0.18497105
222	0xbe044044	-0.1291514
223	0x3cf9b7e4	0.030483194
224	0xbeb40195	-0.35157457
225	0xbe342e53	-0.17595796
226	0x3c38013c	0.011230763
227	0xbd7b85aa	-0.06140677
228	0x3d1ccef7	0.038283315
229	0xbd9e2f2e	-0.077238426
230	0x3e6e5701	0.23275377
231	0xbe62d10d	-0.22150059
232	0xbe56ead6	-0.2098802
233	0x3e18c21a	0.14917794
234	0xbc08773b	-0.008329208
235	0xbe74255b	-0.23842375
236	0x3c5da4a7	0.013528026
237	0xbc17dbb1	-0.009268687
238	0xbe24066e	-0.16018078
239	0xbe4b56f2	-0.19857386
240	0xbe5ff7d1	-0.21871878
241	0xbe85ed06	-0.26157397
242	0xbde0ad86	-0.10970597
243	0xbe552459	-0.20814647
244	0x3e0c3157	0.13690697
245	0x3e5eddb2	0.21764258
246	0x3e2b48af	0.16726945
247	0x3d94c0b5	0.072633184
248	0x3ea40b6b	0.3203996
249	0x3d59b6f9	0.053153012
250	0x3e11fa07	0.14255534
251	0xbdd990e7	-0.10623341
252	0x3e89a4b7	0.2688348
253	0x3e619934	0.22031099
254	0x3e97cb58	0.29647326
255	0xbdf0ecc6	-0.11763911

layer2.0.bias f4 [256]
0	0xbd41ddae	-0.04733055
1	0xbe9b91bd	-0.30384627
2	0xbe78873f	-0.24270342
3	0xbe0e3e17	-0.13890873
4	0xbf20bf78	-0.6279216
5	0xbe374f46	-0.17901334
6	0x3ea902e8	0.3301003
7	0xbd4c8586	-0.049932025
8	0xbf1eff32	-0.6210815
9	0xbe202fe2	-0.15643266
10	0x3e4936b2	0.19649771
11	0xbe28bba3	-0.16477828
12	0xbde8daf3	-0.11369886
13	0x3efa9a4d	0.48945847
14	0xbe66edb1	-0.2255161
15	0x3dcb2c8c	0.09920606
16	0x3d8aec40	0.06783342
17	0x3dea99c0	0.11455107
18	0xbf505813	-0.8138439
19	0xbf0debe0	-0.5543804
20	0xbe03f76f	-0.12887357
21	0x3f114cd4	0.56757855
22	0x3f230688	0.6368184
23	0xbe59f84a	-0.21286121
24	0xbe087567	-0.13326035
25	0xbdc36e60	-0.09542537
26	0xbed52bda	-0.4163502
27	0xbe85f77c	-0.26165378
28	0x3db412f4	0.087926775
29	0x3e82561a	0.25456315
30	0x3e4a4f82	0.19756892
31	0x3f251585	0.6448596
32	0x3f143f3f	0.57909006
33	0x3ecaa636	0.39579934
34	0xbe3b8e7f	-0.18316077
35	0x3d9a089c	0.07521173
36	0xbe298a8b	-0.16556756
37	0x3e5f4b66	0.21806106
38	0xbe0bbfb1	-0.13647343
39	0xbe922e76	-0.28551072
40	0x3e88bafb	0.26705155
41	0xbd2627cb	-0.040565293
42	0x3dc2b4d4	0.095071465
43	0x3f1ca362	0.611868
44	0xbf7af11f	-0.9802417
45	0xbdfac291	-0.12244142
46	0x3e243bfe	0.1603851
47	0x3da5f331	0.08103026
48	0xbdc1a826	-0.094559
49	0xbe3630c3	-0.17792039
50	0x3ec976eb	0.3934854
51	0xbf14ae8f	-0.58078855
52	0xbd79dfc2	-0.061004408
53	0xbeee2053	-0.46509036
54	0x3cd7914b	0.026314398
55	0xbeb857c1	-0.3600445
56	0xbf3d1d01	-0.7387238
57	0xbe8539d3	-0.2602068
58	0x3d2a8a19	0.041635606
59	0xbefa7f27	-0.48925135
60	0xbe2997cb	-0.1656181
61	0x3bbe4c28	0.0058074184
62	0xbf00172c	-0.5003536
63	0x3dd694b1	0.104775794
64	0xbe700d3a	-0.23442546
65	0x3eb4f6d8	0.35344577
66	0xbeb719ac	-0.35761774
67	0xbd61e6bb	-0.055151682
68	0x3ee77cf1	0.4521251
69	0x3e6474b9	0.22310151
70	0xbf54580a	-0.82946837
71	0xbf4269fd	-0.75942975
72	0x3f3a255c	0.72713256
73	0xbf1798ca	-0.5921751
74	0x3ea4e3c4	0.3220502
75	0x3ed6bf0f	0.4194264
76	0x3f11fad1	0.5702334
77	0xbc24b123	-0.010051998
78	0xbad6c76e	-0.0016386339
79	0x3e37597e	0.17905232
80	0xbe7a8747	-0.24465667
81	0xbd356e57	-0.04429468
82	0x3f46fe8a	0.77732146
83	0x3e858aa0	0.26082325
84	0x3def3234	0.11679497
85	0xbda83d31	-0.08214796
86	0xbeaeac96	-0.34116048
87	0x3e01b72e	0.12667534
88	0xbda28cf9	-0.07937045
89	0x3f48307c	0.7819898
90	0xbe7e4eee	-0.24834797
91	0xbe84b237	-0.25917217
92	0x3e60c9e8	0.21952021
93	0x3eb928af	0.36163852
94	0x3e574b5c	0.21024841
95	0xbf14342b	-0.578921
96	0xbf076723	-0.5289175
97	0xbd156a9c	-0.036478624
98	0xbebac7bd	-0.36480513
99	0x3ed51ce1	0.41623595
100	0x3e2fab29	0.17155136
101	0xbe114d0b	-0.14189546
102	0xbe1221ee	-0.14270756
103	0xbe82d368	-0.25551915
104	0xbe881cc8	-0.26584458
105	0xbea3680a	-0.31915313
106	0xbeab2db0	-0.33433294
107	0x3e115075	0.14190848
108	0xbec43eb4	-0.3832909
109	0x3e78b2d6	0.2428697
110	0x3f0605fa	0.5235287
111	0x3e47087c	0.1943683
112	0xbf24a538	-0.64314604
113	0xbe6f8315	-0.23389848
114	0xbf47d7a9	-0.78063446
115	0xbda53f7f	-0.080687515
116	0x3e9bd768	0.3043778
117	0xbdf1a9d3	-0.117999695
118	0x3dceeb00	0.101034164
119	0xbf3bcf76	-0.73363435
120	0xbea484cc	-0.32132566
121	0x3d602d3a	0.05473063
122	0xbeacf167	-0.33777925
123	0x3e8e72e8	0.27822042
124	0xbe304316	-0.17213091
125	0x3f7a0702	0.97666943
126	0xbe01ce70	-0.12676406
127	0x3f4f9097	0.8108
128	0xbe998d05	-0.29990402
129	0x3e39307c	0.18084902
130	0xbe96ffa5	-0.29491916
131	0x3d41020f	0.047121104
132	0xbf1b29fa	-0.60610926
133	0xbd4f6830	-0.05063647
134	0xbcaedcf3	-0.021345591
135	0xbe4cc526	-0.19997081
136	0xbd32c057	-0.04364046
137	0xbe0fc75b	-0.14040892
138	0x3e22ef6e	0.15911648
139	0x3e22a713	0.15884046
140	0x3eab2700	0.33428192
141	0x3c1ef7ae	0.009702606
142	0xbf821b4d	-1.0164582
143	0xbf074556	-0.52840173
144	0x3f01bad0	0.5067568
145	0xbfa05924	-1.2527204
146	0xbea66ffe	-0.32507318
147	0xbc93b92d	-0.018032635
148	0x3d8aee73	0.06783762
149	0x3cf70d42	0.030157689
150	0x3f2dd7f2	0.6790763
151	0xbf63249b	-0.8872773
152	0xbe698241	-0.22803594
153	0xbea40838	-0.3203752
154	0xbf46dacb	-0.776776
155	0xbe97041d	-0.29495326
156	0x3de8a3b1	0.11359347
157	0xbcb1e9d7	-0.021717949
158	0xbe780b62	-0.24223092
159	0x3f68464c	0.90732265
160	0xbd61cc97	-0.055126753
161	0x3ef9b560	0.4877119
162	0xbeb34e28	-0.35020566
163	0xbf316110	-0.6928873
164	0xbf84e8b3	-1.0383514
165	0xbe8ce4f6	-0.27518433
166	0x3cf8a957	0.030354185
167	0xbc0c7570	-0.008572921
168	0xbd4d9faa	-0.050201096
169	0x3f0ca03c	0.54932
170	0x3c9eae7e	0.019370314
171	0xbc72da2f	-0.014822527
172	0x3d9abb00	0.07555199
173	0x3e84f4c5	0.25967994
174	0x3ed3c3b0	0.41360235
175	0xbe919360	-0.2843275
176	0xbf08f4cb	-0.53498524
177	0x3d355dc7	0.044278886
178	0xbe345262	-0.17609552
179	0x3f099187	0.5373768
180	0xbf2e5964	-0.6810515
181	0xbf292d22	-0.6608449
182	0xbbf81e77	-0.007571991
183	0x3e55517f	0.2083187
184	0x3e3d3fea	0.18481413
185	0x3edb128a	0.42787582
186	0x3d780b90	0.0605579
187	0x3f00c260	0.5029659
188	0xbdc55304	-0.096349746
189	0xbf2a34fb	-0.6648709
190	0x3d1fe234	0.039034083
191	0xbec66f85	-0.38756958
192	0x3ecf8548	0.40531373
193	0x3ea57a17	0.3231971
194	0x3dbeb436	0.09311716
195	0x3dc269bd	0.09492824
196	0xbd4ca27c	-0.049959645
197	0x3ebfcb7f	0.37459943
198	0x3f358039	0.7089878
199	0x3f1d12ab	0.6135661
200	0xbf435737	-0.76304954
201	0x3f5151c6	0.817654
202	0x3d838c8e	0.06423293
203	0xbebee0e3	-0.3728095
204	0x3dbde244	0.09271672
205	0xbea2e569	-0.3181565
206	0xbf10f967	-0.5663056
207	0xbee2f868	-0.44330144
208	0x3ed0b6be	0.4076442
209	0xbe565677	-0.20931421
210	0xbea83b29	-0.32857636
211	0x3efdf1aa	0.49598438
212	0x3d2d068d	0.042242575
213	0x3e26f738	0.16305244
214	0x3e8741bb	0.26417336
215	0x3ecce638	0.40019393
216	0xbeee88c2	-0.46588713
217	0xbeb20766	-0.3477127
218	0xbeed9a5e	-0.46406835
219	0xbe83a092	-0.25708443
220	0x3dde6033	0.10858192
221	0xbdaf34dd	-0.08555005
222	0x3d3ebabb	0.0465648
223	0xbf09ee52	-0.5387927
224	0x3d9d2516	0.07673089
225	0xbd4cb9cd	-0.04998188
226	0xbe3e0fc1	-0.18560697
227	0xbe2975e6	-0.16548881
228	0x3cd164fc	0.025560848
229	0xbec324ba	-0.38113958
230	0x3f66bed2	0.9013492
231	0xbf733faa	-0.9501902
232	0xbe5beca1	-0.21476986
233	0x3e85b443	0.2611409
234	0xbdcbb077	-0.099457674
235	0xbf16cddf	-0.58907884
236	0xbf1bd0ed	-0.6086567
237	0x3e07a898	0.13247907
238	0xbf44c730	-0.76866436
239	0xbe2c57a9	-0.16830315
240	0xbdcc60ce	-0.099794015
241	0x3cc6b800	0.02425766
242	0x3e9a652d	0.30155316
243	0x3ed7a69f	0.4211931
244	0xbd49e20a	-0.049287833
245	0x3d5be6a6	0.05368676
246	0x3f326e53	0.6969959
247	0xbecec7a8	-0.403867
248	0xbe194c99	-0.14970626
249	0xbf3ad989	-0.7298818
250	0xbf48fab6	-0.78507555
251	0xbdba7061	-0.09103466
252	0x3f1cf285	0.61307555
253	0xbe587772	-0.21139315
254	0xbdda7105	-0.10666088
255	0x3dcf33b6	0.10117285

layer2.2.weight f4 [256, 256]
0	0x3da70017	0.08154314
1	0x3eb84a7a	0.3599432
2	0x3d24e540	0.040257692
3	0x3e8de4ea	0.2771371
4	0x3d612806	0.05496981
5	0xbcc31a41	-0.02381623
6	0xbe81118f	-0.2520871
7	0xbdc24aa6	-0.09486894
8	0x3e4d74a6	0.20064029
9	0xbe2bc8c3	-0.16775803
10	0xbe2eff62	-0.17089608
11	0x3ece2307	0.402611
12	0x3e80847d	0.2510108
13	0xbe956c01	-0.29183963
14	0xbd5c7dd5	-0.05383094
15	0xbce406f5	-0.027835349
16	0xbd850356	-0.06494777
17	0x3e937d29	0.28806427
18	0xbeeb87db	-0.46002087
19	0x3e97ce0b	0.29649386
20	0x3ddf198e	0.10893546
21	0xbcc9ea62	-0.024647895
22	0xbe25162e	-0.16121742
23	0x3f00e97d	0.50356275
24	0xbe87f1df	-0.2655172
25	0x3e768a17	0.24076115
26	0x3da0b48a	0.07846935
27	0x3dbca2a8	0.09210712
28	0xbe14c8cf	-0.14529727
29	0xbc7c5c83	-0.015402916
30	0xbecff880	-0.40619278
31	0x3d8313e7	0.064002804
32	0x3f00bb44	0.50285745
33	0xbe8bf336	-0.27333993
34	0xbd294bac	-0.041331932
35	0xbe3e1a00	-0.18564606
36	0x3d776d92	0.06040723
37	0xbeb76cba	-0.3582514
38	0xbe51d4d0	-0.20491338
39	0xbeace933	-0.33771667
40	0x3d54122b	0.05177514
41	0x3d585a9f	0.052820798
42	0xbdb34638	-0.087536275
43	0xbec6b014	-0.38806212
44	0xbeafeac8	-0.3435881
45	0xbe0289c9	-0.12747873
46	0x3dfdfe76	0.1240205
47	0x3d015044	0.031570688
48	0x3d28b482	0.04118777
49	0xbebff0bf	-0.37488362
50	0xbeb9c6c4	-0.3628446
51	0xbbf93361	-0.007605002
52	0x3e056133	0.1302536
53	0xbe3c9646	-0.184167
54	0x3e41a2ed	0.18909808
55	0xbe0955d7	-0.13411652
56	0xbbaa1c65	-0.005191373
57	0x3e5168a9	0.20450081
58	0xbea4e417	-0.3220527
59	0x3e21fa94	0.15818244
60	0x3bbc3792	0.005743929
61	0x3e71a23d	0.23597045
62	0xbe023f4a	-0.12719455
63	0xbf04c225	-0.5185874
64	0x3ea672e6	0.32509536
65	0xbe4a99a2	-0.19785169
66	0xbe1c9179	-0.15289868
67	0x3e37632b	0.17908923
68	0x3d2e0e21	0.042493943
69	0xbd89fe94	-0.0673801
70	0x3f0d59cb	0.5521514
71	0x3e9a88a2	0.30182368
72	0x3eea78c9	0.45795277
73	0x3dfa905c	0.122345656
74	0x3e845b67	0.25850984
75	0x3e88f1c0	0.2674694
76	0xbdf423a7	-0.11920863
77	0x3e44df58	0.19225824
78	0x3dd514c3	0.104043506
79	0xbd666d47	-0.05625656
80	0x3e22426e	0.15845653
81	0xbd876e55	-0.06612841
82	0xbe42dafe	-0.19028851
83	0x3e4be0aa	0.19909921
84	0x3ebbbb67	0.36666414
85	0x3d3572b8	0.044298857
86	0xbe9d35d2	-0.30705124
87	0x3c97dd36	0.018538099
88	0x3d768f94	0.06019552
89	0x3e8bff50	0.27343225
90	0x3e1a3d5a	0.15062466
91	0xbe054036	-0.13012776
92	0xbece57db	-0.40301403
93	0x3d91b91b	0.07115384
94	0xbe70a4dd	-0.2350039
95	0xbe035bcc	-0.12827986
96	0xbd120a5f	-0.035654422
97	0xbebb3acb	-0.36568293
98	0x3ce86a0a	0.028370876
99	0xbe8a56c1	-0.27019313
100	0xbd88fae5	-0.06688479
101	0xbdb48131	-0.08813704
102	0xbcd2811b	-0.025696328
103	0x3e76ea2e	0.2411277
104	0xbb934f7a	-0.0044955583
105	0x3e1b7772	0.15182284
106	0x3ea1b641	0.3158436
107	0xbdc06ffe	-0.09396361
108	0x3e513de1	0.20433761
109	0x3d10dfba	0.035369612
110	0xbdc37aa2	-0.09544875
111	0x3e50bb73	0.20384006
112	0x3e673811	0.22579981
113	0x3e68b278	0.2272433
114	0xbe5cb206	-0.21552286
115	0xbe57f2a9	-0.21088661
116	0x3da00ac8	0.07814556
117	0xbe151158	-0.14557397
118	0xbe13c536	-0.14430699
119	0xbe92beb4	-0.2866112
120	0xbd1d2c7a	-0.038372494
121	0xbbcbd28d	-0.006220168
122	0x3e7e3eaf	0.248286
123	0x3c1c3c97	0.00953593
124	0xbc71dc7e	-0.014762042
125	0x3ebf4433	0.3735672
126	0x3e268c6b	0.16264503
127	0x3e5b7704	0.2143212
128	0x3d131f7f	0.03591871
129	0x3d22eef5	0.03977867
130	0x3ead3251	0.3382745
131	0xbe2b5c08	-0.16734326
132	0xbe3fe1e8	-0.1873852
133	0x3d41d787	0.047324684
134	0x3e0c652d	0.1371047
135	0x3e2d5b6e	0.16929409
136	0xbdd6575c	-0.10465881
137	0xbe19ac58	-0.1500715
138	0xbcb01e7e	-0.021498915
139	0xbe960782	-0.29302603
140	0xbd24e1e3	-0.040254485
141	0xbec63645	-0.3871328
142	0x3ec570d5	0.38562647
143	0xbdbff6f7	-0.09373277
144	0xbea110dd	-0.31458178
145	0xbd92e4e6	-0.07172565
146	0x3e6eb7e5	0.23312338
147	0x3d9a25aa	0.07526715
148	0x3de975a1	0.11399389
149	0x3dbde51a	0.09272213
150	0xbe51b6f2	-0.20479944
151	0x3df197d4	0.11796537
152	0xbc48449f	-0.012223392
153	0x3dae761b	0.085186206
154	0x3e2152cf	0.15754245
155	0xbd1861c5	-0.037202615
156	0x3da94d64	0.08266714
157	0xbe534661	-0.20632316
158	0x3d542b48	0.05179909
159	0x3e85c8e4	0.2612983
160	0xbea507c3	-0.32232484
161	0xbe130525	-0.14357431
162	0x3c877399	0.016534613
163	0x3da226fa	0.079175904
164	0xbd964d2c	-0.07338938
165	0xbe281b49	-0.16416658
166	0x3e0e7258	0.13910806
167	0xbe21e9e0	-0.15811872
168	0xbe4a00b5	-0.19726832
169	0xbd837024	-0.064178735
170	0xbe1427ca	-0.14468303
171	0xbe1bbd8b	-0.15209024
172	0x3dc07df5	0.093990244
173	0xbe35fa46	-0.17771253
174	0x3c0be30a	0.008538017
175	0xbcb65a3b	-0.022259822
176	0x3dfd4933	0.12367477
177	0x3e988322	0.29787546
178	0xbd6a5ae0	-0.05721557
179	0x3ed6cfa4	0.41955292
180	0x3e2f6881	0.17129709
181	0x3e8ee136	0.27906197
182	0x3d9ef6d0	0.077619195
183	0x3de1fdb1	0.11034716
184	0xbdaf1ea7	-0.08550768
185	0x3d85124a	0.06497629
186	0xbdec520e	-0.11539088
187	0xbe05af48	-0.13055146
188	0x3e9a408c	0.3012737
189	0xbd9fab25	-0.07796315
190	0xbd823c82	-0.06359197
191	0xbeb63939	-0.35590532
192	0x3d5d0434	0.053959087
193	0x3e3c9a01	0.18418123
194	0xbda5dd9c	-0.08098909
195	0x3ea584ff	0.3232803
196	0xbce4904f	-0.027900843
197	0x3f01b0f8	0.5066066
198	0xbc34722f	-0.011013552
199	0xbdd77041	-0.105194576
200	0x3e86429a	0.26222688
201	0xbbe12edf	-0.0068720425
202	0x3e8dc819	0.27691725
203	0xbdbbe313	-0.0917417
204	0x3e7a2dac	0.24431485
205	0xbec31bf5	-0.38107267
206	0xbe3bc81d	-0.18338056
207	0x3e9231f3	0.28553733
208	0x3e1c0769	0.15237202
209	0x3d93a25d	0.07208703
210	0xbdcd48fa	-0.10023685
211	0x3d8e6afa	0.06953998
212	0x3de9188e	0.113816366
213	0x3d61c72e	0.055121593
214	0xbd821bd9	-0.06352968
215	0xbe825f99	-0.2546356
216	0x3e84514d	0.25843278
217	0xbe3640be	-0.17798135
218	0x3e1e18b5	0.15439112
219	0x3e2232aa	0.1583964
220	0xbc9d93a2	-0.019235436
221	0xbd237807	-0.03990939
222	0xbe06b96c	-0.1315667
223	0x3e75e7ee	0.24014255
224	0xbe6e825b	-0.23291914
225	0x3d30cfc7	0.043166902
226	0xbd1d5dcf	-0.03841954
227	0x3e30cb66	0.1726509
228	0xbe93bcfc	-0.2885512
229	0x3e78eaa9	0.24308266
230	0xbe2d328c	-0.16913813
231	0x3e5d0ba6	0.21586475
232	0xbc9bfb4f	-0.019040732
233	0x3ddb500f	0.10708629
234	0x3e9ec745	0.31011406
235	0x3defc72a	0.117079094
236	0x3e99b2a8	0.30019116
237	0xbe67679e	-0.2259812
238	0x3e71a346	0.2359744
239	0xbd999c24	-0.075004846
240	0x3e51a973	0.20474796
241	0x3e2aa27f	0.1666355
242	0xbf0c3982	-0.5477525
243	0xbcc588d8	-0.024113104
244	0xbed2bea6	-0.41161078
245	0x3dc01e7e	0.09380816
246	0xbe874e53	-0.26426944
247	0x3e01606f	0.12634443
248	0x3c045ccf	0.008078768
249	0x3d8965e5	0.06708888
250	0x3d0fb2dc	0.035082683
251	0x3d4ac12c	0.04950063
252	0xbdee64c7	-0.116403155
253	0x3ded2c70	0.115807414
254	0xbd75ccc7	-0.060009744
255	0xbdc2627b	-0.0949144

layer2.2.bias f4 [256]
0	0x3d0c59df	0.034265395
1	0xbde29354	-0.11063257
2	0xbfa6d854	-1.3034768
3	0x3ed3d339	0.41372088
4	0x3f8d3b22	1.1033671
5	0xbe50b035	-0.20379718
6	0x3dc1b80d	0.09458933
7	0x3f38926b	0.72098416
8	0x3ec98a7e	0.39363474
9	0x3e1e828a	0.15479484
10	0xbe50ff88	-0.20409977
11	0x3dee8e26	0.116482064
12	0x3d1ad4c9	0.037800584
13	0xbec20998	-0.37897944
14	0x3f03c02c	0.51465106
15	0xbef7e57b	-0.48417267
16	0xbe1b05e1	-0.15138961
17	0xbea761fa	-0.32691938
18	0x3f36bd85	0.71382934
19	0x3c6107c0	0.013734758
20	0xbec737b7	-0.38909695
21	0xbdf162d1	-0.11786426
22	0x3e88fb3b	0.26754174
23	0xbcadada0	-0.021200955
24	0xbf01f0df	-0.50758165
25	0x3f4ea8f4	0.8072655
26	0xbde01d7f	-0.10943126
27	0x3f19f251	0.6013537
28	0xbf8c4f16	-1.0961635
29	0xbeaeb773	-0.34124336
30	0xbeceab5d	-0.40365115
31	0x3f1ae9df	0.6051311
32	0xbea736f1	-0.32659104
33	0xbf276b99	-0.65398556
34	0x3ead22e5	0.33815685
35	0xbdde9596	-0.10868375
36	0x3f191152	0.59792054
37	0x3f26aa7b	0.6510388
38	0xbe4b867f	-0.19875525
39	0x3f7f5379	0.99736744
40	0x3d1519e0	0.03640163
41	0x3e99aaf7	0.30013248
42	0xbf2a593c	-0.6654241
43	0x3eb31ec2	0.34984404
44	0xbe56a0f5	-0.20959838
45	0xbf780d8b	-0.96895665
46	0xbef1dba9	-0.472379
47	0xbdc4a2a9	-0.096013375
48	0xbc5f99d2	-0.013647513
49	0xbf59f5bf	-0.85140604
50	0x3ea312de	0.31850332
51	0xbcc1bf68	-0.02365084
52	0x3e554e60	0.20830679
53	0x3f666462	0.8999692
54	0x3f275f23	0.6537954
55	0xbea438ac	-0.32074487
56	0x3f8c46f1	1.095915
57	0xbe11d917	-0.1424297
58	0xbee7556d	-0.45182362
59	0xbe19dbbd	-0.1502523
60	0xbf2cc8ff	-0.67494196
61	0xbd0e37c3	-0.034721147
62	0xbf1c30e9	-0.6101213
63	0x3e9a879f	0.30181596
64	0x3f1685e3	0.58798045
65	0xbebff9b6	-0.37495202
66	0xbde2acab	-0.1106809
67	0xbf6be211	-0.92141825
68	0xbf0dd8ce	-0.5540894
69	0x3f35fb7e	0.7108687
70	0xbeb0a4f2	-0.34500843
71	0x3dd002be	0.10156773
72	0x3e0c9a5b	0.13730757
73	0xbe67ea52	-0.2264798
74	0xbf015091	-0.5051356
75	0xbf9cd428	-1.2252245
76	0x3e941eb6	0.2892968
77	0x3eb4bbc4	0.35299504
78	0x3eea2f3a	0.45739156
79	0xbf4eabcb	-0.80730885
80	0xbfa3e023	-1.2802776
81	0x3e75c109	0.23999418
82	0xbe8d608d	-0.27612725
83	0xbe6a73fd	-0.22895809
84	0x3dfe4cc7	0.12416988
85	0x3ee308c2	0.4434262
86	0xbf1beffb	-0.60913056
87	0xbf32ec5e	-0.6989192
88	0xbe240bca	-0.16020122
89	0x3e1c71fb	0.15277855
90	0xbf835cd5	-1.0262705
91	0x3e2dbc5e	0.16966388
92	0x3d3b48f9	0.04572389
93	0x3efc6c57	0.49301407
94	0xbece2e8f	-0.40269896
95	0xbec3000a	-0.38085967
96	0x3f591496	0.84797037
97	0x3f8856a8	1.0651445
98	0x3f242cfc	0.6413114
99	0x3f124bf4	0.57147145
100	0xbdfb4baf	-0.12270295
101	0x3e1424ed	0.14467211
102	0x3e6507d1	0.22366263
103	0xbe279889	-0.16366781
104	0x3e0a7fd2	0.13525322
105	0xbe9873a7	-0.29775736
106	0x3f2f812c	0.68556476
107	0xbe22723b	-0.15863888
108	0xbf18abc6	-0.59637105
109	0xbeae1e13	-0.3400732
110	0xbfb43111	-1.4077474
111	0x3b8760ea	0.004131426
112	0xbed1b43c	-0.4095782
113	0x3e9353e4	0.2877494
114	0xbf019f17	-0.50633377
115	0xbe446aba	-0.19181338
116	0x3ec2f443	0.38076982
117	0x3f4eb1f3	0.8074028
118	0x3f9a1092	1.2036307
119	0x3f33c23a	0.7021824
120	0x3e7bb71f	0.24581574
121	0x3f5e1e49	0.8676496
122	0xbe4df648	-0.2011348
123	0x3cc731c0	0.024315715
124	0xbf4b026e	-0.7930058
125	0xbcf4c280	-0.029877901
126	0xbed839e3	-0.42231664
127	0xbc59ea3a	-0.013300473
128	0xbd2044d2	-0.039128132
129	0xbd2db20b	-0.042406123
130	0xbdf290d5	-0.11844031
131	0xbe397274	-0.18110067
132	0xbf0b5fc4	-0.54443
133	0xbebf09d5	-0.3731219
134	0x3f006c9c	0.50165725
135	0xbe01c61a	-0.12673226
136	0xbfa07620	-1.2536049
137	0x3ec99048	0.3936789
138	0xbe1f865d	-0.155786
139	0xbe56521b	-0.20929758
140	0xbeeb427d	-0.45949164
141	0x3d67b649	0.056570325
142	0xbee1aad0	-0.44075632
143	0x3eb3bc84	0.35104764
144	0x3f7d7736	0.99010026
145	0xbeda45e6	-0.42631453
146	0x3f6e8361	0.9316922
147	0x3e34b61b	0.17647593
148	0xbebb5064	-0.3658477
149	0xbd01d3c4	-0.031696096
150	0xbf484f22	-0.7824575
151	0x3ddc32cb	0.107518755
152	0xbf16e2d7	-0.5893988
153	0xbe1a6a9a	-0.15079728
154	0x3d8e71d4	0.06955305
155	0x3ef5f74b	0.48040232
156	0xbf14dc2a	-0.58148444
157	0xbf246d45	-0.6422923
158	0x3d85f975	0.06541721
159	0x3f64c84c	0.8936813
160	0x3e5ebe3d	0.21752258
161	0x3efa57dd	0.4889516
162	0x3f4fa4bf	0.8111076
163	0xbdf90623	-0.121593736
164	0xbd800475	-0.0625085
165	0x3f38f186	0.72243536
166	0xbebc4c32	-0.36776882
167	0x3de89049	0.11355645
168	0xbca42138	-0.020035371
169	0x3e8da4f0	0.276649
170	0xbebb3e55	-0.36570993
171	0xbf59088f	-0.84778684
172	0xbe439635	-0.19100268
173	0x3ef2d17a	0.47425443
174	0xbe8cc28b	-0.27492175
175	0x3dc72ef4	0.097257525
176	0xbe874009	-0.26416042
177	0x3db23c26	0.08702879
178	0x3f2e3f40	0.6806526
179	0x3dc18df6	0.09450905
180	0xbe285ddf	-0.16442059
181	0xbf0d07be	-0.5508994
182	0xbf2a7acc	-0.66593623
183	0xbf78fdb7	-0.9726214
184	0xbef9c373	-0.48781928
185	0x3e2e9be3	0.17051654
186	0xbe996b1e	-0.29964536
187	0xbf2a37b7	-0.66491264
188	0x3e32fddc	0.17479652
189	0xbf6470a6	-0.8923439
190	0xbd1fa075	-0.038971383
191	0xbe227698	-0.15865552
192	0x3eaddeff	0.33959195
193	0xbeaf2807	-0.34210226
194	0xbed0d44d	-0.40786973
195	0xbf835ae3	-1.0262111
196	0xbe6ec1a0	-0.2331605
197	0xbe812b4e	-0.2522835
198	0xbb990d45	-0.0046707713
199	0xbec06f0d	-0.37584725
200	0x3f2f2507	0.68415874
201	0xbe235e97	-0.15954052
202	0xbf4ec9e2	-0.807768
203	0x3f5a5e3f	0.8530006
204	0xbe27d482	-0.16389659
205	0xbf7a9be8	-0.97894144
206	0x3da1d999	0.079028316
207	0xbbdcd1d4	-0.0067388806
208	0xbdb08334	-0.08618775
209	0x3c898c5a	0.016790558
210	0x3f1e4862	0.618292
211	0x3f196d54	0.59932446
212	0x3e3bc195	0.18335564
213	0x3ec9e5e4	0.39433205
214	0x3e968bf0	0.2940364
215	0x3eee560e	0.4655003
216	0xbf0dd18e	-0.5539788
217	0x3ead0425	0.33792225
218	0x3cb1e9ea	0.021717984
219	0x3fb8ac78	1.4427633
220	0x3ee92e76	0.4554326
221	0xbf255ed3	-0.64597815
222	0x3ed6d648	0.4196036
223	0xbde9f9ac	-0.11424574
224	0xbf8af6fd	-1.0856625
225	0xbecf2bbd	-0.40463057
226	0x3e79483d	0.24343963
227	0xbda80adf	-0.082051985
228	0xbf307f99	-0.689447
229	0x3ee54d18	0.4478538
230	0x3e4213d2	0.18952873
231	0xbf1c03a3	-0.6094305
232	0xbf8a3162	-1.079632
233	0x3e69d1ab	0.22833888
234	0x3d7cc737	0.061713424
235	0xbe7350f3	-0.23761348
236	0xbd8670b2	-0.06564464
237	0xbed91d83	-0.42405328
238	0xbe9d7e8c	-0.3076061
239	0xbf030863	-0.5118467
240	0xbdbc61a7	-0.09198313
241	0x3f20a552	0.6275226
242	0xbed0b15e	-0.4076032
243	0xbeca47f1	-0.39508012
244	0xbec0841d	-0.37600794
245	0xbd7ac857	-0.061226215
246	0xbe70b972	-0.23508242
247	0xbf3d4237	-0.7392916
248	0xbe33a591	-0.17543627
249	0xbebfc561	-0.37455276
250	0x3e122abe	0.14274117
251	0xbec51c16	-0.3849799
252	0x3f7c8e18	0.9865432
253	0x3e9234ca	0.285559
254	0xbe364ab1	-0.1780193
255	0x3e87c643	0.2651845

layer2.4.weight f4 [7, 256]
0	0xbda1cfe1	-0.07900978
1	0xbcad3046	-0.021141183
2	0x3e527b36	0.20554814
3	0xbd7c9ee1	-0.061674956
4	0xbe5589cd	-0.20853348
5	0xbc7c82a0	-0.015412003
6	0xbda02442	-0.07819416
7	0xbd90339b	-0.07041093
8	0x3d371818	0.044700712
9	0xbd928f9c	-0.071562976
10	0xbc357f2b	-0.0110776825
11	0x3e4013e1	0.18757583
12	0x3d557ea1	0.052122716
13	0xbcd41c99	-0.025892543
14	0x3e99a8cf	0.30011603
15	0x3e32b7db	0.17452948
16	0x3c88020b	0.016602537
17	0x3e2c07d4	0.16799861
18	0xbce4b3f7	-0.027917845
19	0xbd3468d2	-0.044045277
20	0x3d94870b	0.0725232
21	0x3c5fdaac	0.013662975
22	0xbd3dffb8	-0.04638645
23	0xbd1f38f8	-0.03887269
24	0xbd0adebf	-0.033903833
25	0xbe0adc12	-0.13560513
26	0x3e05118b	0.12994973
27	0xbcdb4343	-0.026765471
28	0x3e610530	0.21974635
29	0x3bee136e	0.0072655
30	0x3c92ee32	0.017935846
31	0xbd8ed512	-0.06974234
32	0x3d94ea44	0.07271245
33	0x3c8ff249	0.017571585
34	0xbbda2fea	-0.006658544
35	0xbc089c92	-0.0083381105
36	0xbdf92a75	-0.12166301
37	0xbd985a80	-0.074391365
38	0x3df52f90	0.119719625
39	0xbdaeeea4	-0.08541611
40	0x3ca9e8d4	0.020740904
41	0xbdbb0223	-0.09131267
42	0x3e03bb3a	0.1286439
43	0x3e09020f	0.13379692
44	0x3dabc339	0.08386845
45	0x3e8f50bd	0.27991286
46	0x3d87c471	0.06629265
47	0xbd1bf33d	-0.038073767
48	0x3c953d1f	0.018217621
49	0x3dbd89b6	0.09254782
50	0xbd7d1c2b	-0.06179444
51	0xbd7dca4e	-0.06196051
52	0xbd00c77a	-0.031440236
53	0xbdbc651c	-0.091989726
54	0xbd003bf0	-0.03130716
55	0x3d8c47be	0.06849621
56	0xbe2d9627	-0.1695181
57	0xbbd228d8	-0.0064135604
58	0x3ec4c0dd	0.38428393
59	0x3d7d652d	0.061864067
60	0x3e699a44	0.22812754
61	0x3d4a47f4	0.049385026
62	0x3e6b1dec	0.22960633
63	0xbd4bf0e2	-0.04979027
64	0xbd3848ab	-0.044991177
65	0xbd20b3c4	-0.039233938
66	0x3d6268e1	0.0552758
67	0x3e934973	0.28766975
68	0x3e32c779	0.17458905
69	0x3be1e35e	0.0068935594
70	0x3d087a8b	0.03331999
71	0x3bb5013d	0.0055238293
72	0xbd3014c4	-0.042988554
73	0xbc124348	-0.008927174
74	0x3e418c51	0.18901183
75	0x3f0ffb7b	0.56243104
76	0x3c5c9dbb	0.01346534
77	0x3d01a9ab	0.03165595
78	0x3a0f7105	0.00054718583
79	0xbd24d3af	-0.04024094
80	0x3f081a98	0.5316558
81	0xbd97e870	-0.07417381
82	0x3daf272b	0.085523926
83	0xbd1d4b1b	-0.038401704
84	0xbc8ba46e	-0.01704618
85	0xbdcc0253	-0.09961381
86	0xbd50f9e8	-0.05101958
87	0x3e8ac25c	0.2710141
88	0x3c9e03b9	0.019288884
89	0xbd0ecc24	-0.034862652
90	0x3db8753f	0.09006738
91	0xbcb53785	-0.0221212
92	0x3d9fec08	0.07808691
93	0x3aeb1888	0.0017936388
94	0x3e5afc16	0.21385226
95	0x3e2ea71b	0.17055933
96	0xbe4d2eac	-0.20037335
97	0xbed3a45e	-0.4133634
98	0xbd9d264a	-0.07673319
99	0x3dde81f1	0.10864628
100	0x3be945be	0.0071189096
101	0xbe36059c	-0.17775577
102	0xbd82c03d	-0.06384323
103	0xbdadbfa2	-0.08483817
104	0x3d3a2a01	0.045450214
105	0x3d0beace	0.034159474
106	0xbecb0cc2	-0.3965817
107	0x3c8bafb3	0.017051553
108	0x3e5de167	0.21668015
109	0x3d2a7c5e	0.041622512
110	0x3edfb446	0.43692225
111	0x3e6934a9	0.22773995
112	0xbdb0e755	-0.08637873
113	0xbe22eb35	-0.15910037
114	0x3de85006	0.11343388
115	0x3d8f8e3e	0.070095524
116	0xbe072681	-0.13198282
117	0xbd45dfea	-0.048309244
118	0xbebec15d	-0.372569
119	0xbdfd00a8	-0.12353641
120	0xbe2522c4	-0.16126543
121	0xbe8b9818	-0.27264476
122	0x3d82cc1f	0.06386589
123	0xbe002fd0	-0.12518239
124	0x3e92e284	0.28688443
125	0xbe01a14a	-0.12659183
126	0xbd03a64b	-0.03214101
127	0xbe71ebc0	-0.23625088
128	0x3de923a5	0.11383752
129	0xbc0a821a	-0.00845387
130	0xbd247fc1	-0.040160898
131	0x3d7112e3	0.058855902
132	0xbdb416b8	-0.08793396
133	0x3b80c155	0.003929297
134	0xbd35e102	-0.044404037
135	0x3dd34774	0.10316363
136	0x3e6ea053	0.23303346
137	0xbc9f11cd	-0.019417668
138	0xbc891eb2	-0.01673827
139	0x3e095e78	0.13414943
140	0x3d9cfdbd	0.07665584
141	0x3db0acee	0.08626734
142	0xbd0b5526	-0.03401675
143	0xbcb6f93b	-0.02233564
144	0xbe102b6f	-0.14079069
145	0x3db19729	0.0867141
146	0xbe2dad3a	-0.16960612
147	0xbddf0c37	-0.10891002
148	0x3ae7b313	0.001767727
149	0xbced4c9b	-0.028967192
150	0x3d91c214	0.071170956
151	0xbe2f94e0	-0.17146635
152	0x3e09fb5e	0.13474795
153	0x3d805a91	0.06267274
154	0x3e46d8c8	0.19418633
155	0xbe98583e	-0.29754823
156	0x3d1c03fe	0.038089745
157	0xbd02a91c	-0.031899557
158	0xbbe1eddc	-0.00689481
159	0xbe8bde58	-0.27318072
160	0xbe59251a	-0.2120556
161	0xbdbe2964	-0.092852384
162	0xbe2f8ac5	-0.1714278
163	0x3e08c142	0.13354972
164	0x3dc16766	0.0944355
165	0xbde7cb78	-0.113181055
166	0x3c54f394	0.012997527
167	0xbced9a65	-0.029004285
168	0xbdcba540	-0.09943628
169	0x396e5753	0.0002272998
170	0x3d634d09	0.05549339
171	0xbd44b66b	-0.04802553
172	0xbd929aae	-0.07158409
173	0xbe1015e4	-0.1407085
174	0xbdcb12dc	-0.099157065
175	0x3d0c60f3	0.034272145
176	0x3d0e1056	0.034683548
177	0xbe7afcdc	-0.2451052
178	0xbdf5164f	-0.11967146
179	0xbe4f353b	-0.2023515
180	0x3e5db718	0.21651876
181	0x3e1cada4	0.15300614
182	0xbe460a79	-0.19339933
183	0x3e34b8f1	0.17648675
184	0x3e35c750	0.17751813
185	0x3c703f64	0.014663551
186	0xbccfe184	-0.025376089
187	0x3de89ca2	0.11358
188	0x3d1f2460	0.03885305
189	0x3ce14d8d	0.0275028
190	0x3d14792a	0.036248364
191	0xbdfd6d53	-0.123743676
192	0xbe12d899	-0.14340438
193	0x3c81c348	0.015840188
194	0xbd8cfcf9	-0.06884188
195	0x3e961a58	0.29316974
196	0x3da84eb3	0.08218136
197	0x3cebb4fa	0.02877282
198	0x3cd14637	0.025546176
199	0x3a9840fb	0.0011616045
200	0x3c0315c5	0.008000796
201	0xbd4dbce2	-0.05022896
202	0x3d11f1a8	0.035630852
203	0xbe8d5ee7	-0.27611467
204	0x3d5274d1	0.051380936
205	0x3e2472b3	0.1605938
206	0x3d561a09	0.052270923
207	0x3de05dd8	0.10955399
208	0xbd4dc895	-0.050240118
209	0xbdc0a4b9	-0.09406418
210	0xbdd5bb18	-0.10436076
211	0xbe570292	-0.20997074
212	0xbde031f4	-0.10947028
213	0xbd93ca21	-0.072162874
214	0x3e08ed19	0.13371696
215	0xbde45828	-0.11149627
216	0x3db90017	0.0903322
217	0x3da06742	0.07832195
218	0x3c4bb0da	0.012432301
219	0xbe536d04	-0.20647055
220	0xbca469ce	-0.020069983
221	0x3e099754	0.13436633
222	0x3cb061fc	0.021531098
223	0x3e90cfde	0.2828359
224	0x3daceb0c	0.08443269
225	0x3e3e3d18	0.18577993
226	0xbdf4b284	-0.11948112
227	0x3d2b68cb	0.041847985
228	0xbd41dfa8	-0.047332436
229	0xbde36ab8	-0.11104339
230	0xbe25e3c9	-0.16200174
231	0x3dc992f4	0.09842482
232	0x3e2d5daf	0.16930269
233	0xbdbec065	-0.0931404
234	0xbd906049	-0.07049615
235	0x3d0d596e	0.034509115
236	0x3e41afaf	0.18914674
237	0x3dd59aa7	0.10429888
238	0x3e164c78	0.14677608
239	0x3d313b01	0.04326916
240	0xbd531ff4	-0.051544145
241	0xbbac9ed1	-0.005267956
242	0xbc241ecb	-0.010017107
243	0xbcaafa01	-0.020871164
244	0x3dff38bc	0.12461993
245	0xbccf691e	-0.025318678
246	0x3ea04439	0.3130205
247	0x3e024c86	0.12724504
248	0x3dcec868	0.10096818
249	0x3c6fcf0b	0.014636765
250	0x3c0e023b	0.008667524
251	0x3e014201	0.12622835
252	0xbe843d3b	-0.25827965
253	0xbca6ff03	-0.020385271
254	0xbc204483	-0.0097819595
255	0x3cffc22a	0.031220514

layer2.4.bias f4 [7]
0	0xbf14fce0	-0.58198357
1	0xbf5fe151	-0.8745318
2	0xbeaecf4e	-0.34142536
3	0xbda6207e	-0.08111666
4	0xbd692477	-0.05691954
5	0x3dfed6da	0.124433234
6	0x3ef7cbb1	0.48397592
