MyZipTobeUploaded/bpi_Neighbour_embedding/TimestampPredictor_parameters_BPI_weighted_0.001_run0.pt (torch, 280823 bytes, 8 tensors)

layer1.bias f4 [6]
0	0x00000000	0.0
1	0x00000000	0.0
2	0x00000000	0.0
3	0x00000000	0.0
4	0x00000000	0.0
5	0x00000000	0.0

layer1.W f4 [4, 2]
0	0x3e3b604c	0.18298453
1	0x3e867c4e	0.26266712
2	0x3dfb8a24	0.122822076
3	0x3e22ee77	0.1591128
4	0xbf9bfe56	-1.2186992
5	0x3fe9bc10	1.8260517
6	0xc181bb84	-16.21656
7	0x41817322	16.181217

layer1.a f4 [4, 1]
0	0x3e0fb505	0.14033897
1	0xbef967eb	-0.48712096
2	0xbf23ca2e	-0.63980377
3	0xbf1190a4	-0.5686133

layer2.0.weight f4 [256, 12]
0	0xbf182a2a	-0.5943934
1	0x3e5579fb	0.20847313
2	0x3de453fe	0.11148833
3	0xbd0c81b4	-0.034303382
4	0xbf72d582	-0.9485704
5	0xc017b33b	-2.3703144
6	0xbf0c171c	-0.5472276
7	0xbf4d263a	-0.80136454
8	0x3dff27ba	0.12458749
9	0xbf52d1cb	-0.8235137
10	0x3f8db3ad	1.1070458
11	0xbfcfb78a	-1.6227887
12	0xbe48688d	-0.19571133
13	0xbf9a8540	-1.2071915
14	0xbf470847	-0.77747005
15	0xbf8d10df	-1.1020774
16	0x3ef7066b	0.48247084
17	0xbf1dc2aa	-0.6162516
18	0x3f4a2039	0.7895542
19	0xbe8b6f96	-0.2723357
20	0xbf334b48	-0.70036745
21	0x3f9a26c4	1.204308
22	0x40064ef3	2.0985687
23	0xbfa4f4c7	-1.28872
24	0x3de5a0f6	0.112123415
25	0x3e8b9099	0.27258757
26	0xbe2654d9	-0.16243304
27	0xbe756bdd	-0.23966928
28	0xbd4a2d31	-0.049359504
29	0xbe223b34	-0.15842897
30	0x3d6f12fa	0.058367707
31	0xc08ba948	-4.364414
32	0x3d36f328	0.044665486
33	0x3c28edb1	0.010310576
34	0x3d49665c	0.049169883
35	0xbf2cb817	-0.674684
36	0xbf94b219	-1.1616851
37	0xbe10fef5	-0.14159758
38	0xbf73b276	-0.95194185
39	0x3c7695b3	0.0150503395
40	0xbf8f79dd	-1.1209065
41	0xbf88606c	-1.0654426
42	0x3fc4f38f	1.5386828
43	0xbf72d4fa	-0.94856226
44	0x3e9add5c	0.3024701
45	0x3dbf67a0	0.09345937
46	0x3ef76112	0.48316246
47	0xbf4f55a8	-0.80990076
48	0x3ed5ac2b	0.41732916
49	0xbdbfe7ce	-0.09370385
50	0x3dcb8588	0.099375784
51	0xbee199e7	-0.4406273
52	0x3f85d82f	1.0456599
53	0xbd236652	-0.039892502
54	0xc0673662	-3.6126943
55	0xbff4b7c1	-1.9118577
56	0x3f52cff0	0.8234854
57	0x3d09cc95	0.03364237
58	0xbe5fa298	-0.21839368
59	0x3e0a1983	0.13486294
60	0x3f62e5ee	0.88632095
61	0x3e9121ce	0.28346103
62	0x3db935d6	0.090434715
63	0xbdae844a	-0.08521326
64	0xc058d036	-3.3877082
65	0xbda27cc6	-0.07933955
66	0xbebcd2c6	-0.36879557
67	0x3f9441b1	1.1582547
68	0xbffd96af	-1.981161
69	0xbf3c7840	-0.73620987
70	0x3fcdc740	1.6076431
71	0xbfa707a0	-1.3049202
72	0xbf1242d9	-0.5713325
73	0xbe317e4d	-0.17333336
74	0xbf835b54	-1.0262246
75	0xbd41a0c5	-0.047272462
76	0x3fafc48f	1.373186
77	0x3e92ee63	0.286975
78	0xbfbfc40b	-1.4981703
79	0xbdf49f7a	-0.1194448
80	0x3f25dadd	0.64787084
81	0xbfd60e92	-1.6723197
82	0x3f218580	0.6309433
83	0xc0396c8e	-2.8972507
84	0x3fe8a7da	1.8176224
85	0xc0877182	-4.232606
86	0x3efde4e1	0.49588683
87	0xbf7afca0	-0.98041725
88	0x3f0301d9	0.51174694
89	0xbf2bad95	-0.6706174
90	0xc07681ff	-3.8516843
91	0x3f693abe	0.9110526
92	0xbfe9179c	-1.821033
93	0xbecffe07	-0.40623495
94	0xbf4358c6	-0.7630733
95	0xbd20a360	-0.039218307
96	0x3e86a7d3	0.26299915
97	0xbfe3d6e9	-1.779996
98	0xbefecfc3	-0.49767885
99	0xbfac4620	-1.34589
100	0x3ef55d38	0.47922683
101	0xbf310651	-0.69150263
102	0x3f17d0fb	0.59303254
103	0xbf1ad81c	-0.60486007
104	0x3ec5aa5b	0.38606533
105	0xbf64526b	-0.8918826
106	0x3f01d484	0.507149
107	0xbf79eef4	-0.9763024
108	0x3df77b0c	0.12084016
109	0x3e30f20c	0.17279834
110	0x3ec15252	0.37758118
111	0xbee8a1f0	-0.45436049
112	0xbe553217	-0.20819889
113	0xbf21be55	-0.6318105
114	0xbea17fee	-0.31542915
115	0xbf2e609d	-0.6811617
116	0xbeb488e8	-0.352607
117	0xbf9c0573	-1.2189163
118	0x3e0aeb02	0.13566211
119	0xbfd97731	-1.6989499
120	0xbf109080	-0.5647049
121	0x3f48da60	0.78458214
122	0xbf888e73	-1.0668472
123	0xbf689f7d	-0.9086836
124	0x3effe53a	0.49979573
125	0xbeb16f21	-0.34655097
126	0xbeeb824d	-0.4599785
127	0xbfb077f7	-1.378661
128	0x3f1bc376	0.60845125
129	0xbf8a29a9	-1.0793964
130	0x3fe3a401	1.7784425
131	0x3ef10845	0.47076622
132	0xbe22ead9	-0.159099
133	0xbe256c6a	-0.16154638
134	0x3e12dff1	0.1434324
135	0xbf254fc9	-0.6457487
136	0xbf1b117b	-0.6057355
137	0xbf4898a0	-0.7835789
138	0xbe3b058b	-0.18263833
139	0xbe876463	-0.26443776
140	0xba38154f	-0.0007022218
141	0xbde26005	-0.110534705
142	0x400e7317	2.2257745
143	0xc0056a1a	-2.084601
144	0xbf3bf5b0	-0.73421764
145	0x3fecc6a1	1.8498117
146	0xbf5527e1	-0.83263975
147	0x3f8e6b42	1.1126482
148	0xbecf1ce2	-0.40451723
149	0xbf1673e2	-0.58770573
150	0xbe9aab31	-0.30208734
151	0xc05bad99	-3.4324706
152	0xbf211676	-0.629249
153	0xbea88525	-0.3291408
154	0xc005b51d	-2.0891793
155	0x3ec19896	0.37811726
156	0x3f19dcfb	0.60102814
157	0xbed71af1	-0.42012742
158	0x3f204415	0.62603885
159	0xbf42c858	-0.7608695
160	0x3d977b6c	0.07396588
161	0xbeda411a	-0.42627794
162	0xbf253202	-0.6452943
163	0xbfa0d5b7	-1.256522
164	0xbd9bbb67	-0.076041035
165	0xbe7378ad	-0.23776503
166	0x3ee0720c	0.4383701
167	0xbd79c038	-0.06097433
168	0xbf05f83f	-0.5233192
169	0x3ece48dd	0.40289965
170	0xbe802915	-0.25031343
171	0x3e88a1dc	0.2668599
172	0xc0022031	-2.0332148
173	0xbf7ab2b9	-0.9792896
174	0xc0394558	-2.8948574
175	0x3f707280	0.93924713
176	0xbfd65284	-1.6743932
177	0x3edf3742	0.43596846
178	0x40150e6d	2.3290055
179	0xbfb0d00f	-1.3813494
180	0x3ca67d39	0.020323383
181	0x3f042d36	0.51631486
182	0x3e9d890d	0.30768624
183	0x3e9d3579	0.3070486
184	0x3cdeb728	0.027186945
185	0xbf2f6d80	-0.6852646
186	0x3eeef6aa	0.46672565
187	0xc035d3aa	-2.841044
188	0xbe071533	-0.1319168
189	0xbf6c94c5	-0.92414504
190	0xbf68890f	-0.90834135
191	0xbfd1cd72	-1.6390822
192	0xbeb027d2	-0.3440538
193	0x3e880f69	0.26574257
194	0x3e95c56a	0.29252177
195	0xbeb60913	-0.35553798
196	0xbdad0fb1	-0.084502585
197	0x3e2898f5	0.16464598
198	0xbf3c127f	-0.7346572
199	0xc03f54ff	-2.9895627
200	0x3f04f0bc	0.5192983
201	0x3e328952	0.17435196
202	0x3ee4e14f	0.44703147
203	0xbf38c3d3	-0.72173804
204	0x3d9fed9b	0.078089915
205	0xbed11f9b	-0.40844426
206	0xbeca2f1c	-0.39489067
207	0xbf09bce5	-0.53803855
208	0x3f558faf	0.8342237
209	0xbf2d8ea7	-0.67795795
210	0xbc880ec0	-0.016608596
211	0xbf936f6b	-1.1518377
212	0x3fad35c9	1.3532039
213	0xbf8dd4d5	-1.1080576
214	0x3f9bd766	1.2175109
215	0xbf7db6da	-0.99107134
216	0x3d9fbf48	0.07800156
217	0x3f2e356d	0.6805027
218	0x3e4c680a	0.19961563
219	0x3e3a28ac	0.18179578
220	0x3e92906a	0.28625804
221	0xbf7b8bec	-0.9826038
222	0x3e4af469	0.19819798
223	0xc040856c	-3.0081434
224	0xbe8d13e7	-0.27554247
225	0xbf81b8f4	-1.0134568
226	0xbf3febcf	-0.7496919
227	0xbfc7e59f	-1.561695
228	0xbf0aa050	-0.5415087
229	0x3f6ba05d	0.9204157
230	0xbf834202	-1.0254519
231	0x3ed0e881	0.40802386
232	0xbea7a51a	-0.3274315
233	0x3e327109	0.17425932
234	0xc00d8f36	-2.211866
235	0xbefe5be8	-0.49679494
236	0xbf66cc2e	-0.90155303
237	0xbea78586	-0.32719058
238	0x3faf20a6	1.3681839
239	0xc016834c	-2.3517637
240	0xbeb30075	-0.34961286
241	0x3e6e2c5f	0.23259114
242	0xbf8b8a43	-1.0901569
243	0xbf2b4b29	-0.6691156
244	0xbeb0dbc5	-0.3454267
245	0x3dab179a	0.08354111
246	0xbf025a78	-0.50919294
247	0xbf33d3c7	-0.7024502
248	0x3c753162	0.014965387
249	0x3ec00bf0	0.37509108
250	0x4025b872	2.5893826
251	0xc01ff5c0	-2.4993744
252	0xbe11d59d	-0.14241643
253	0xbf39ea17	-0.7262282
254	0xbe94f6d6	-0.2909457
255	0xbf9b0089	-1.2109538

layer2.0.bias f4 [256]
0	0x40cc2302	6.3792734
1	0xc1df2f1c	-27.898003
2	0x41318aa0	11.096344
3	0x411c7d6d	9.780622
4	0x40c8d89a	6.2764406
5	0x41a75cf1	20.920382
6	0x403b6d94	2.928563
7	0xc176e88c	-15.431774
8	0xc0b411c2	-5.6271677
9	0xc09c1034	-4.876978
10	0xc097e991	-4.7472615
11	0x41c32ecf	24.397856
12	0x40e53581	7.1627812
13	0xbf35eca0	-0.71064186
14	0x41d2b4f5	26.338358
15	0x41113211	9.074723
16	0x41128021	9.156281
17	0x407ab0a5	3.9170315
18	0x41300433	11.001025
19	0x40e4ca8a	7.149724
20	0x416a4e20	14.6440735
21	0xc1410211	-12.0630045
22	0x40b12e80	5.5369263
23	0x40e29b1d	7.0814347
24	0xc0afc7e7	-5.493152
25	0x410d5dd8	8.835411
26	0x415663fa	13.399408
27	0x41b0d62a	22.104572
28	0x40b9fb9d	5.8119645
29	0x411c7070	9.777451
30	0x4091c85b	4.5557075
31	0x41ad2f5f	21.64813
32	0xc1fd9aad	-31.700525
33	0x4108c531	8.548142
34	0x418e8026	17.812572
35	0x41a2c675	20.346903
36	0x411ce12e	9.8049755
37	0x40a70b85	5.220156
38	0xbbaf2190	-0.005344577
39	0x40988180	4.765808
40	0xbfde39b7	-1.7361363
41	0x412ac9ee	10.674299
42	0xbe12af5e	-0.1432471
43	0xc211fb00	-36.495117
44	0x4130278c	11.009655
45	0x40dc2ce8	6.8804817
46	0x41a8327a	21.024647
47	0x415df87b	13.873164
48	0xc24f817f	-51.87646
49	0xc1018b4c	-8.096508
50	0x41db708e	27.429958
51	0x413279a2	11.1546955
52	0x40c4eb4b	6.1537223
53	0x40c8040e	6.250495
54	0x407743e6	3.8635192
55	0x4117019b	9.437892
56	0x41034c57	8.206138
57	0x42148590	37.130432
58	0x40aa0a72	5.313775
59	0x42372d23	45.79408
60	0xc18b0f01	-17.382326
61	0xc18375de	-16.432552
62	0x3fd38069	1.6523563
63	0xc0b78034	-5.7344
64	0x409fd332	4.9945307
65	0x412b0f6d	10.691266
66	0xc16a536a	-14.645365
67	0x41fd7b87	31.685316
68	0x40fd4241	7.9143376
69	0x41d6b283	26.837164
70	0x40ae9ccd	5.4566407
71	0x4009a46c	2.1506605
72	0x418f2998	17.89531
73	0xbe98e8ff	-0.29865262
74	0x416facb9	14.979669
75	0x3f911969	1.133588
76	0x40b40257	5.6252856
77	0xc1f7a11c	-30.953667
78	0x40a1a8dd	5.051863
79	0xc1b5ad1d	-22.709528
80	0xbf901f16	-1.1259487
81	0x41426920	12.150665
82	0x4169cd4a	14.612619
83	0xc0d21e5a	-6.566205
84	0xc14efc1a	-12.936548
85	0x4239f28b	46.48686
86	0x409113ee	4.533683
87	0xc14d4501	-12.829347
88	0xbf4e976c	-0.806998
89	0x42182534	38.03633
90	0x41113798	9.076073
91	0x41685060	14.519623
92	0x414e04ae	12.8761425
93	0xc0833be4	-4.101061
94	0xc06d0ffd	-3.7041008
95	0x422c015f	43.00134
96	0xc1015efe	-8.085691
97	0x3fbaad34	1.4584107
98	0x42102eb5	36.045612
99	0xc0b1f38d	-5.5609803
100	0x415dbd01	13.858644
101	0x3eb93f43	0.36181077
102	0x408bada7	4.364948
103	0xc1c997f3	-25.199194
104	0x41552ba0	13.323151
105	0xc0f4f037	-7.654323
106	0x40868218	4.2033806
107	0x40c5268d	6.160956
108	0x4185d550	16.729156
109	0xc131c28e	-11.109999
110	0xc2179a68	-37.900787
111	0x40200388	2.5002155
112	0x41e8f859	29.121264
113	0x4154386d	13.263776
114	0x420dee39	35.48264
115	0xc0e7f78b	-7.2489676
116	0x3fe30ca1	1.7738229
117	0x4016f76d	2.3588517
118	0x3fd476d2	1.6598761
119	0xc0b0182e	-5.5029516
120	0x402ce693	2.7015731
121	0x41d7b2fe	26.962399
122	0xc1c54906	-24.660656
123	0xbfdab945	-1.708779
124	0x410bba7a	8.7330265
125	0x40c977e2	6.295884
126	0x415ca114	13.789326
127	0xc0ccc7d7	-6.3993945
128	0x41a72f98	20.89824
129	0x41c0b228	24.08699
130	0x3eda88b8	0.42682433
131	0xc20fc288	-35.939972
132	0xbe4f8aa0	-0.20267725
133	0x4125fa22	10.373568
134	0xc17f6c38	-15.963921
135	0x417f837f	15.969604
136	0xc1f7b2d4	-30.962318
137	0x40395c0c	2.896243
138	0x3fdb7880	1.7146149
139	0x40016f9b	2.0224369
140	0x42255fb9	41.34348
141	0xc091f03c	-4.5605755
142	0xc1ae0b05	-21.75538
143	0xc1a92311	-21.142122
144	0x40ede385	7.4340234
145	0x41c0abb6	24.083843
146	0xc0f70f1e	-7.7205954
147	0x41b10650	22.128082
148	0xc159844f	-13.594802
149	0xc17d349f	-15.825347
150	0x40e24452	7.07084
151	0xc09c92bb	-4.8929114
152	0x3f8b2b26	1.0872543
153	0xbf7a095a	-0.9767052
154	0xbec7e323	-0.3904048
155	0x415f384a	13.951242
156	0xc0bb841a	-5.8598757
157	0xc1b87816	-23.058636
158	0x41b49cb9	22.576525
159	0x4185f2fc	16.743645
160	0x41099ac9	8.600289
161	0xc17b06b2	-15.689135
162	0x41959846	18.699352
163	0x4005f1e9	2.09289
164	0x41a4e7ce	20.613186
165	0x40c5fe51	6.1872945
166	0x411e1104	9.879154
167	0x41e91295	29.134073
168	0x408d8359	4.4222836
169	0xbf71bfd0	-0.9443331
170	0x41224efb	10.144282
171	0xc0a8ea21	-5.27858
172	0x41dafbdf	27.372984
173	0xc1c75a98	-24.919235
174	0x3f431c37	0.7621493
175	0x40f03a24	7.5070972
176	0xc18c1d02	-17.514164
177	0xbe2f0e01	-0.17095186
178	0x41704131	15.015916
179	0x4171ef53	15.120929
180	0x416b8443	14.71979
181	0x40850aca	4.157567
182	0xc10052a8	-8.02018
183	0x4014f5c2	2.3274999
184	0x415b3ae4	13.701878
185	0xc13efe2b	-11.937053
186	0x421466f9	37.10056
187	0x407cf439	3.9524062
188	0x409d0fb7	4.9081683
189	0xc084ff10	-4.1561356
190	0x41ead64a	29.354633
191	0x41862ff2	16.77341
192	0xc15f491d	-13.95535
193	0xc1ae2139	-21.766222
194	0x416efe2a	14.937052
195	0x424c5006	51.078148
196	0x416d4e79	14.831658
197	0x405d03e4	3.4533625
198	0xc1de178c	-27.761497
199	0x401b08f6	2.422422
200	0x418b3f97	17.40605
201	0x3f7f1170	0.9963598
202	0x4145e8c7	12.36933
203	0x425c295a	55.040382
204	0xc0fca982	-7.895692
205	0xc120f4db	-10.059779
206	0x404637d9	3.0971587
207	0xbef1817e	-0.47169107
208	0x41a4120f	20.508818
209	0x4062f1d4	3.54601
210	0x4082ae8c	4.083807
211	0x41fd1004	31.63282
212	0xc1904626	-18.034252
213	0x41797b61	15.592622
214	0x40958137	4.6720233
215	0xc1437661	-12.216401
216	0x41870c25	16.88093
217	0x410fbea1	8.98404
218	0x40db09ef	6.8449626
219	0xc2051fb8	-33.280975
220	0x3f1afdd0	0.6054354
221	0xbf370673	-0.71494216
222	0x41b16504	22.174324
223	0x40d77d7f	6.7340693
224	0xbf00ec5b	-0.5036065
225	0x41a9d045	21.226694
226	0x41bd8ee5	23.694773
227	0x4243229b	48.783794
228	0x407d5903	3.9585578
229	0x3f229a78	0.6351695
230	0xc03158ba	-2.7710404
231	0xc05bcbd7	-3.4343164
232	0x4201905f	32.390987
233	0x41280134	10.500294
234	0xbcef43b9	-0.029207097
235	0xc08fed68	-4.4977303
236	0xc06300bd	-3.54692
237	0x417d458d	15.82948
238	0xc166b8e9	-14.420144
239	0x408ce580	4.403015
240	0x408fc49e	4.492751
241	0xc1a77250	-20.930817
242	0xbf98bef9	-1.193328
243	0x4061daae	3.5289721
244	0x40a4b2a0	5.146805
245	0x414f6973	12.963244
246	0xbf500356	-0.8125509
247	0x4157fad3	13.498736
248	0x40be50f4	5.947382
249	0x409bb90e	4.8663397
250	0x40313d8c	2.7693815
251	0xc0157286	-2.335115
252	0x420a9dad	34.65398
253	0x4030babe	2.7613978
254	0x422be037	42.96896
255	0xc0aea6c5	-5.4578576

layer2.2.weight f4 [256, 256]
0	0x3e4fc19a	0.20288697
1	0xbf1a25be	-0.6021384
2	0xbdd9dec5	-0.10638193
3	0xbf352af9	-0.70768696
4	0x3e010c33	0.1260231
5	0xbf9d855c	-1.2306323
6	0xbd435a90	-0.04769379
7	0xbeb236c1	-0.348074
8	0xbe05315f	-0.13007115
9	0x3f10ab62	0.5651151
10	0xbe05fccf	-0.1308472
11	0xbf11622c	-0.56790423
12	0xbd29e37d	-0.041476715
13	0x3c47d8b5	0.012197663
14	0xbe8d0a13	-0.2754675
15	0x3e310021	0.17285205
16	0xba1db8d0	-0.0006016614
17	0xbc9391d7	-0.018013878
18	0xbe0c972c	-0.13729542
19	0x3ca2be65	0.019866178
20	0x3cf9b65e	0.030482467
21	0x3d9d0ae6	0.07668094
22	0x3de32869	0.11091692
23	0xbe3dbb2e	-0.18528435
24	0xbed0043a	-0.40628225
25	0x3ed9b8a6	0.42523688
26	0xbd25681b	-0.040382486
27	0xbe8e56bc	-0.27800548
28	0xbe824457	-0.25442764
29	0xbd84dac2	-0.06487037
30	0xbf55e8fb	-0.83558625
31	0xbea89dff	-0.3293304
32	0x3d1926f8	0.03739068
33	0xbe88ab3f	-0.2669315
34	0xbe8c6443	-0.27420244
35	0xbda5e2a0	-0.08099866
36	0x3e2fbd9b	0.17162172
37	0x3ea9d162	0.3316756
38	0x3ece5112	0.40296227
39	0x3f1c811f	0.61134523
40	0x3bee18fb	0.0072661615
41	0xbeac2118	-0.33619
42	0x3d33cce7	0.043896582
43	0x3e1050df	0.1409335
44	0xbdbb7b91	-0.09154428
45	0xbd9e4cc8	-0.077294886
46	0xbf55e940	-0.83559036
47	0x3de7c588	0.11316973
48	0xbe610c76	-0.2197741
49	0xbd8e3f1d	-0.06945632
50	0xbdef783b	-0.11692854
51	0x3d0f78ab	0.035027187
52	0x3f018f01	0.5060883
53	0xbe99b077	-0.30017444
54	0xbb18711e	-0.0023260782
55	0x3ddd1b85	0.107962646
56	0x3e1dff51	0.15429427
57	0xbe8e8c0d	-0.27841225
58	0x3d84a501	0.064767845
59	0xbe1fb2eb	-0.15595596
60	0xbe8868c6	-0.26642436
61	0xbebf758e	-0.37394375
62	0x3dc7bbbd	0.09752605
63	0x3d837743	0.06419232
64	0xbe8a0559	-0.26957205
65	0x3daa0e02	0.08303453
66	0xbd0c04c2	-0.034184225
67	0x3d9afc56	0.075676605
68	0x3dedec67	0.11617356
69	0xbc883036	-0.016624551
70	0xbe2a10cd	-0.16607971
71	0x3e1fa3e2	0.1558986
72	0xbf4ee219	-0.8081375
73	0x3cea5fdb	0.02861016
74	0xbe4c7f6b	-0.19970481
75	0x3e09ae92	0.134455
76	0x3dda7399	0.1066658
77	0xbeb85007	-0.35998556
78	0xbd977571	-0.07395447
79	0xbeeaa065	-0.45825496
80	0xbdc30a3e	-0.09523438
81	0xbd0f7c0b	-0.035030406
82	0x3d56a551	0.05240375
83	0x3d8fbed0	0.070188165
84	0xbef840e5	-0.4848701
85	0xbe5b29be	-0.21402642
86	0x3d87954d	0.06620274
87	0x3dbd3126	0.0923789
88	0xbf36aca7	-0.71357197
89	0xbedece33	-0.43516693
90	0x3e6303cb	0.22169416
91	0xbd57c5a3	-0.052678715
92	0xbe75119b	-0.23932497
93	0x3eec6565	0.46171108
94	0x3dee50e8	0.116365254
95	0x3e9d7e72	0.30760533
96	0xbf2c4471	-0.67291933
97	0xbe7f0016	-0.24902377
98	0xbf83a050	-1.0283298
99	0x3ebe5b2c	0.37178934
100	0x3b016361	0.0019743072
101	0xbe2b2177	-0.16711985
102	0x3caeeb93	0.021352565
103	0xbdbeaa99	-0.09309883
104	0x3d4686e8	0.0484685
105	0xbf0e9641	-0.5569802
106	0xbeebd414	-0.4606024
107	0xbeed9062	-0.46399218
108	0xbe1c32ad	-0.15253706
109	0xbebcb8ac	-0.36859643
110	0xbf3965d6	-0.72421014
111	0x3d6d5475	0.057941873
112	0x3eb46440	0.35232735
113	0x3d1fffaf	0.0390622
114	0xbe092677	-0.1339358
115	0xbe7c036b	-0.24610679
116	0xbdeff661	-0.11716915
117	0xbd32e0b7	-0.043671336
118	0x3d819ed6	0.06329124
119	0x3e2c1077	0.16803156
120	0xbda73a2c	-0.08165392
121	0xbef7fe90	-0.48436403
122	0xbe3f54c0	-0.18684673
123	0xbedb0414	-0.4277655
124	0x3e5204eb	0.20509689
125	0xbe8aa66f	-0.27080104
126	0xbedc6305	-0.43044296
127	0xbe89fee9	-0.26952294
128	0xbe8f217a	-0.27955228
129	0xbe87d02f	-0.2652602
130	0xbe2c788a	-0.16842857
131	0xbf0f1a9c	-0.5589998
132	0x3ebd06e2	0.36919314
133	0xbe217302	-0.15766528
134	0xbea85061	-0.32873824
135	0x3e9845cb	0.29740748
136	0x3e227d98	0.15868223
137	0xbe210487	-0.15724383
138	0xbd3d6101	-0.04623509
139	0xbf0b8038	-0.5449252
140	0x3ec5b915	0.3861777
141	0xbe9c3547	-0.30509397
142	0xbd838c0e	-0.06423198
143	0xbe3ab0a5	-0.18231447
144	0x3b96ea31	0.0046055545
145	0xbdb46bc3	-0.088096164
146	0x3d2cba97	0.042170133
147	0xbf03c657	-0.5147452
148	0xbde5c4dc	-0.112191886
149	0xbebf5870	-0.3737216
150	0x3e040adf	0.12894772
151	0x3e68327b	0.22675507
152	0xbd455e0f	-0.048185404
153	0xbe543c80	-0.20726204
154	0xbeaf59be	-0.34248155
155	0xbe9a55b8	-0.30143523
156	0xbf01d144	-0.5070994
157	0x3b949f2a	0.0045355754
158	0xbec99b01	-0.3937607
159	0x3cddef30	0.027091593
160	0x3d11ade6	0.035566233
161	0xbef32cea	-0.47495204
162	0xbe03dfa1	-0.12878276
163	0xbd543573	-0.051808786
164	0xbebedba9	-0.37276962
165	0xbeefc03b	-0.46826348
166	0x3e254a32	0.16141585
167	0x3e41137f	0.18855093
168	0x3bae6df0	0.005323164
169	0xbdb2d477	-0.08731931
170	0xbe862c33	-0.26205596
171	0xbebe21ce	-0.37135166
172	0xbef09aac	-0.46993005
173	0xbd775939	-0.060387824
174	0xbeda1e56	-0.4260127
175	0x3d1a3910	0.037652075
176	0xbe34e8dd	-0.17666955
177	0x3e05c119	0.13061942
178	0x3e0cdcc7	0.13756095
179	0xbe4f526d	-0.20246287
180	0x3e071d38	0.1319474
181	0xbd928125	-0.071535386
182	0x3c93bad2	0.018033419
183	0xbdc3cba6	-0.09560327
184	0xbeae0e96	-0.33995503
185	0x3ce03df8	0.027373299
186	0x3e3324a2	0.17494443
187	0xbed5c00b	-0.4174808
188	0xbe2307d1	-0.1592095
189	0x3ef98b93	0.487393
190	0x3f19aace	0.6002625
191	0x3d87a0fa	0.06622501
192	0xbf77dbca	-0.96819746
193	0x3e835083	0.25647363
194	0xbf03ed7e	-0.5153426
195	0x3d241a55	0.040064175
196	0xbe9b1bcd	-0.30294648
197	0xbe9b7bbf	-0.30367848
198	0xbedf7b2a	-0.43648654
199	0x3e86b3f1	0.2630916
200	0x3e2f83e8	0.17140162
201	0xbeebe4e2	-0.4607306
202	0xbc753a67	-0.0149675375
203	0xbebb2293	-0.36549816
204	0x3e751bf4	0.23936445
205	0xbe85f717	-0.26165077
206	0xbd816394	-0.06317821
207	0xbed5db22	-0.41768748
208	0xbe543d6f	-0.2072656
209	0xbf174e1c	-0.5910356
210	0x3e3db915	0.18527634
211	0xbd9edf28	-0.077574074
212	0x3df09a00	0.11748123
213	0xbee74816	-0.45172185
214	0xbe107950	-0.14108777
215	0xbd44f767	-0.048087504
216	0xbb9f24c0	-0.004856676
217	0x3cfb296c	0.0306594
218	0xbe9295fb	-0.2863005
219	0x3d14f567	0.036366846
220	0xbe57114e	-0.21002695
221	0xbd9a955c	-0.07548019
222	0xbf5ec009	-0.8701177
223	0xbe34ca53	-0.17655306
224	0xbebde332	-0.370874
225	0x3e853174	0.26014292
226	0xbf224097	-0.63379806
227	0xbe40fe84	-0.1884709
228	0x3f25d98e	0.6478509
229	0x3ea5672e	0.32305282
230	0xbef9a1c6	-0.48756236
231	0x3f374b53	0.7159931
232	0x3dccc66e	0.09998785
233	0x3c1a76e6	0.009427762
234	0xbe3316f4	-0.17489225
235	0x3e1b49b4	0.15164834
236	0x3e919bbe	0.28439134
237	0xbe660240	-0.22461796
238	0xbddbc500	-0.10730934
239	0x3e334153	0.17505388
240	0xbe5da95a	-0.21646634
241	0xbdcef153	-0.10104623
242	0xbde9c355	-0.1141421
243	0xbf06abc3	-0.5260584
244	0x3d2f3bf2	0.042781778
245	0xbf2c7d75	-0.6737893
246	0xbbcde0a5	-0.006282883
247	0x3e272b33	0.16325073
248	0x3e030b49	0.12797274
249	0xbd0e2a92	-0.034708567
250	0xbea201c7	-0.3164198
251	0xbe12f862	-0.14352563
252	0x3eb83ce0	0.35983944
253	0xbdf50e79	-0.11965651
254	0xbdde0e52	-0.10842575
255	0x3ea0e97b	0.3142813

layer2.2.bias f4 [256]
0	0x40ea09c8	7.313694
1	0x405e6f04	3.4755259
2	0xbe753af0	-0.23948264
3	0xbe47c635	-0.19509204
4	0xbe9b0806	-0.3027956
5	0xbbf5c912	-0.007500776
6	0x3fb4f9a3	1.4138683
7	0x3c1e2ca1	0.009654195
8	0x3e1739c0	0.14768124
9	0x3da370ef	0.07980525
10	0xbe2650bc	-0.16241735
11	0xbda692ba	-0.081334546
12	0xbdb4287a	-0.08796783
13	0xbdb8fd79	-0.09032721
14	0x3e75e3c4	0.24012667
15	0x3cf8cd66	0.03037138
16	0x40e43275	7.1311593
17	0x3ed56239	0.416765
18	0x3f629c66	0.88519895
19	0x3f21e5bb	0.63241166
20	0xbee0307c	-0.4378699
21	0xbe3a5278	-0.18195522
22	0xbea587b0	-0.32330084
23	0x3f0962ab	0.5366618
24	0xbca2f8a7	-0.019893957
25	0x3dd818bb	0.10551592
26	0x3e461734	0.19344789
27	0xbe4f5506	-0.20247278
28	0xbf7083f0	-0.9395132
29	0x3ec4ec3d	0.38461486
30	0x3ed724c9	0.42020252
31	0xbe47a1b6	-0.19495282
32	0xbe9158da	-0.283881
33	0xbdde6de9	-0.108608074
34	0x3e55766c	0.20845956
35	0x3e507596	0.20357355
36	0xbd9781d8	-0.073978126
37	0xbe982653	-0.2971674
38	0xbe57badd	-0.21067376
39	0x3e5051be	0.20343682
40	0xbe363bd3	-0.17796259
41	0x3fa17fd0	1.261713
42	0xbe80fbb8	-0.25192046
43	0x3ccb5d5b	0.024824789
44	0xbf9e0208	-1.234437
45	0xbe42b15a	-0.19012967
46	0xbe5192b5	-0.2046612
47	0x3e937b86	0.28805178
48	0xbebffa93	-0.3749586
49	0xbe206f0f	-0.15667365
50	0xbcdb6226	-0.0267802
51	0x3e05084b	0.12991445
52	0x3d9bc166	0.07605247
53	0xbe485bd0	-0.19566274
54	0x3e87b903	0.2650834
55	0xbed02803	-0.40655527
56	0x41e580d2	28.6879
57	0x3cf0b4f7	0.029383166
58	0x3d08e717	0.03342351
59	0xbdc1fd26	-0.09472112
60	0x41248878	10.283318
61	0xbe2d4189	-0.16919531
62	0xbe8ea0a1	-0.27856925
63	0x3f93fadc	1.1560931
64	0x3ebd3ca8	0.3696034
65	0xbe469fab	-0.19396846
66	0x3f8ee95c	1.1164966
67	0xbec430b7	-0.38318416
68	0x3d8360a3	0.06414916
69	0xbe6ac792	-0.22927693
70	0xbe30724d	-0.17231102
71	0x3ec8aae1	0.3919287
72	0xbecc2497	-0.39871666
73	0xbe360687	-0.17775927
74	0xbe32afbc	-0.1744985
75	0x3f849ea7	1.0360917
76	0x3f934605	1.1505743
77	0xbe8198aa	-0.25311786
78	0xbef7fbfd	-0.4843444
79	0xbf24ccf0	-0.6437521
80	0xbdcf4fd5	-0.101226486
81	0xbe4b0582	-0.1982632
82	0xbeee0cad	-0.46494046
83	0xbe926a6e	-0.28596824
84	0xbd564886	-0.052315257
85	0x3e289ac7	0.16465293
86	0xbe887c6c	-0.26657426
87	0x3f00eb72	0.5035926
88	0xbdf14d9d	-0.11782382
89	0xbd2ea06d	-0.042633463
90	0x424c506a	51.07853
91	0x3f0d9ef0	0.55320644
92	0xbe056521	-0.13026859
93	0xbe51ac6d	-0.20475931
94	0xbe3687a0	-0.17825174
95	0xbdc9ba2a	-0.09849961
96	0xbd8ae6d0	-0.06782305
97	0x3e78e404	0.24305731
98	0x3e35b21f	0.17743729
99	0xbed5f599	-0.4178894
100	0x3e0490d1	0.12945868
101	0xbe1f8bf4	-0.15580732
102	0x424788ed	49.883717
103	0xbe74afaa	-0.23895136
104	0x3ec948b0	0.3931327
105	0x3ece82de	0.4033422
106	0xbe3712f1	-0.1787832
107	0x3e6cb1ea	0.23114744
108	0xbe682b62	-0.22672799
109	0x3f908f3b	1.129371
110	0x41b53768	22.652054
111	0xbea6a7c9	-0.32549885
112	0xbe27e122	-0.16394475
113	0xbea44144	-0.32081044
114	0x3ef5955d	0.47965518
115	0xbe174cd5	-0.14775403
116	0x3e7ef094	0.24896461
117	0xbef21785	-0.4728357
118	0xbeb331fb	-0.3499907
119	0xbe861d9a	-0.2619446
120	0xbe4b958a	-0.19881263
121	0x41cb00e1	25.37543
122	0xbe58b0e7	-0.21161233
123	0x4127ab25	10.479283
124	0x3edccd32	0.43125302
125	0x409b85c6	4.86008
126	0xbd4fbb2e	-0.050715618
127	0x403604ac	2.8440351
128	0x3d448b46	0.047984384
129	0x3c728050	0.0148011
130	0xbe08dc36	-0.13365254
131	0x3e9fe24f	0.31227347
132	0x4011158d	2.2669404
133	0xbdae2a03	-0.08504107
134	0xbe443f95	-0.1916488
135	0xbe616cb0	-0.22014117
136	0xbe5f2852	-0.21792725
137	0xbe73673e	-0.23769853
138	0xbd818b5a	-0.06325407
139	0x3ef7be72	0.48387486
140	0xbe5c07bb	-0.21487324
141	0x3e227d69	0.15868153
142	0x3f8e00da	1.109401
143	0x3e257163	0.16156535
144	0xbe45adf9	-0.19304647
145	0xbddf2935	-0.108965315
146	0x3e6348c9	0.22195734
147	0xbea4fa7c	-0.32222354
148	0x3fbb3193	1.4624504
149	0xbe45bcbc	-0.19310278
150	0x3d38d76e	0.045127325
151	0xbd51dbf3	-0.05123515
152	0x3e42abea	0.19010893
153	0x4025b16c	2.588954
154	0x3cbc9ccd	0.023023987
155	0xbe5e5d05	-0.21715172
156	0xbe26af93	-0.16277914
157	0x3cff7d61	0.031187715
158	0xbe990179	-0.29883936
159	0xbcf5e41e	-0.030016001
160	0x42434b6c	48.823654
161	0x3e0b6499	0.13612594
162	0xbe051ad1	-0.12998511
163	0x400b70be	2.1787562
164	0xbe3c420a	-0.18384567
165	0xbe8a4d24	-0.2701198
166	0xbdff287d	-0.124588944
167	0xbcbe4f13	-0.023231065
168	0x3d3b9e9c	0.04580556
169	0x3e922658	0.2854488
170	0xbe7c2173	-0.24622135
171	0xbe338c81	-0.17534067
172	0xbe4475eb	-0.19185607
173	0x3ed1a220	0.40944004
174	0x3e514437	0.20436178
175	0x3dc2bf06	0.09509091
176	0x420fb290	35.924377
177	0xbe561734	-0.20907289
178	0xbe9d3176	-0.30701798
179	0xbebdd03d	-0.37072936
180	0x3dc43f2e	0.09582363
181	0x3e382424	0.17982537
182	0x3e4f2014	0.2022708
183	0x3f362786	0.7115406
184	0xbd223f4b	-0.039611142
185	0x3e6b0606	0.22951517
186	0xbe39f448	-0.18159592
187	0x3eb12093	0.34595165
188	0xbe8dc1ab	-0.2768682
189	0x426c218a	59.032753
190	0x3f1d7b07	0.6151585
191	0x3cb000ec	0.021484815
192	0xbe35d1c8	-0.17755806
193	0xbdba8b06	-0.09108548
194	0x3dbfaf2b	0.093595825
195	0x3eb65be1	0.35616973
196	0x3dd439bb	0.10362574
197	0xbeb9d04f	-0.3629174
198	0x412d22ba	10.820978
199	0x3eb9b823	0.36273298
200	0xbd868a15	-0.06569306
201	0x3b615278	0.003438143
202	0x3c477a19	0.012175106
203	0xbdc95c6c	-0.09832081
204	0x3da2aaf5	0.07942764
205	0xbcff7259	-0.031182455
206	0x3d979361	0.07401157
207	0xbebf3fca	-0.37353355
208	0x412051e3	10.019992
209	0x4145832d	12.344525
210	0x3f460ba2	0.773615
211	0x3e5ca021	0.2154546
212	0xbe83d234	-0.2574631
213	0xbeafaa64	-0.34309685
214	0xbeae9400	-0.3409729
215	0x3e422e2a	0.18962923
216	0x3ea3b0d7	0.31970856
217	0xbe922495	-0.28543535
218	0xbdd85a58	-0.10564107
219	0xbe58ca9c	-0.2117104
220	0xbd8ee4ab	-0.06977209
221	0x3f81b439	1.0133125
222	0x3d70e431	0.05881137
223	0xbe8d9d4f	-0.2765908
224	0xbdb12a52	-0.0865065
225	0x40e15a21	7.042252
226	0x3f06a13d	0.5258978
227	0x3efbd19c	0.49183357
228	0xbe733e2c	-0.23754185
229	0x3efaceae	0.4898581
230	0xbd4b09c9	-0.04956988
231	0xbe71da2d	-0.23618384
232	0xbee8458b	-0.45365557
233	0x4187f45c	16.994316
234	0xbe040a90	-0.12894654
235	0xbddeabb7	-0.10872596
236	0x3f428e38	0.7599826
237	0xbe8e2c2a	-0.2776807
238	0xbdfc8648	-0.123302996
239	0x3f82ccbe	1.0218732
240	0xbe186236	-0.14881214
241	0xbcd697d9	-0.026195453
242	0x3e795ad5	0.24351056
243	0x3f8a6523	1.0812114
244	0x415eb583	13.919314
245	0x3deb86b8	0.11500305
246	0xbd23bd6c	-0.03997557
247	0x3e90ef5c	0.28307617
248	0xbe452180	-0.1925106
249	0xbe5379d9	-0.2065195
250	0xbe6efb9d	-0.2333817
251	0xbc941466	-0.018076133
252	0xbf13b6c8	-0.5770078
253	0xbdc66226	-0.09686689
254	0xbd0e9e9a	-0.034819223
255	0x3ea46662	0.32109362

layer2.4.weight f4 [1, 256]
0	0x3c2bb123	0.010479244
1	0x3d82393c	0.06358573
2	0xbc065ec6	-0.008201307
3	0xbc37ab68	-0.0112103
4	0x3cb266cd	0.021777535
5	0x3ceb2ad5	0.028706947
6	0xbd727814	-0.059196547
7	0xba304ac0	-0.0006725006
8	0xbd0b424c	-0.033998773
9	0xbd1cb72b	-0.03826062
10	0xbcdd76b0	-0.027034134
11	0xbb6adf62	-0.0035838713
12	0x3c6e0d76	0.0145295765
13	0xbcedcfb9	-0.029029714
14	0x3d24bcc2	0.040219076
15	0xbda88917	-0.08229273
16	0x3ca858a9	0.020550089
17	0xbbb6954e	-0.0055719977
18	0xbb4833d9	-0.0030548482
19	0x3d190b51	0.037364308
20	0xbcac979f	-0.021068392
21	0x3aea3178	0.0017867526
22	0x3ce5c88b	0.028049728
23	0xbccd10db	-0.025032451
24	0x3cad5045	0.02115644
25	0xbb198f80	-0.002343148
26	0xbcbf4291	-0.023347171
27	0xbc80b7bb	-0.01571261
28	0x3cca942b	0.024728855
29	0x3bc86335	0.006115342
30	0xbcf60aba	-0.030034412
31	0x3cbab10c	0.0227895
32	0xbc1ae60c	-0.0094542615
33	0x3d00d951	0.03145725
34	0xbccfe1af	-0.025376169
35	0x3ca1082d	0.019657219
36	0xbcde8b19	-0.027165936
37	0xbce5b5cb	-0.028040787
38	0xbc04e3ea	-0.00811098
39	0xbcf78fc7	-0.030219926
40	0xba9e3a31	-0.0012071786
41	0xbe0afb9e	-0.13572547
42	0xbc5a0896	-0.013307711
43	0x3cab0338	0.020875558
44	0xbd2f17d8	-0.04274735
45	0x3cad4731	0.02115211
46	0xbcce92cd	-0.025216484
47	0x3b8afdc3	0.0042416765
48	0xbd08726e	-0.033312254
49	0x3b70afee	0.0036725956
50	0xbb0098ae	-0.0019622254
51	0x3d581b27	0.05276027
52	0x3d020ae0	0.031748652
53	0xbba48a4f	-0.0050213705
54	0xbc86a80c	-0.016437553
55	0x3cbfa3c6	0.023393523
56	0x3e0f4205	0.13990028
57	0x3c02899b	0.007967378
58	0xbd03152e	-0.03200262
59	0xbcb9716c	-0.022637092
60	0x3e2dab58	0.16959894
61	0xbcb4c783	-0.02206779
62	0x3c8994a1	0.016794505
63	0x3e19166c	0.1494996
64	0x3d84bf56	0.06481807
65	0xbb4f9743	-0.0031675852
66	0xbd3b07a7	-0.045661595
67	0xbcf433c8	-0.029809847
68	0x3cfb0d18	0.030645892
69	0xba8bdd9a	-0.0010670901
70	0x3a334741	0.0006838926
71	0x3be13400	0.006872654
72	0x3cd69c11	0.026197465
73	0x3b6bacf2	0.0035961238
74	0x3c264602	0.010148527
75	0x3d0035d7	0.031301346
76	0xbc42553f	-0.011861145
77	0xbbc6ebfe	-0.006070613
78	0xbccd97f8	-0.025096878
79	0x3cc4d675	0.024028042
80	0x3c28307e	0.010265468
81	0x3c34da74	0.011038411
82	0x3cad22fd	0.021134848
83	0x3bb353ec	0.0054726508
84	0x3ca57f09	0.020202177
85	0x3ce84620	0.02835375
86	0x3ca304b2	0.0198997
87	0xbc07a5fa	-0.008279318
88	0x3bfa1d69	0.0076329005
89	0xbcee3f76	-0.029082995
90	0x3e268799	0.16262664
91	0x3dc66859	0.096878715
92	0xbc76ff25	-0.01507548
93	0xbbc83369	-0.006109644
94	0x3c89d241	0.01682389
95	0x3af33312	0.0018554649
96	0xbb18159d	-0.0023206242
97	0xbc55dc37	-0.013052992
98	0x3c9b20f2	0.018936608
99	0xbbb04d18	-0.005380284
100	0xbb140a6e	-0.0022589224
101	0xbca850bc	-0.02054631
102	0x3f1649f0	0.5870657
103	0xbb5e2987	-0.0033899264
104	0x3b716fd1	0.003684033
105	0xbcc8589b	-0.024456313
106	0x3ca02aae	0.019551601
107	0x3c942252	0.018082771
108	0xba8c5be8	-0.0010708543
109	0xbd195f41	-0.037444357
110	0x3d82f257	0.06393879
111	0xbb9a3432	-0.004705929
112	0xbc90c9aa	-0.017674286
113	0x3a6f998b	0.0009140006
114	0x3c7cf14c	0.015438389
115	0x3bab8b7d	0.005235134
116	0xbc9ddcde	-0.019270357
117	0x3b0c3f29	0.002139995
118	0x3d30be0f	0.043150004
119	0xbc980578	-0.018557295
120	0x3cddf94f	0.027096419
121	0x3f1c813d	0.611347
122	0x3ba3846b	0.0049901507
123	0x3d100125	0.03515734
124	0x39f49d7a	0.00046656636
125	0x3d0f6cb7	0.035015788
126	0x3be18087	0.0068817767
127	0xbd92fd1f	-0.07177185
128	0xb8866ba4	-6.4096675e-05
129	0x3ce15415	0.027505914
130	0x3cca86a6	0.024722409
131	0x3c0a8d9d	0.008456615
132	0xbc31c0a9	-0.010849156
133	0xbc368232	-0.011139439
134	0x3c580d5f	0.013186782
135	0x3ca12a70	0.019673556
136	0xbcaa00df	-0.020752368
137	0x3cb6f1df	0.02233213
138	0x3bcc4168	0.006233383
139	0x3cd36702	0.025805954
140	0x3cde68c8	0.027149573
141	0x3cf1515a	0.029457737
142	0x3cb24d9d	0.021765525
143	0x3d051750	0.032492936
144	0x3c1d79da	0.009611571
145	0x3b431e4d	0.00297727
146	0xbb9ed839	-0.004847553
147	0xbcdc9ec9	-0.026931183
148	0x3c9bcbf8	0.019018158
149	0x3cfe2617	0.031024022
150	0xbc59da03	-0.013296607
151	0xbcfe161b	-0.0310164
152	0xbb8b4358	-0.0042499714
153	0x3e714be0	0.235641
154	0xbc8960e6	-0.016769838
155	0xbc58f8e4	-0.013242934
156	0xbcbbbed4	-0.022918142
157	0x3cb63094	0.02223996
158	0x3b3e7f98	0.002906775
159	0xbd4534f2	-0.048146196
160	0x3e3d8b42	0.18510154
161	0xbcd7d418	-0.026346251
162	0x3c7a3a56	0.015272697
163	0x39f6e7b5	0.00047093412
164	0xbc5a29c2	-0.01331562
165	0x3b61c849	0.0034451655
166	0x3bad72f5	0.005293245
167	0xbcbe536e	-0.023233142
168	0xbd80b807	-0.062851004
169	0x3c33cd6f	0.010974272
170	0xbc8e8fc5	-0.017402539
171	0x3d053a01	0.03252602
172	0x3cf494db	0.029856136
173	0x3dbfaf29	0.09359581
174	0x3c579294	0.013157506
175	0x3c59127d	0.013249037
176	0x3c9842ba	0.018586505
177	0x3a70860b	0.00091752474
178	0x3b9d33ae	0.0047974205
179	0x3caccd2d	0.02109393
180	0xbd935ddb	-0.07195636
181	0x3c11bb94	0.00889482
182	0x3c8dfb5b	0.01733177
183	0x3c622074	0.013801683
184	0xbde6945e	-0.112587675
185	0xbc06a196	-0.008217236
186	0xbb74d5ac	-0.0037358804
187	0xbd868bf2	-0.06569661
188	0xbc960539	-0.018313037
189	0x3d27659a	0.04086838
190	0x3cf0d28a	0.029397268
191	0x3ce65bc7	0.028119935
192	0xbcfa1971	-0.03052971
193	0xbc2ae2ae	-0.010430021
194	0x3d4245a5	0.0474297
195	0x3cbde5a0	0.023180783
196	0x3c3b2b85	0.01142395
197	0xbb5b390c	-0.003345075
198	0xbddf9ae8	-0.10918218
199	0xbcce448a	-0.025179166
200	0x392466a3	0.00015678494
201	0x3d42322a	0.04741112
202	0xbd58767c	-0.05284737
203	0xba074f28	-0.00051616365
204	0x3c136e48	0.008998461
205	0x3cf4d558	0.029886886
206	0x3bda2e92	0.0066583836
207	0xbcb3c72e	-0.021945562
208	0xbd4ce41c	-0.05002223
209	0x3d0840ed	0.033265043
210	0x3c42107a	0.011844749
211	0x3c846499	0.01616125
212	0xbc8a098b	-0.016850254
213	0x3ce0c9a3	0.027439898
214	0xbcd45fa1	-0.025924506
215	0xbab12351	-0.0013514553
216	0xbd011d0d	-0.031521846
217	0x3c3c050a	0.011475811
218	0xbc73374d	-0.014844728
219	0xbc8100fd	-0.015747542
220	0xbc539c54	-0.0129156895
221	0x3d050059	0.032471035
222	0x3cba4428	0.022737578
223	0xbcbf49b9	-0.023350583
224	0xbd24c17a	-0.040223576
225	0x3bcfa01a	0.0063362243
226	0xba3fa627	-0.00073108304
227	0x3caa287c	0.020771258
228	0x3c9718ef	0.018444506
229	0x3cfb858b	0.030703327
230	0xbb06d44d	-0.0020573318
231	0xbd008227	-0.031374123
232	0x38df4ad1	0.00010647404
233	0xbd087333	-0.033312988
234	0xbc63b069	-0.01389704
235	0xbcbb6fa8	-0.02288039
236	0xbcc1c0f1	-0.023651572
237	0x3d001c50	0.031277
238	0x3cbb7ddb	0.022887161
239	0xb9b2c14f	-0.00034094832
240	0x3cbe1d3e	0.023207303
241	0x3bef1961	0.0072967266
242	0xbcf93045	-0.030418525
243	0x3cf0a01e	0.029373225
244	0x3e409816	0.18808016
245	0xbd13033a	-0.03589175
246	0x3c0c8da7	0.008578694
247	0x3ca7e664	0.020495601
248	0xbcac533c	-0.021035783
249	0xbcf68726	-0.03009374
250	0xbd84d842	-0.064865604
251	0xbc9dbacf	-0.019254116
252	0x3cce4053	0.025177157
253	0xbce87c10	-0.02837947
254	0xbc8962cf	-0.016770748
255	0xbbe79efc	-0.007068513
