MyZipTobeUploaded/bpi_Neighbour_embedding/TimestampPredictor_parameters_BPI_laplacianOnBinary_0.001_run0.pt (torch, 280823 bytes, 8 tensors)

layer1.bias f4 [6]
0	0x00000000	0.0
1	0x00000000	0.0
2	0x00000000	0.0
3	0x00000000	0.0
4	0x00000000	0.0
5	0x00000000	0.0

layer1.W f4 [4, 2]
0	0x3e39304d	0.18084832
1	0x3cc79e0b	0.024367353
2	0x3e23f9f8	0.16013324
3	0x3cf65aad	0.030072534
4	0x3f784060	0.9697323
5	0xbfc51013	-1.539553
6	0x4202869d	32.63146
7	0xc225ccfa	-41.450172

layer1.a f4 [4, 1]
0	0x3c875c96	0.01652364
1	0xbd226a22	-0.039651997
2	0x3c875c96	0.01652364
3	0xbd226a22	-0.039651997

layer2.0.weight f4 [256, 12]
0	0xbeb30acd	-0.34969178
1	0x3f5a1fcd	0.85204774
2	0xbed8c20a	-0.4233554
3	0x3f0c7b4e	0.5487565
4	0xbf89f5e6	-1.0778167
5	0x3f0c9fe2	0.5493146
6	0xbf2ab65b	-0.666845
7	0x3f171b52	0.5902606
8	0x3df0bad8	0.117543876
9	0xbe9666a0	-0.29375172
10	0xbea63740	-0.32464027
11	0x3d9c0b94	0.07619396
12	0xbe2ed56d	-0.17073603
13	0xbef0e485	-0.47049347
14	0xbf1b14cf	-0.60578626
15	0x3ea2b33a	0.31777364
16	0x3f8e8415	1.1134058
17	0x3f4b0421	0.79303175
18	0xbf97a6ec	-1.1847816
19	0xbee5048e	-0.44730037
20	0xbecd5c28	-0.40109372
21	0xc0235ed8	-2.5526638
22	0xbff81ee9	-1.9384433
23	0x3f8808a0	1.0627632
24	0xbf823635	-1.0172793
25	0x3e9aac47	0.30209562
26	0xbf242c4e	-0.64130104
27	0x3f14c50b	0.58113164
28	0xbf3ffc2a	-0.74994147
29	0xbdee2557	-0.11628216
30	0xbfacb12e	-1.3491571
31	0x3d150345	0.03638007
32	0xbe4a5ef9	-0.19762792
33	0xbe3e24a8	-0.18568671
34	0x4060eaf0	3.5143394
35	0xbfacb2b8	-1.3492041
36	0xbe40751b	-0.18794672
37	0xbdb4bba8	-0.08824855
38	0xbf22b541	-0.6355782
39	0x3e2515b0	0.16121554
40	0xbcc167c2	-0.023609046
41	0x3f13c999	0.5772949
42	0xbf6a7301	-0.9158173
43	0xbe46f636	-0.1942986
44	0xbe8daa3a	-0.27668935
45	0x3d4a4a81	0.04938746
46	0xbf6aaf9b	-0.916742
47	0xbd429a64	-0.04751052
48	0xbf1a8f3a	-0.60374796
49	0xbf382220	-0.7192707
50	0x3e81d26e	0.25355858
51	0xbe646924	-0.22305733
52	0x3f96dcbb	1.1786112
53	0x3d95aed1	0.07308734
54	0xbe04cd1e	-0.12968871
55	0x3e8d1c2e	0.27560562
56	0xbe38585b	-0.18002455
57	0xc0221c8f	-2.532993
58	0xc0014cd9	-2.0203154
59	0x3f7b865d	0.982519
60	0xbf157b0d	-0.58390886
61	0x3e7ccf6c	0.246885
62	0xbef02fd0	-0.46911478
63	0x3e91a1e9	0.2844384
64	0xbf860d55	-1.0472819
65	0x3f4edd41	0.80806357
66	0xbed73102	-0.42029577
67	0x3e612f61	0.2199073
68	0xbddf674c	-0.10908374
69	0xbe9d173d	-0.30681792
70	0xbefb06ee	-0.49028724
71	0x3e4543e7	0.19264184
72	0xbe18cddd	-0.1492228
73	0xbb2ee117	-0.0026684457
74	0xbdcd417f	-0.10022258
75	0x3e5812f6	0.21100983
76	0xbfc12653	-1.5089821
77	0xbf193437	-0.598453
78	0xbea9986d	-0.33124104
79	0xbe1a3276	-0.15058312
80	0xbf380927	-0.71888965
81	0x3fb49eaf	1.4110926
82	0xbf0483f1	-0.51763827
83	0x3e3eeede	0.18645808
84	0xbfbc109e	-1.4692571
85	0x3c262e5e	0.010142891
86	0xbf1d043c	-0.61334586
87	0xbe3b77f7	-0.18307482
88	0xbfd87367	-1.6910218
89	0xbde3974c	-0.11112842
90	0xbf6c4d18	-0.92305136
91	0xbd998d2f	-0.07497632
92	0x3ea17b2f	0.31539294
93	0x3dc4c4e4	0.096078664
94	0xbf44ba94	-0.76847196
95	0xbf105c99	-0.5639129
96	0xbf18c933	-0.59682006
97	0xbd5c7b7d	-0.053828705
98	0xbf8c234a	-1.0948269
99	0xbe2b72f0	-0.16743064
100	0xbe6841f9	-0.22681417
101	0xbf1f3427	-0.62188953
102	0xbf87daf8	-1.0613699
103	0xbf07b3a8	-0.5300851
104	0xc000e40e	-2.0139194
105	0x408609b1	4.188683
106	0xbf3517af	-0.70739263
107	0xbeab243d	-0.33426085
108	0xbe9ca133	-0.30591735
109	0x3ef2ec08	0.47445703
110	0xbeb5cef8	-0.35509467
111	0x3f0ea5bc	0.5572164
112	0xbe0f672f	-0.14004205
113	0x3edb69f7	0.42854282
114	0xbf45e890	-0.7730799
115	0x3f0fd524	0.561846
116	0xbc1a3af8	-0.009413473
117	0xbe86ac36	-0.26303262
118	0xbf80b36d	-1.0054756
119	0x3f7ff88b	0.9998862
120	0xbf2a2a8b	-0.66471165
121	0xbf950641	-1.1642534
122	0xbfcb354f	-1.5875643
123	0xbf8e8764	-1.1135068
124	0xc019624f	-2.3966253
125	0xbf0c3f4d	-0.5478409
126	0xbf8f09b8	-1.1174841
127	0xbf6dccad	-0.92890435
128	0xbf80052a	-1.0001576
129	0x3f3c08ae	0.73450744
130	0xbf9ac7a0	-1.2092171
131	0xbfb12c6b	-1.384168
132	0x3d8433aa	0.06455167
133	0x3e30aaf8	0.1725272
134	0x3d8eba4b	0.06969126
135	0xbe4ec1a8	-0.20191061
136	0xbfb85758	-1.4401655
137	0x3a7e4c53	0.0009700704
138	0xbf3f97b2	-0.74840844
139	0xbebd0dcd	-0.36924592
140	0xbfc0b279	-1.5054466
141	0x3fc50c9a	1.5394471
142	0xbe0a743e	-0.13520905
143	0x3e03d07a	0.12872496
144	0xbe918e55	-0.28428903
145	0x3e90cb69	0.2828019
146	0xbe900c7b	-0.28134522
147	0x3e0142b0	0.12623096
148	0xbe139ad7	-0.14414535
149	0x3e478615	0.19484742
150	0x3e73a9c6	0.23795232
151	0x3ca8b8fb	0.020596018
152	0xbfe92693	-1.8214897
153	0xbd884000	-0.06652832
154	0xbe2f3bac	-0.17112607
155	0x3e54d468	0.20784152
156	0xc003a128	-2.0567112
157	0x3f353c62	0.7079526
158	0xbf78d49a	-0.97199404
159	0x3f0aca1c	0.54214644
160	0xc00eb558	-2.2298183
161	0x3f59d275	0.85086757
162	0xbfb420a2	-1.4072459
163	0x3f2a7696	0.665872
164	0x3ed1a073	0.40942726
165	0xbeb18c46	-0.34677333
166	0xbe4dd05b	-0.20099013
167	0x3f0c5179	0.5481182
168	0x3e00049f	0.12501763
169	0x3f2f4bfd	0.68475324
170	0xbd8ce5ac	-0.06879744
171	0x3efbde49	0.49193028
172	0xbedce16b	-0.4314073
173	0x3ddf7b26	0.109121606
174	0xbf008df3	-0.502166
175	0xbe9b399a	-0.30317384
176	0xbf852696	-1.04024
177	0x3f715f9f	0.9428653
178	0xbde0af27	-0.10970908
179	0xbec08bfc	-0.376068
180	0x3ee4f808	0.44720483
181	0xbe565e54	-0.20934421
182	0xbfd9a9e0	-1.7004967
183	0xbf2cc8d5	-0.67493945
184	0x3f824fe6	1.0180633
185	0x3dda0218	0.106449306
186	0xc005c406	-2.0900893
187	0xbef9229c	-0.48659217
188	0x3f4d0ca1	0.80097395
189	0xc04581d3	-3.0860488
190	0xbffe7714	-1.988009
191	0xbf4980a7	-0.7871193
192	0xbe49f4a5	-0.1972223
193	0x3fc2f443	1.5230793
194	0xbf94a5db	-1.1613115
195	0x3f0cfa32	0.5506927
196	0xbff0488c	-1.877214
197	0x3eb00a7f	0.34383008
198	0xbfa69665	-1.3014647
199	0x3d168820	0.036750913
200	0x3f31d7c2	0.69469845
201	0xc03ab135	-2.9170659
202	0xbfbee1b6	-1.4912632
203	0x3e068e39	0.13140191
204	0x3c96d878	0.018413767
205	0x3bd51490	0.0065026954
206	0xbde15b12	-0.110036984
207	0x3e82da73	0.2555729
208	0xbf4427e8	-0.7662339
209	0x3f035f6b	0.5131747
210	0x3ba938bf	0.0051642354
211	0xbd9fd6f3	-0.0780467
212	0xbf95e24b	-1.1709684
213	0x3f83c65c	1.029491
214	0x3cb3f25e	0.021966156
215	0x3ea48091	0.32129338
216	0xbeaef611	-0.3417211
217	0x3e48fbeb	0.19627349
218	0x3e94e73b	0.29082665
219	0xbf24cd28	-0.64375544
220	0xbcc2325f	-0.02370566
221	0x3e298e8f	0.16558288
222	0x3ed02320	0.40651798
223	0xbf375257	-0.71610016
224	0xbfda7f0a	-1.7070019
225	0x3e146d43	0.14494805
226	0x3eca65f9	0.39530924
227	0xbfb012fd	-1.3755795
228	0xbf3ae37a	-0.7300335
229	0x3bd07744	0.006361874
230	0xbdfd27ef	-0.12361132
231	0x3e967a89	0.29390362
232	0xc065c3f0	-3.590084
233	0x3fee45e8	1.8615084
234	0xbf6a22b5	-0.9145921
235	0xbf074e47	-0.52853817
236	0x3e89f5b1	0.2694526
237	0xbee1dbae	-0.44112915
238	0x3f8c0bbc	1.0941081
239	0xbfee5ba1	-1.8621713
240	0xc02949da	-2.6451325
241	0x3f7b000c	0.98046947
242	0xbf669551	-0.9007159
243	0x3e064155	0.1311086
244	0xbf950d03	-1.1644596
245	0x3f369afe	0.7133025
246	0xbe042440	-0.12904453
247	0xbf119cd8	-0.5687995
248	0xbdac2edf	-0.084073775
249	0xbf558b5e	-0.8341578
250	0xbf41a021	-0.7563496
251	0xbe97f245	-0.29677024
252	0x3f9928da	1.1965592
253	0xbf202bc9	-0.6256681
254	0x3e86a250	0.2629571
255	0x3ed75347	0.42055723

layer2.0.bias f4 [256]
0	0x4000aac5	2.010423
1	0x41161c18	9.381859
2	0xc2007c37	-32.121304
3	0x40a4c6d0	5.149269
4	0x4168ffeb	14.56248
5	0xbfff6515	-1.9952723
6	0x409f9e27	4.9880557
7	0x400c37bc	2.1909018
8	0x40bdea39	5.9348416
9	0x4009bafe	2.152038
10	0x41d0403a	26.03136
11	0x3f34583f	0.7044715
12	0xc019c8cb	-2.4028804
13	0x41053d0e	8.327406
14	0x4061fd9c	3.531104
15	0x4231fed8	44.49887
16	0x402da08c	2.712924
17	0xbf776290	-0.9663477
18	0xbf029cb4	-0.5102036
19	0xc1653742	-14.325991
20	0xc1350b2f	-11.31523
21	0x41470a59	12.440026
22	0x40f6d823	7.713884
23	0x41d4a0cb	26.578512
24	0x41f5a15b	30.703787
25	0x415f7733	13.966601
26	0xc0a80480	-5.2505493
27	0x3ff3f25e	1.905834
28	0xc1577999	-13.467187
29	0x424cb1e9	51.17374
30	0x3f6cd868	0.9251771
31	0x41351043	11.31647
32	0xbff90944	-1.9455953
33	0x415bc6a6	13.735998
34	0xc1a753d3	-20.91593
35	0xbfca179f	-1.5788459
36	0x3faa8c0c	1.3323989
37	0x4010c032	2.2617307
38	0x41592ac6	13.572943
39	0xc0988f00	-4.767456
40	0x40bdeba5	5.935015
41	0xc0ac3e7f	-5.382629
42	0xc1d6fe66	-26.874218
43	0xbec54f28	-0.38536954
44	0xc0892f08	-4.286991
45	0xbee2549f	-0.44205186
46	0x41a9baeb	21.216269
47	0xc0397d60	-2.8982773
48	0x40d9876b	6.7977805
49	0x40e6f32c	7.217184
50	0xc0da4cac	-6.8218594
51	0x4172aa90	15.166641
52	0x4144d88c	12.302868
53	0x3f27da48	0.65567446
54	0xbdc94416	-0.098274395
55	0x4232ce45	44.701435
56	0x41a521af	20.641447
57	0x3fe4c9b0	1.787405
58	0xc0d81eaf	-6.7537456
59	0x4150032d	13.000775
60	0xc0f78187	-7.7345614
61	0xc01653bf	-2.3488615
62	0xc1d2e98d	-26.364038
63	0x405015e2	3.2513356
64	0x418ac4a0	17.346008
65	0xbf929891	-1.145281
66	0xc1b6362d	-22.776453
67	0x3f265755	0.6497701
68	0x4255eaf0	53.47943
69	0xc09e8f77	-4.955013
70	0xc199d5ef	-19.22946
71	0xbfae7aba	-1.3631203
72	0x3ee53e76	0.44774216
73	0x40d83abd	6.75717
74	0xbec60ac6	-0.38680094
75	0xc04abfa7	-3.1679475
76	0xc1df409c	-27.906548
77	0x40130e58	2.2977505
78	0xc093ebdc	-4.6225414
79	0x3dcc3f95	0.09973065
80	0x3fe20131	1.7656614
81	0xbf3da009	-0.7407232
82	0x419a4e33	19.288183
83	0x41c1f0dd	24.242609
84	0x4218059c	38.005478
85	0x3f0cc20d	0.549836
86	0xc06473e2	-3.569573
87	0x400bccf2	2.1843839
88	0x4158f70a	13.560312
89	0xc1e6f643	-28.870245
90	0x3f13af43	0.57689303
91	0x41c94c2f	25.162199
92	0x3ebac853	0.3648096
93	0xbe2c7154	-0.16840106
94	0xbff962b4	-1.9483247
95	0xbf6d8821	-0.9278584
96	0x3ea22b21	0.3167353
97	0x40850149	4.156407
98	0x419a65ec	19.299767
99	0x4158413b	13.515925
100	0x40fc0ea2	7.876786
101	0x3f45f0e2	0.77320683
102	0xc22f021f	-43.75207
103	0x40351d1a	2.8299012
104	0x41464d67	12.393897
105	0xc0536adf	-3.303398
106	0xc08c3a66	-4.3821287
107	0x40d92b9e	6.7865744
108	0xc09e0dff	-4.9392085
109	0x404b1d28	3.1736546
110	0xbfcad230	-1.5845394
111	0xc1aad65b	-21.354666
112	0x3e8476e7	0.25871965
113	0xc0b8e6b6	-5.778163
114	0x3f99b666	1.2008789
115	0xc04390ef	-3.055721
116	0xc1e2dd89	-28.358171
117	0xc1c17bbb	-24.185415
118	0x413591ae	11.348066
119	0x40b452ac	5.635092
120	0x416d8dc4	14.847111
121	0xc008678e	-2.1313205
122	0xc185b790	-16.71463
123	0x3f1ae527	0.6050591
124	0x41e3b0aa	28.461262
125	0xc1361fa7	-11.382728
126	0xbe8d6117	-0.27613136
127	0xc1bf705f	-23.929869
128	0xbf40c3de	-0.7529887
129	0x40a2980b	5.08106
130	0xc0d73213	-6.7248626
131	0xc0e2e12f	-7.089988
132	0xbf42c79f	-0.7608585
133	0x3f6baab0	0.92057323
134	0x4190bd3e	18.092403
135	0xc071991f	-3.7749708
136	0x40bdc3bb	5.930143
137	0xc09c0293	-4.875314
138	0x3fa2b3b3	1.271109
139	0x3f33df94	0.7026303
140	0xc08b3dcc	-4.3512936
141	0xc081a369	-4.0511975
142	0x414a8433	12.657275
143	0x4083e4eb	4.121694
144	0x4112300b	9.136729
145	0x4168bf5a	14.546717
146	0xc07ffbd6	-3.9997458
147	0x41e5ebd4	28.74015
148	0x4029bc33	2.6521118
149	0x40cdfd72	6.437188
150	0xc1a6011c	-20.750542
151	0x407c6958	3.9439297
152	0xc291f9bd	-72.98777
153	0x41676852	14.462969
154	0x40823f37	4.0702167
155	0xc080c799	-4.024365
156	0xbec5d7d1	-0.38641217
157	0x4217097e	37.75927
158	0xbefd1093	-0.49426708
159	0xbf25ab7d	-0.64714795
160	0xc089887d	-4.297911
161	0xc0059c82	-2.0876775
162	0x3ed6c27a	0.4194525
163	0xc05578d0	-3.3354988
164	0xc11618ec	-9.381084
165	0x40f1f42c	7.561056
166	0xc1ea0434	-29.252052
167	0xc0ea2104	-7.31653
168	0x41cd2bb5	25.646341
169	0x41305f99	11.023339
170	0xc0cd1697	-6.4090075
171	0x41d986e7	27.19087
172	0x407bb768	3.9330692
173	0xc1a637a8	-20.777176
174	0x41f74872	30.910374
175	0xbffd28c1	-1.9778062
176	0x3ee0078c	0.43755758
177	0x40547c3a	3.3200822
178	0xbe901b15	-0.28145662
179	0xbf48fcb9	-0.78510624
180	0xc032c7e1	-2.7934496
181	0x3f3efc6e	0.7460393
182	0x40b693be	5.705535
183	0xc09729a9	-4.7238355
184	0x3fdf1481	1.7428132
185	0xc0ab00b7	-5.3438373
186	0xc14601d0	-12.3754425
187	0x42368291	45.627506
188	0x40fefeca	7.968602
189	0xc0374986	-2.8638625
190	0xbe436f0e	-0.19085333
191	0xbf823418	-1.0172148
192	0x4166511d	14.394803
193	0xc1f3df6a	-30.484089
194	0xc086f885	-4.217837
195	0xc22ef149	-43.73563
196	0x421421f0	37.033142
197	0x4195969c	18.69854
198	0xc09808ea	-4.751088
199	0xc0ee5985	-7.4484277
200	0x4079fec5	3.906175
201	0x3ea563df	0.32302758
202	0xbf5b69a5	-0.85708076
203	0x403201d9	2.7813628
204	0x3f033414	0.5125134
205	0xc0284e63	-2.6297843
206	0xc00625ef	-2.0960653
207	0x3f8b3255	1.0874735
208	0x4197b225	18.961985
209	0x41869742	16.823856
210	0xbf64f7a7	-0.8944039
211	0xbfee76ae	-1.8629968
212	0x411612f9	9.379632
213	0x403414e3	2.8137748
214	0xc205532b	-33.33122
215	0xc0b3ab64	-5.6146717
216	0xc1b96c6d	-23.177942
217	0x424b8934	50.883987
218	0xc1aa453f	-21.283812
219	0x42205443	40.082287
220	0x4127308a	10.44935
221	0x41b3061b	22.377981
222	0xbfa22216	-1.2666652
223	0x3f29f2ea	0.6638628
224	0xc0d67360	-6.701584
225	0x3f8a352f	1.079748
226	0x3fd61c7a	1.672744
227	0xc1992105	-19.141123
228	0xc1114393	-9.078998
229	0x41ae48bb	21.785513
230	0xc2149eab	-37.15495
231	0xc10d6cd8	-8.839073
232	0x404f8af7	3.2428567
233	0x3f925675	1.1432635
234	0xc1c3f2a0	-24.49347
235	0x412e80b3	10.906421
236	0xc098f2f1	-4.779656
237	0x41810258	16.126144
238	0x41c16752	24.17545
239	0xc15cd86d	-13.802838
240	0xc11d4c8d	-9.831189
241	0x4270e0e6	60.219627
242	0xc0aba7db	-5.36424
243	0x3ff3be90	1.904253
244	0x3ea4ef18	0.32213664
245	0xc236af17	-45.670986
246	0xbf819272	-1.0122817
247	0x40cc2828	6.379902
248	0x4190598c	18.043724
249	0x4010fdfe	2.2655025
250	0x41f91112	31.133335
251	0x40a59cf1	5.175408
252	0xbfd38e8b	-1.6527876
253	0x41ad47c2	21.660038
254	0xc16ddeef	-14.866927
255	0x40f6eef5	7.7166696

layer2.2.weight f4 [256, 256]
0	0xb9b6c546	-0.00034860725
1	0xbd169e92	-0.03677232
2	0xbd0f2cd1	-0.03495485
3	0xbd8b3326	-0.06796865
4	0xbc9d1819	-0.01917653
5	0xbdbe7d9d	-0.093013026
6	0xbe129f39	-0.14318551
7	0xbc722d71	-0.014781342
8	0xbd4f8a1a	-0.050668813
9	0xbda59030	-0.08084142
10	0xbe275a7f	-0.16343115
11	0x3ae7f289	0.0017696182
12	0x3d075249	0.033037458
13	0xbd9c9f93	-0.07647624
14	0xbcc0e369	-0.023545938
15	0xbd4fe1db	-0.050752502
16	0xbd5b9a28	-0.05361381
17	0x3c754b61	0.014971585
18	0xbd84ea9a	-0.06490059
19	0xbd33cd2e	-0.043896846
20	0xbda8c35d	-0.082403876
21	0x3d5a1edb	0.053252082
22	0xbcf6767a	-0.03008579
23	0xbe035d4c	-0.12828559
24	0xbdb6e645	-0.08930639
25	0xbb61317f	-0.0034361777
26	0xbdb6e6d0	-0.08930743
27	0x3d25aff5	0.04045101
28	0xbd9d5403	-0.076820396
29	0xbce616e5	-0.028087089
30	0xbd30ad19	-0.04313383
31	0xbd903836	-0.070419714
32	0xbd80be82	-0.062863365
33	0xbd6928bd	-0.056923617
34	0x3c716805	0.014734273
35	0xbc457316	-0.012051364
36	0x3cfc5da9	0.03080638
37	0x3c8d0bb0	0.017217487
38	0xbab9a9e6	-0.0014165014
39	0xbaff87fe	-0.0019495485
40	0x3a0e9b2e	0.00054399937
41	0x3d3494c0	0.04408717
42	0x3d41f63f	0.04735398
43	0x3cec8242	0.028870706
44	0xbd97b400	-0.07407379
45	0x3dadaf26	0.084806725
46	0xbcd3b55c	-0.025843315
47	0xbd02f113	-0.031968188
48	0xbb6c7028	-0.0036077593
49	0xbd6ccfc2	-0.05781532
50	0xbdf66397	-0.12030714
51	0xbdd8f32d	-0.10593257
52	0xbdd0404e	-0.10168515
53	0xbd88003a	-0.06640668
54	0xbcfa3859	-0.030544447
55	0xbd26e6e6	-0.040747546
56	0xbd58224d	-0.052767087
57	0xbdc371be	-0.09543179
58	0x3ca911c1	0.020638349
59	0xbd8958af	-0.06706368
60	0xbd279abc	-0.04091905
61	0xbd82e7f7	-0.063919
62	0xbdc86fc5	-0.09786943
63	0xbc907a01	-0.017636301
64	0x3c06e3fa	0.008233065
65	0xbc890af0	-0.016728848
66	0xbc8350e4	-0.016029783
67	0xbd1802b8	-0.037111968
68	0xbd3808d1	-0.044930283
69	0xbc7b7562	-0.01534781
70	0xbdbdf8bf	-0.0927596
71	0x3d90c76c	0.07069287
72	0xbcbbb83e	-0.022915002
73	0xbc306b5a	-0.010767782
74	0xbd116e51	-0.035505597
75	0x3d68a67e	0.056799404
76	0xbe01d636	-0.12679371
77	0x3c183e20	0.0092921555
78	0xbcbf16c2	-0.023326281
79	0x3d756e3e	0.05991959
80	0xbd3766fc	-0.044775948
81	0xbd9665e8	-0.07343656
82	0x3d2b9d6a	0.04189817
83	0xbde90591	-0.11378015
84	0xbcb0d097	-0.021583838
85	0xbd72ad7d	-0.059247483
86	0xbcfe3e08	-0.031035438
87	0xbd8add27	-0.06780463
88	0xbe0157ef	-0.126312
89	0xbd18d531	-0.03731269
90	0xbccb038c	-0.024781965
91	0xbd25962c	-0.04042642
92	0xbd3c9c81	-0.04604769
93	0xbd88b27a	-0.06674667
94	0x3be03eb5	0.0068434128
95	0x3bb6849e	0.0055700084
96	0xbda3a1ef	-0.07989871
97	0xbdc58dc1	-0.09646178
98	0xbd1ad128	-0.037797123
99	0x3af3427f	0.0018559246
100	0x3b3dd574	0.002896634
101	0xbc237482	-0.009976508
102	0xbcd3b4df	-0.025843082
103	0xbca1a957	-0.019734068
104	0xbd7268b9	-0.059181903
105	0xbd896310	-0.06708348
106	0xbca98388	-0.020692602
107	0xbdd17f3a	-0.10229345
108	0xbd30901a	-0.043106176
109	0xbd7be65b	-0.06149898
110	0x3bb6c800	0.005578041
111	0xbd1c919f	-0.038224813
112	0xbcec2329	-0.02882536
113	0xbc43e501	-0.011956454
114	0xbda9ddff	-0.082942955
115	0x3d295e87	0.041349914
116	0xbdcc5316	-0.09976785
117	0x3d5974cb	0.053089898
118	0xbde618ae	-0.11235176
119	0xbd716f2b	-0.05894391
120	0xbba27f38	-0.0049590133
121	0xbd4d45fd	-0.050115574
122	0xbdcb9260	-0.09940028
123	0xbcedf61a	-0.029048014
124	0xbcb2cf08	-0.021827236
125	0xbdc1c5fb	-0.0946159
126	0xbc40221a	-0.01172688
127	0xbdbbda64	-0.09172514
128	0xbdb86f32	-0.09005584
129	0xbd1222b5	-0.03567763
130	0xbdb41d0a	-0.08794601
131	0xbb531d4c	-0.0032213507
132	0x3d184c70	0.03718227
133	0x3d37d8c2	0.04488445
134	0xbdb4ccf1	-0.08828152
135	0xbcbd39e1	-0.023098888
136	0xbd99d38c	-0.075110525
137	0x3ab6d718	0.0013949601
138	0xbd34efcc	-0.044174
139	0xbcbe00c9	-0.023193734
140	0xbd387e4a	-0.045042314
141	0xbd5be56f	-0.0536856
142	0xbdb011d9	-0.08597154
143	0x3d18b3ff	0.037281033
144	0x3c65bcbb	0.014022048
145	0xbd66a81d	-0.05631267
146	0xbd3c4e4a	-0.0459731
147	0xbd9f19e2	-0.07768609
148	0xbd580410	-0.05273825
149	0xbd00bd41	-0.031430487
150	0xbd2f3ee5	-0.04278459
151	0xbce66747	-0.028125418
152	0xbe05deae	-0.13073227
153	0xbe1b63d2	-0.15174797
154	0x3cf0499a	0.029331971
155	0xba5979c3	-0.0008296037
156	0x3ccfd7c5	0.025371442
157	0xbdaf0954	-0.08546701
158	0xbdb4fc6f	-0.088372104
159	0x3dbbbbff	0.09166717
160	0xbd3c2176	-0.04593035
161	0xbd9a6270	-0.07538307
162	0x3b7c879f	0.0038532985
163	0xbd580591	-0.052739684
164	0xbdacdd60	-0.084406614
165	0xbc989a84	-0.018628366
166	0xbd80ae68	-0.06283265
167	0xbe0888f5	-0.13333495
168	0xbd5f3827	-0.05449691
169	0xbd963c01	-0.073356636
170	0xbdaa0afc	-0.08302876
171	0xbdb353c0	-0.087562084
172	0x3d144816	0.03620156
173	0xbdbc6caf	-0.09200417
174	0xbdabc88e	-0.08387862
175	0x3b5bccf5	0.0033538912
176	0xbd62f996	-0.055413805
177	0xbd04fa37	-0.032465186
178	0x3d7a5b47	0.061122205
179	0xbd7ac25e	-0.06122052
180	0xbddad9da	-0.10686083
181	0x3dc26083	0.094910644
182	0x3d5abbb2	0.053401656
183	0x3cd46b39	0.025930034
184	0xbd3c55a1	-0.0459801
185	0xbc15f463	-0.009152505
186	0xbca02066	-0.019546699
187	0xbde7569f	-0.112958185
188	0xbdb8317b	-0.08993813
189	0xbdb0c8b3	-0.0863203
190	0x3d8a6c13	0.06758895
191	0x3c885129	0.016640263
192	0xbd2fdae3	-0.042933356
193	0xbdb68794	-0.08912578
194	0xbd2e3462	-0.042530425
195	0xbd2a454a	-0.041569985
196	0x3b467a25	0.0030285206
197	0xbd1b43b9	-0.037906382
198	0x3c03aa09	0.008036145
199	0xbd8ba210	-0.0681802
200	0x3bcba3dd	0.0062146024
201	0xbd98e5f0	-0.07465732
202	0x3cbaa197	0.02278213
203	0xbdbfa575	-0.0935773
204	0x3cfd4c83	0.030920273
205	0xbbca5891	-0.0061751087
206	0xbdea9348	-0.11453873
207	0xbdaf5b8e	-0.085623845
208	0xbd2d1729	-0.042258415
209	0xbdc4efe4	-0.09616068
210	0xbe01b7c7	-0.12667762
211	0x3cd641c6	0.02615441
212	0xbd5b5a5b	-0.053552967
213	0xbc37928f	-0.011204376
214	0xbd92c434	-0.07166329
215	0x3c733f62	0.014846655
216	0xbe15d093	-0.14630346
217	0xbdabc177	-0.0838651
218	0xbda93728	-0.08262473
219	0xbdf9190b	-0.1216298
220	0xbd83dec6	-0.06438975
221	0xbcf4f30c	-0.02990105
222	0xbd29b888	-0.04143575
223	0x3d228359	0.039676044
224	0xbd36bb5d	-0.044612277
225	0xbc81d2a9	-0.01584752
226	0xbcd34b44	-0.025792725
227	0x3c20abc9	0.009806582
228	0xbd2eb195	-0.042649824
229	0xbdbdca8e	-0.0926715
230	0xbe1af0de	-0.15130946
231	0xbd0ee240	-0.034883738
232	0xbd6e65d2	-0.058202572
233	0xbd1dba19	-0.038507555
234	0xbc64ae8e	-0.013957633
235	0xbbac4f43	-0.005258472
236	0xbdd92e21	-0.106045015
237	0xbe1061f8	-0.14099872
238	0x3697f975	4.5291913e-06
239	0xbd02c662	-0.031927474
240	0x3cab374b	0.02090039
241	0x3cd676db	0.026179722
242	0xbdaedf72	-0.085387126
243	0xbd5b0b3b	-0.053477507
244	0xbbd42f96	-0.0064753992
245	0xbdffbf65	-0.124876775
246	0x3d83cdf1	0.064357646
247	0x3cafe44b	0.021471163
248	0xbd417df1	-0.047239248
249	0xbc46268f	-0.012094154
250	0xbd5a49ee	-0.05329316
251	0x3cc000ff	0.023437975
252	0xbc8f1692	-0.017466817
253	0xbd49f2b3	-0.04930372
254	0x3b4bcf80	0.0031099021
255	0xbce849a3	-0.028355425

layer2.2.bias f4 [256]
0	0x3db35da8	0.08758098
1	0xbe2ea20d	-0.17054005
2	0xbe180cd4	-0.14848644
3	0x3de444db	0.11145946
4	0xbef73f92	-0.48290688
5	0x3f917f69	1.1367007
6	0x410b9d1d	8.725858
7	0xbe99e6e5	-0.3005897
8	0xbe5d886c	-0.21634072
9	0xbd1c9a36	-0.038233005
10	0xbf85f3bd	-1.0465008
11	0xbe04c63c	-0.12966245
12	0xbe3b9324	-0.18317848
13	0x3d9c46e6	0.0763071
14	0x3f6b74de	0.919752
15	0x41ace19f	21.610167
16	0xbe563c4a	-0.20921436
17	0x3eb2c85a	0.3491848
18	0x3dbc5da0	0.09197545
19	0xbd89b0c6	-0.0672317
20	0x3f8c6991	1.0969716
21	0xbf47ef7f	-0.7809982
22	0xbdf6dd1a	-0.120538905
23	0x3d2edf8c	0.04269366
24	0xbe7aa814	-0.24478179
25	0xbe162e61	-0.1466613
26	0xbe0ad033	-0.13555984
27	0xbe1f3ab4	-0.15549737
28	0xbe803f21	-0.25048164
29	0x3d768241	0.060182814
30	0xbe6971b9	-0.22797288
31	0xbf2e8366	-0.6816925
32	0x3f8479be	1.0349653
33	0xbe4b26ef	-0.1983907
34	0xbe9b53fc	-0.30337512
35	0xbeef7167	-0.46766207
36	0xbe84f393	-0.25967082
37	0x404d9473	3.2121856
38	0x3f02c614	0.51083493
39	0xbdfbcdbb	-0.12295099
40	0xbecd45e7	-0.40092394
41	0xbe958b38	-0.29207778
42	0xbe475724	-0.19466835
43	0x3f198c64	0.59979844
44	0xbe661238	-0.22467887
45	0xbdc84476	-0.09778683
46	0x3faf3446	1.3687828
47	0x3dcd07fa	0.10011287
48	0x40963e28	4.6950874
49	0x3ead7988	0.33881783
50	0xbe117969	-0.1420647
51	0xbe128549	-0.14308657
52	0x3c8eba0a	0.017422695
53	0x3e1926bb	0.14956181
54	0xbdc8a04d	-0.097962
55	0xbe6e373f	-0.23263262
56	0x3ecd2efc	0.4007491
57	0xbe3ab21d	-0.18232007
58	0xbe2ecec3	-0.17071061
59	0xbe3ac2a1	-0.18238308
60	0x41318461	11.094819
61	0x41dd4ff9	27.66405
62	0xbe936fb1	-0.2879615
63	0xbe9bb6d9	-0.3041294
64	0x3f09058a	0.53524077
65	0x404e7744	3.2260294
66	0xbeaf77a4	-0.34270966
67	0x42004efd	32.077137
68	0xbe6f5d10	-0.23375344
69	0xbe8a9f2b	-0.2707456
70	0xbf06fe41	-0.5273171
71	0x417081fb	15.0317335
72	0xbea5c2d4	-0.32375205
73	0x3eb20893	0.34772167
74	0xbf33f337	-0.7029299
75	0x3efc267f	0.4924812
76	0xbe3efff1	-0.18652321
77	0xbdeb7f4a	-0.11498888
78	0xbfabc0be	-1.3418195
79	0xbd83f8e9	-0.0644396
80	0x3f173675	0.5906747
81	0xbf0279ef	-0.50967306
82	0xbdd566b8	-0.10419983
83	0xbea08ac4	-0.3135587
84	0xbeb91893	-0.3615156
85	0x3e9aa1f8	0.30201697
86	0xbe908bf7	-0.28231785
87	0xbfdd760e	-1.7301652
88	0xbe83a0dc	-0.25708663
89	0xbe9f0689	-0.31059673
90	0x3ce9c0b8	0.028534278
91	0xbe4bfebe	-0.19921395
92	0xbdfbad89	-0.122889586
93	0xbda0f9b8	-0.0786013
94	0xbad1a968	-0.0015995922
95	0xbf3a27e0	-0.72717094
96	0xbe35a3b0	-0.17738223
97	0xbd7a58ae	-0.061119728
98	0xbdeabc94	-0.1146175
99	0x3f801c41	1.0008622
100	0xbddd0aa1	-0.10793043
101	0x4021a65c	2.5257788
102	0x402b427f	2.6759336
103	0x412c4267	10.7662115
104	0xbdfc241b	-0.12311574
105	0xbe197b72	-0.14988497
106	0x411d0543	9.813785
107	0xbe797c4a	-0.24363819
108	0xbee35546	-0.44400996
109	0x3f8d1484	1.1021886
110	0xbe3f768b	-0.18697564
111	0x41ca67ed	25.300745
112	0xbf77a3cb	-0.96734303
113	0xbeafa0a8	-0.34302258
114	0x41fd4a02	31.661137
115	0xbe768db8	-0.24077499
116	0xbe827252	-0.25477844
117	0xbdabd85f	-0.08390879
118	0xbf0451d4	-0.5168736
119	0x3eee7510	0.46573687
120	0xbdf32da4	-0.1187394
121	0xbdfcbd98	-0.1234085
122	0x3d82dc36	0.06389658
123	0x405c9dae	3.447124
124	0xbe8e6f9c	-0.27819526
125	0xbe3422d9	-0.17591418
126	0xbee2bc79	-0.44284418
127	0xbe630f3a	-0.22173777
128	0xbe6c2e74	-0.23064595
129	0xbdf09b46	-0.11748366
130	0x3f8d1f59	1.1025192
131	0xbe759f0d	-0.23986454
132	0xbea785be	-0.32719225
133	0x3ff9fe9e	1.9530828
134	0x3face92c	1.3508658
135	0x40a6197f	5.1906123
136	0xbe8301e1	-0.2558737
137	0xbe0edfd1	-0.13952567
138	0x3f80aca7	1.0052689
139	0xbe7834b3	-0.24238853
140	0x3e0cd70d	0.1375391
141	0xbec17728	-0.37786222
142	0xbe7b594a	-0.2454578
143	0x40c2e00a	6.0898485
144	0xbccbe00a	-0.024887104
145	0x3f43a9ff	0.7643127
146	0xbe319b45	-0.17344387
147	0xbebaa937	-0.36457226
148	0x3cb5ec27	0.022207333
149	0xbe00164e	-0.12508509
150	0x408dfc92	4.4370813
151	0xbe9adf96	-0.30248708
152	0xbe23c999	-0.15994872
153	0x3dcc4747	0.099745326
154	0x3cf0a145	0.029373774
155	0x3ec19b45	0.37813774
156	0x429c6c25	78.21122
157	0x3f7b8206	0.98245275
158	0xbca9a0c4	-0.020706542
159	0x3e8ddfdb	0.2770985
160	0x3ecd5eaf	0.401113
161	0xbc1b784a	-0.009489128
162	0xbe4444cc	-0.19166869
163	0xbae40f53	-0.0017399587
164	0xbdce5648	-0.100750506
165	0x3f6c00c5	0.92188674
166	0xbf262c51	-0.6491137
167	0x41a6527d	20.790277
168	0xbdbe16ec	-0.09281716
169	0xbe32a2f8	-0.1744498
170	0xbe8a616a	-0.27027446
171	0x41662e3b	14.386287
172	0xbe154d5d	-0.14580293
173	0x3ebef3bb	0.37295327
174	0xbeecd115	-0.46253267
175	0x3ebcf662	0.36906725
176	0x411fbc13	9.983417
177	0xbe8d484c	-0.2759422
178	0xbe85c5ff	-0.26127622
179	0x3cea9404	0.028635032
180	0xbe244ccc	-0.1604492
181	0xbf0b044d	-0.5430344
182	0xbe63aa17	-0.22232853
183	0xbf45c0d5	-0.77247363
184	0xbe703a1e	-0.2345967
185	0xbe6e36c8	-0.23263085
186	0x41a0cc9c	20.099907
187	0x3ec7156b	0.38883528
188	0xbdc71be2	-0.09722115
189	0x3e8ff05e	0.28113073
190	0xbe9c1f0c	-0.30492437
191	0x41493f1a	12.577906
192	0xbef3f7df	-0.47650048
193	0x3ed71ad3	0.42012653
194	0xbc982013	-0.018569982
195	0xbe6fb28e	-0.23407957
196	0x3d1fce41	0.03901506
197	0xbecfe7e8	-0.40606618
198	0x3f12ecd3	0.57392615
199	0xbe9e4ff4	-0.30920374
200	0xbe8ca735	-0.2747132
201	0x40b56d4a	5.669591
202	0xbeaa3f98	-0.33251643
203	0x3f185fec	0.59521365
204	0xbec6822d	-0.3877119
205	0xbe881004	-0.2657472
206	0x3f843701	1.0329286
207	0x42575bc5	53.83962
208	0x3ed13a4f	0.40864798
209	0xbe6d6873	-0.23184375
210	0xbe77db68	-0.2420479
211	0xbe99a078	-0.3000524
212	0xbd1b3a5a	-0.037897445
213	0xbe842014	-0.25805724
214	0x3fea7e6d	1.8319832
215	0xbe94edfd	-0.2908782
216	0x40917430	4.545433
217	0xbdff91b9	-0.12478966
218	0xbf296480	-0.66168976
219	0xbe16e0e0	-0.1473422
220	0x3e5b67d3	0.21426325
221	0xbe13f6fb	-0.14449684
222	0xbdfed825	-0.1244357
223	0xbe1c2698	-0.15249097
224	0x3e50ff58	0.20409906
225	0xbe9600ac	-0.29297388
226	0xbfe0af9a	-1.7553589
227	0xbe8a47e0	-0.2700796
228	0x3e72e564	0.23720318
229	0x3b430851	0.0029759596
230	0xbe453db1	-0.19261815
231	0xbe459935	-0.19296725
232	0x3fb472e1	1.4097558
233	0xbe475e62	-0.19469598
234	0xbe4b377d	-0.19845386
235	0x3f6e0d17	0.92988724
236	0xbe9f754c	-0.31144178
237	0x3b0fa062	0.0021915664
238	0xbc7f1d38	-0.015570931
239	0xbe969978	-0.29413962
240	0x3b85ff8c	0.0040893015
241	0x3da9e42a	0.08295472
242	0x3dfb218d	0.12262259
243	0x3dcc38ed	0.09971795
244	0xbe14515d	-0.14484163
245	0xbe1472a1	-0.14496852
246	0x3de2dfcc	0.11077842
247	0x3e2a24e0	0.16615629
248	0x423466de	45.100456
249	0x3e9c4794	0.3052336
250	0x3f7c318d	0.9851311
251	0xbde85770	-0.113448024
252	0x3e663b61	0.22483589
253	0x3f3fa0a7	0.7485451
254	0xbe573149	-0.21014895
255	0x3d4bf235	0.049791533

layer2.4.weight f4 [1, 256]
0	0x3c08599f	0.008322149
1	0x3c051727	0.008123196
2	0x3addaaf5	0.0016911911
3	0xbc1d8b79	-0.009615772
4	0xbb4c9575	-0.0031217013
5	0xbcac41de	-0.021027502
6	0x3e752a92	0.2394202
7	0xbd1cbc40	-0.038265467
8	0x3a147ae9	0.0005664067
9	0xbcbf59e3	-0.023358291
10	0x3cbfc7ba	0.023410667
11	0x3d995520	0.074869394
12	0x3c2900ce	0.010315133
13	0x3c9f25ae	0.019427147
14	0x3c3d1ae8	0.0115420595
15	0x3f205bf8	0.62640333
16	0x3c1c1eb5	0.0095288055
17	0x3cebf749	0.028804438
18	0xbb0d295a	-0.002153954
19	0xbc810f12	-0.015754256
20	0xbd856c52	-0.06514801
21	0xbd900e99	-0.07034034
22	0x3c5ba52d	0.01340608
23	0xbcfc101b	-0.030769398
24	0xbc1a9d7d	-0.009436962
25	0xbc66bdfd	-0.014083383
26	0xbd818e2a	-0.06325944
27	0x3c980e24	0.01856143
28	0xbcdcd5bb	-0.026957383
29	0x3c659096	0.014011523
30	0x3bcc517d	0.0062353
31	0xbc8c2bd5	-0.017110744
32	0xbcb7c3b3	-0.022432184
33	0xbbcedfe4	-0.006313311
34	0x3ca39ce5	0.019972274
35	0xbc1c6429	-0.009545364
36	0xbc523e65	-0.012832259
37	0x3dc71823	0.097214006
38	0x3c62682f	0.013818785
39	0x3c480e36	0.012210419
40	0xbc2402ad	-0.010010404
41	0xbc0f4cfa	-0.00874638
42	0x3ccb9157	0.024849577
43	0xbd228e39	-0.039686415
44	0x3c1712d7	0.0092208
45	0xbe0c8104	-0.1372109
46	0x3c6c8b33	0.014437485
47	0xb9c093fe	-0.00036731357
48	0xbcd9408d	-0.026520038
49	0x3ada8437	0.0016671483
50	0x3cf272a8	0.029595688
51	0xbd2c27bd	-0.042030085
52	0xbb30237b	-0.0026876617
53	0xbe1ecbb5	-0.15507396
54	0xbcfad46a	-0.030618865
55	0xbcd58d8c	-0.026068471
56	0x3c11b021	0.00889209
57	0xbbff9f1b	-0.0078009493
58	0x3cea94cc	0.028635405
59	0xbc6a4cb1	-0.014300511
60	0xbdb49b10	-0.08818638
61	0xbe62e509	-0.22157682
62	0xbd460f84	-0.04835464
63	0xbd3cf3c1	-0.0461309
64	0xbd84fb31	-0.064932235
65	0x3cc556b2	0.024089191
66	0x3cd2ff73	0.025756573
67	0x3d223b1e	0.03960716
68	0x3a6840d5	0.00088597584
69	0x3cdfd734	0.027324297
70	0xbd561fb3	-0.052276324
71	0x3e8b1ad1	0.27168897
72	0xbc98cfc8	-0.018653765
73	0x3b6fe294	0.0036603557
74	0xbca77354	-0.020440735
75	0xbc9cd480	-0.019144297
76	0xbca606fa	-0.020266999
77	0xbbacefdf	-0.0052776183
78	0xbd4472d0	-0.047961056
79	0xb9be8ddf	-0.00036345326
80	0xbcd1bd97	-0.025603099
81	0x3bae5b38	0.0053209327
82	0x3c8a50fb	0.016884318
83	0x3b0e0728	0.0021671746
84	0xbac76d34	-0.001521504
85	0xbd7915f7	-0.060811963
86	0xbd3cb86d	-0.04607432
87	0xbccbb120	-0.024864733
88	0x3c006311	0.007836119
89	0xbc685d91	-0.014182464
90	0xbc8f02f4	-0.017457463
91	0x3beba714	0.007191548
92	0xbbb791e8	-0.00560211
93	0x3bfa5ac5	0.007640215
94	0xb9971cae	-0.00028822332
95	0xbb9f5edd	-0.0048636035
96	0xbab972fa	-0.0014148646
97	0xbbee7534	-0.0072771553
98	0x3d66c4c3	0.05633999
99	0xbd081d02	-0.03323079
100	0xbcdf2ca0	-0.027242959
101	0xbd9528e0	-0.07283187
102	0xbdc6bf66	-0.09704475
103	0xbdbe499d	-0.09291384
104	0x3ce54186	0.027985346
105	0x3cec9def	0.028883902
106	0xbcfbf2fa	-0.030755509
107	0xbca53fe8	-0.020172074
108	0xbc41ccec	-0.011828642
109	0xbbabf66e	-0.0052478826
110	0x3ca51f48	0.020156518
111	0x3eaabe33	0.33348235
112	0xbe5a0508	-0.21290982
113	0x3c8b561a	0.01700883
114	0x3d8ac23c	0.067753285
115	0xbd013740	-0.03154683
116	0x3bbdcd54	0.0057922993
117	0x3cbae6e4	0.022815175
118	0xbc15a12a	-0.009132663
119	0x3c4e1e13	0.012580412
120	0x3cf0a38f	0.029374866
121	0xbc07ed89	-0.008296379
122	0xbc2c7e59	-0.0105281705
123	0x3df98155	0.12182871
124	0xbc6b7049	-0.014370033
125	0x3b95ea9f	0.004575088
126	0xbc614a9a	-0.013750697
127	0x3cfe89c8	0.031071559
128	0xbad057f8	-0.0015895357
129	0xba260258	-0.00063327467
130	0x3bd2a60d	0.006428486
131	0x3ca05c42	0.019575242
132	0xbc2c7522	-0.0105259735
133	0xbbf9f52c	-0.0076281037
134	0xbd5dccdc	-0.054150447
135	0x3cb85bb7	0.02250467
136	0xbc844dc3	-0.01615036
137	0x3c0acb23	0.008471283
138	0x3c100d87	0.008792288
139	0xbbc915ab	-0.006136616
140	0xbc8b192a	-0.016979773
141	0x3c6cf1ca	0.014461944
142	0x3b9b713c	0.004743723
143	0xbd83203b	-0.06402632
144	0x3cdb437f	0.026765583
145	0xbba80e2b	-0.005128642
146	0xbcf042f3	-0.029328799
147	0xbc0a1d8d	-0.008429897
148	0xbbf973bc	-0.0076126736
149	0x3c9d8dea	0.019232709
150	0x3d2a1fa9	0.0415341
151	0xbcc2d662	-0.023783866
152	0x3c46cefa	0.012134308
153	0xbc934920	-0.017979205
154	0x3c83a134	0.016068079
155	0xbbe3f527	-0.0069567147
156	0x3e052b71	0.13004853
157	0xbbaad26b	-0.005213072
158	0x3ccff26f	0.025384156
159	0x3cf8825b	0.030335596
160	0xba75e68e	-0.00093803636
161	0xbb61ce04	-0.003445507
162	0x3cdc0dbe	0.026862022
163	0xbc851f1d	-0.016250188
164	0xbc526072	-0.012840377
165	0xbc43d2a3	-0.011952075
166	0xbca0c778	-0.019626364
167	0xbd7c8bf3	-0.061656903
168	0xbd328227	-0.043581154
169	0xbca44d1e	-0.020056304
170	0xbbe5e939	-0.0070163277
171	0x3dab1d18	0.083551586
172	0x3c3b3d1f	0.011428147
173	0x3bfec154	0.0077745114
174	0xbcb259d8	-0.021771356
175	0xbdc467aa	-0.09590085
176	0xbb7ac7c8	-0.0038266052
177	0xbcc58977	-0.0241134
178	0xbc2a3c78	-0.010390393
179	0xbd46113f	-0.04835629
180	0x3c85ec6a	0.016348083
181	0x3c9a042b	0.018800816
182	0xbbaee5c3	-0.0053374483
183	0xbd7b3574	-0.061330274
184	0xbc19eb01	-0.009394408
185	0x3ba5ae4d	0.0050561787
186	0x3ed08e63	0.40733632
187	0x3c59c5d2	0.013291793
188	0xbbf8e381	-0.00759548
189	0x3ce91622	0.028452937
190	0xbd42ca47	-0.047556188
191	0x3e081d62	0.13292459
192	0xbc8427c6	-0.016132247
193	0x3ba93acc	0.00516448
194	0xbbf739c3	-0.0075447275
195	0xbb9ea464	-0.0048413742
196	0xbcffa789	-0.031207817
197	0x348e3a69	2.649206e-07
198	0xbb4450b2	-0.0029955325
199	0x3cb90d48	0.02258934
200	0xbc85f0e8	-0.016350225
201	0xbda3a293	-0.07989993
202	0xbce4d2d0	-0.027932554
203	0x3c319cfc	0.010840651
204	0x3cdf558f	0.027262477
205	0x3c29dd3c	0.010367688
206	0xbbb6cac1	-0.0055783694
207	0x3e29d007	0.16583262
208	0xbca71f33	-0.02040062
209	0x3c5c13d9	0.013432466
210	0xbbb6ff8b	-0.0055846623
211	0x3da54ff0	0.080718875
212	0xbcb11241	-0.02161515
213	0xbba92847	-0.005162272
214	0x3e0abba9	0.13548149
215	0x3c8f17e2	0.017467443
216	0x3d587969	0.05285016
217	0xbc0ceb0e	-0.008600963
218	0x3d863687	0.06553369
219	0xbccb6788	-0.024829641
220	0xbcae46ce	-0.021273997
221	0xb9086e3f	-0.0001301104
222	0xbc965864	-0.018352695
223	0x3b875ed9	0.00413118
224	0xbc712530	-0.014718339
225	0x3c27464f	0.010209634
226	0xbd0bf24d	-0.034166623
227	0xbb26a9a8	-0.0025430713
228	0x3c1b50ae	0.009479685
229	0xbc69f32d	-0.014279169
230	0xbcaaeb84	-0.020864256
231	0xbbcffd21	-0.006347314
232	0x3d9b2ce6	0.07576923
233	0x3bdf8c6e	0.0068221604
234	0x3c91d6cb	0.017802617
235	0xbd0c64dc	-0.034275874
236	0x3b451270	0.0030070804
237	0xbd378b4e	-0.044810586
238	0xbd0087b8	-0.03137943
239	0xbbd7c681	-0.006584943
240	0xbbcb2e5a	-0.006200594
241	0xbba95663	-0.005167769
242	0x3ca1ed14	0.019766368
243	0x3d1cfceb	0.03832714
244	0x3c733781	0.014844776
245	0x3c8fb6c0	0.017543197
246	0xbccc219c	-0.02491837
247	0x3bbc29b6	0.005742277
248	0x3ea16661	0.3152342
249	0x3d35a5b5	0.044347484
250	0xbbe45eb4	-0.0069692973
251	0xbcfe4db5	-0.031042913
252	0xbcd5807f	-0.026062248
253	0xbd5f4093	-0.054504942
254	0x3cc8d0b1	0.024513574
255	0x3ccd2c66	0.025045585
