MyZipTobeUploaded/bpi_Neighbour_embedding/TimestampPredictor_parameters_BPI_laplacianOnWeighted_0.001_run0.pt (torch, 280823 bytes, 8 tensors)

layer1.bias f4 [6]
0	0x00000000	0.0
1	0x00000000	0.0
2	0x00000000	0.0
3	0x00000000	0.0
4	0x00000000	0.0
5	0x00000000	0.0

layer1.W f4 [4, 2]
0	0xbe2e2a14	-0.17008239
1	0xbdc2f6f6	-0.0951976
2	0xbdfa7447	-0.122292094
3	0xbdf7989a	-0.12089653
4	0xc01bcfec	-2.4345655
5	0x3f330813	0.69934195
6	0xc2f1c690	-120.88782
7	0x40ded765	6.9637933

layer1.a f4 [4, 1]
0	0xbe9e23f3	-0.30886802
1	0x3db7ab45	0.08968214
2	0xbe9e23f3	-0.30886802
3	0x3db7ab45	0.08968214

layer2.0.weight f4 [256, 12]
0	0x3f59a9d5	0.8502477
1	0x3ec368a5	0.38165775
2	0x3fc6638e	1.5499132
3	0x3ed7414f	0.42042014
4	0x3fcc51e6	1.5962493
5	0x3e172e87	0.14763843
6	0x3f3b972c	0.73277545
7	0xbe1db221	-0.15399982
8	0xbe999458	-0.2999599
9	0x3f52eec0	0.82395554
10	0x3e5aa295	0.21351083
11	0xbf659683	-0.8968279
12	0x3dfb71d1	0.12277568
13	0x3e182789	0.14858831
14	0x3bc182f6	0.0059055043
15	0x3fab4983	1.3381809
16	0x3f6903c4	0.9102137
17	0x3f92498d	1.1428696
18	0x3f152375	0.5825723
19	0xbfb6b0cc	-1.4272704
20	0x3f8fa829	1.1223193
21	0x3e9aab75	0.30208936
22	0xbe22869b	-0.1587166
23	0x3fbf875e	1.4963186
24	0x3f6eec74	0.9332955
25	0x3da777ce	0.08177148
26	0x3f3f4385	0.747124
27	0x3f03bc41	0.5145913
28	0x3f94f1f7	1.1636342
29	0x3e830f58	0.25597644
30	0x3f06c67b	0.5264661
31	0x3e676e3d	0.22600646
32	0x3fcc4bfa	1.5960686
33	0xbf8c7a1e	-1.0974767
34	0x3f1ff739	0.62486607
35	0x3f3c60bb	0.735851
36	0x3d93449f	0.07190823
37	0x3ea0cc08	0.31405663
38	0x3e36698b	0.17813699
39	0x3f459c7e	0.77191913
40	0x3f3466ed	0.7046955
41	0x3f4d6ce3	0.8024427
42	0x3f32c5bf	0.69832987
43	0xc0031e93	-2.048741
44	0x3f9daab4	1.231772
45	0xbe6cecdc	-0.2313723
46	0xbec8da52	-0.39229065
47	0x3fef9bc8	1.8719416
48	0xbedbc7cb	-0.42925867
49	0x3f00f377	0.503715
50	0x3fa5d1c0	1.2954636
51	0xbdfbe823	-0.12300136
52	0x3f26b1f4	0.65115285
53	0x3e373736	0.17892155
54	0x3fc040a5	1.5019728
55	0x3ef255a0	0.47330952
56	0x3df24f1d	0.11831496
57	0x40233240	2.549942
58	0x3fd79990	1.6843739
59	0xbb294761	-0.0025829899
60	0x3ee98704	0.4561082
61	0xbd8f3cc2	-0.069940105
62	0x3ebaac10	0.36459398
63	0x3d3eb8aa	0.046562828
64	0x3eebb5cb	0.46037135
65	0xbe538a07	-0.20658122
66	0x3ee7dfad	0.4528784
67	0xbcef137d	-0.029184097
68	0x3e950376	0.29104203
69	0xbe884832	-0.2661758
70	0x3e2a7139	0.16644754
71	0x3e53dc1b	0.20689432
72	0x3f5962c6	0.8491634
73	0x3eb53cc0	0.3539791
74	0x3f96b54d	1.1774079
75	0x3f4acc40	0.7921791
76	0x3de74138	0.11291736
77	0x3ee9403b	0.45556816
78	0x3f1ba134	0.6079285
79	0xbfab3ed2	-1.3378546
80	0x3f5885f1	0.8457938
81	0x3ed8193e	0.42206758
82	0x3fe19f1d	1.7626683
83	0x3f443e64	0.766577
84	0xbf6fe7ff	-0.9371337
85	0x3fb05ae4	1.3777738
86	0x3fb9d21e	1.4517248
87	0x3e8b398f	0.2719235
88	0x3ea8d5b8	0.32975554
89	0x40205f0d	2.5058014
90	0x3fd82803	1.6887211
91	0xbeb33a93	-0.35005626
92	0xbea988cc	-0.3311218
93	0x40318f8a	2.774386
94	0x401e8ecb	2.4774654
95	0xc02e0205	-2.7188733
96	0x3f1905d8	0.5977454
97	0xbec06dda	-0.3758381
98	0x3f9c7a54	1.2224832
99	0xbe838216	-0.25685185
100	0x3dc3fba7	0.09569483
101	0xbd0f1e3c	-0.034940943
102	0x3f3b52af	0.7317304
103	0x3d709246	0.058733247
104	0xbe470637	-0.19435965
105	0x3eb237fc	0.34808338
106	0x3f8480f7	1.0351857
107	0xbe97c484	-0.29642117
108	0x3e951e17	0.2912452
109	0xbe5ff468	-0.21870577
110	0x3eafeccc	0.3436035
111	0x3e0e4716	0.13894305
112	0x3ed4e559	0.41581228
113	0xbb357f92	-0.0027694446
114	0x3f414ebe	0.75510776
115	0xbe102379	-0.14076032
116	0x3e3757aa	0.17904535
117	0xbe9ea38d	-0.30984154
118	0x3f499b76	0.7875284
119	0x3e4dbc4a	0.20091358
120	0x3e9d27a7	0.30694315
121	0xc09f4b23	-4.977922
122	0x400d5fa5	2.2089627
123	0xbf097324	-0.53691316
124	0xbfedebc9	-1.8587581
125	0xbefcf087	-0.49402258
126	0x3feb68ad	1.839132
127	0x3c3b5e34	0.011436034
128	0x3e90607b	0.2819861
129	0x4060ab7a	3.510466
130	0x3facaf66	1.3491027
131	0x3f3cfc2a	0.7382227
132	0x3df55a14	0.11980072
133	0xbf174da6	-0.5910286
134	0x3f6102e1	0.8789502
135	0xbeef2758	-0.46709704
136	0xbe0c471b	-0.13699
137	0xbd9e8c0d	-0.07741556
138	0x3f829d97	1.0204343
139	0x3c0bea3c	0.008539733
140	0x3f1cc7bb	0.61242265
141	0x3f087bb9	0.53313786
142	0x3f57f7a7	0.8436226
143	0x3e6e6377	0.2328013
144	0x3f5910b1	0.84791094
145	0x3e3447f8	0.17605579
146	0x3f69895f	0.91225237
147	0x3e907201	0.28211978
148	0x3f4ea6e1	0.80723387
149	0x3e4cbd94	0.19994193
150	0x3f3ef981	0.7459946
151	0x3e26b1dc	0.16278785
152	0x400655a6	2.0989776
153	0xbfad7efe	-1.355438
154	0x3f13b35e	0.5769557
155	0x3f1bc265	0.608435
156	0x3ef6c57e	0.4819755
157	0xbe90e40d	-0.2829899
158	0x3f13db31	0.57756335
159	0x3e8056c1	0.25066188
160	0x3e83d539	0.25748613
161	0xbd46f428	-0.04857269
162	0x3f531501	0.82453924
163	0x3dbb75ae	0.09153305
164	0xbe9961f4	-0.29957545
165	0xbc9ab498	-0.018884942
166	0x3f7ceeb0	0.9880171
167	0x3d9326b4	0.071851164
168	0xbf55a8a0	-0.83460426
169	0xbf386e68	-0.72043467
170	0x3ed651f7	0.4185941
171	0xbe3196ba	-0.17342654
172	0x40303798	2.7533932
173	0xc025810b	-2.5860012
174	0x3fc8a67b	1.5675806
175	0x3e77bd1f	0.24193238
176	0xbfcb814f	-1.5898837
177	0xbeef1b79	-0.46700647
178	0x3fce919b	1.6138185
179	0x3e396f53	0.18108873
180	0x3ecd583e	0.40106386
181	0xbea80830	-0.32818747
182	0x3f229047	0.635014
183	0x3dde961f	0.10868477
184	0x3d3eb090	0.046555102
185	0xbcebe9e5	-0.028798053
186	0x3c5bf6b2	0.013425516
187	0x3e3245f8	0.17409503
188	0x3e5b0995	0.21390374
189	0xbd8ab07e	-0.067719445
190	0x3dc18988	0.0945006
191	0xbc8b9cf1	-0.017042609
192	0x3fb324f4	1.3995652
193	0x3f2a5e3d	0.66550046
194	0x3f8056ca	1.0026486
195	0x3f827647	1.0192345
196	0xbdca52d4	-0.098790795
197	0x3fea3bdc	1.8299518
198	0x3fcefa3f	1.6170119
199	0x3f4ef737	0.8084597
200	0xbf0bf8d3	-0.5467655
201	0x3fcbfaf3	1.5935959
202	0x40281567	2.6263063
203	0xc082b2ac	-4.0843105
204	0x3e69cc6a	0.22831884
205	0x3f5b6c6a	0.857123
206	0x3f88e50d	1.0694901
207	0x3f22a974	0.63539815
208	0x3fdfdc52	1.7489111
209	0x3fd2881d	1.6447788
210	0x3f91a0ad	1.1377159
211	0x3f19b184	0.6003649
212	0x3fa74888	1.306901
213	0xbf13e4ab	-0.57770795
214	0x3f420db8	0.75802183
215	0x3f911136	1.1333377
216	0x3f0803b0	0.53130627
217	0xbf0fb01d	-0.561281
218	0xbc68be28	-0.014205493
219	0x3ee0b400	0.4388733
220	0x3fa9ad53	1.3256019
221	0x3ef48b16	0.47762364
222	0x3f08a869	0.53381974
223	0xbc7991d7	-0.015232525
224	0x3f627867	0.8846497
225	0x3ee0f07e	0.4393348
226	0x3d8a5d88	0.06756121
227	0xbf03ab99	-0.5143371
228	0x3f9de5ea	1.2335789
229	0xbfe12acc	-1.7591186
230	0x3e531149	0.20612063
231	0x3fa00ece	1.2504518
232	0x3fc39706	1.5280464
233	0x3fa3e84d	1.2805268
234	0x3fae4427	1.3614548
235	0x3f9a464d	1.2052704
236	0xbfd0b452	-1.6305029
237	0x3fe7973c	1.8093028
238	0x3fbc9513	1.4732994
239	0xbf172311	-0.5903788
240	0xbf818333	-1.0118164
241	0x3ee22744	0.44170582
242	0x3fd82160	1.6885185
243	0x3e308117	0.17236744
244	0x3edd70bc	0.43250072
245	0xc0332b0c	-2.7995024
246	0x3fe19185	1.7622534
247	0xbdbb4cd9	-0.09145517
248	0x3de07daf	0.10961472
249	0x40a8d924	5.2765064
250	0x3fd1b3f1	1.6383039
251	0x3d197463	0.03746451
252	0x3d275843	0.040855657
253	0xbe053bba	-0.13011065
254	0x3e121a5b	0.14267866
255	0xbe4990d2	-0.19684151

layer2.0.bias f4 [256]
0	0xc227a38f	-41.909725
1	0x41469b20	12.412872
2	0x40a2c666	5.0867186
3	0x410f96b5	8.974294
4	0x3e8ab597	0.27091667
5	0xc00eae6f	-2.2293966
6	0x3fd16866	1.6359985
7	0xc1a88bfd	-21.068354
8	0xbf41c580	-0.75691986
9	0x401cb64b	2.4486263
10	0x430026d0	128.15161
11	0x4106b129	8.418252
12	0x40aef8c0	5.467865
13	0x407ad839	3.9194472
14	0x429a3e1b	77.1213
15	0xbeb4fe4f	-0.35350272
16	0xc22b591a	-42.837013
17	0x4164b710	14.294693
18	0x41092f99	8.5741205
19	0xc230b29a	-44.174416
20	0x40da719b	6.826368
21	0xc0e1a9a3	-7.0519576
22	0x3f8b20d1	1.086939
23	0x3f0bba2e	0.5458096
24	0xc0c04dfb	-6.009519
25	0x4007ffa8	2.124979
26	0x42454d68	49.325592
27	0x40c9c89a	6.3057375
28	0x402c96cc	2.696704
29	0x3f318b81	0.6935349
30	0xc1de5c59	-27.795092
31	0xbf22697d	-0.6344221
32	0x409e1de7	4.94115
33	0xc22813a3	-42.019176
34	0x4038e9a6	2.8892608
35	0x4102e3a1	8.180573
36	0x4010eca4	2.2644434
37	0x42ff832e	127.75621
38	0xc2899fb3	-68.81191
39	0x3ef153e8	0.47134328
40	0xc20ea9df	-35.66589
41	0x3fbd49d1	1.4788152
42	0xc0a72fd0	-5.2245865
43	0x4195657d	18.674555
44	0x40da0369	6.8129163
45	0x40fecec5	7.9627404
46	0x3e89cc4a	0.26913673
47	0x416db211	14.855973
48	0xbfadd1e6	-1.3579681
49	0x41ea0335	29.251566
50	0xbdc9fccc	-0.0986267
51	0xc1effecf	-29.999418
52	0x3f75362b	0.9578578
53	0xbf042391	-0.5161677
54	0xbf4aff15	-0.79295474
55	0xbf9c9621	-1.2233316
56	0xbffa0604	-1.9533086
57	0x4165bc47	14.358466
58	0x3f932696	1.149615
59	0xc18d35ae	-17.65121
60	0x40ee543e	7.4477835
61	0x3f6227a5	0.8834174
62	0x3f7b0cde	0.9806651
63	0x407421e2	3.814568
64	0x413b39a6	11.701574
65	0xbf893e02	-1.0722048
66	0xbf98c296	-1.1934383
67	0x40ba86f5	5.8289742
68	0x3ffb753d	1.9645153
69	0x40e755e8	7.2292366
70	0xbf899de6	-1.0751312
71	0x3e51022b	0.20410983
72	0xc1c632da	-24.77483
73	0xc0085a23	-2.1305015
74	0x40e0ec5a	7.0288515
75	0x3ec98976	0.39362687
76	0xc2142a30	-37.0412
77	0xbf2f22a7	-0.6841225
78	0xbf9a6829	-1.2063037
79	0x3f7ad594	0.97982144
80	0x4090ecf2	4.528924
81	0xbee0eca7	-0.4393055
82	0xc18dd145	-17.727182
83	0xc0b025c6	-5.504611
84	0xbf82130d	-1.0162064
85	0x42020395	32.503498
86	0x424202ce	48.50274
87	0xbf78a351	-0.971242
88	0x3ff27b15	1.8943812
89	0x4114f98b	9.310924
90	0x3f3eee13	0.7458202
91	0xbf9db99b	-1.2322267
92	0x40b12c15	5.536631
93	0xc1917f52	-18.187168
94	0x40e9b555	7.3033853
95	0xc0b8b741	-5.77237
96	0xbf2dcf5c	-0.6789453
97	0x40cc69bb	6.3879066
98	0x416d4705	14.829839
99	0x4098b8f5	4.772578
100	0xbf31e9c2	-0.6949731
101	0xbf9f992e	-1.2468622
102	0x40f58614	7.672617
103	0xc0a1f66a	-5.06133
104	0x40937dbb	4.609098
105	0x420213c3	32.5193
106	0xbef11b6a	-0.47091228
107	0x41820ad8	16.255295
108	0x41a9fe44	21.249153
109	0x3d4a4cba	0.04938958
110	0x3fcb5a2c	1.5886893
111	0xbcfd66fc	-0.030932896
112	0xc1dca6e7	-27.581495
113	0xc18b834c	-17.43911
114	0x409514dd	4.658797
115	0xc0bc07be	-5.875945
116	0xbfc09424	-1.5045209
117	0x403f35b2	2.9876523
118	0xc1ddca50	-27.723785
119	0x42440ebd	49.014393
120	0xbf99cd96	-1.2015865
121	0xc281a535	-64.82267
122	0x3ce562f3	0.028001284
123	0xc1d46ea3	-26.554022
124	0x40286e8c	2.6317472
125	0x3f62fc8c	0.88666606
126	0x3f9cfaf5	1.2264086
127	0xc23a14d4	-46.52034
128	0xc1ef72e2	-29.931095
129	0x406a3fc1	3.6601412
130	0x4104a68d	8.290662
131	0xbf15378b	-0.58287877
132	0x4053e166	3.3106322
133	0xc18eded3	-17.8588
134	0x424cca6e	51.197685
135	0xc26ff953	-59.99348
136	0xbffb2984	-1.9622045
137	0x4181d4f0	16.228973
138	0xc1f062a3	-30.048162
139	0x412acad8	10.674522
140	0x4248e1eb	50.220623
141	0x4079ef13	3.905217
142	0xc237961d	-45.896595
143	0x40ff11bf	7.9709163
144	0x3fa44376	1.2833087
145	0x42a602fe	83.005844
146	0xbeac5b1b	-0.33663258
147	0x417f81a8	15.969154
148	0x428eec88	71.461975
149	0x4005fc0b	2.0935085
150	0xbf99d1e1	-1.2017175
151	0x3edfabf5	0.4368588
152	0x4131e23b	11.117732
153	0xc1ef587e	-29.91821
154	0x4022cb4c	2.5436583
155	0xbe842b2b	-0.25814185
156	0xc052a50e	-3.2913241
157	0xc0af4cb3	-5.4781127
158	0xbf2bc95d	-0.6710413
159	0x3eebd790	0.460629
160	0xc1c543cd	-24.658106
161	0xc168b2e8	-14.543678
162	0xc070f7fc	-3.7651358
163	0xbec7093b	-0.3887423
164	0x40d08030	6.515648
165	0x41656eb0	14.339523
166	0xbdde0e19	-0.10842533
167	0x41637286	14.21546
168	0x3f382230	0.71927166
169	0xbe181451	-0.148515
170	0xbf90f15a	-1.1323655
171	0x409a8f51	4.8299947
172	0x42114c05	36.324238
173	0x4238490f	46.071346
174	0xbd829fb5	-0.06378118
175	0x40d03159	6.506024
176	0x3fee5b43	1.8621601
177	0xc0c3a7e1	-6.114243
178	0x40dee9e7	6.9660525
179	0x3f088635	0.53329784
180	0xbe521200	-0.20514679
181	0xbf12f779	-0.57408863
182	0xc26a137b	-58.519024
183	0x40bd629e	5.918288
184	0xc22cea23	-43.22865
185	0x40198e0e	2.3992953
186	0xbf254e40	-0.64572525
187	0x3fd140de	1.6347921
188	0x3fcd9097	1.605975
189	0xbed8f78f	-0.42376372
190	0xc0b026b2	-5.5047235
191	0xc1c97008	-25.179703
192	0xbeb715af	-0.3575873
193	0x40e8df7b	7.2772803
194	0xbfd5935f	-1.6685599
195	0xbf040f39	-0.5158573
196	0x405243b1	3.2853816
197	0xc1e02de8	-28.022415
198	0x404a4fe1	3.1611254
199	0x406ac785	3.6684277
200	0xc20068ce	-32.10235
201	0x41bd219f	23.641417
202	0x40247138	2.5694103
203	0xbfd4cfad	-1.6625878
204	0x3f883273	1.0640396
205	0x425a089c	54.508408
206	0xbfc64903	-1.5491031
207	0xbea19531	-0.31559137
208	0x3fb6ed3e	1.429115
209	0xbfa19add	-1.2625386
210	0xc203fb78	-32.995575
211	0x3fd98468	1.6993532
212	0x3fd666e2	1.6750147
213	0xc18f24bd	-17.892939
214	0xc05d6636	-3.4593635
215	0xc1800e50	-16.006989
216	0xbeddcea5	-0.4332172
217	0xc1986bfb	-19.052725
218	0xbf24b500	-0.64338684
219	0xc0babf72	-5.83587
220	0x4037203e	2.861343
221	0x422edb25	43.71401
222	0xc1c32a28	-24.395584
223	0xc21c25fc	-39.037094
224	0xbf25b7a3	-0.6473333
225	0xc19538e3	-18.652777
226	0x3fcb0964	1.5862241
227	0xbdf5dcf1	-0.12005032
228	0xc01c97f2	-2.446774
229	0x405f1886	3.4858718
230	0x42dcf431	110.47694
231	0x40ba5978	5.8234215
232	0xbf900049	-1.1250087
233	0xc258d037	-54.203335
234	0xbfaa1e14	-1.3290429
235	0x42d8fa96	108.489426
236	0x40cb7b22	6.358781
237	0xc290a5ea	-72.32405
238	0xbfb09ba6	-1.37975
239	0xbf00ca24	-0.5030844
240	0x40acd376	5.400813
241	0x4094f981	4.655457
242	0xc156f5bc	-13.434994
243	0xbf2823f7	-0.6567988
244	0xc007dfa1	-2.1230242
245	0x40a4df6b	5.1522727
246	0x42ec774f	118.233025
247	0x3e7ac9f6	0.24491104
248	0xc25da3bf	-55.40991
249	0x40d5cdc8	6.68137
250	0xbf588f83	-0.8459398
251	0x42bebce1	95.368904
252	0x409f2f38	4.974514
253	0x3d4634fe	0.04839038
254	0x3e2173f5	0.1576689
255	0xc1d6883b	-26.816519

layer2.2.weight f4 [256, 256]
0	0xbcf4bf6c	-0.029876433
1	0xbcdcdd85	-0.026961097
2	0xbd0f4a35	-0.03498288
3	0xbd53f1ca	-0.05174426
4	0xbd2c83c3	-0.042117845
5	0x3d2a5fbf	0.041595217
6	0xbdaaaf26	-0.08334188
7	0xbd279fa7	-0.04092374
8	0x3c5dbee9	0.013534286
9	0xbcf2c70c	-0.029635929
10	0xbd8e1adb	-0.06938716
11	0xbc671181	-0.014103294
12	0x3b8b827c	0.0042574983
13	0xbc4dc514	-0.012559194
14	0x3d346d10	0.044049323
15	0xbd0b3218	-0.03398332
16	0xbce1931b	-0.027535966
17	0xbd804371	-0.062628634
18	0xbd9f33e2	-0.07773568
19	0xbd391943	-0.045190107
20	0xbca6e2ca	-0.020371813
21	0x3bfaaf19	0.007650268
22	0xbd5c15d3	-0.05373175
23	0xbd69528e	-0.056963496
24	0xbdf48539	-0.11939473
25	0xbd62ae62	-0.055342086
26	0xbd0184eb	-0.0316209
27	0xbd98043b	-0.07422682
28	0xbda5a4cd	-0.08088074
29	0xbd6db97b	-0.058038216
30	0xbd73e52d	-0.05954473
31	0x3cd5d42e	0.026102152
32	0xbd95cb4d	-0.07314167
33	0xbd82abd5	-0.063804306
34	0xbd80a154	-0.06280771
35	0xbd8d6ecd	-0.06905899
36	0xbd30dcc1	-0.043179277
37	0xbdaad937	-0.08342212
38	0x3d07d418	0.033161253
39	0xbd9d0eb4	-0.0766882
40	0xbe0102c3	-0.1259871
41	0x3ce8eda7	0.028433634
42	0xbd879878	-0.06620878
43	0xbb524e25	-0.0032090035
44	0xbd294447	-0.04132488
45	0xbd9dfdc9	-0.07714421
46	0xbd8d3e62	-0.06896664
47	0x3d3924d2	0.04520113
48	0x398de029	0.00027060628
49	0xbd72f3e4	-0.059314623
50	0xbc727d93	-0.014800447
51	0xbd3ec424	-0.046573773
52	0xbce0c395	-0.02743701
53	0x3c9734a9	0.018457728
54	0xbd973057	-0.07382267
55	0xbdb99fb7	-0.09063666
56	0xbd013133	-0.03154106
57	0x3d095c14	0.03353508
58	0x3cbd4b4f	0.023107199
59	0x3caf929b	0.021432212
60	0x3b736105	0.0037136686
61	0x3ac43061	0.0014968031
62	0xbd2d9b90	-0.042384684
63	0x3d59620c	0.05307202
64	0x3cb98e17	0.022650762
65	0x3c519062	0.012790771
66	0xbd9bf800	-0.076156616
67	0x3d0bb3e5	0.034107108
68	0xbd26bb1b	-0.04070578
69	0xbd833178	-0.0640592
70	0xbdad44e1	-0.08460403
71	0xbd375bdb	-0.044765335
72	0xbd0e16cc	-0.03468971
73	0xbd25c4f5	-0.040471036
74	0xbcc63692	-0.024195943
75	0x3d46e090	0.048554003
76	0xbd46b4d3	-0.04851229
77	0x3bc0da85	0.0058854246
78	0xbd9f622d	-0.077823974
79	0x3ce75c37	0.028242214
80	0xbca86834	-0.0205575
81	0x3ca0c546	0.019625317
82	0xbd853bd2	-0.065055504
83	0xbcedb895	-0.02901868
84	0xbd12add0	-0.03581029
85	0xbdad6cc1	-0.08468009
86	0xbbf2a3d8	-0.0074047856
87	0x3d1db38d	0.03850131
88	0xbbd51048	-0.006502185
89	0xbd8689fc	-0.06569287
90	0xbcaf88c4	-0.02142752
91	0x3c91df56	0.01780669
92	0xbda1cf85	-0.07900909
93	0x3d35ca21	0.04438222
94	0x3d812374	0.0630559
95	0x3b7946a1	0.0038036483
96	0xbc42bca9	-0.0118858
97	0xbd6e581f	-0.058189508
98	0xbdd0de45	-0.101986445
99	0x3d0effcd	0.03491192
100	0xba834a6b	-0.0010016685
101	0xbd662ad7	-0.0561932
102	0x3abb5d12	0.0014294705
103	0xbc8f83e8	-0.017518952
104	0xbd8fc4a4	-0.07019928
105	0xbd4f6717	-0.050635424
106	0x3cb65964	0.022259422
107	0x3d18d207	0.037309673
108	0xbd7cb54d	-0.06169634
109	0x3d8712a2	0.06595351
110	0xbcb07281	-0.021538975
111	0x3d1f6d24	0.038922444
112	0xbc1c60d0	-0.009544566
113	0x3d1691e8	0.03676024
114	0xbd24fd57	-0.040280666
115	0xbd35ee16	-0.04441651
116	0xbdc9a270	-0.098454356
117	0xbe01deb7	-0.12682615
118	0xbdf13428	-0.11777526
119	0xbe37d0d1	-0.17950751
120	0xbd13909a	-0.036026575
121	0xbc8d80d7	-0.01727335
122	0xbc229bb5	-0.009924819
123	0xbdca6d13	-0.098840855
124	0x3ca01278	0.019540057
125	0x3d386342	0.045016535
126	0x3d7f3eb1	0.062315647
127	0xbd3d9914	-0.046288565
128	0x3c367a4c	0.011137556
129	0x3cb4ffa6	0.022094559
130	0xbdad4f74	-0.0846242
131	0xbcfc6399	-0.03080921
132	0xbd22ac0d	-0.03971486
133	0xbd60f36e	-0.054919653
134	0xbd86b63f	-0.065777294
135	0xbd4b907c	-0.049698338
136	0xbc50bda7	-0.012740529
137	0xbd1eccbe	-0.038769476
138	0xbcd73aa8	-0.026273087
139	0x3beb649f	0.007183626
140	0xbc2631a2	-0.010143669
141	0xbd523bdc	-0.051326618
142	0x3ce540f9	0.027985083
143	0xbdabcc01	-0.0838852
144	0x3ccabc62	0.024748031
145	0x3cfed06d	0.031105245
146	0xbdc06515	-0.0939428
147	0xbb8ad9ab	-0.004237374
148	0xbd15490b	-0.036446612
149	0xbe1769eb	-0.14786498
150	0xbd9508cd	-0.07277069
151	0x3e075465	0.13215788
152	0xbd862478	-0.065499246
153	0xbdbdf981	-0.09276105
154	0xbcab08da	-0.020878244
155	0xbb9b1895	-0.004733155
156	0x3aa67b90	0.0012701619
157	0xbdcaeb51	-0.09908164
158	0xbc1846a9	-0.00929419
159	0xbbc26370	-0.005932264
160	0x3cd43827	0.025905682
161	0xbc2bcc92	-0.010485785
162	0xbd048350	-0.03235179
163	0x3cda73e5	0.026666591
164	0xbcc6400b	-0.02420046
165	0x3cd8fb8c	0.026487134
166	0x3c9d8679	0.01922916
167	0xbc8d1edd	-0.01722663
168	0xbad662f4	-0.0016356395
169	0x3d137eb9	0.036009524
170	0xbd985461	-0.07437969
171	0x3d2b4f8c	0.04182391
172	0xbd19a091	-0.037506644
173	0xbe0afc39	-0.13572778
174	0xbd42a48c	-0.047520205
175	0xbd8b10ca	-0.06790312
176	0x3d3a7514	0.04552181
177	0xbd9bc161	-0.076052435
178	0xbd3fbe0c	-0.046812102
179	0xbd22cd2d	-0.039746452
180	0xbcb6e5a1	-0.022326292
181	0xbcd8ca49	-0.026463645
182	0xbd07c86d	-0.033150125
183	0xbc77ec03	-0.015131953
184	0xbdbce5bc	-0.09223506
185	0xbd4d2b72	-0.05009026
186	0xbb87f4d3	-0.0041490584
187	0x3bdada1f	0.006678834
188	0xbcea3d4a	-0.028593678
189	0x3c479102	0.012180569
190	0x3c599ced	0.013282043
191	0xbd88ed4a	-0.06685884
192	0xbda13b99	-0.078726955
193	0xbe707c01	-0.23484804
194	0xbccb43eb	-0.02481266
195	0xbd82d817	-0.06388872
196	0x3bee309e	0.007268979
197	0xbde8f8a2	-0.11375548
198	0xbd6b0b63	-0.057383906
199	0x3cfcfcf7	0.030882342
200	0xbd834b22	-0.06410815
201	0xbc63cd32	-0.013903903
202	0xbd53a633	-0.05167217
203	0xbcf192f3	-0.029489016
204	0x3c52bafb	0.012861962
205	0xbcdc569d	-0.02689677
206	0xbd0afb81	-0.03393126
207	0xbceef48a	-0.02916934
208	0x3c3f4f10	0.011676565
209	0xbbf2cda4	-0.007409768
210	0xbdadbf9c	-0.08483812
211	0xbddb807a	-0.10717864
212	0x3cff2771	0.031146737
213	0xbd0236fa	-0.03179071
214	0xbcde5be4	-0.027143426
215	0xbd12756c	-0.035756513
216	0x3d20c92c	0.039254352
217	0xbd9e8b15	-0.077413715
218	0xbc08d2f7	-0.008351079
219	0xbd4c0b5c	-0.04981552
220	0xbdaaba20	-0.08336282
221	0xbd832ac7	-0.064046435
222	0xbbb1d180	-0.0054265857
223	0xbe4aa388	-0.19788945
224	0x3c6c4dd1	0.01442285
225	0xbda89795	-0.08232037
226	0x3d35da85	0.04439785
227	0xbd03af63	-0.032149684
228	0xbd2434fb	-0.04008959
229	0x3bf44457	0.007454436
230	0x3c9351fc	0.01798343
231	0xbc259a06	-0.010107523
232	0x3cd12ebf	0.025534986
233	0xbdcad723	-0.09904315
234	0xbd587f01	-0.052855495
235	0x3968720e	0.00022167733
236	0xbd1a3ffc	-0.037658677
237	0xbc5395b5	-0.012914111
238	0x3c3e3e00	0.011611462
239	0xbd3f3325	-0.046679635
240	0xbd5e42a4	-0.054262772
241	0x3cb4e830	0.022083372
242	0x3bdfb67b	0.0068271733
243	0xbd26b5ff	-0.04070091
244	0xbd6316ad	-0.055441547
245	0x3db2cc2a	0.087303475
246	0xbd823505	-0.06357769
247	0xbdccec3e	-0.10005997
248	0xbdac4458	-0.08411473
249	0x3cf01e6d	0.029311383
250	0xbcc266b8	-0.02373062
251	0xbd3e3305	-0.046435375
252	0xbcd3ede8	-0.025870278
253	0x3d7b5948	0.061364442
254	0xbbde3ee6	-0.0067824004
255	0xbce00895	-0.027347842

layer2.2.bias f4 [256]
0	0xbdc620bc	-0.09674212
1	0xbeb716fd	-0.35759726
2	0xbeaf9eea	-0.3430093
3	0x3edc4315	0.4301993
4	0xbe977880	-0.29584122
5	0xbecd8f3c	-0.40148342
6	0x3c9b2506	0.018938553
7	0xbe406716	-0.18789324
8	0xbe114c5f	-0.1418929
9	0xbdb4880a	-0.0881501
10	0x3dc1ce7a	0.094632104
11	0xbeaa9c45	-0.3332235
12	0x407bb7ab	3.9330852
13	0xbe9af1c3	-0.30262575
14	0xbe27a84f	-0.16372798
15	0xbe23366d	-0.1593873
16	0x3fb1a5fc	1.387878
17	0x3e996147	0.2995703
18	0x41dd881a	27.691456
19	0x3ffad640	1.9596634
20	0xbe3f2599	-0.18666686
21	0xbe4be18b	-0.19910257
22	0xbf058f2a	-0.52171576
23	0xbdce65cc	-0.1007801
24	0xbeb342f4	-0.3501202
25	0xbe2cfe49	-0.16893877
26	0x3dda5e54	0.10662523
27	0xbec2f85d	-0.3808011
28	0xbdd59a48	-0.104298174
29	0x3f86a88f	1.052019
30	0xbe2d739f	-0.16938637
31	0x3c51690c	0.012781393
32	0x3c875b58	0.016523048
33	0x3f929b4d	1.1453644
34	0x3f98612d	1.1904656
35	0xbebd2d59	-0.3694866
36	0x3c458b08	0.012057073
37	0xbe0eb00b	-0.13934343
38	0x3dff45f0	0.124645114
39	0x410e305d	8.886807
40	0x40793ad4	3.8942156
41	0xbeceb648	-0.40373445
42	0xbe026d53	-0.12737016
43	0x40b1f933	5.56167
44	0xbe2e2b7f	-0.1700878
45	0x40afb162	5.490403
46	0x3f4a214a	0.78957045
47	0x3d30ef5f	0.043197032
48	0x3ca163e4	0.019700952
49	0xbee6796d	-0.45014516
50	0x3eb829a4	0.3596927
51	0x3ecf98b2	0.40546185
52	0xbe11bb3b	-0.14231579
53	0x40a5ed93	5.1852508
54	0xbea3aca4	-0.31967652
55	0xbe80c545	-0.25150505
56	0xbe23bba9	-0.15989555
57	0xbe1b1902	-0.15146258
58	0xbf0bdd87	-0.546349
59	0x40eb880a	7.3603563
60	0x423992d7	46.3934
61	0xbeaf2bb8	-0.34213042
62	0xbea6f4b5	-0.32608572
63	0x3f019fba	0.5063435
64	0x41862ed6	16.77287
65	0xbeb5d9fc	-0.3551787
66	0xbe849a5e	-0.25899023
67	0xbde119f9	-0.10991282
68	0xbe66238c	-0.22474498
69	0x3fdcbeff	1.7245787
70	0xbe8a4767	-0.270076
71	0x3f3837a4	0.719599
72	0x3ea399ea	0.31953365
73	0x3fe18469	1.7618533
74	0xbe697ea9	-0.22802223
75	0xbf52d48e	-0.8235558
76	0xbd83d15a	-0.06436415
77	0x3e9478db	0.28998455
78	0xbf0c1cab	-0.54731244
79	0xbe2f32ee	-0.17109272
80	0xbe63a1c2	-0.22229674
81	0x41de6743	27.80042
82	0xbe868f75	-0.26281324
83	0xbe396838	-0.18106163
84	0xbe13c1bf	-0.14429377
85	0xbbac964c	-0.00526694
86	0x3f55f2dd	0.83573705
87	0x3e5e3b51	0.21702315
88	0xbd49eb56	-0.0492967
89	0xbea93799	-0.3305023
90	0x3d8c7677	0.06858533
91	0xbea163af	-0.31521365
92	0xbe55a6e0	-0.20864439
93	0xbf56db24	-0.8392813
94	0xbf504e85	-0.8136981
95	0x3dc6b5c4	0.09702638
96	0xbd0e9d0a	-0.034817733
97	0xbe4f5e0f	-0.20250724
98	0x3fe02832	1.7512267
99	0x3bf23705	0.0073918127
100	0xbc03048a	-0.007996688
101	0xbe64d583	-0.22347073
102	0x3d2d2fc0	0.042281866
103	0x41124e64	9.144138
104	0x3f978043	1.1836017
105	0xbed5013f	-0.41602513
106	0x409ade22	4.839616
107	0xbe2603f5	-0.16212447
108	0xbda22fa1	-0.07919241
109	0xbe470e09	-0.19438948
110	0x404e4056	3.2226768
111	0x411b3fed	9.703107
112	0x3e9de17e	0.308361
113	0xbd3bd3d1	-0.0458563
114	0xbe7941d9	-0.24341525
115	0xbe19d5ef	-0.15023015
116	0xbe68577c	-0.22689623
117	0xbe8a3cb9	-0.26999453
118	0x3c72006b	0.014770607
119	0xbec95b12	-0.39327294
120	0x3d9b6934	0.07588425
121	0xbe5544af	-0.20826982
122	0x3c964303	0.0183425
123	0x3e31357d	0.1730556
124	0xbe47c8fc	-0.19510263
125	0x4029e463	2.6545646
126	0xbe7f18d3	-0.24911813
127	0xbdccc4a1	-0.099984415
128	0x3f4ecde3	0.8078291
129	0xbe64e259	-0.2235197
130	0xbda54aaa	-0.08070882
131	0x3e359730	0.17733455
132	0xbf16136c	-0.58623385
133	0xbea0f24c	-0.31434858
134	0xbe46d490	-0.19417024
135	0x3dfe6406	0.12421422
136	0xbeaf6304	-0.3425523
137	0x4242556b	48.583416
138	0xbf11f438	-0.57013273
139	0x3dc0a9b1	0.09407366
140	0x3ce5b614	0.028040923
141	0x41028e6b	8.15977
142	0xbd80bfdb	-0.062865935
143	0x3d40b5aa	0.04704825
144	0x432e0e9d	174.05708
145	0xbe369895	-0.17831643
146	0x3e94d5ac	0.2906927
147	0xbe97351f	-0.29532716
148	0xbe07faae	-0.1327922
149	0x42de9096	111.282394
150	0x4138332d	11.512494
151	0x40c9693a	6.294095
152	0xbe99a88b	-0.300114
153	0xbe8036c2	-0.25041777
154	0x3df181d3	0.1179234
155	0xbee4cfe8	-0.4468987
156	0xbe991a48	-0.29902864
157	0x3e005092	0.12530735
158	0xbe38d070	-0.18048263
159	0x3e9d0973	0.30671272
160	0xbdf80cec	-0.1211184
161	0xbb9af9e6	-0.0047294972
162	0xbe4d1f01	-0.20031358
163	0xbcaaaff4	-0.020835854
164	0xbf640b54	-0.89079785
165	0xbde7881b	-0.11305257
166	0x3d7dab0f	0.061930712
167	0x4266bc9d	57.684193
168	0xbe926f28	-0.2860043
169	0x420ce7c9	35.226353
170	0x4141e775	12.119008
171	0x3e976e54	0.2957636
172	0xbe229941	-0.15878774
173	0xbe994df5	-0.2994229
174	0xbd9d7d5c	-0.07689926
175	0x423eab63	47.66737
176	0x3e24af0e	0.16082403
177	0x3e5c609e	0.21521232
178	0x41096d75	8.589223
179	0xbded661f	-0.11591744
180	0x3f12a3b6	0.57281053
181	0x3d4d3b29	0.050105248
182	0x41507029	13.027383
183	0xbea48b00	-0.321373
184	0x3e77e6f7	0.242092
185	0x3e8f031b	0.27932057
186	0xbe33c82a	-0.17556825
187	0xbf1f0446	-0.62115896
188	0xbf079274	-0.52957845
189	0xbe7f1e49	-0.24913897
190	0x4180d73a	16.105091
191	0xbe3f15a8	-0.18660605
192	0x40be0bc8	5.938938
193	0xbe7df551	-0.24800612
194	0x415424de	13.259001
195	0xbe58ff9f	-0.21191262
196	0x3dc4d794	0.09611431
197	0x3de557b5	0.111983694
198	0xbe0aa5f1	-0.13539864
199	0x3fbe1542	1.4850237
200	0xbd4aa1ef	-0.04947084
201	0xbe28eb31	-0.16495968
202	0xbefecff1	-0.49768022
203	0xbe0bd37e	-0.13654897
204	0xbce318ae	-0.02772173
205	0x3ea3884e	0.3193993
206	0xbe923b0d	-0.28560677
207	0x3e14f32b	0.14545886
208	0xbd4a44ab	-0.049381893
209	0x3f02308b	0.5085532
210	0xbf4bbab4	-0.7958176
211	0xbf1124a9	-0.56696564
212	0x40c490e4	6.142687
213	0xbe6d2dea	-0.23162046
214	0x3e3f87d1	0.18704154
215	0xbec4b44f	-0.38418815
216	0xbe103a03	-0.1408463
217	0xbbb6b843	-0.005576165
218	0xbe4cb8ff	-0.19992445
219	0xbdfb45ac	-0.12269148
220	0x3fa79c3c	1.3094554
221	0x3e75abe7	0.23991357
222	0x3fbb22bd	1.4619976
223	0xbdd547ac	-0.10414061
224	0xbe2785de	-0.1635966
225	0x3d145496	0.03621348
226	0xbf45a6e3	-0.77207774
227	0x3f45108e	0.76978385
228	0xbe496648	-0.19667923
229	0xbe62725d	-0.22113939
230	0x3ed8e378	0.42361045
231	0x3ec4006f	0.3828158
232	0xbe824af6	-0.25447816
233	0xbe8037d2	-0.25042588
234	0xbd87cc3c	-0.066307515
235	0xbdd8b586	-0.10581498
236	0x3ec501c2	0.38477904
237	0xbddbd93c	-0.107347935
238	0xbdb9581f	-0.09050011
239	0xbe8cc1ee	-0.27491707
240	0x3eb235e2	0.34806734
241	0xbee3c173	-0.44483528
242	0xbee22171	-0.4416614
243	0x3f015332	0.5051757
244	0xbc96a1ee	-0.018387761
245	0x3e82f0df	0.25574395
246	0x4201a5d9	32.41196
247	0xbe552fdb	-0.20819037
248	0xbeecc363	-0.46242818
249	0xbd160e59	-0.036634777
250	0xbda902b3	-0.08252468
251	0x3ec24be8	0.37948537
252	0x3e450358	0.19239557
253	0x413aea5b	11.682216
254	0xbdf4957b	-0.11942574
255	0x3fb60920	1.4221535

layer2.4.weight f4 [1, 256]
0	0x3c83e150	0.016098648
1	0xbc428e0d	-0.011874688
2	0xbc47e686	-0.012200957
3	0x3cb73716	0.022365134
4	0x3cfb6b74	0.030690886
5	0xbb5cb931	-0.0033679719
6	0xbbe740aa	-0.007057269
7	0x3cb2ed50	0.021841675
8	0xbc8fc244	-0.017548688
9	0xbaaef31b	-0.0013347598
10	0x3b0c4a44	0.002140657
11	0x3cf08f2b	0.029365143
12	0x3d4f6462	0.050632842
13	0x3cd4532b	0.025918564
14	0x3cffd172	0.031227801
15	0xbca95d50	-0.020674378
16	0x3c9f9860	0.019481838
17	0x3c1a111b	0.009403492
18	0x3e375d29	0.17906632
19	0x3cbcf834	0.023067571
20	0xbceeabe5	-0.0291347
21	0xbc677446	-0.014126843
22	0xbd59e378	-0.053195447
23	0xbb358bc1	-0.0027701708
24	0xbcdb5668	-0.0267746
25	0xbc3d1a8e	-0.011541976
26	0xbca77330	-0.020440668
27	0x3d36d6a1	0.04463828
28	0x3c51444f	0.012772634
29	0xbc644714	-0.013932962
30	0xbcd4b1e5	-0.025963733
31	0xbc995317	-0.018716378
32	0x3c17dfc7	0.009269661
33	0xbb650358	-0.003494462
34	0xbba0e758	-0.004910391
35	0xbcd25fbb	-0.025680413
36	0xbc96521f	-0.018349705
37	0xbbd7b3e4	-0.006582724
38	0xbd27fff7	-0.04101559
39	0x3c2ef875	0.010679354
40	0xbdc59659	-0.09647817
41	0x3d34e18e	0.04416042
42	0xbb94939d	-0.0045341984
43	0xbc20bd32	-0.009810733
44	0xbb7ea0fd	-0.003885328
45	0xbd955f6c	-0.07293591
46	0x3db51bf4	0.08843222
47	0x3c04f900	0.008116007
48	0x3c9ea23a	0.019364465
49	0xbe1bb4e7	-0.15205728
50	0xbcf88a0e	-0.030339267
51	0x3c685792	0.014181035
52	0xbbe8ac56	-0.007100622
53	0xbb808f6a	-0.0039233463
54	0xbcc3b8bf	-0.023891805
55	0xbc8233bc	-0.01589381
56	0xbc41459a	-0.011796379
57	0xbc44c6ff	-0.012010335
58	0xb8ff1641	-0.00012163493
59	0xbce67d0d	-0.0281358
60	0x3dcb181d	0.099167086
61	0x3c043a71	0.008070574
62	0x3caa269e	0.020770367
63	0xbcbc4361	-0.022981348
64	0x3d5d102b	0.053970497
65	0x3c881d54	0.016615547
66	0x3ca27767	0.019832326
67	0xbc5b1291	-0.013371126
68	0xbc0a5977	-0.008444182
69	0xbc239668	-0.00998459
70	0x3cc9b738	0.024623498
71	0xbbc929e0	-0.006139025
72	0x3c601a4f	0.013678147
73	0xbccfc620	-0.025363028
74	0x3bc6070d	0.006043321
75	0xbcf6586e	-0.030071463
76	0xbc68d2ad	-0.014210385
77	0x3c70be68	0.014693834
78	0x3beb8353	0.007187286
79	0x3d2c5f27	0.04208293
80	0x3c814599	0.015780257
81	0xbd8dfc69	-0.06932909
82	0x3cd512a9	0.026009874
83	0xbcb3ee14	-0.02196411
84	0xbce90c11	-0.028448137
85	0xbb9c52e6	-0.0047706245
86	0x3d47ee53	0.048811268
87	0x3ca8eef7	0.02062176
88	0x3b443369	0.002993787
89	0x3c486853	0.012231904
90	0x3c0830a6	0.00831238
91	0xbd3b4a77	-0.045725312
92	0xbb2243d4	-0.0024759667
93	0xbc8ab7e9	-0.016933398
94	0x3d437a2c	0.047723934
95	0xbac1ff4e	-0.0014800818
96	0xbce251a4	-0.02762682
97	0xbc7a51ac	-0.015278261
98	0x3b9bce2f	0.0047548036
99	0xbc7edb59	-0.015555226
100	0x3bb63189	0.0055601043
101	0xbaa06bf9	-0.001223921
102	0x399e65f1	0.0003021206
103	0xbca9dc40	-0.020734906
104	0x3d19d416	0.037555777
105	0xbc0b2fe6	-0.008495307
106	0xbdab767a	-0.08372207
107	0x3c257b22	0.010100158
108	0xbc0a0e83	-0.008426311
109	0xba1f5e8a	-0.0006079456
110	0x3c2f437e	0.010697244
111	0xbb40e426	-0.0029432862
112	0xbb88f8ea	-0.0041800635
113	0xbc37821f	-0.011200457
114	0x3cd3ee05	0.025870332
115	0xbca04c9c	-0.01956778
116	0xbdbb93a1	-0.09159017
117	0x3ccaf510	0.024775058
118	0xbc59c479	-0.013291472
119	0xbced2af1	-0.02895114
120	0x3c5f07c7	0.013612694
121	0xbcc711c8	-0.024300471
122	0xbc1b32b0	-0.009472534
123	0x3d96c202	0.07361223
124	0xbc63d11b	-0.013904835
125	0x3d8246d8	0.063611686
126	0x3c67e778	0.014154308
127	0x3cb90014	0.022583045
128	0x3d3288a7	0.043587353
129	0x3c3a3079	0.011364096
130	0x3ce8da3a	0.028424371
131	0x3c69cc36	0.014269879
132	0x3c9260a1	0.017868342
133	0xbcb65431	-0.022256942
134	0x3c1e430d	0.009659541
135	0x3c7c67c7	0.015405602
136	0x3ce4e9c5	0.027943501
137	0x3dbd16fb	0.09232899
138	0x3bc2afbb	0.005941359
139	0xbc69c1cc	-0.014267396
140	0x3b7ce9c3	0.0038591481
141	0x3c2fb238	0.010723643
142	0xbcf72d4b	-0.030172965
143	0xba006999	-0.0004898548
144	0x3dea34de	0.11435865
145	0xbbb37c67	-0.0054774764
146	0x3c1fdec8	0.009757705
147	0x3cdf7da4	0.02728159
148	0xbb25464d	-0.0025218904
149	0x3e8e3583	0.277752
150	0xbf4867c0	-0.7828331
151	0xbce57426	-0.028009485
152	0x3cdd18ea	0.026989419
153	0x3c3bbfba	0.011459285
154	0xbce665dd	-0.028124744
155	0xbcb1ec8e	-0.021719243
156	0x3ca38ff2	0.0199661
157	0x3c8f4f03	0.01749373
158	0xbbdef564	-0.006804155
159	0x3c5ccdec	0.01347683
160	0xbcc7c014	-0.024383582
161	0x3c09257b	0.008370752
162	0xbcab9f5b	-0.02095001
163	0xbc09f73e	-0.008420764
164	0xbc96709f	-0.018364249
165	0x3cc23d8b	0.023710987
166	0xbc38ae44	-0.011272017
167	0x3d74f445	0.059803266
168	0xba56f0e2	-0.00081993465
169	0x3e12563c	0.14290708
170	0x3cc0db3d	0.023542041
171	0xbc8e70a1	-0.01738769
172	0x3c0b2e75	0.008494963
173	0x3b8e0b26	0.004334825
174	0x3c90d24f	0.017678408
175	0x3e2f7b80	0.17136955
176	0xba18bafd	-0.0005826203
177	0x3aeb81c0	0.0017967746
178	0xbce8ebd1	-0.028432759
179	0x3bcb777f	0.0062093134
180	0xbc901039	-0.01758586
181	0x3b943b79	0.0045236913
182	0x3cb541fe	0.022126194
183	0xbcf696b9	-0.030101167
184	0xbc13c9ad	-0.009020251
185	0x3cab4e57	0.020911379
186	0x3cdccb8a	0.026952524
187	0x3c90e490	0.017687112
188	0x3cf3ef12	0.029777084
189	0xbc3f6a3d	-0.011683044
190	0x3c1d60b3	0.009605574
191	0x3c7837e3	0.015150043
192	0x3cca855d	0.024721796
193	0x3cdfeed4	0.027335562
194	0x3dcbfdc0	0.09960508
195	0x3c7dcf66	0.015491342
196	0xbc14ae0a	-0.009074697
197	0xbcd21cc6	-0.025648486
198	0xbc5e81ff	-0.013580798
199	0x3cb86261	0.022507848
200	0xbba82034	-0.005130792
201	0x3cd83fcd	0.02639761
202	0x3c5c0461	0.013428778
203	0xbccfc44a	-0.025362153
204	0x3cd64277	0.02615474
205	0xbd56441d	-0.05231105
206	0xbcbded94	-0.023184575
207	0xbd06e4a0	-0.032932878
208	0x3ccdcac6	0.025121104
209	0x3e1c86f3	0.15285854
210	0x3c561a44	0.013067786
211	0x3cc58bd2	0.024114523
212	0xbca2e7f6	-0.019885998
213	0x3c7af5f3	0.015317428
214	0x3ccab0e6	0.024742555
215	0x3cd5b59b	0.026087573
216	0x3cd40626	0.025881838
217	0xbc0bf7fb	-0.00854301
218	0xbcdb6ca3	-0.0267852
219	0x3b934d1e	0.004495277
220	0xbcde30ab	-0.027122816
221	0x3bec6bba	0.0072149904
222	0xbd5fdb99	-0.054652784
223	0xbc544a57	-0.012957177
224	0x3c822473	0.015886521
225	0x3bdb7f21	0.0066985046
226	0xbcb7d938	-0.022442445
227	0xbcf3ae15	-0.029746095
228	0xbce2ad0f	-0.027670411
229	0xbbdebf5d	-0.0067977146
230	0x3b77285b	0.0037713263
231	0x3c11b77f	0.0088938465
232	0x3cf63e3a	0.030058969
233	0xbc415029	-0.011798897
234	0xbc3d96d2	-0.011571603
235	0xbcfa1a29	-0.030530052
236	0x3cd458dc	0.025921278
237	0x3c6a02b8	0.014282875
238	0xbca01bf2	-0.019544575
239	0x3c42deab	0.0118939085
240	0x3ce64bc4	0.0281123
241	0xbce56bce	-0.028005507
242	0xbcd1e58e	-0.025622156
243	0x3aa4b161	0.001256507
244	0x3d65dca2	0.056118615
245	0x3d01301e	0.03154003
246	0x3f6b1c8f	0.9184045
247	0x3c1b2969	0.009470322
248	0x3bb8e0e7	0.005642045
249	0x3cc32191	0.023819717
250	0xbcfb05b0	-0.03064236
251	0xbc8b231e	-0.016984519
252	0x3ca9a948	0.020710602
253	0xbccb3d3c	-0.024809472
254	0x3c066510	0.008202806
255	0xbc8ed3a5	-0.017434904
