MyZipTobeUploaded/bpi_Neighbour_embedding/TimestampPredictor_parameters_BPI_binary_0.001_run0.pt (torch, 280823 bytes, 8 tensors)

layer1.bias f4 [6]
000000 00 00 00 00 00 00 00 00 00 00 00 00 00 00 00 00
       0.0 0.0 0.0 0.0
000010 00 00 00 00 00 00 00 00
       0.0 0.0

layer1.W f4 [4, 2]
000000 e2 be 40 bd d2 86 33 be 37 b8 a9 bc 45 10 01 be
       -0.04705704 -0.17531899 -0.020717723 -0.12603863
000010 d2 f1 6d c0 bb d4 2e 3e bb 9c b9 c2 df 67 36 c2
       -3.7178845 0.17073338 -92.806114 -45.601437

layer1.a f4 [4, 1]
000000 71 3c 65 be 0a 3c 1e bf 64 37 bc bf eb 8c f1 bd
       -0.22386338 -0.6181036 -1.4704404 -0.11794456

layer2.0.weight f4 [256, 12]
000000 72 4d 3c 3f fe 9f 05 3c fc bc 69 3f be 26 d2 bd
       0.7355567 0.008155821 0.9130399 -0.10261296
000010 68 9b d5 3f 14 94 f3 3d 88 11 a2 bd ef fa c9 be
       1.6688051 0.11893478 -0.079135 -0.3944926
000020 d1 9f 00 40 9b bf bc 3d 31 82 38 3f c7 50 0f 3d
       2.0097544 0.09216233 0.72073656 0.034989145
000030 fd 36 43 3f 9b 29 25 3f 0a f9 8f 3f 06 21 81 be
       0.7625578 0.6451661 1.1247876 -0.25220507
000040 e3 b3 20 3e c4 72 45 3f b5 6c aa 3e 2a 33 a3 3f
       0.15693621 0.77128243 0.33286062 1.2749989
000050 19 26 79 3e 2e 70 58 3f 83 a4 89 3e 65 c8 74 3f
       0.2433094 0.8454617 0.26883325 0.9561828
000060 c3 5d 65 3e 2b 57 40 3e f0 81 1a bd e2 77 0d 3c
       0.22399049 0.18783252 -0.037721574 0.008634539
000070 c4 eb fb 3d a1 00 b2 bd 37 cc c2 3e 0b 3b 21 3e
       0.12300828 -0.08691526 0.3804643 0.1574518
000080 d3 9c 99 3e 97 2c 82 3e 60 99 46 3e 69 d0 10 3d
       0.3000246 0.25424644 0.19394445 0.035355005
000090 0a 51 04 3f 42 27 d1 3e ee 69 07 3f 9a 91 2a bf
       0.51686156 0.40850264 0.5289601 -0.6662842
0000a0 73 43 a6 3e af 20 e4 3e 15 71 09 3e ed 51 02 3f
       0.32473335 0.44556186 0.13422044 0.5090626
0000b0 db 59 3a 3e c7 e4 3b 3f 8c 82 3d 3f 6b 48 86 3c
       0.1819834 0.7339596 0.74027324 0.016391953
0000c0 ee 04 07 bd 00 ae 20 be 6d 71 16 3f 1b 27 26 bf
       -0.032963686 -0.15691376 0.58766824 -0.6490342
0000d0 1c 1c 4c bd 76 ee 41 3d 7e 2f 9b 3e 2b 8b 5a 3f
       -0.049831495 0.047346555 0.3030967 0.85368603
0000e0 20 32 01 3f bd b5 3d 3f 08 3c d1 bd 10 97 97 be
       0.5046711 0.74105436 -0.10216528 -0.2960744
0000f0 eb a7 33 3f f2 43 d1 bd d9 e1 83 3f 14 75 20 be
       0.701781 -0.10218038 1.0303298 -0.15669662
000100 36 83 88 3f 9a 3c 93 3d 7b 9f 07 3e d6 ac 6e 3e
       1.0665042 0.07189293 0.1324443 0.23308119
000110 aa 54 8c 3f 9d dd e9 3e 47 53 fb bd 06 d5 04 3f
       1.0963337 0.4567689 -0.12271743 0.5188755
000120 4d 82 27 3f 1e 0a 84 3e c4 d4 59 3f 04 1e 77 be
       0.654332 0.2578897 0.8509028 -0.24132544
000130 65 50 b8 3f 69 fe e7 bd 17 85 04 bf 3d 81 e8 3f
       1.4399534 -0.11327822 -0.5176558 1.816444
000140 9b e8 24 3e 5c 47 17 3f 6a 4a a1 3f dd f1 46 be
       0.16104357 0.5909326 1.2600834 -0.19428201
000150 45 a3 fb bd b5 e3 b7 be 5d a5 f2 bd de 88 aa be
       -0.122870006 -0.35915914 -0.11847947 -0.33307546
000160 7a 1f 03 c0 42 ff 8a 3e 20 28 9e 40 75 ca 9d c0
       -2.0487962 0.2714787 4.942398 -4.930964
000170 f5 42 f0 3f fa 6e 03 bf 7f b7 65 bf 84 18 52 40
       1.8770434 -0.5134121 -0.8973312 3.2827463
000180 4e 9e d4 3e 05 50 a4 be 92 80 01 3f 26 ad ab bd
       0.41527027 -0.320923 0.5058681 -0.08382635
000190 7a ee 0d 3e fc 79 88 3f 41 92 a6 be a9 c7 ee 3e
       0.13860503 1.0662227 -0.32533458 0.46636704
0001a0 77 af 40 3f 55 ed a2 3e e2 ac c5 3f 1b 8b d5 3d
       0.7526774 0.31821695 1.5443385 0.10426923
0001b0 09 f5 f6 3d e2 fa c8 3c 6d d0 d3 3e 61 92 2e be
       0.120584555 0.024533693 0.41369954 -0.17048027
0001c0 bf 62 aa 3e 37 ee 55 3e 09 c9 20 3f a1 a4 22 3e
       0.33278462 0.20891653 0.62806755 0.15883113
0001d0 38 23 04 3c e9 fd a6 3d e8 4a 0c 3f 52 c0 b0 bd
       0.008065037 0.08153898 0.548018 -0.08630432
0001e0 1b 0a db 3e 53 30 d7 3d 26 d3 5b 3f 65 a0 7c be
       0.42781147 0.10507264 0.8586906 -0.2467056
0001f0 8b 99 2d 3f 50 83 b0 3d 84 0e b8 3e 45 3f 80 3e
       0.6781241 0.08618796 0.35948575 0.2504827
000200 6f 3e 68 3f da 59 17 3f 68 a9 d9 3d ec 0e 9d 3e
       0.90720266 0.5912148 0.10628015 0.30675447
000210 69 90 45 3f 92 92 05 be 54 39 72 3f 35 f7 38 bf
       0.7717348 -0.13044193 0.94618726 -0.7225221
000220 19 47 42 40 2c ae a2 bd 99 e7 35 3f f8 f2 4d 3f
       3.0355895 -0.07943377 0.71056515 0.80448866
000230 63 8b 14 40 34 cd 4f 3e f2 ab cc 3f aa 25 ac be
       2.3210075 0.20293123 1.5989974 -0.33622485
000240 72 26 b5 3e ac 11 86 bc 17 f7 ac 3e 1c ba 8e 3d
       0.35380894 -0.016365848 0.33782265 0.06969091
000250 09 99 94 3e 23 f9 7d 3d ee e7 19 3f 2a 48 83 bb
       0.29023007 0.062005173 0.6011952 -0.0040064054
000260 a7 13 aa 3e eb b4 d9 3d db 87 76 bd b8 bd c0 3e
       0.3321812 0.106302105 -0.060188156 0.37644744
000270 0b 4b 8d 3e 10 b2 c5 bd 53 4e ad 3e 54 4c af 3e
       0.27596316 -0.09653103 0.3384882 0.3423792
000280 f2 0f 36 3e 54 a8 47 3e 04 12 5c be e7 32 48 be
       0.1777952 0.19497806 -0.21491247 -0.19550668
000290 42 e5 65 3e 5d be 81 3d e5 04 19 3f 7e e6 a0 3d
       0.22450736 0.06335137 0.59773093 0.07856463
0002a0 b5 79 9b bc ca d9 ac 3d d1 70 01 3e a0 3d 0b 3e
       -0.018978933 0.084399775 0.12640692 0.13597727
0002b0 c8 b3 95 3f b3 b1 5d be f8 f2 89 be 15 6a ac 3f
       1.169549 -0.21649818 -0.26943183 1.3469874
0002c0 76 eb 73 3f d1 d8 62 3d d4 69 49 3e af ac 75 3f
       0.9528116 0.055382553 0.19669276 0.9596662
0002d0 cd 3d 1c 3f 74 2f 42 bd 45 5b ef 3e 9f 5b 2e be
       0.610318 -0.047408536 0.4674932 -0.17027138
0002e0 47 37 80 3e ba 11 23 3e ab fa a4 be a2 31 b7 3f
       0.25042173 0.15924731 -0.32222494 1.4312022
0002f0 80 f0 16 be 85 34 04 3f 69 69 38 3f 3b e8 50 3e
       -0.14740181 0.5164264 0.72035843 0.20401089
000300 82 ee e3 3f 32 b5 6a bc be bb b3 3f 33 f4 47 bc
       1.7807162 -0.014325427 1.4041669 -0.012204218
000310 28 0a f3 3e 92 8a fd 3d 0c ae 26 3e 61 94 13 bd
       0.47468686 0.12379946 0.16277331 -0.036030177
000320 35 6f 5f 3f 15 2a ed 3e bf 89 63 3d 57 c2 24 3e
       0.87279063 0.4632117 0.055551287 0.1608976
000330 5f d9 da 3e bb 0a 69 3e 40 fc 59 3f 8f c7 e7 bc
       0.42743966 0.22758 0.8515053 -0.0282934
000340 d4 3e e7 3e 59 42 03 be 8e 69 00 3e bf bc 5a 3e
       0.45165122 -0.12818278 0.12540266 0.21361063
000350 50 d1 17 3f 79 56 90 3e f7 5f 2b 3b 0f 8f ec 3e
       0.5930376 0.28190973 0.0026149729 0.46202895
000360 b3 9b 55 3e db 8c c3 bc b9 44 60 3e 06 5f be bd
       0.20860176 -0.023870876 0.21901216 -0.09295468
000370 8d d7 b6 3e 9d ef 62 3e 06 27 33 3f 35 24 58 3f
       0.35711327 0.22161718 0.6998142 0.8443025
000380 bf d1 25 3f f0 35 a8 bd 06 7a f3 3e 7a a6 81 3e
       0.6477317 -0.08213413 0.47554034 0.25322324
000390 20 39 bf 3e 90 2d 5c be d6 73 2b 3f 96 19 0e be
       0.3734827 -0.21501756 0.66973627 -0.13876948
0003a0 59 bd 5c 3f 29 ae b7 3e 22 e5 20 3e 2e af 8b 3f
       0.8622642 0.3587506 0.15712407 1.0912836
0003b0 f2 bc 95 3e 77 f5 84 3e 4a cc ab 3e 8f e5 45 3f
       0.29245716 0.25968525 0.33554298 0.77303404
0003c0 46 85 2b 3f b4 3b c5 be db ab 2b 3f d0 e6 aa bf
       0.67000234 -0.38522112 0.67059106 -1.3351688
0003d0 b1 ac e5 be fe 3e 9d 3e 7c 32 06 40 c6 02 39 40
       -0.44858316 0.30712122 2.0968313 2.8907943
0003e0 50 eb 5c bf 79 c4 22 3f ac 2c bb bf 35 78 a0 3e
       -0.8629656 0.63581043 -1.4623008 0.3134171
0003f0 6d f6 d2 3b ca b4 10 bc 39 38 3f 3e eb 76 17 3d
       0.0064380676 -0.008832166 0.18673791 0.036978643

layer2.0.bias f4 [256]
000000 9b 28 03 c0 05 2e 25 c1 e8 ba 04 be 39 d4 ac bf
       -2.0493534 -10.323735 -0.12961924 -1.3502265
000010 77 49 9c bc 39 a1 e9 bf 5f 39 a7 bf cc a3 26 c2
       -0.019078 -1.8252326 -1.3064383 -41.659958
000020 2b 7e b8 c0 d4 51 c0 bd 8c 3e a3 be 25 9e 36 40
       -5.7654014 -0.093906075 -0.31883657 2.8534024
000030 1d f5 c6 be 1f 13 1b bf 4e 80 cf 3f c0 e6 34 40
       -0.38858882 -0.6057605 1.621103 2.8265839
000040 5d f2 1e c0 80 97 34 bf bb ec 10 3f 1a 14 dd be
       -2.4835427 -0.7054367 0.5661122 -0.431794
000050 96 57 6f 42 65 37 c4 bf 6c 2f 86 c1 6e fe 10 bf
       59.835533 -1.5329405 -16.773155 -0.5663823
000060 b9 0d f0 3f bf 0e 2c c0 ef fa 96 c1 44 2c 17 c2
       1.8754188 -2.6884 -18.872526 -37.79323
000070 88 55 4c bf 02 8d ff bc e2 ba 44 41 e8 35 7b 40
       -0.7981801 -0.031195167 12.295626 3.9251652
000080 46 32 3b 40 04 98 b6 42 12 de 9a be 39 7f 79 bf
       2.9249434 91.296906 -0.3024755 -0.9745975
000090 d5 1d 71 3e 15 ff c3 3d 7f 3c ae c0 2b 82 6b be
       0.23546536 0.095701374 -5.444885 -0.22998874
0000a0 83 01 2a 3e 3e f6 08 c0 66 c7 2e c0 ce 01 5f c1
       0.16602139 -2.1400294 -2.7309203 -13.937941
0000b0 cc c8 c8 be 47 d5 1e bf 1a f0 05 40 51 f5 0c c0
       -0.39215696 -0.62044185 2.0927796 -2.202473
0000c0 e9 f8 c6 bd 3e 8a 7e bf 2e bc 0d 40 ea 90 ee c1
       -0.097154446 -0.9942969 2.2146106 -29.820759
0000d0 38 e1 5f bf f8 64 3e bf 01 cd d5 be a7 4f 03 c0
       -0.8745303 -0.74372816 -0.41757968 -2.0517366
0000e0 15 f3 09 c1 0a 0d 37 bf e8 bb 6e 40 33 28 d3 bf
       -8.621846 -0.7150427 3.730219 -1.6496643
0000f0 a7 2d 81 c1 2a 21 2a be ca 03 26 c1 4b a3 96 42
       -16.147291 -0.16614214 -10.375925 75.31893
000100 62 a1 19 3d ea a9 f9 40 a5 60 8a 3e 5d 53 02 40
       0.037507422 7.8019915 0.2702686 2.036338
000110 12 eb 50 41 1a 92 d4 c1 d8 6e 51 3f 0f 28 59 bf
       13.05739 -26.571339 0.8180976 -0.8482675
000120 6f 1c f5 be 39 6c 3d bd a8 75 02 c1 fe 60 21 bf
       -0.47873256 -0.046245787 -8.153725 -0.63038623
000130 ce 77 9d 41 70 18 60 42 1f 8a 50 3f 6d cc c8 bf
       19.683498 56.023865 0.81460756 -1.5687386
000140 2c 55 8e 3d 16 d4 c2 3e 8a d7 1d c0 9c 12 0e 41
       0.06949839 0.38052434 -2.4662805 8.879543
000150 00 e2 a5 be c4 93 af bf 22 e1 1c 40 4e d2 97 3e
       -0.32398987 -1.371697 2.451241 0.29652637
000160 35 6f 33 40 6a 5c c7 be 4e 6a 28 bf 12 43 65 bf
       2.8036625 -0.38937694 -0.6578721 -0.89555466
000170 66 55 e0 be 86 1c 07 bf c6 0a 8e c0 86 d7 14 bf
       -0.43815154 -0.527779 -4.438815 -0.5814136
000180 e6 81 89 3f 1f 36 25 bf f5 89 43 3f a0 cf 15 3e
       1.0742767 -0.6453571 0.7638238 0.14629984
000190 25 ee af bf 8a fb ad c0 db 85 01 40 f8 11 01 3f
       -1.3744551 -5.4369555 2.023795 0.50418043
0001a0 ee ea 74 bf d1 37 a5 bf b3 67 df bf 92 d5 cc c1
       -0.95670974 -1.2907659 -1.7453521 -25.604282
0001b0 38 87 ce bf 3a 0a d6 bf fe 85 89 c0 61 3f 3a be
       -1.6135015 -1.6721871 -4.2976065 -0.1818824
0001c0 86 1f 1b 41 9b 4e c4 c1 91 c7 88 bf 6e 37 bb 3f
       9.695196 -24.538382 -1.0685903 1.4626291
0001d0 29 c9 74 bf 8d 48 24 bf f7 28 62 c0 eb 1c 96 bf
       -0.95619446 -0.64173204 -3.5337503 -1.1727575
0001e0 08 b0 fb bd e5 8f a8 bf 77 fa 9f be 93 7b 82 bf
       -0.12289435 -1.3168913 -0.31245777 -1.0193962
0001f0 d2 a2 01 c0 d3 39 93 3d f7 fd bd 3c 4c e3 27 be
       -2.0255628 0.071887635 0.023192389 -0.163953
000200 a7 5a a9 be 2c ed 6d 3f f3 c8 5a bb 8c 1b 57 bf
       -0.33076975 0.9294002 -0.0033383935 -0.8402641
000210 9a ed c8 be fb 96 e3 40 0b 1e 60 be 87 44 1c c0
       -0.39243776 7.11218 -0.2188646 -2.4416826
000220 43 59 97 3f a8 b3 9e 42 3b e1 72 3f eb 4b 16 41
       1.1824116 79.35089 0.94874924 9.393535
000230 c1 79 19 3f 9f 32 b7 3e e9 c1 db bf 42 5b 15 be
       0.59951407 0.35780808 -1.7168552 -0.14585593
000240 b9 8e ad be 84 21 f2 bf b3 59 a0 c0 52 c6 a1 42
       -0.3389795 -1.8916478 -5.0109496 80.887344
000250 10 fb 37 bf 13 7d b8 c0 ac 44 aa 42 e8 db cd bf
       -0.71867466 -5.765268 85.134125 -1.6082735
000260 03 7d af 3f 75 d7 df 3e fd 3d 76 bf 39 37 90 bf
       1.3710026 0.43719068 -0.96188337 -1.1266853
000270 f3 70 c6 40 c9 a1 28 c0 89 93 f2 3f 3c 35 b3 be
       6.2012877 -2.6348746 1.8951274 -0.35001552
000280 0e 8f a8 42 63 e2 e9 be 4e c0 8c bf f8 3c d7 bf
       84.2794 -0.45680532 -1.0996187 -1.6815481
000290 21 4e 0a 3d 4e c1 7d bd 93 88 f0 40 b8 bf 0d 40
       0.033765916 -0.061951928 7.5166717 2.2148266
0002a0 f7 44 da bf 9f 2c 36 be fb 32 28 c0 46 e2 5e 40
       -1.7052296 -0.17790459 -2.6281116 3.4825606
0002b0 9f b4 79 40 fa b2 21 c0 62 5c 29 3f c2 76 81 42
       3.9016492 -2.5265489 0.6615659 64.73195
0002c0 89 63 07 bf e3 d1 0a 3f d0 ca 86 be 79 98 e3 40
       -0.52886254 0.5422651 -0.2632661 7.1123624
0002d0 88 c7 20 3f 37 8a 33 c0 1d 66 16 40 ab 39 55 41
       0.6280446 -2.805311 2.3499825 13.326579
0002e0 0e 5b d0 41 06 44 e0 40 9b a2 c1 3e 43 e9 85 3e
       26.04446 7.0083036 0.3781937 0.26154527
0002f0 87 39 70 3c 06 8c f2 be 70 ca 37 3e ac bb 07 bf
       0.014662153 -0.47372454 0.17948318 -0.5302074
000300 bf 17 94 3e f7 fe d4 3f fa 28 bf c0 8f 29 f7 c1
       0.28924367 1.6640309 -5.973752 -30.895292
000310 e0 50 84 be 9d 7b 2c 3f 0b f1 15 c2 3d 86 5e c0
       -0.25842953 0.6737612 -37.485394 -3.4769433
000320 ee 8e 5b 3f 7d df fe be 81 7f 6e c0 21 e0 a4 3d
       0.8576497 -0.49779883 -3.7265322 0.08050562
000330 b0 57 00 c0 dc f6 73 40 7d 98 56 bf 17 a4 5a c0
       -2.005352 3.811942 -0.8382643 -3.4162652
000340 4c fb 1f 41 b0 d3 02 c0 a7 08 b8 3f 73 bc 64 3d
       9.998852 -2.0441704 1.437764 0.05584378
000350 26 a6 07 c2 50 ea 12 c2 47 73 1b c0 5d 3c ed 40
       -33.912254 -36.72882 -2.428911 7.4136186
000360 c4 bc 55 40 32 7b c8 bf 4b b8 29 be bd 87 eb be
       3.3396463 -1.5662596 -0.16574208 -0.46001998
000370 4b 62 13 c0 e8 ce 88 c1 a1 22 08 3d 0a b7 2f c0
       -2.3028743 -17.101028 0.03323615 -2.7455468
000380 28 6a 10 bf 12 91 a4 3f 2c 28 15 3f 2f bc 84 bf
       -0.5641198 1.2856772 0.5826442 -1.0369929
000390 cc 09 40 c0 f8 17 98 3f 7c 05 59 c2 a1 53 ba 40
       -3.000598 1.1882315 -54.255356 5.8227086
0003a0 a6 4a cc bf c1 1b a9 3e d1 4e a5 3f 4c 7d 1f c1
       -1.5960281 0.33028987 1.2914678 -9.96809
0003b0 a6 79 7b bf 43 5f 14 3f 05 11 98 bf fa 14 18 40
       -0.98232496 0.5795786 -1.1880194 2.3762803
0003c0 e2 39 a3 c1 e1 be 48 c1 a2 70 bd bf 9d a0 91 3f
       -20.403263 -12.546601 -1.4799998 1.137714
0003d0 5d 3b 8f 3f d0 a5 60 bd ff 8d 6d c0 14 45 31 c0
       1.1189991 -0.05484563 -3.7117918 -2.7698412
0003e0 ca 1d 99 bf 52 32 40 c0 dd 61 aa be 75 75 59 42
       -1.1962216 -3.0030713 -0.3327779 54.364704
0003f0 e9 da ca bf 39 57 b1 be 0f 4a 44 42 b3 ec 46 c0
       -1.5848056 -0.34636858 49.072323 -3.108197

layer2.2.weight f4 [256, 256]
000000 d0 a7 3b bc dc 29 ab 3c 80 8a 45 3b 0b 02 16 bd
       -0.011453584 0.020893984 0.0030142367 -0.036623042
000010 4c 1a 08 bd 21 24 5a 3b 8f c5 b9 bd 98 42 9a bc
       -0.033228204 0.0033285695 -0.090708844 -0.018830582
000020 ba bb 2e bd e4 64 1f bd 48 2f 5c 3c dd 3a 81 bd
       -0.0426595 -0.038914576 0.013439007 -0.063100554
000030 b2 6a 28 3d 8c ff e7 bc e8 76 76 bd 48 e9 f8 bc
       0.041117378 -0.028320096 -0.06017199 -0.030384675
000040 8a 69 22 bd f0 02 d8 3c bc ce 8d 3c 80 2e ae 3c
       -0.03965143 0.026368588 0.017310493 0.021262407
000050 66 be 4d 3d ce 61 07 bb b4 ff 41 ba b7 27 1a bd
       0.050230406 -0.0020657661 -0.00074004685 -0.03763553
000060 d8 92 2d bd 1d 33 f7 3c 1c d8 79 bc 46 4a 69 bd
       -0.04237637 0.03017574 -0.015249278 -0.0569556
000070 5b aa 98 bd a0 a5 45 bd d4 7e 51 bd 1b ba f0 bc
       -0.07454368 -0.048253655 -0.051146343 -0.029385617
000080 f6 40 33 bc 46 80 0f bd d6 50 04 bc 08 d9 98 3c
       -0.010940781 -0.03503444 -0.008075913 0.018658176
000090 98 0b e9 bc 1a c4 26 bd a8 ad 31 bc 56 f8 30 bd
       -0.028447911 -0.04071436 -0.0108446255 -0.04320558
0000a0 30 22 78 bd 51 1e 1e bd 38 80 b3 bd 53 4a 4c bc
       -0.06057948 -0.03860313 -0.0876469 -0.012468892
0000b0 8c 60 6f 3d 3b 9b 5b bd cc 51 2b bd 68 2a 4d bd
       0.058441684 -0.053614836 -0.041826054 -0.05008927
0000c0 1c a1 18 bd 36 2e 16 bb 11 97 50 bd a6 7a 3c bd
       -0.03726302 -0.0022915727 -0.05092532 -0.046015404
0000d0 54 34 a9 bc 34 8e 1d bd 37 29 b5 bc b6 5f 2e bd
       -0.020654835 -0.038465694 -0.02211438 -0.042571746
0000e0 10 52 79 bd b6 f1 22 bd a2 b1 1f bd ce 02 4c 3d
       -0.060869277 -0.039781295 -0.038987763 0.049807362
0000f0 ac e0 76 bd 40 dc ff bb 8d a4 cf bc 8c 1e b1 bd
       -0.060272858 -0.0078082383 -0.025347019 -0.086484045
000100 ac 19 28 bd c2 7e 31 bd 58 75 2d bb be 7d 67 3d
       -0.041040108 -0.043333776 -0.0026467647 0.0565164
000110 41 a4 e3 3c b7 e3 d9 bd f4 7f aa bd fc e7 40 bc
       0.027788283 -0.10639136 -0.08325186 -0.011774059
000120 40 da 43 bd b8 84 ed bc c0 a8 f2 bb 5c b1 0c bd
       -0.04781556 -0.02899395 -0.0074053705 -0.03434883
000130 af a8 7d bd db 3d f9 bc 98 75 ba bc d8 de ff bc
       -0.061928447 -0.030425003 -0.022761151 -0.03123419
000140 6a 93 27 bd 40 ef 8e 3b e4 1b f4 bc d8 57 30 bc
       -0.04091207 0.004362017 -0.029798456 -0.010763131
000150 70 34 23 bd 99 4c 47 3c 14 6c 7e bd 52 d7 35 bd
       -0.03984493 0.012164258 -0.06211479 -0.0443948
000160 18 aa 25 3d b4 ad 5f bd 04 47 43 3d 1c 35 cc bd
       0.040445417 -0.054609016 0.047675148 -0.09971067
000170 c4 f1 bc 3c 96 a2 7a bd f8 08 49 bc 54 bd 10 bd
       0.023064502 -0.06119021 -0.012270205 -0.035336807
000180 f8 eb 14 3d 92 67 8e bd 80 71 2d 3b ef ba 0e bd
       0.03635785 -0.06953348 0.0026465356 -0.034846243
000190 54 36 07 3c a0 27 57 bd c0 83 20 3c 24 26 9f 3c
       0.008252699 -0.052528024 0.009797037 0.019427367
0001a0 e1 c7 3d 39 3d 30 86 3c 36 3b 0a bd 0b 01 97 bd
       0.00018098905 0.016380424 -0.033747874 -0.07373246
0001b0 e5 bd cc bc 62 33 41 3d c1 e9 8f bd 20 ad 33 3b
       -0.024992893 0.047168143 -0.07027007 0.0027416423
0001c0 5c 0f 80 3a 17 44 ab 3c ec ba 93 3c 10 57 9c 3b
       0.0009770202 0.020906491 0.018033467 0.004771121
0001d0 24 27 34 3d 58 61 68 3c be 33 dc bc d2 ef 3d bd
       0.04398264 0.014183365 -0.026880141 -0.04637129
0001e0 58 93 54 bd b8 00 00 bc 8a 50 15 3d ae a3 ee bc
       -0.05189833 -0.007812671 0.03645376 -0.029130783
0001f0 38 f3 e5 bc 9a 38 3e bd 08 bb 27 bd 19 b7 96 bc
       -0.028070077 -0.0464407 -0.04094985 -0.018397855
000200 dc f3 a9 3c d6 38 35 3d 38 3a 93 3c d0 8f 24 3c
       0.020746164 0.044243656 0.017972097 0.010044053
000210 20 6e 3f 3d 1c cf 64 bd c0 74 c5 ba 6d 3c 61 bd
       0.046735883 -0.055861577 -0.0015064701 -0.054989267
000220 81 87 98 bd 6a f5 2d bd 28 6b f6 3a 84 97 5e bd
       -0.0744772 -0.042470373 0.0018800246 -0.054343715
000230 c0 87 89 bc c4 bf 70 3d 44 4b 7f 3d 6a 85 5e 3d
       -0.016788363 0.058776632 0.06232764 0.054326452
000240 00 e7 3a bb c8 3e b8 bc 60 2c e8 bc 14 4c 1c 3d
       -0.0028519034 -0.022490874 -0.028341472 0.03815849
000250 ed aa 44 bc 2c fe b0 bc f9 8c a1 bd 7c 03 85 3c
       -0.0120036425 -0.021605574 -0.078882165 0.016237013
000260 e7 e0 ce 3c d8 ea 58 3c 04 7a 40 bd e0 84 b4 3b
       0.025253726 0.013239585 -0.046991363 0.005509004
000270 37 2e 4e 3c a0 3c 5a bb 3c 5b be bc 8e ff a0 3c
       0.012584261 -0.0033300295 -0.023236863 0.019653108
000280 59 fb b1 bd 6c b7 36 bd a3 89 46 3b 14 16 15 bd
       -0.08690519 -0.04460852 0.003029444 -0.03639801
000290 16 23 2f 3d a8 72 ba 3c 4f 82 e1 3c 59 fb 19 bd
       0.04275807 0.02275975 0.027527956 -0.03759322
0002a0 38 0c 99 bc 2b bb 42 3c c5 cf 5c bc 9e b5 68 3d
       -0.018682584 0.011885445 -0.0134772705 0.05681383
0002b0 60 3e 4d 3b 98 06 95 bc 98 ae 56 3d 3f 25 99 bd
       0.0031317696 -0.01819162 0.0524126 -0.07477807
0002c0 86 44 32 bd 35 fa 78 bd a8 51 2c bc 1b 5b 7c bd
       -0.04352238 -0.06078549 -0.010517515 -0.061610322
0002d0 a7 6a 1c bd a5 c8 a0 bb ce 2d 2c bd f7 cf 89 bd
       -0.03818765 -0.004906731 -0.04203587 -0.06729119
0002e0 36 d9 d1 bc 1d da b2 bd 18 56 e6 bc 7c f6 71 3b
       -0.02561627 -0.08733008 -0.028117225 0.0036920598
0002f0 30 c7 7c 3c a4 d6 13 bd 3c 6c 1e bd 4a 92 74 bd
       0.015428349 -0.03609337 -0.03867744 -0.059709825
000300 fa 4b 96 3c 78 ca bb bb 18 72 af bd c8 29 9b bc
       0.018346775 -0.0057309233 -0.085666835 -0.018940821
000310 f8 d2 46 bc 98 3b 79 bd 70 58 e1 3b bc 31 52 3d
       -0.01213526 -0.06084785 0.0068769976 0.05131696
000320 d0 d3 31 bc b4 9c e6 bc 3c 0a a6 bc d4 a1 7a bd
       -0.010853723 -0.028150894 -0.020268552 -0.061189488
000330 a6 4c 2c 3c 84 00 5e bd d0 86 b9 bd 47 7a 9c 3b
       0.010516321 -0.05419971 -0.090589166 0.004775319
000340 f2 a5 0d 3d 98 60 27 bd 7c 77 da 3c 40 75 c6 bb
       0.034582086 -0.040863603 0.026668303 -0.0060564578
000350 14 fc d2 bd d6 db 04 be 2c fe 7a bd 18 68 7c bd
       -0.10301986 -0.12974486 -0.061277553 -0.06162271
000360 2e dd c1 3b fe 59 38 bd 6c b5 57 bd 84 68 43 bd
       0.0059162593 -0.0450077 -0.05266325 -0.047707096
000370 ae a1 7e bd 40 5e 85 bb b0 99 50 bd 34 7d 30 bd
       -0.06216591 -0.0040700734 -0.050927818 -0.043088153
000380 50 d7 8a 3b 0c 3c e4 3c 97 22 4d bd 2d 90 bd bd
       0.004237093 0.027860664 -0.050081816 -0.09256015
000390 b8 90 a3 bc 00 fc 59 ba 89 42 80 bd 6c 4d f5 3c
       -0.019966468 -0.0008315444 -0.062626906 0.029944144
0003a0 ce f2 63 bd b0 f6 5c bd be 51 5f 3d 09 a8 a2 bd
       -0.05565148 -0.053946197 0.054521315 -0.079422064
0003b0 e4 01 db 3c 50 09 c3 3c 01 ee 3a bd 9c 00 a7 bd
       0.0267343 0.023808151 -0.045637134 -0.08154413
0003c0 6e c8 92 bd 94 67 bb bc 68 4d be bd 0c 87 5f bd
       -0.07167135 -0.022876538 -0.09292108 -0.05457215
0003d0 26 21 75 bd e4 f8 fe 3c 20 b3 13 3b ed c4 26 bc
       -0.059846066 0.03112454 0.0022537187 -0.010178787
0003e0 47 ae a2 bd c0 b5 55 3d ec 2e dc 3c 68 fa 9a 3c
       -0.07943397 0.052175283 0.026877843 0.018918231
0003f0 38 0b b9 bd 5a b6 20 bd 20 7e 54 bb 25 6b e5 3c
       -0.09035343 -0.039236404 -0.003242381 0.028005192

layer2.2.bias f4 [256]
000000 cd 6a e9 bd 78 16 10 be 28 6f f8 40 f0 c0 6c be
       -0.11397324 -0.14071071 7.763569 -0.23120475
000010 50 0c 52 be f9 e0 2c be f9 cd 59 be 1d 64 99 be
       -0.2051251 -0.16882695 -0.21269979 -0.29959193
000020 13 e3 e6 bd 5b fd 10 bf 9e 0e d3 be 10 49 12 be
       -0.1127378 -0.5663659 -0.4122209 -0.14285684
000030 31 1e 10 be 7e ed fc bd b0 af 91 3d 3a 55 b7 be
       -0.14074017 -0.123499855 0.07113588 -0.3580721
000040 80 db aa bd 04 fd 7b 3e e2 82 74 bd 0f 39 57 be
       -0.083426476 0.24608237 -0.059695132 -0.2101786
000050 f6 a7 21 bf 3f 3f af 3f 7a 0b 8d be 40 43 92 be
       -0.63146913 1.3691176 -0.27547818 -0.28566933
000060 a3 47 28 be 99 e2 46 be 21 9b 90 be 3a f5 51 42
       -0.16433577 -0.19422378 -0.28243354 52.48948
000070 af 54 e0 3e 28 9c b7 be 61 f9 d8 3f 9e 5a d6 be
       0.43814608 -0.35861325 1.6951104 -0.4186601
000080 42 94 ec 3f 6d 30 c5 be 6a d9 05 3f 85 82 dd be
       1.8482745 -0.38513508 0.5228487 -0.4326364
000090 e6 9e 8f bb da 67 d9 3d c5 f5 10 be 99 02 b8 be
       -0.004382956 0.10615511 -0.14156254 -0.35939482
0000a0 e9 7a 82 bd de 88 6f be 8a 16 fd be db da 63 3f
       -0.063710995 -0.23392054 -0.49431258 0.8900582
0000b0 f4 09 e2 be 4d db 81 be 4d c6 62 3e 11 19 3e 3f
       -0.4414822 -0.25362626 0.22145958 0.74257
0000c0 e5 ae 7e be b2 f9 45 be bb 40 8d bc f2 e6 8b be
       -0.24871404 -0.19333532 -0.01724278 -0.27324635
0000d0 d4 75 b5 be 00 65 ce 3e 88 18 e8 bd d5 07 24 bd
       -0.35441458 0.40311432 -0.11332804 -0.04004653
0000e0 6e 13 fb be 25 0e 79 be 8f c1 7f 3e 83 af 7a be
       -0.4903826 -0.24321802 0.2497618 -0.24481015
0000f0 3e 06 17 be 92 67 96 be ed e0 40 be 0a 16 b5 bd
       -0.14748475 -0.29375893 -0.18835802 -0.08842094
000100 3a 10 52 be f3 7a 56 be f2 15 2e be fe ad eb be
       -0.20514002 -0.20945339 -0.17000559 -0.46031183
000110 b0 d3 22 be ef 4f 2b be 4b c4 98 be d4 17 a5 be
       -0.15901065 -0.16729711 -0.2983726 -0.32244742
000120 d2 d4 cd be 99 ab f7 3d e8 73 6c be 50 29 7e be
       -0.40201432 0.120932765 -0.2309109 -0.24820447
000130 0f e0 a1 3e da 18 09 3f 40 c7 70 be 9c 70 42 be
       0.31616256 0.53553545 -0.23513508 -0.1898827
000140 cd c8 83 be b4 83 c9 bd 82 cd 87 41 ae 67 b0 be
       -0.25739136 -0.098395735 16.975346 -0.344541
000150 d0 88 a2 be 9b 78 86 42 2c 19 4a be 5c 67 10 bf
       -0.31745005 67.23556 -0.19736165 -0.56407714
000160 41 30 50 be ec 33 e1 3e a8 5d de 3e 6d 8f c8 be
       -0.20330907 0.43984926 0.4343083 -0.39171925
000170 a0 82 9f bd fc c1 80 be c9 ba 8f 3b 34 e9 a2 bd
       -0.077885866 -0.25147998 0.00438628 -0.07954636
000180 a3 3f 90 bd 56 ec 8f 3d 47 30 03 be 9c ee 0c be
       -0.07043388 0.070274994 -0.12811385 -0.13762897
000190 20 7b b0 be 1c 80 b0 3e 95 09 9e be 9a 01 26 be
       -0.34468937 0.3447274 -0.30866686 -0.16211548
0001a0 1d 9e fa 3e c7 58 91 be c9 56 af 40 18 c0 49 bf
       0.48948756 -0.28388044 5.479344 -0.78808737
0001b0 0a d4 08 40 c4 c6 42 c1 46 8a 44 be 54 ec d1 be
       2.1379418 -12.173527 -0.19193372 -0.41000617
0001c0 8f 76 d2 3c ea dd 40 be 1e b9 87 be ca 99 79 be
       0.025691299 -0.18834653 -0.2650842 -0.24375072
0001d0 4a 19 70 41 ee 78 8c be 9b dd 64 be b0 2b 43 be
       15.006174 -0.27436012 -0.22350161 -0.19059634
0001e0 13 77 9d be 81 60 60 be b8 76 41 bd cf 3d 86 be
       -0.3075491 -0.21911813 -0.04723236 -0.2621903
0001f0 df f7 90 be f8 0e 8c be cd aa 99 be 9a 6f 63 be
       -0.2831411 -0.2735517 -0.30013123 -0.22210541
000200 79 9f 35 40 bd da 03 bd 35 c3 13 bd 89 bd 64 be
       2.8378584 -0.032191027 -0.036074836 -0.22337927
000210 98 cd 6d be f7 47 31 be 40 8e 89 be 44 a2 0f 3f
       -0.23222959 -0.17312609 -0.2686634 0.5610697
000220 3a d3 9b be 75 3c 64 bc 43 2f 9d be d5 b1 8c bd
       -0.3043459 -0.01393043 -0.3070012 -0.06869856
000230 fd 9a ae be 1b ec c7 be 63 c6 15 be 26 ec 09 40
       -0.34102622 -0.39047322 -0.1462646 2.1550384
000240 ea c3 9e be 1f 4b 6a 3f 3d 71 c9 be 1a 33 d3 be
       -0.31008846 0.91520876 -0.39344206 -0.41249925
000250 b6 02 95 be 95 62 6f bd ee f0 98 bd b3 32 a1 be
       -0.2910363 -0.058443625 -0.07467829 -0.31483993
000260 15 bc b1 bd f5 00 35 be 75 1e 6e be f0 aa 86 be
       -0.08678452 -0.17676146 -0.23253806 -0.2630229
000270 bf 98 7a be 73 cb ce bd 78 39 8e bf 9a f5 b3 3e
       -0.2447233 -0.100973986 -1.1111288 0.35148317
000280 47 ac 4c be fa a8 8a be 24 c8 0f 43 b9 7b 82 be
       -0.19987594 -0.27082044 143.7818 -0.25485018
000290 d5 9d 4e 3f 63 a4 42 be 32 a0 2b be 85 30 1c 42
       0.8070958 -0.19008021 -0.16760328 39.047382
0002a0 63 ff 81 be 14 d3 f6 3e de 4f 61 be 8c eb 14 3e
       -0.25390157 0.48207915 -0.22003123 0.14542979
0002b0 32 20 e5 bd ca c0 2c be 73 3b 9e be 34 2a 08 be
       -0.111877814 -0.16870418 -0.3090473 -0.13297349
0002c0 2f 43 7c be 09 35 55 be 21 fe 0b be 08 1c 80 be
       -0.24635004 -0.20821013 -0.13671161 -0.25021386
0002d0 2d 1f 38 3f bc 33 95 be b5 fd 23 be da b7 12 be
       0.7192257 -0.29141033 -0.1601475 -0.14327946
0002e0 f3 36 47 42 47 df b2 be 14 b4 3b be ba 2b 41 be
       49.80366 -0.34935972 -0.18330413 -0.18864337
0002f0 88 40 88 bc 02 1b db be 22 1f 77 be 62 10 06 bf
       -0.016632333 -0.42794043 -0.2413297 -0.5236875
000300 fc 38 17 3f 56 53 a7 bd b0 23 1f 3f 2d 89 96 be
       0.59071326 -0.08170192 0.6216383 -0.29401532
000310 3a 31 b0 3e 29 53 2b be ea 6a 60 bd 2f 87 e8 3c
       0.34412557 -0.16730942 -0.05478946 0.028384773
000320 9f 8d 9b be 10 3d 35 be 37 7e e6 41 4f 40 82 3f
       -0.30381486 -0.17699075 28.811628 1.0175875
000330 95 b1 8e bd d1 b8 cf bd d4 5c ba bc a5 a3 66 be
       -0.06967465 -0.10142673 -0.022749342 -0.22523363
000340 01 63 4b be c7 93 47 bf 10 fd 88 bd 1b 47 50 be
       -0.19861986 -0.77959865 -0.06688893 -0.20339625
000350 03 be e4 3d e8 f2 ab 3c 89 9b 75 3f 6d 07 a1 3e
       0.11169054 0.02098985 0.9594045 0.31450978
000360 f4 e1 1d be 57 49 a3 be 8b ed ee bd fe 03 11 3d
       -0.15418226 -0.3189189 -0.116664015 0.035404198
000370 c3 b7 9e be 85 95 6f be 25 ee ab be 0a de de bd
       -0.30999574 -0.23396881 -0.33580127 -0.10882194
000380 dc 40 80 3e 0a a1 9b be 23 59 18 be 5d 6e d9 be
       0.25049484 -0.303963 -0.14877753 -0.42467013
000390 63 23 2f 3f cd 69 ff 3e f3 5c 80 be 15 1f ff 40
       0.6841337 0.49885407 -0.25070915 7.972544
0003a0 d6 47 6a be 19 43 ba be c6 5b be 3e 35 df a9 be
       -0.22878966 -0.36379316 0.37179393 -0.33178106
0003b0 6c 6c df bd cc e6 43 be f6 a9 88 be 4e 12 9f 3d
       -0.10909352 -0.19131011 -0.2669217 0.07767163
0003c0 38 13 cf be 86 0c a5 be b0 32 01 40 a5 68 49 c0
       -0.4044435 -0.32236117 2.0187187 -3.147012
0003d0 04 d2 53 be 86 bb 8a bd 88 cb 05 40 7b 1c 83 be
       -0.20685583 -0.067740485 2.0905476 -0.25607666
0003e0 49 d3 04 be a5 b7 d0 be 5b 6b d0 bc 7b 93 d4 be
       -0.12971224 -0.4076511 -0.025441816 -0.4151877
0003f0 98 41 fa 3e ee 8d c1 bd 2e 4e 4c 3f f8 9c 1a bf
       0.4887817 -0.09450899 0.7980679 -0.60395765

layer2.4.weight f4 [1, 256]
000000 30 9e 85 ba ff a0 89 bc ee d8 d4 bc e4 16 e1 bb
       -0.0010194238 -0.016800402 -0.025982346 -0.006869184
000010 fa c1 f2 bc 7c 03 10 3c 74 fc 3b 3a 44 d2 2a bc
       -0.02963351 0.008789893 0.00071711023 -0.010426108
000020 31 3e ec 3c 1b 53 bf bc ff 2b ad bc fd 32 e2 bc
       0.028838249 -0.023355057 -0.021139143 -0.027612204
000030 ec 1e 0d 3c 68 fd 86 bc 81 00 d3 bb 60 af 74 bd
       0.008613329 -0.016478255 -0.006439269 -0.059737563
000040 72 0c 01 bc d1 b2 ba 3c 92 df 35 bc 6c ad 58 3b
       -0.007876502 0.022790344 -0.011100667 0.0033062352
000050 5e a6 2b 3d 88 b0 48 3d 73 39 ad bc 2a 47 85 bc
       0.041906707 0.04899648 -0.021145558 -0.016269285
000060 9a 7d f1 bc b3 a7 ab 3c 5f bf f1 3c 06 18 46 3d
       -0.029478837 0.020953989 0.029510198 0.048362754
000070 32 73 e5 bc bd 62 15 bc 85 f9 bf bb 88 dd f4 bc
       -0.028009031 -0.009117779 -0.0058586025 -0.02989079
000080 fa 24 f3 3b 9b 24 a1 bc 26 25 63 3b ad 17 0d 3c
       0.0074201794 -0.019670775 0.0034659593 0.008611602
000090 e3 0d d1 bc 3d 72 29 bc b4 e3 ed bc fa c8 db 3c
       -0.025519317 -0.010342178 -0.029039241 0.026829232
0000a0 84 d9 c9 3c 08 48 c5 bc 3d 4a d7 3b 7c 03 eb bc
       0.024639852 -0.024082199 0.006570129 -0.028688185
0000b0 b2 f9 b6 3c 4c 11 2a bc 96 10 e4 bc 87 3f ed bc
       0.02233586 -0.0103801 -0.02783994 -0.028960956
0000c0 8c d8 9b bc 37 e8 bf 3c 6e 09 c5 3b 9a cf b2 3c
       -0.019024156 0.023426158 0.006013087 0.021827508
0000d0 5c 3d d1 ba 4a fd 2a bd 63 68 d4 3c 0c 02 3b bd
       -0.0015963721 -0.04174546 0.025928682 -0.04565625
0000e0 6a 8c bd bb 34 a3 1e 3c fe b9 1c 3d 3b d4 a2 3c
       -0.005784561 0.009682465 0.038263313 0.01987659
0000f0 3f 44 92 bc cb 37 4d bc 23 49 29 bc b6 cc 89 bc
       -0.017854808 -0.012525509 -0.010332379 -0.016821247
000100 0c 5c 7d bb 4a 9d 5e 3a 99 02 f0 3c f6 93 b0 3c
       -0.00386596 0.0008492066 0.029298114 0.021554928
000110 9a 97 e3 39 35 d6 e6 bc dc d6 9c 3c fb 29 ba 3b
       0.00043409766 -0.028178314 0.019145422 0.005681274
000120 6a 6a db 3c 36 11 bc 3c 7d 18 86 3b 34 0b 23 bc
       0.02678414 0.022957426 0.0040922747 -0.0099514015
000130 1f 0c bc bc 73 e1 a4 3b 3a a6 7e bd 65 a3 3c 3b
       -0.022954999 0.0050317585 -0.062170245 0.0028783914
000140 53 77 3a ba df 4a 9c bc 95 ed ab bc 12 66 b7 bc
       -0.00071131176 -0.01907867 -0.020987311 -0.022387538
000150 75 16 5e bb 32 c7 3a 3d 90 29 21 3c f1 1d eb bb
       -0.0033887897 0.045600124 0.009836569 -0.0071752
000160 28 54 9e bc df 50 14 3d a8 c9 9b 3a 9f 76 32 3c
       -0.019327238 0.036209937 0.001188566 0.010892539
000170 24 5f be bb 80 86 58 bc e1 73 66 bc e3 50 d7 bb
       -0.0058096815 -0.013215661 -0.014065714 -0.0065709217
000180 cb 44 a5 3c e7 ba b3 bc 12 44 d8 bc fe 82 4a bc
       0.020174405 -0.021939708 -0.026399646 -0.0123603325
000190 f9 22 8b ba 1f 4f 50 bd 29 9c e5 bc 36 93 ef bc
       -0.0010615281 -0.050856706 -0.028028565 -0.029245
0001a0 07 aa 1b 3a 2c e1 70 3c a7 c4 10 3d ca ca 2c bc
       0.0005938117 0.014702123 0.035343792 -0.010546396
0001b0 b9 6f d6 bc 81 73 59 be a5 df dd bc 47 3f 8a 3c
       -0.02617632 -0.21235467 -0.027084181 0.016875876
0001c0 93 16 79 3c 9f 39 c7 3b f7 02 dd 3c c3 ae 81 bd
       0.015203136 0.006079867 0.026978953 -0.06332161
0001d0 09 34 fa bc 57 e0 2f 3c c3 2a 11 3c 64 34 15 bd
       -0.03054239 0.010734639 0.008860293 -0.036426917
0001e0 5f 83 e9 bc 81 de 20 3c 58 c6 cd 3c b2 38 2b bc
       -0.028505025 0.009818674 0.025118992 -0.010450529
0001f0 26 52 8d bc b2 11 72 bd d0 fb 80 bc f9 88 aa 3c
       -0.017251085 -0.059098907 -0.015745074 0.020817267
000200 d4 1a dd bc 4b 38 59 bc 74 17 ea 3c e1 71 f0 bb
       -0.026990332 -0.01325805 0.028575636 -0.007337794
000210 32 6c a9 bc bb 70 29 3c 1b 77 c5 3c 0d a9 ba bc
       -0.020681474 0.010341818 0.024104645 -0.022785688
000220 1b 2c 5a 3c dd 64 24 3c d1 a4 d8 3c 0d 38 c1 bc
       0.01331618 0.010033813 0.026445778 -0.023586297
000230 e3 09 c5 bb c9 11 c9 3c 13 97 63 bc fd 3a 39 3c
       -0.0060131415 0.024544613 -0.013890999 0.011305568
000240 bc ec 85 3c 01 73 03 3c b7 41 97 bd f6 20 8d bc
       0.016348235 0.008023025 -0.07385581 -0.017227631
000250 5e 9e c7 bc 51 f2 27 bc e7 92 40 bd 6c de 70 bc
       -0.024367508 -0.010250644 -0.047015097 -0.014701467
000260 b1 c0 75 bd 2c ea ed bb 95 52 18 3c 25 00 8f bb
       -0.059998218 -0.0072605815 0.009297033 -0.004364031
000270 ff ed ee bc d2 30 31 bb b3 2a b2 3c 92 b0 4f bc
       -0.02916622 -0.0027037156 0.021748876 -0.012676375
000280 f8 69 05 bd 9e 3d 47 bc 01 8d 26 3e f1 29 f7 bc
       -0.032571763 -0.012160687 0.16264726 -0.030171366
000290 01 6b 90 bd cf 3c 69 bc 5e f7 c9 bc b3 53 5e bc
       -0.070516594 -0.014235689 -0.024654087 -0.01356976
0002a0 95 a0 86 bb 8b 90 53 bc 3f e8 49 3c 37 1f a8 bc
       -0.0041084983 -0.01291288 0.012323438 -0.020522697
0002b0 42 8f 7b 3b 76 6f cf 3a 00 b7 59 bc 15 f7 dc bc
       0.003838495 0.0015826065 -0.0132882595 -0.026973287
0002c0 2c fb fc 3c ce 30 61 bd 9a b4 48 3a e7 a7 71 3c
       0.030881487 -0.054978184 0.0007656306 0.014749504
0002d0 13 93 12 bd a4 87 b0 b8 1e aa c6 bc 3d 3e 68 3b
       -0.035784792 -8.417599e-05 -0.02425104 0.0035437488
0002e0 c0 c7 07 3e a1 03 83 bc 71 5c c0 3c 04 e7 d0 3b
       0.13259792 -0.015992941 0.02348158 0.0063751955
0002f0 08 8a e1 3d 01 77 1f 3c e4 ad 76 3c 3f b8 82 3c
       0.110126555 0.009732963 0.015056107 0.015956996
000300 24 ce 5b bd f7 93 8a bb fc bb a0 bc 92 89 b5 3c
       -0.053663388 -0.0042290646 -0.019620888 0.022160325
000310 f8 db 28 bc 56 26 ba bd ff 24 09 bd f5 5d a4 bc
       -0.010306351 -0.09089343 -0.033482548 -0.020064333
000320 37 4c e2 3c 5d e1 53 3b 7c b6 c4 3c f0 6a e8 bc
       0.027624233 0.0032330372 0.024012797 -0.028371304
000330 09 5f dc 3c 0b ac a6 3c e6 96 e2 3c 54 86 3d bd
       0.026900785 0.020345708 0.027659845 -0.046270683
000340 30 b8 07 bc 84 d4 ef bc 10 ff ba 3c ea 49 fa bc
       -0.00828366 -0.02927614 0.022826701 -0.030552823
000350 b6 9b 7b bd f3 1c e2 3a e5 0b 97 3c 31 62 21 3e
       -0.061427794 0.0017251059 0.018438289 0.15760113
000360 5a c4 6c 3b ea eb 36 3c 77 73 52 3c 89 89 59 bd
       0.0036127777 0.011164645 0.012844912 -0.05310968
000370 4a 46 9e bc ab ee 43 3b 1e 20 9d 3c 61 43 eb 3c
       -0.019320626 0.0029896896 0.019180354 0.028718652
000380 80 df 62 bc 4c 17 c5 3c c3 2d 47 bb 0b 55 b3 ba
       -0.013847232 0.02405896 -0.0030392266 -0.0013681961
000390 20 e1 b2 bc 96 b3 87 bd 03 f0 6d bd fe 47 b4 3d
       -0.021835864 -0.0662605 -0.05809022 0.08802794
0003a0 f1 16 48 bd bb 60 f7 bc 69 bb 62 ba 2f b3 ce ba
       -0.048850004 -0.030197492 -0.0008649142 -0.0015769954
0003b0 dc 32 eb 3b 03 0a 47 bc 70 a4 9d ba 31 33 21 3b
       0.007177694 -0.012148383 -0.0012027156 0.0024597163
0003c0 34 36 37 bd 58 0e c9 3c 41 18 22 3e 4f f6 1e be
       -0.044729427 0.024542972 0.15829565 -0.15523647
0003d0 c9 0a 41 bd dc a3 df 3b 2b 4a 6b bd 60 41 e0 bc
       -0.047129426 0.0068249535 -0.05744378 -0.027374923
0003e0 d8 52 d6 bc 80 dd 72 bc 6c a9 35 bc cb 89 2c bd
       -0.02616255 -0.0148233175 -0.011087757 -0.042123597
0003f0 5d 58 a5 3c 2b b9 1f bd 9e db 00 3c e5 14 06 bd
       0.020183736 -0.03899495 0.007864861 -0.03273477
